ldpi/training/output/ResCNN/best_model_with_center.pth (torch, 711778 bytes, 64 tensors)

encoder.block1.convblock1.0.depthwise_conv.weight f4 [1, 1, 7]
0.19763167 2.066577 0.072917745 0.2015432 0.011168703 0.020679701 -0.021904241
00000000: f55f 4a3e cc42 0440 e655 953d 5761 4e3e
00000010: f0fc 363c 7a68 a93c 8670 b3bc

encoder.block1.convblock1.0.pointwise_conv.weight f4 [64, 1, 1]
0.03654831 -0.034163047 0.042236388 0.03248707 -0.01150763 -0.05173168 -0.04148361 -0.020279136
-0.0003131349 -0.05148341 0.020831946 -0.039984476 -0.040095076 0.021140387 0.04173414 0.032400347
-0.034656096 -0.04378069 -0.03247957 -0.03813732 0.02688764 0.029142419 0.028333047 -0.025126873
0.044370037 0.029030496 -0.052914258 0.04987642 -0.04526544 0.012305262 0.013686884 -0.015057786
-0.004584059 0.041666448 0.029221637 0.02576148 -0.027145619 -0.044189256 0.044397395 0.036923032
0.020807538 -0.031694848 -0.02147544 -0.04555949 0.034174412 0.04113334 0.03010949 0.03717473
-0.008425067 0.018937806 -0.028390957 -0.04095052 0.022672297 0.037766572 0.030384919 -0.007294984
-0.02123474 0.023330176 0.0029421037 0.012907494 -0.022744613 -0.024889862 0.03379094 -0.008699033
00000000: aeb3 153d 8dee 0bbd 1000 2d3d 2911 053d
00000010: 808a 3cbc 99e4 53bd b8ea 29bd 6e20 a6bc
00000020: 412c a4b9 45e0 52bd c2a7 aa3c c3c6 23bd
00000030: bc3a 24bd 9b2e ad3c 6bf1 2a3d 3ab6 043d
00000040: 8df3 0dbd 6153 33bd 4c09 05bd e135 1cbd
00000050: 7843 dc3c 15bc ee3c b51a e83c dfd6 cdbc
00000060: 5bbd 353d 5dd1 ed3c 9fbc 58bd 384b 4c3d
00000070: 4168 39bd 029c 493c f43e 603c efb4 76bc
00000080: e035 96bb 70aa 2a3d 3762 ef3c bd09 d33c
00000090: 7d60 debc cbff 34bd 0bda 353d 9b3c 173d
000000a0: 9274 aa3c 75d2 01bd 43ed afbc 969c 3abd
000000b0: 78fa 0b3d 6f7b 283d 2da8 f63c 8844 183d
000000c0: 4b09 0abc 7523 9b3c 2794 e8bc bcbb 27bd
000000d0: 41bb b93c 1fb1 1a3d cbe9 f83c c30a efbb
000000e0: 7af4 adbc ed1e bf3c 4fd0 403b f479 533c
000000f0: e952 babc d3e5 cbbc 5e68 0a3d 6486 0ebc

encoder.block1.convblock1.1.weight f4 [64]
0.098123595 0.05892941 0.5551401 0.438768 0.10224186 0.74359524 0.5209486 0.053970445
0.1753868 0.70463663 0.07009115 0.26897207 0.33301336 0.1860589 0.38647917 0.3507267
0.12880594 0.5359806 0.22857416 0.2123147 0.07568863 0.15826315 0.11407921 0.06729574
0.6689797 0.1559428 0.6603688 0.5233803 0.49821216 0.08181979 0.085001536 0.08185558
0.04905998 0.4370415 0.07310527 0.16411778 0.4246787 0.2559481 0.42109695 0.42730755
0.15346634 0.6092702 0.15180005 0.4907092 0.19204724 0.4958226 0.29493222 0.35863832
0.11294949 0.18884979 0.049791157 0.4104441 0.12227761 0.10664635 -0.091831096 0.15365387
0.2469768 0.20632616 0.16927834 0.22825792 0.2231562 0.08019401 0.51583457 0.31663316
00000000: 06f5 c83d f75f 713d a91d 0e3f 33a6 e03e
00000010: 2e64 d13d 425c 3e3f e35c 053f 1d10 5d3d
00000020: 9998 333e 1163 343f f38b 8f3d b5b6 893e
00000030: ba80 aa3e 3986 3e3e 99e0 c53e 7392 b33e
00000040: b4e5 033e 0636 093f 580f 6a3e 0669 593e
00000050: a402 9b3d bc0f 223e 5ca2 e93d 59d2 893d
00000060: 4142 2b3f 78af 1f3e ee0d 293f 40fc 053f
00000070: aa15 ff3e 2291 a73d 4915 ae3d e6a3 a73d
00000080: 1ef3 483d e7c3 df3e 37b8 953d 7e0e 283e
00000090: 7d6f d93e a10b 833e 059a d73e 0ec8 da3e
000000a0: 4826 1d3e 22f9 1b3f 7971 1b3e 3c3e fb3e
000000b0: 08a8 443e 76dc fd3e 5b01 973e 719f b73e
000000c0: 1052 e73d d761 413e d0f1 4b3d bb25 d23e
000000d0: af6c fa3d 6769 da3d f111 bcbd 7157 1d3e
000000e0: 7ce7 7c3e 2a47 533e 4d57 2d3e 72bc 693e
000000f0: 0f83 643e c23c a43d bc0d 043f be1d a23e

encoder.block1.convblock1.1.bias f4 [64]
-0.3911667 -0.013886838 0.65123373 -0.24391757 -0.02503802 -0.23969533 0.14310788 -0.04594717
-0.030028077 0.23126835 0.2502341 -0.32452974 -0.5630289 -0.053501792 0.6223897 -0.10846587
0.2078506 -0.10469364 -0.0060408236 -0.23363172 0.79535156 -0.12233538 -0.1546689 0.020596059
0.038737874 0.04123351 0.29083085 0.21401732 -0.12449631 -0.106165946 -0.1837685 -0.023191258
-0.01096761 0.5034889 -0.082749985 -0.069618136 0.23994935 -0.10075825 -0.32684967 0.19333172
0.033238895 -0.42929593 0.02240877 0.20516813 0.034230396 -0.22908588 0.06285763 0.5983273
0.065597676 0.04225784 -0.012090831 -0.01902186 -0.10452946 0.11530977 0.45701385 -0.16439113
-0.07217158 -0.06355815 -0.3021542 0.061941523 0.07291773 -0.08286962 -0.17460181 -0.3489954
00000000: 0047 c8be 9f85 63bc 41b7 263f 87c5 79be
00000010: 891c cdbc b172 75be df8a 123e 1a33 3cbd
00000020: 71fd f5bc 9cd1 6c3e af1e 803e c328 a6be
00000030: a922 10bf b224 5bbd ee54 1f3f 5b23 debd
00000040: cad6 543e 9e69 d6bd 1af2 c5bb 273d 6fbe
00000050: 299c 4b3f f98a fabd 8661 1ebe 11b9 a83c
00000060: 9bab 1e3d 78e4 283d c8e7 943e 5b27 5b3e
00000070: ecf7 febd 886d d9bd cf2d 3cbe 98fb bdbc
00000080: 7eb1 33bc a6e4 003f d378 a9bd f493 8ebd
00000090: 48b5 753e 575a cebd d758 a7be c0f8 453e
000000a0: 8225 083d adcc dbbe 9992 b73c 9817 523e
000000b0: 2c35 0c3d 7d95 6abe 80bb 803d fa2b 193f
000000c0: 1358 863d 8f16 2d3d 9f18 46bc bbd3 9bbc
000000d0: 8b13 d6bd 8727 ec3d b8fd e93e 2656 28be
000000e0: b1ce 93bd c62a 82bd f5b3 9abe 65b6 7d3d
000000f0: e455 953d 8cb7 a9bd d1ca 32be 86af b2be

encoder.block1.convblock1.1.running_mean f4 [64]
0.02491743 -0.023291215 0.028775519 0.022156667 -0.007846043 -0.03527175 -0.02828251 -0.013825653
-0.0002134849 -0.035081726 0.014202905 -0.02726008 -0.027335484 0.014414426 0.02845521 0.022084512
-0.02362666 -0.029849142 -0.022142433 -0.026000755 0.018331347 0.019868273 0.0193165 -0.017130643
0.03025308 0.019791806 -0.03606925 0.034025256 -0.030861063 0.0083902795 0.009331273 -0.010265669
-0.003123762 0.028387723 0.019922327 0.017563252 -0.018506536 -0.030126942 0.03027176 0.025159942
0.014185661 -0.021611419 -0.01464266 -0.031069882 0.023299051 0.028049855 0.020528184 0.025350012
-0.005737554 0.012911174 -0.01935601 -0.027916657 0.015456551 0.02574852 0.020708105 -0.004973477
-0.0144779505 0.015905086 0.0020058295 0.0088005345 -0.015511804 -0.016969081 0.02304536 -0.0059307157
00000000: a31f cc3c 38cd bebc a3ba eb3c e681 b53c
00000010: b18c 00bc 1c79 10bd b9b0 e7bc fe84 62bc
00000020: ebda 5fb9 dbb1 0fbd 4db3 683c 8850 dfbc
00000030: aaee dfbc 7c2a 6c3c e71a e93c 94ea b43c
00000040: b38c c1bc 3086 f4bc 0c64 b5bc 89ff d4bc
00000050: 9f2b 963c cac2 a23c a33d 9e3c 9055 8cbc
00000060: 4fd5 f73c 6d22 a23c 5abd 13bd 115e 0b3d
00000070: 57d0 fcbc 6277 093c 32e2 183c 5631 28bc
00000080: 08b8 4cbb 5f8d e83c 2634 a33c cfe0 8f3c
00000090: 059b 97bc c7cc f6bc 7bfc f73c 391c ce3c
000000a0: fa6a 683c 6e0a b1bc c4e7 6fbc 4486 febc
000000b0: a7dd be3c cfc8 e53c b92a a83c d4aa cf3c
000000c0: 1702 bcbb 6489 533c 7f90 9ebc 79b1 e4bc
000000d0: 793d 7d3c 8fee d23c 0ba4 a93c 8df8 a2bb
000000e0: ed34 6dbc 624b 823c 3c74 033b 1e30 103c
000000f0: 3925 7ebc be02 8bbc 9fc9 bc3c 7356 c2bb

encoder.block1.convblock1.1.running_var f4 [64]
0.00060327345 0.00052709883 0.00080458255 0.0004769918 5.9814593e-05 0.0012088153 0.0007772154 0.00018572868
4.4283517e-08 0.0011958523 0.00019600255 0.0007220412 0.00072604115 0.00020188585 0.00078673696 0.00047390157
0.00054239173 0.0008657067 0.0004763865 0.00065687054 0.00032650947 0.00038355455 0.00036254738 0.0002851381
0.0008892825 0.0003806093 0.0012641179 0.001124867 0.000925399 6.84001e-05 8.4603715e-05 0.00010239597
9.481401e-06 0.0007830426 0.0003856451 0.00029972146 0.00033277925 0.0008818968 0.0008903898 0.0006150854
0.00019552674 0.00045380628 0.00020832679 0.00093794905 0.0005274526 0.0007644758 0.00040945096 0.0006243944
3.1987885e-05 0.0001619687 0.00036403188 0.00075724546 0.00023213067 0.000644187 0.00041667206 2.403411e-05
0.00020366722 0.00024580176 3.9092706e-06 7.5256175e-05 0.00023378865 0.000279785 0.0005160143 3.417605e-05
00000000: ff24 1e3a 012d 0a3a 9fea 523a c114 fa39
00000010: 6ee1 7a38 1c71 9e3a 0bbe 4b3a 2ac0 4239
00000020: 3e32 3e33 25be 9c3a 0986 4d39 5d47 3d3a
00000030: cc53 3e3a 52b1 5339 063d 4e3a fe75 f839
00000040: 4b2f 0e3a 98f0 623a 84c3 f939 d631 2c3a
00000050: 5c2f ab39 d217 c939 4914 be39 977e 9539
00000060: bd1e 693a 848c c739 c2b0 a53a 4670 933a
00000070: 7a96 723a 0672 8f38 466d b138 6bbd d638
00000080: 4f12 1f37 1945 4d3a 6930 ca39 ef23 9d39
00000090: e078 ae39 182f 673a 0c69 693a af3d 213a
000000a0: 4f06 4d39 d9ec ed39 4c72 5a39 b2e0 753a
000000b0: bf44 0a3a 1a67 483a 94ab d639 66ae 233a
000000c0: bb2a 0638 24d6 2939 88db be39 e281 463a
000000d0: 1a68 7339 a8de 283a c774 da39 dc9c c937
000000e0: 818f 5539 f4de 8039 612c 8336 dad2 9d38
000000f0: 2a25 7539 1bb0 9239 2245 073a 4158 0f38

encoder.block1.convblock2.0.depthwise_conv.weight f4 [64, 1, 5]
-0.015762674 -0.0041968864 0.0037865997 0.03357344 0.062158138 0.029723516 0.0031711175 0.030689124
0.0059102406 -0.018277664 0.35082856 0.49007788 -0.56201303 -0.31276172 -0.02333137 0.11128171
0.13463469 0.12399269 0.17788315 0.09096859 0.03621531 0.051131215 0.01719876 0.032297663
0.054183397 -0.019233972 0.13293278 0.1368672 0.071105935 0.24967715 0.3892097 0.50468445
-0.3555091 -0.04030926 -0.15281919 -0.0068568536 0.01671183 -0.013026724 -0.002119875 -0.0066850185
-0.07525949 -0.017914345 -0.106600836 0.015868312 0.017425777 0.12231403 0.6989727 -0.635177
0.03152386 -0.29409915 -0.006292585 -0.03248515 -0.007508948 0.03874035 0.046574265 -0.15411967
-0.1241286 -0.10464648 -0.09967525 -0.07553094 0.079672314 0.086726665 0.108972184 0.07231319
0.12015446 -0.032123707 0.084172115 -0.13208143 -0.079094954 -0.06997175 -0.10715146 -0.14287022
0.022732608 0.06516225 -0.034264997 0.1269608 0.22144435 -0.170008 -0.040143143 0.03508605
-0.036922608 0.07539462 -0.04526282 0.042654566 -0.08415046 -0.021256454 -0.1494401 -0.14609776
-0.10487962 -0.20559748 -0.028452786 0.003981684 -0.11485692 -0.023201348 -0.017313657 -0.16461645
-0.12568425 -0.15585084 -0.084197186 -0.060325895 -0.017962625 -0.03788231 -0.095554754 -0.04176398
-0.077657074 0.08016548 0.09177635 0.041015476 0.03673723 0.03986459 -0.029184498 -0.0338067
-0.042336047 -0.043860905 -0.041069023 -0.011223473 0.043699116 -0.030327847 -0.017422229 0.0267506
-0.19483444 -0.32300633 -0.062315356 0.013080327 -0.20242724 -0.059883904 0.080460645 -0.05653409
-0.0357084 -0.038607743 1.0372761 0.39639053 -0.3201354 -0.32263282 -0.24201693 0.29876393
-0.40037504 0.8121994 -0.37271637 -0.3627757 -0.066699326 -0.14597301 -0.15897836 -0.11655227
-0.18397295 -0.026759397 -0.038919512 -0.049236085 -0.018915124 0.0032497668 0.019474162 0.0030300198
0.022495165 -0.00016424066 0.0019068102 0.047596823 0.0060248887 0.033367395 0.045301124 0.01295904
0.0114611965 0.014295049 0.029599177 0.0008615814 -0.021556657 0.68899244 -0.1299274 0.030482132
-0.097774684 -0.096050456 0.0078717815 0.020234564 0.022621956 0.03742328 0.031068498 0.056305174
0.089645036 -0.04581036 -0.0527104 -0.02168001 -0.23738419 -0.06776574 -0.26426283 -0.13121992
-0.06903945 -0.03402476 0.046667732 -0.07325476 -0.06674392 -0.10796605 0.07530885 0.14906469
0.12304709 0.16536927 0.0678326 0.30407456 0.0010414211 0.18124148 -0.0029182625 -0.07185257
-0.057072423 -0.046202503 -0.029800123 -0.06320282 -0.09641019 -0.050376963 0.0073304703 0.05817368
0.008991729 0.084312595 -0.065491475 0.04739681 0.05051121 0.104092106 0.029613417 -0.21673332
0.12470267 0.01129621 0.2678769 0.50581574 0.0066484334 0.10562568 0.027494416 0.04247169
0.055239994 0.056737266 0.107444905 0.090381674 0.20732562 0.05883769 -0.082069874 -0.09732806
-0.1532192 -0.11418624 -0.10861673 -0.05854822 -0.26892027 0.066239595 0.055699304 -0.034179293
0.040231492 0.00907037 -0.01842881 0.0046964195 0.039161935 0.06820649 0.101700395 0.06555667
0.056419972 0.06909725 -0.0020343075 0.00836041 -0.011409459 0.013117077 0.029554492 -0.07763977
00000000: b920 81bc 0986 89bb 9a28 783b 4e84 093d
00000010: 8899 7e3d bb7e f33c 86d2 4f3b c267 fb3c
00000020: b1aa c13b 0abb 95bc cd9f b33e 7deb fa3e
00000030: 16e0 0fbf 4e22 a0be 6e21 bfbc aae7 e33d
00000040: addd 093e e1ef fd3d 0027 363e bd4d ba3d
00000050: 8156 143d f76e 513d 6ae4 8c3c 8e4a 043d
00000060: 69ef 5d3d 9090 9dbc 881f 083e ea26 0c3e
00000070: fd9f 913d 5eab 7f3e 7e46 c73e 0033 013f
00000080: 4a05 b6be 531b 25bd a27c 1cbe 75af e0bb
00000090: 3fe7 883c 0a6e 55bc 9aed 0abb 000e dbbb
000000a0: a621 9abd 1bc1 92bc 8a51 dabd 43fe 813c
000000b0: 81c0 8e3c c77f fa3d e0ef 323f f69a 22bf
000000c0: 2a1f 013d 2a94 96be 0732 cebb 260f 05bd
000000d0: 9f0d f6bb 34ae 1e3d a8c4 3e3d 8cd1 1dbe
000000e0: 2337 febd e550 d6bd 8a22 ccbd f7af 9abd
000000f0: 3d2b a33d c09d b13d cf2c df3d f018 943d
00000100: 8b13 f63d 2694 03bd 6e62 ac3d 5b40 07be
00000110: 89fc a1bd 594d 8fbd 3a72 dbbd 924c 12be
00000120: bc39 ba3c c973 853d 7459 0cbd 0302 023e
00000130: 4fc2 623e 9416 2ebe 236d 24bd 64b6 0f3d
00000140: 293c 17bd 7f68 9a3d 8265 39bd 8eb6 2e3d
00000150: 1457 acbd 0422 aebc d306 19be a79a 15be
00000160: 20cb d6bd 2588 52be d115 e9bc c978 823b
00000170: 1b3a ebbd c110 bebc 5fd5 8dbc 3791 28be
00000180: 5fb3 00be 5d97 1fbe 936f acbd 4918 77bd
00000190: 5b26 93bc 7b2a 1bbd 36b2 c3bd b510 2bbd
000001a0: ac0a 9fbd cd2d a43d 3df5 bb3d d8ff 273d
000001b0: c779 163d 0d49 233d 5414 efbc e578 0abd
000001c0: 9068 2dbd 7ea7 33bd fe37 28bd a8e2 37bc
000001d0: d8fd 323d 1b72 f8bc 10b9 8ebc 1324 db3c
000001e0: ae82 47be 1661 a5be 633e 7fbd de4e 563c
000001f0: 1649 4fbe d348 75bd 8dc8 a43d 4a90 67bd
00000200: f942 12bd 2723 1ebd 77c5 843f b3f3 ca3e
00000210: cae8 a3be 2130 a5be 49d3 77be 96f7 983e
00000220: f5fd ccbe 4dec 4f3f aed4 bebe bdbd b9be
00000230: a899 88bd f379 15be 39cb 22be f5b2 eebd
00000240: 6863 3cbe 8636 dbbc 116a 1fbd c7ab 49bd
00000250: e4f3 9abc 0afa 543b 4788 9f3c 4c93 463b
00000260: c847 b83c 0438 2cb9 efed f93a e3f4 423d
00000270: 6e6c c53b 40ac 083d ac8d 393d 2752 543c
00000280: bec7 3b3c c835 6a3c f979 f23c c0db 613a
00000290: 9697 b0bc cf61 303f b00b 05be aab5 f93c
000002a0: 183e c8bd 1ab6 c4bd a5f8 003c f5c2 a53c
000002b0: ae51 b93c 2749 193d 5d83 fe3c 41a0 663d
000002c0: d197 b73d a5a3 3bbd dce6 57bd 479a b1bc
000002d0: d714 73be c4c8 8abd 754d 87be 845e 06be
000002e0: 8e64 8dbd 8c5d 0bbd aa26 3f3d 9706 96bd
000002f0: 09b1 88bd 4e1d ddbd 873b 9a3d 6aa4 183e
00000300: 1d00 fc3d 9056 293e d1eb 8a3d a9af 9b3e
00000310: 4b80 883a 5e97 393e 5240 3fbb 7127 93bd
00000320: c6c4 69bd d63e 3dbd 631f f4bc 7b70 81bd
00000330: b572 c5bd 1358 4ebd 7134 f03b 8647 6e3d
00000340: 0b52 133c 15ac ac3d 6520 86bd 2823 423d
00000350: d8e4 4e3d 3e2e d53d d697 f23c 57ef 5dbe
00000360: 1d64 ff3d bd13 393c 2927 893e 247d 013f
00000370: 1adb d93b 4752 d83d f83b e13c cbf6 2d3d
00000380: 5543 623d 5665 683d 130c dc3d 071a b93d
00000390: 2b4d 543e caff 703d 4014 a8bd ef53 c7bd
000003a0: 7ee5 1cbe 7ada e9bd 7372 debd 42d0 6fbd
000003b0: ebaf 89be a0a8 873d f424 643d 96ff 0bbd
000003c0: c7c9 243d e49b 143c 04f8 96bc 6ce4 993b
000003d0: 4468 203d d8af 8b3d 4c48 d03d 9342 863d
000003e0: a118 673d dc82 8d3d 0452 05bb 1afa 083c
000003f0: bdee 3abc 02e9 563c 431c f23c 9a01 9fbd

encoder.block1.convblock2.0.pointwise_conv.weight f4 [64, 64, 1]
0.013129166 0.002728336 -0.03832725 0.0034825588 -0.0029876884 -0.024443958 0.021052342 0.011546395
-0.00015478603 0.013262368 0.023464177 -0.02780048 -0.028307237 -0.039920166 -0.004674512 -0.024975704
0.01060071 0.030299032 0.018350625 -0.005943095 0.013285088 0.0005912296 -0.013402338 -0.007009413
0.015574167 -0.0019212062 0.066512845 0.008638751 0.038286977 0.007119779 -0.012908024 0.002816029
-0.0019357797 -0.0183219 0.008390594 -0.038732402 0.005717635 -0.019835353 -0.018697513 -0.04126423
-0.0026746595 -0.048605528 -0.016732914 -0.03771687 -0.017510355 -0.007809622 0.011446404 0.010779352
0.02739525 0.0018011123 -0.004934232 0.018934676 0.0014777206 0.005236852 -0.017598342 0.011994678
0.017859466 0.014634317 -0.023360457 0.032479372 -0.01866537 0.027273932 -0.029270278 -0.036245164
0.045874726 0.00456448 -0.14169511 0.01620141 -0.00733563 -0.020919833 -0.020773819 0.0057633743
-0.04925894 -0.030564861 0.06451895 -0.06532526 -0.04302076 -0.034339055 0.017146297 -0.0609742
-0.078403 0.027814636 -0.019837985 -0.0511786 0.04754238 -0.030505769 -0.018410433 0.011849774
0.017122094 -0.0067947125 -0.13627692 0.0038831942 0.036392 -0.009421298 0.013603748 -0.007053998
-0.0022039295 0.01138083 0.016473528 -0.07437776 -0.017426247 0.040105745 0.01883464 -0.08401239
0.007356799 -0.014060602 0.024690932 0.0603459 -0.09588391 0.009690231 0.01494791 0.018085372
0.034408882 -0.013912637 -0.0066164583 -0.015665162 0.034186933 0.017350351 0.021760473 -0.013264322
0.008406914 0.07031542 -0.019276647 0.056389634 0.005264286 -0.018354421 0.0021014663 -0.06041674
0.087277986 -0.0069879093 -0.09903604 0.15439123 -0.050899364 -0.38858494 0.107823454 0.005196946
0.03360476 0.009273093 0.068704315 -0.17070714 -0.16046026 -0.052087832 0.420728 -0.08923336
-0.053815264 0.22873287 0.01140764 0.0065551926 0.14637534 -0.12671931 -0.026855426 0.00055285427
0.4471408 0.036371656 0.1486386 0.1355339 0.25680134 -0.00085969374 0.0043051103 -0.03423961
-0.0063681533 -0.0074671647 0.0046965024 -0.0732372 -0.15965237 0.05307156 0.09596946 -0.24708843
0.06928665 -0.32864308 0.02946121 0.112619765 -0.09905597 0.11475172 0.19515987 0.34802857
0.08920751 -0.09687522 -0.014211552 0.05076192 0.070833355 0.013717867 -0.15813464 0.02242038
0.123039156 0.119299896 -0.04408815 0.081294 0.051074333 0.015615494 0.019817023 -0.19571565
0.039604217 -0.004095655 -0.083435796 0.107185505 -0.03671373 -0.395622 0.0752909 0.010097505
0.04827948 -0.048057016 0.03198315 -0.09538452 -0.12081766 -0.05426681 0.20895769 -0.10001653
-0.050092544 0.23693822 0.025348246 0.012381643 0.111327 -0.08092013 -0.028387379 -0.008662924
0.23502162 0.028301155 0.23572512 0.24861254 0.21899483 -0.010087567 0.00035430928 -0.029776072
-0.0077865757 -0.10120944 0.0038303805 -0.04330867 -0.10002926 0.060543444 0.088296585 -0.19831318
0.049425147 -0.3179318 -0.002806534 -0.080055356 -0.040567268 0.10942182 0.12842236 0.18812741
0.017385166 -0.076394305 -0.003233691 0.08676179 0.06440947 0.031565 -0.10250118 0.009543997
0.094535775 0.085002676 -0.039375186 0.053091705 -0.015927328 0.011083474 0.019078266 -0.1399488
00000000: b71b 573c e2cd 323b 09fd 1cbd a43b 643b
00000010: 18cd 43bb b23e c8bc f675 ac3c 172d 3d3c
00000020: 0f4e 22b9 674a 593c f237 c03c d5bd e3bc
00000030: 94e4 e7bc 5483 23bd a62c 99bb d999 ccbc
00000040: 9aae 2d3c ad35 f83c 0d54 963c 4bbe c2bb
00000050: b3a9 593c bffc 1a3a 7b95 5bbc 38af e5bb
00000060: ca2a 7f3c fcd0 fbba e337 883d 8c89 0d3c
00000070: ced2 1c3d 094d e93b 2d7c 53bc 208d 383b
00000080: fdb9 fdba cf17 96bc b478 093c dea5 1ebd
00000090: 005b bb3b c07d a2bc 872b 99bc ae04 29bd
000000a0: 5749 2fbb 9716 47bd 7713 89bc 017d 1abd
000000b0: e071 8fbc dce7 ffbb b389 3b3c e19b 303c
000000c0: 016c e03c 4d13 ec3a 57af a1bb e51c 9b3c
000000d0: 13b0 c13a e699 ab3b 662a 90bc 5385 443c
000000e0: 044e 923c c6c4 6f3c 6e5e bfbc 1709 053d
000000f0: 1ee8 98bc 956d df3c 39c8 efbc cf75 14bd
00000100: 23e7 3b3d a291 953b 8618 11be d2b8 843c
00000110: b95f f0bb 1260 abbc db2d aabc b0da bc3b
00000120: bec3 49bd 2963 fabc 8322 843d 40c9 85bd
00000130: 8936 30bd 1ca7 0cbd 6476 8c3c 15c0 79bd
00000140: c191 a0bd 85db e33c 4583 a2bc a7a0 51bd
00000150: ccbb 423d 3ce7 f9bc 7ad1 96bc 8e25 423c
00000160: a243 8c3c 2ea6 debb 2d8c 0bbe 307d 7e3b
00000170: c70f 153d ca5b 1abc 41e2 5e3c 3925 e7bb
00000180: cd6f 10bb a976 3a3c 7ef3 863c 5e53 98bd
00000190: 7dc1 8ebc ec45 243d 1a4b 9a3c b00e acbd
000001a0: 4e11 f13b 705e 66bc a344 ca3c 432d 773d
000001b0: c95e c4bd c6c3 1e3c 14e8 743c c627 943c
000001c0: 54f0 0c3d d4f1 63bc e0ce d8bb 3a54 80bc
000001d0: 9907 0c3d 5322 8e3c 0543 b23c 9952 59bc
000001e0: 27bd 093c 8801 903d 0fea 9dbc d1f8 663d
000001f0: 0880 ac3b 035c 96bc c1b8 093b 8b77 77bd
00000200: cdbe b23d d5fa e4bb 68d3 cabd bc18 1e3e
00000210: da7b 50bd 9bf4 c6be 8bd2 dc3d 254b aa3b
00000220: 25a5 093d 2cee 173c d9b4 8c3d dacd 2ebe
00000230: b24f 24be 0d5a 55bd a969 d73e fbbf b6bd
00000240: 656d 5cbd f338 6a3e 1ce7 3a3c f1cc d63b
00000250: 6be3 153e b5c2 01be e9ff dbbc 6ced 103a
00000260: a4ef e43e 72fa 143d b834 183e 66c9 0a3e
00000270: 777b 833e 125d 61ba e211 8d3b d53e 0cbd
00000280: f1ab d0bb 1eaf f4bb 1ee5 993b 63fd 95bd
00000290: e97b 23be 9061 593d a38b c43d c004 7dbe
000002a0: 29e6 8d3d e843 a8be a358 f13c 31a5 e63d
000002b0: dbdd cabd f302 eb3d fdd7 473e cd30 b23e
000002c0: 6db2 b63d 8466 c6bd 92d7 68bc bbeb 4f3d
000002d0: 1411 913d e8c0 603c 0cee 21be f2aa b73c
000002e0: f4fb fb3d 8153 f43d c795 34bd 787d a63d
000002f0: 5233 513d 21d8 7f3c 4f57 a23c af69 48be
00000300: 0838 223d d834 86bb 63e0 aabd 1384 db3d
00000310: 2361 16bd f78e cabe 1e32 9a3d 0170 253c
00000320: b4c0 453d 6fd7 44bd c300 033d f658 c3bd
00000330: 406f f7bd e046 5ebd 01f9 553e 77d5 ccbd
00000340: d72d 4dbd ef9f 723e 20a7 cf3c 60dc 4a3c
00000350: 69ff e33d 74b9 a5bd a68c e8bc f0ee 0dbc
00000360: 82a9 703e d3d7 e73c ed61 713e 4994 7e3e
00000370: 2e40 603e 5346 25bc 96c2 b939 f3ec f3bc
00000380: 8826 ffbb e546 cfbd 1f07 7b3b 6f64 31bd
00000390: 24dc ccbd 67fc 773d d7d4 b43d 9c12 4bbe
000003a0: 0672 4a3d f5c7 a2be d4ed 37bb 10f4 a3bd
000003b0: dd29 26bd 8c18 e03d 2781 033e 79a4 403e
000003c0: 566b 8e3c 9e74 9cbd 55ec 53bb 2ab0 b13d
000003d0: 1de9 833d 4d4a 013d 23ec d1bd 6d5e 1c3c
000003e0: f99b c13d e215 ae3d e047 21bd b076 593d
000003f0: 077a 82bc 7697 353c 064a 9c3c bd4e 0fbe

encoder.block1.convblock2.1.weight f4 [64]
0.11453199 0.2505252 0.701644 0.62593234 0.30636027 0.4357867 0.17257454 0.17868906
0.4318102 0.08791409 0.039437048 0.069356285 0.6439741 0.07338862 0.17626737 0.16916162
0.05422272 0.38350803 0.6202181 0.38416475 0.052928485 0.04996405 0.05627858 0.46935093
0.07892374 0.38959715 0.054233406 0.25575662 0.20070183 0.099116996 0.47757262 0.087466024
0.09357305 0.04339754 0.22081898 0.69637126 0.13707915 0.472092 0.6582014 0.521293
0.7309654 0.37812147 0.2696355 0.10750659 0.5191291 0.25264788 0.049000163 0.047347274
0.6275794 0.5724369 0.04098566 0.18018046 0.25619456 0.045677252 0.06569522 0.8075963
0.0525018 0.21086787 0.106132835 0.48744133 0.03988847 0.04583256 0.080562264 0.037858732
00000000: bf8f ea3d d744 803e f19e 333f 1a3d 203f
00000010: 41db 9c3e 6f1f df3e 61b7 303e 44fa 363e
00000020: 3a16 dd3e 4d0c b43d be88 213d ab0a 8e3d
00000030: 7ddb 243f c64c 963d 6f7f 343e b438 2d3e
00000040: a518 5e3d 2a5b c43e 9dc6 1e3f 3eb1 c43e
00000050: 8acb 583d 1ba7 4c3d 5e84 663d c44e f03e
00000060: c5a2 a13d 4779 c73e d923 5e3d 88f2 823e
00000070: c884 4d3e dafd ca3d 6684 f43e 6321 b33d
00000080: 3aa3 bf3d 9ec1 313d 5f1e 623e 6345 323f
00000090: 7a5e 0c3e 0bb6 f13e e37f 283f 7573 053f
000000a0: 8c20 3b3f 2399 c13e aa0d 8a3e 6a2c dc3d
000000b0: a5e5 043f 105b 813e 65b4 483d 37ef 413d
000000c0: 0ba9 203f 3a8b 123f 94e0 273d 3a81 383e
000000d0: ef2b 833e 1218 3b3d 378b 863d a2be 4e3f
000000e0: 210c 573d bfed 573e 2c5c d93d e991 f93e
000000f0: 1862 233d ecba 3b3d d4fd a43d c211 1b3d

encoder.block1.convblock2.1.bias f4 [64]
-0.09422253 -0.2503292 0.0032641904 0.035318136 -0.37796015 -0.20994826 -0.2380274 -0.08614905
-0.349324 -0.2533325 -0.008064572 -0.08039261 -0.74574393 -0.30666736 0.009722238 -0.12266833
0.0019229838 -0.19832993 -0.38198125 0.15410516 -0.005205344 -0.009518333 -0.0012369385 -0.39356187
-0.14895116 0.25928694 -0.03793408 -0.10858652 -0.13421866 -0.03138042 0.103053905 -0.11648332
0.008568973 -0.017158566 -0.03665573 -0.008588561 -0.011326671 -0.28961766 0.06341899 -0.0758761
-0.089905165 -0.25143287 -0.13368659 -0.2350226 0.12234671 -0.003259416 0.011068338 -0.0014152488
0.048785247 -0.43792805 -0.0031958923 -0.046064932 0.26483107 0.0029769728 0.012164774 -0.5236937
-0.0023438057 -0.14809352 -0.087941505 0.036973175 -0.033361003 0.0002910346 0.020275166 -0.051072136
00000000: bef7 c0bd 262b 80be 07ec 553b c0a9 103d
00000010: fe83 c1be adfc 56be 74bd 73be ea6e b0bd
00000020: 98da b2be ccb4 81be 4421 04bc e1a4 a4bd
00000030: 13e9 3ebf 8103 9dbe 064a 1f3c 8939 fbbd
00000040: a10c fc3a 0017 4bbe 0c93 c3be becd 1d3e
00000050: 9791 aabb c8f2 1bbc c520 a2ba f180 c9be
00000060: a786 18be 42c1 843e c460 1bbd 9c62 debd
00000070: 9e70 09be c188 00bd ed0d d33d cf8e eebd
00000080: e164 0c3c 1f90 8cbc 5224 16bd 09b7 0cbc
00000090: 8093 39bc c448 94be d1e1 813d ee64 9bbd
000000a0: 3320 b8bd cfbb 80be 23e5 08be c4a9 70be
000000b0: e990 fa3d ed9b 55bb f957 353c df7f b9ba
000000c0: 0ad3 473d 1b38 e0be 2d72 51bb 95ae 3cbd
000000d0: f097 873e 5119 433b c34e 473c ca10 06bf
000000e0: 899a 19bb d4a5 17be ad1a b4bd 2f71 173d
000000f0: 8ca5 08bd 0196 9839 1b18 a63c 0431 51bd

encoder.block1.convblock2.1.running_mean f4 [64]
-0.018604547 -0.0483643 -0.20116204 -0.16635601 -0.030869648 -0.118463054 -0.06802695 -0.019093225
-0.2226412 -0.00925099 0.0010760467 -0.017019857 -0.1103887 -0.024474174 0.027074646 -0.04773586
0.00011771622 -0.06550543 -0.12262624 0.052224144 0.011739023 0.001858108 -0.0073858257 -0.16247633
-0.0099254185 -0.0565769 -0.00047614955 -0.11661438 -0.033563375 0.0006802158 -0.04289135 -0.017772174
0.0005490701 -0.0035894206 0.04374047 0.095459156 0.008705089 -0.20054 0.011161828 -0.019530376
-0.19072005 -0.09289591 -0.020743538 -0.012590163 -0.28260624 -0.08671691 0.0051491368 0.004944368
-0.153391 -0.05119132 0.0054577407 0.009815353 -0.045687698 0.00048526266 0.012417961 -0.10275885
-0.0021709194 -0.020121528 -0.018760305 0.047415823 -0.0042083026 0.0009751573 -0.015157775 -0.0071663493
00000000: 9068 98bc a519 46bd 6cfd 4dbe 3b59 2abe
00000010: 58e2 fcbc c29c f2bd b751 8bbd 6569 9cbc
00000020: 0efc 63be 7791 17bc 230a 8d3a 3a6d 8bbc
00000030: 7913 e2bd 107e c8bc a6cb dd3c ad86 43bd
00000040: 6ade f638 b627 86bd 7723 fbbd fce8 553d
00000050: 0855 403c c28b f33a cc04 f2bb 3260 26be
00000060: 399e 22bc 2ebd 67bd b6a3 f9b9 85d3 eebd
00000070: c079 09bd 8250 323a d7ae 2fbd f396 91bc
00000080: 78ef 0f3a 7c3c 6bbb 3529 333d 1780 c33d
00000090: ca9f 0e3c 5c5a 4dbe 1ae0 363c 2bfe 9fbc
000000a0: 1e4c 43be 3640 bebd 5aee a9bc f946 4ebc
000000b0: c4b1 90be a398 b1bd 17ba a83b 5d04 a23b
000000c0: 8812 1dbe fdad 51bd d9d6 b23b 93d0 203c
000000d0: 0623 3bbd da6a fe39 b474 4b3c 3b73 d2bd
000000e0: fc45 0ebb e7d5 a4bc 36af 99bc 1837 423d
000000f0: cde5 89bb b3a1 7f3a 5158 78bc b2d3 eabb

encoder.block1.convblock2.1.running_var f4 [64]
0.0036354552 0.0023158733 0.07110278 0.054506656 0.0040892405 0.009646164 0.018658075 0.0046825884
0.011916518 0.0015619476 3.081495e-06 0.0006219649 0.020180225 0.0007730522 0.0011733945 0.009786463
4.4069482e-05 0.0071673184 0.0044633616 0.014073976 5.6517572e-05 2.7398839e-05 2.9670551e-05 0.009398651
0.0006414302 0.055878315 5.1490464e-05 0.005433182 0.00093552173 0.00018266265 0.06624953 0.00065137265
0.0014372196 4.4657176e-05 0.0022677178 0.13185188 0.0008569864 0.009473965 0.2080654 0.10957414
0.018801859 0.002857879 0.023894435 0.00022894003 0.08344744 0.0045838743 6.4284875e-05 1.1912905e-05
0.13426282 0.02203763 3.898377e-05 0.0012228361 0.00967395 4.491002e-05 0.0011018893 0.030593116
4.4332908e-05 0.00064962945 0.00035202323 0.05447429 5.3970057e-06 1.3015535e-05 0.0010612633 4.993634e-05
00000000: d140 6e3b e8c5 173b 569e 913d 5f42 5f3d
00000010: 09ff 853b f20a 1e3c d2d8 983c 6670 993b
00000020: 803d 433c 44ba cc3a aecb 4e36 5c0b 233a
00000030: 0051 a53c a8a6 4a3a 96cc 993a 6757 203c
00000040: 3fd7 3838 d3db ea3b 6441 923b 8996 663c
00000050: 480d 6d38 8fd6 e537 06e5 f837 cdfc 193c
00000060: a725 283a a9e0 643d 77f7 5738 d608 b23b
00000070: cd3d 753a 2289 3f39 d5ad 873d e1c0 2a3a
00000080: 1661 bc3a 474e 3b38 fe9d 143b 2e04 073e
00000090: 62a7 603a b038 1b3c 190f 553e 6868 e03d
000000a0: 5b06 9a3c 414b 3b3b 43be c33c 9f0f 7039
000000b0: 7ee6 aa3d 5334 963b aed0 8638 8add 4737
000000c0: 317c 093e 4388 b43c 8182 2338 9247 a03a
000000d0: 7d7f 1e3c c45d 3c38 456d 903a 6a9e fa3c
000000e0: 19f2 3938 e54b 2a3a c28f b839 6f20 5f3d
000000f0: ed17 b536 4c5d 5a37 161a 8b3a bd72 5138

encoder.block1.convblock3.0.depthwise_conv.weight f4 [64, 1, 3]
0.10525153 -0.041088644 0.011253466 -0.12595583 -0.123153865 -0.06403831 -0.1976351 -0.16102697
-0.07947011 -0.24541987 -0.1190484 -0.37900534 0.019342888 0.031214437 0.07609856 -0.10167244
-0.1433578 -0.13200006 0.00079575117 0.10818393 -0.20908138 0.02652523 0.10382626 0.1203022
0.07647138 0.14967394 0.04321114 -0.022463623 -0.0379026 -0.027193392 -0.022509698 0.0058800573
0.015548976 0.038868677 0.048742257 0.041527607 -0.03046161 -0.049714755 -0.27807143 -0.031574484
-0.0409295 -0.07577554 -0.090476446 -0.086049214 -0.10979133 0.052355863 -0.006600274 0.16368347
-0.03435363 -0.014801698 0.010083521 -0.02636139 0.119106635 0.30361065 -0.025744058 -0.04164759
-0.27196848 -0.25700104 0.381355 -0.17327504 -0.00985864 0.04402498 -0.03618308 -0.0049663093
0.0072690025 -0.04718389 0.039506275 -0.00082023203 0.005578288 0.2386362 0.16342463 0.13553901
-0.01357177 -0.0024688158 0.007899063 -0.43667206 0.33449912 0.12549089 -0.02517662 -0.034866933
0.0012625856 -0.034297645 -0.10378596 -0.09659888 -0.054884512 -0.064484455 -0.08349388 0.041938074
0.053054195 0.06487015 -0.5374535 0.09236959 -0.054746196 0.04856992 0.037829597 0.05549985
0.017923355 -0.062586054 -0.058071356 -0.022203438 0.0015637365 0.015733877 0.09697658 0.09273373
0.103932396 0.5032123 -0.73803854 -0.20516293 0.10299852 0.038731724 0.069882356 -0.05677761
-0.09965854 -0.24333541 0.76278275 -0.2198725 0.17907518 -0.34875214 -0.16822547 0.51921636
-0.37367505 -0.26255965 -0.22071572 -0.08857898 -0.043409567 -0.14156987 0.13275984 0.08745909
0.16318811 0.04892261 0.037355766 0.07213712 0.10392561 0.20291185 0.41414782 0.10532459
0.129602 0.060232107 0.04396589 0.004001945 0.00661342 0.0089246975 -0.021231204 -0.029178299
0.031306148 -0.13558744 -0.4717608 -0.1956213 -0.2580624 -0.20122193 0.010559538 -0.009330167
0.025161505 0.07288803 0.09350147 0.104271226 0.24704686 0.13695762 0.017151238 -0.00951934
0.012316188 0.009931351 -0.035715066 -0.0019688958 0.05216245 -0.024857163 0.044951856 -0.20880745
0.014733566 0.016685829 0.025194399 0.020361526 0.052865494 0.070382826 -0.049806196 -0.047042295
-0.037647385 -0.059228 -0.0653594 0.58990085 0.024398752 0.010011526 -0.0019945656 0.010428131
-0.018933605 0.01638625 -0.011979741 0.090383135 -0.008792922 0.011215131 0.0245724 0.027534511
00000000: 1d8e d73d 914c 28bd 7560 383c 91fa 00be
00000010: 1838 fcbd 8426 83bd db60 4abe 41e4 24be
00000020: 3ac1 a2bd 594f 7bbe a6cf f3bd fd0c c2be
00000030: fa74 9e3c 6bb5 ff3c 90d9 9b3d a439 d0bd
00000040: 63cc 12be 062b 07be f599 503a 898f dd3d
00000050: 6e19 56be 704b d93c dda2 d43d 0061 f63d
00000060: 079d 9c3d 2044 193e 2afe 303d a205 b8bc
00000070: c23f 1bbd adc4 debc 4266 b8bc 7fad c03b
00000080: 22c1 7e3c c334 1f3d f6a5 473d da18 2a3d
00000090: a08a f9bc b3a1 4bbd 615f 8ebe 3f54 01bd
000000a0: b1a5 27bd 3530 9bbd b74b b9bd 923a b0bd
000000b0: 47da e0bd 1a73 563d 1c47 d8bb a49c 273e
000000c0: 64b6 0cbd d282 72bc 5a35 253c d7f3 d7bc
000000d0: 2eee f33d db72 9b3e 34e5 d2bc aa96 2abd
000000e0: 743f 8bbe a495 83be f640 c33e 036f 31be
000000f0: 2286 21bc 8a53 343d b634 14bd 6cbc a2bb
00000100: d030 ee3b e543 41bd 55d1 213d d704 57ba
00000110: 12ca b63b 0c5d 743e c958 273e bdca 0a3e
00000120: 215c 5ebc dbcb 21bb 126b 013c 7b93 dfbe
00000130: 7843 ab3e af80 003e 333f cebc a1d0 0ebd
00000140: 587d a53a b07b 0cbd bc8d d4bd a2d5 c5bd
00000150: 95ce 60bd 6d10 84bd d7fe aabd 42c7 2b3d
00000160: 5b4f 593d a4da 843d 8d96 09bf 452c bd3d
00000170: 8c3d 60bd 41f1 463d 35f3 1a3d d053 633d
00000180: 00d4 923c 1e2d 80bd 3bdc 6dbd fce3 b5bc
00000190: 4af6 cc3a 55e4 803c a89b c63d 2feb bd3d
000001a0: 82da d43d 85d2 003f 18f0 3cbf 3b16 52be
000001b0: e3f0 d23d 28a5 1e3d 7b1e 8f3d a48f 68bd
000001c0: c719 ccbd eb2c 79be bb45 433f 4226 61be
000001d0: 7c5f 373e a48f b2be 4c43 2cbe 5deb 043f
000001e0: 5652 bfbe 386e 86be 4d03 62be e568 b5bd
000001f0: 3bce 31bd b1f7 10be 32f2 073e c01d b33d
00000200: c91a 273e 1363 483d 5c02 193d a0bc 933d
00000210: f3d6 d43d 20c8 4f3e 2f0b d43e 6bb4 d73d
00000220: 63b6 043e f1b5 763d 9415 343d bf22 833b
00000230: 63b5 d83b e538 123c 10ed adbc 5407 efbc
00000240: e03a 003d 6fd7 0abe a28a f1be f350 48be
00000250: c120 84be 1f0d 4ebe ea01 2d3c 8fdd 18bc
00000260: 801f ce3c 5246 953d b37d bf3d 278c d53d
00000270: daf9 7c3e 9e3e 0c3e c180 8c3c 01f7 1bbc
00000280: d6c9 493c 1bb7 223c f649 12bd 9708 01bb
00000290: 4ba8 553d 40a1 cbbc 701f 383d 9fd1 55be
000002a0: 0e65 713c b8b0 883c 7c64 ce3c 37cd a63c
000002b0: 7d89 583d df24 903d 9501 4cbd 6caf 40bd
000002c0: 2534 1abd 0f99 72bd 26db 85bd be03 173f
000002d0: e4df c73c 6207 243c 42b7 02bb c0da 2a3c
000002e0: a61a 9bbc 753c 863c ad46 44bc cb1a b93d
000002f0: 3010 10bc abbf 373c 0f4c c93c 0e90 e13c

encoder.block1.convblock3.0.pointwise_conv.weight f4 [64, 64, 1]
-0.004677612 0.054030016 -0.24593745 -0.2888705 -0.09145499 -0.034129135 0.010230039 -0.019698875
0.16475762 0.0013678276 0.003262978 -0.012907783 0.19934097 -0.020938473 0.012520385 -0.028848374
-0.005815688 -0.11187122 0.18435307 0.0024559076 -0.016086854 0.0020970758 -0.0011794441 -0.14199951
-0.04029827 -0.043486897 -0.0038818077 -0.018599337 -0.016617531 0.0059982073 -0.060263515 -0.041334365
-0.010311329 -0.00504985 -0.08036159 -0.3204872 -0.035693448 0.16408464 -0.104672186 0.116870165
0.20755397 0.1051582 -0.05209434 -0.039711278 0.12049446 0.012092582 -0.0028609636 0.0024267137
0.019994844 -0.12295916 0.0023676876 -0.0497181 0.041130744 -0.0045966576 0.012206715 0.22946754
0.0029871461 0.03832284 0.034296658 -0.0714888 -0.002389817 -0.006613705 -0.001690967 0.0028260984
-0.011964896 0.022358332 0.047549505 0.032391965 -0.006068226 0.038405593 0.00435049 -0.011309059
-0.04533694 0.0072810273 0.00030405782 -0.02090333 -0.0035847223 0.019993598 0.025682593 0.0045005525
0.008627583 0.011393452 -0.018523417 0.23066571 0.0077755353 -0.0019901162 -0.012948171 -0.069467545
0.01093526 -0.10948846 0.0012257128 0.026604408 0.019799838 -0.0011292244 -0.09112239 0.008481335
0.0068280785 -0.0031382344 0.014471813 -0.2857199 -0.016654242 0.0010703646 -0.046778165 0.20415255
0.013262635 -0.040702548 -0.040699497 0.00248884 0.03825878 -0.031677876 -0.0034599423 0.0008790967
-0.018697644 0.055640657 0.0055007786 -0.0011544101 0.051988542 0.0028480752 0.010204552 -0.039938577
-0.005955516 -0.016548883 -0.0036072747 -0.072314344 -0.003185782 0.0066803955 -0.013912458 -0.00015287867
-0.0058573284 0.018772513 0.3139192 0.057114467 0.0016260067 0.18733628 0.035288587 0.0015616107
-0.13749935 0.12158901 0.0015390113 -0.09661348 0.18211685 0.08893967 0.12666261 0.08852411
0.0032600458 -0.008456613 -0.14661793 -0.0653998 -0.0043274257 0.0055181766 -0.00041992016 -0.07106895
-0.019650435 -0.13226348 0.028218996 0.09092193 0.14873663 -0.03962496 -0.108406045 0.013247522
-0.0006106415 0.0007514775 -0.07990957 -0.27167514 -0.048246246 -0.06396966 -0.06506025 -0.078679815
-0.21502966 0.043395635 -0.15756944 0.0011452584 0.3924113 -0.18264782 -0.013633869 0.0024101199
-0.03710807 0.3336764 -0.0047647683 -0.06091261 0.14551248 0.0031934413 0.0072761774 -0.08803319
-0.019827396 -0.09066273 0.017774971 -0.17833349 -0.012552576 -0.0039929305 -0.021019852 -0.020792427
0.09667031 0.09400292 -0.019665621 -0.107568905 -0.046259616 0.037378453 0.05192168 -0.017680427
0.042664368 0.006033509 0.0034277579 -0.022396667 0.10881115 0.021993795 0.005092616 -0.046687532
-0.014084577 -0.074068785 0.060470186 0.13449693 -0.0027532808 0.009688688 -0.00517791 -0.1466351
-0.034102567 0.009248393 -0.0068423017 0.06022293 0.058198504 -0.017201815 0.36698774 -0.037000973
0.025867762 -0.007904618 -0.06975179 0.0055548293 -0.03311364 0.03062551 0.5575258 0.08375437
0.083805434 0.047190733 -0.046492852 -0.04883681 0.08261337 -0.07137686 -0.011575565 0.0013121053
0.12877874 0.06354997 -0.0011418621 -0.011910455 0.027847331 -0.0030435426 -0.009223272 0.08750582
-0.0048176786 -0.06662616 0.030594677 -0.081749335 0.0035652716 0.0008269139 0.0019874566 0.0016499078
00000000: a746 99bb 944e 5d3d 07d7 7bbe d6e6 93be
00000010: c14c bbbd feca 0bbd e59b 273c 895f a1bc
00000020: 39b6 283e ae48 b33a b0d7 553b 2a7b 53bc
00000030: 0a20 4c3e 2987 abbc 4d22 4d3c 6d53 ecbc
00000040: 8791 bebb bd1c e5bd 0dc7 3c3e 4bf3 203b
00000050: 94c8 83bc 186f 093b 9497 9aba 5268 11be
00000060: cc0f 25bd 511f 32bd ed65 7ebb a35d 98bc
00000070: 7d21 88bc 9c8c c43b e0d6 76bd 394e 29bd
00000080: d9f0 28bc 3679 a5bb 9e94 a4bd e616 a4be
00000090: 4b33 12bd ce05 283e 5f5e d6bd a059 ef3d
000000a0: 0789 543e 2f5d d73d e060 55bd 4ba8 22bd
000000b0: cdc5 f63d f71f 463c 017f 3bbb 8009 1f3b
000000c0: 3acc a33c 03d2 fbbd 352b 1b3b 35a5 4bbd
000000d0: b678 283d 8f9f 96bb acfe 473c 8af9 6a3e
000000e0: ffc3 433b 69f8 1c3d a77a 0c3d b868 92bd
000000f0: 7a9e 1cbb c7b7 d8bb 70a3 ddba 1036 393b
00000100: 6908 44bc d228 b73c 45c3 423d 70ad 043d
00000110: f8d7 c6bb 2f4f 1d3d 8e8e 8e3b a249 39bc
00000120: 3ab3 39bd af95 ee3b f369 9f39 763d abbc
00000130: a9ed 6abb 9dc9 a33c 4d64 d23c 5f79 933b
00000140: b55a 0d3c 9aab 3a3c 6cbe 97bc a233 6c3e
00000150: ebc9 fe3b 9c6c 02bb 9124 54bc 0045 8ebd
00000160: ce29 333c 7c3b e0bd 19a8 a03a 7df1 d93c
00000170: 4533 a23c 7c02 94ba 609e babd 4cf5 0a3c
00000180: 13be df3b d6aa 4dbb 2f1b 6d3c e149 92be
00000190: 7a6e 88bc 7a4b 8c3a 769a 3fbd 5e0d 513e
000001a0: 864b 593c b7b7 26bd 84b4 26bd ce1b 233b
000001b0: 3db5 1c3d a9c0 01bd 33c0 62bb 2e73 663a
000001c0: cd2b 99bc 75e7 633d e03f b43b 934f 97ba
000001d0: f0f1 543d c6a6 3a3b fe30 273c a296 23bd
000001e0: 7d26 c3bb 8691 87bc 0768 6cbb 8b19 94bd
000001f0: 8ec8 50bb 38e7 da3b 14f1 63bc 0e4e 20b9
00000200: d5ee bfbb d0c8 993c 04ba a03e dcf0 693d
00000210: bb1f d53a 15d5 3f3e c48a 103d f6ae cc3a
00000220: a1cc 0cbe a903 f93d a6b8 c93a 4add c5bd
00000230: d77c 3a3e 0026 b63d d8b3 013e 214c b53d
00000240: 7ea6 553b 9b8d 0abc 0323 16be 55f0 85bd
00000250: 14cd 8dbb d2d1 b43b bb28 dcb9 998c 91bd
00000260: f3f9 a0bc 1470 07be 862b e73c 4735 ba3d
00000270: 6a4e 183e c84d 22bd fd03 debd 220c 593c
00000280: 7513 20ba cdfe 443a a1a7 a3bd 0119 8bbe
00000290: db9d 45bd 8602 83bd 4f3e 85bd e222 a1bd
000002a0: bc30 5cbe 9fbf 313d e259 21be 7f1c 963a
000002b0: 22ea c83e 0808 3bbe 9760 5fbc 1af3 1d3b
000002c0: a2fe 17bd a2d7 aa3e c621 9cbb 807f 79bd
000002d0: 3901 153e 0e49 513b 006d ee3b bf4a b4bd
000002e0: 106d a2bc 62ad b9bd d19c 913c 0e9d 36be
000002f0: 52a9 4dbc 21d7 82bb d331 acbc e154 aabc
00000300: 15fb c53d 9a84 c03d cc19 a1bc 164d dcbd
00000310: b97a 3dbd 261a 193d d4ab 543d 8bd6 90bc
00000320: d5c0 2e3d beb4 c53b 3ca4 603b 3779 b7bc
00000330: 61d8 de3d 552c b43c f6df a63b 6d3b 3fbd
00000340: ffc2 66bc 60b1 97bd 96af 773d 90b9 093e
00000350: 6370 34bb 4ebd 1e3c 75ab a9bb 8327 16be
00000360: 22af 0bbd 9286 173c 6335 e0bb 52ac 763d
00000370: 8e61 6e3d d2ea 8cbc d1e5 bb3e 558e 17bd
00000380: a1e8 d33c 5f82 01bc 07da 8ebd 4905 b63b
00000390: 2ba2 07bd 59e2 fa3c 03ba 0e3f 6987 ab3d
000003a0: 2fa2 ab3d 124b 413d 4a6f 3ebd 1b09 48bd
000003b0: 3331 a93d 082e 92bd 70a7 3dbc f3fa ab3a
000003c0: 93de 033e 7d26 823d 89aa 95ba 1224 43bc
000003d0: 1620 e43c 2c76 47bb 351d 17bc 4036 b33d
000003e0: 9edd 9dbb 4c73 88bd b0a1 fa3c 326c a7bd
000003f0: 55a7 693b 41c5 583a fd3f 023b b841 d83a

encoder.block1.convblock3.1.weight f4 [64]
0.5588472 0.43396166 0.735704 0.5250718 0.1417309 0.19275887 0.22146767 0.3560978
0.19872953 0.45800695 0.33592334 0.04377614 0.44485188 0.48932323 0.24722707 0.42413867
0.12597974 0.4420766 0.45251653 0.1605456 0.20462345 0.2507358 0.22453828 0.31831685
0.19465937 0.12921251 0.25612774 0.40606692 0.43168938 0.33514372 0.4365187 0.529697
0.30124772 0.24221225 0.4330958 0.37638602 0.33510408 0.16919957 0.5099543 0.14287168
0.16958494 0.15600616 0.26859832 0.20575367 0.557586 0.3591157 0.5919581 0.37632686
0.3463282 0.40311998 0.39962503 0.27656156 0.28780368 0.23727523 0.21534516 0.5088574
0.5195708 0.4616835 0.4392393 0.12381848 0.4628296 0.3433546 0.7872537 0.2552621
00000000: 9c10 0f3f 3930 de3e 1957 3c3f 1b6b 063f
00000010: e821 113e 9562 453e 6cc8 623e 7352 b63e
00000020: c17f 4b3e e37f ea3e 25fe ab3e 9c4e 333d
00000030: a0c3 e33e 9388 fa3e 1829 7d3e b428 d93e
00000040: d500 013e dd57 e23e 3fb0 e73e 1166 243e
00000050: cf88 513e 7160 803e 5ded 653e 6dfa a23e
00000060: c954 473e 4950 043e 2d23 833e 01e8 cf3e
00000070: 6406 dd3e f597 ab3e 617f df3e 399a 073f
00000080: 243d 9a3e 7d06 783e bcbe dd3e abb5 c03e
00000090: c392 ab3e a742 2d3e 5d8c 023f f44c 123e
000000a0: ada7 2d3e 14c0 1f3e b885 893e 17b1 523e
000000b0: f5bd 0e3f 03de b73e 918a 173f eaad c03e
000000c0: ee51 b13e be65 ce3e a79b cc3e 7a99 8d3e
000000d0: 015b 933e 47f8 723e 7183 5c3e 7b44 023f
000000e0: 9802 053f c861 ec3e f9e3 e03e 8b94 fd3d
000000f0: 00f8 ec3e 2dcc af3e 7589 493f b7b1 823e

encoder.block1.convblock3.1.bias f4 [64]
-0.18256906 -0.101300105 -0.32674104 -0.049599648 -0.0020589528 0.030151725 0.1075582 -0.016517105
0.02178612 -0.26015368 -0.085219935 -0.0012838062 0.0044775573 -0.36927065 0.045302343 -0.045913827
0.02264862 -0.17773867 -0.3907625 -0.017509675 0.027010595 -0.15695445 0.0020205074 -0.15705223
0.0426934 -0.055151973 -0.18478687 -0.29671526 -0.28270295 -0.022199566 0.00021997116 -0.0143981185
0.017695008 -0.02449886 -0.1585623 0.004959651 0.020926759 -0.08367475 -0.056218803 -0.03452297
-0.04204773 0.037878178 -0.18317619 -0.010764959 -0.110901825 -0.021793474 -0.19371592 -0.13361444
-0.060784265 -0.17263173 -0.041433744 -0.026144996 -0.16837288 -0.12500453 0.05407842 -0.17279804
-0.11564623 -0.011015096 -0.18643385 0.009477944 0.015707849 0.014046037 -0.28281134 -0.017620057
00000000: 62f3 3abe 6e76 cfbd 9a4a a7be 0029 4bbd
00000010: 7fef 06bb c000 f73c 7947 dc3d e14e 87bc
00000020: ce78 b23c dd32 85be ca87 aebd 6345 a8ba
00000030: 79b8 923b 0b11 bdbe f38e 393d 2310 3cbd
00000040: 9989 b93c 2001 36be 0612 c8be 7370 8fbc
00000050: 5345 dd3c abb8 20be 7d6a 043b 4dd2 20be
00000060: 46df 2e3d 09e7 61bd c538 3dbe 10eb 97be
00000070: 71be 90be dddb b5bc 0fa8 6639 16e6 6bbc
00000080: 1ff5 903c d5b1 c8bc 285e 22be 9184 a23b
00000090: 986e ab3c ab5d abbd b045 66bd f567 0dbd
000000a0: 3e3a 2cbd 2626 1b3d 8a92 3bbe 835f 30bc
000000b0: 7f20 e3bd 3a88 b2bc 775d 46be 39d2 08be
000000c0: ecf8 78bd 5fc6 30be 6eb6 29bd 082e d6bc
000000d0: f169 2cbe 3001 00be 5581 5d3d f8f1 30be
000000e0: eed7 ecbd a978 34bc 84e8 3ebe 6149 1b3c
000000f0: bfad 803c 5921 663c a6cc 90be f057 90bc

encoder.block1.convblock3.1.running_mean f4 [64]
0.047670256 0.014310246 0.06830317 0.045745358 0.013588173 -0.003666202 -0.015327854 -0.0042663687
-0.026846545 0.06991458 -0.007820718 -0.0016913832 0.08146381 0.07655095 -0.023814762 0.05205817
-0.032480694 0.035847817 -0.004781362 0.016471561 -0.029523956 0.04108993 0.0145044 0.026975304
-0.017154237 0.022673782 0.0019556184 0.019380456 0.04884912 0.029489014 -0.018318042 0.11007571
-0.005228726 -0.016728902 0.015219994 -0.051048193 -0.030789131 0.019627264 0.046162058 0.0006481429
-0.002642933 -0.0145851225 0.018328216 0.02505275 0.04638362 0.04289223 0.06374576 -0.05298654
-0.009372944 0.04859689 -0.020537373 -0.056399267 -0.02568159 -0.008421241 -0.037248574 0.04178539
-0.015962057 -0.06212839 -0.018696757 -0.002134681 0.048088446 -0.013896427 0.048308007 0.0046868594
00000000: e341 433d 8675 6a3c 88e2 8b3d 7c5f 3b3d
00000010: eea0 5e3c aa44 70bb ae21 7bbc e5cc 8bbb
00000020: 49ed dbbc 602f 8f3d 7822 00bc 67b1 ddba
00000030: 7fd6 a63d bfc6 9c3d 2d17 c3bc f33a 553d
00000040: 7a0a 05bd 29d5 123d f9ac 9cbb 5eef 863c
00000050: 39dc f1bc ea4d 283d dda3 6d3c 50fb dc3c
00000060: 0b87 8cbc 5ebe b93c d529 003b c3c3 9e3c
00000070: 0416 483d f292 f13c b80f 96bc 606f e13d
00000080: bc55 abbb 0d0b 89bc 485d 793c e917 51bd
00000090: 7d39 fcbc 5bc9 a03c 6d14 3d3d 22e8 293a
000000a0: 0f35 2dbb 70f6 6ebc 0e25 963c 6d3b cd3c
000000b0: c0fc 3d3d c3af 2f3d 238d 823d 6a08 59bd
000000c0: fa90 19bc 880d 473d fe3d a8bc eb02 67bd
000000d0: 3362 d2bc 3ff9 09bc f691 18bd 2827 2b3d
000000e0: dcc2 82bc 577a 7ebd f129 99bc 01e6 0bbb
000000f0: 64f8 443d d7ad 63bc 9ede 453d 3a94 993b

encoder.block1.convblock3.1.running_var f4 [64]
0.035352807 0.021860274 0.036311988 0.039834715 0.0007057814 0.0015802851 0.013906925 0.0067052334
0.00058980135 0.0127906175 0.003625207 6.6904363e-06 0.019428572 0.012548032 0.01050036 0.016503617
0.00071669935 0.007970146 0.033404212 0.0012235455 0.0027243192 0.0032740699 0.0016912776 0.0068394854
0.0028499234 0.00043278828 0.0020361985 0.018739175 0.01022162 0.009225692 0.019714389 0.031438824
0.034814794 0.020508824 0.03711 0.016113142 0.030186797 0.0014038638 0.02263715 0.00094038714
0.0023081691 0.00121635 0.0035902627 0.0011922772 0.02736929 0.0112843495 0.013012962 0.03616051
0.010722354 0.010592836 0.022352943 0.008859491 0.007290714 0.0058378526 0.0052770125 0.011569854
0.07121885 0.020965053 0.022104949 0.00086795795 0.021418877 0.007907841 0.0805129 0.009693897
00000000: 1bce 103d 5114 b33c e1bb 143d ba29 233d
00000010: 3004 393a 9221 cf3a dfd9 633c 93b7 db3b
00000020: e69c 1a3a bd8f 513c e294 6d3b 697e e036
00000030: ab28 9f3c 4396 4d3c b409 2c3c 9832 873c
00000040: e1e0 3b3a 3795 023c dbd2 083d 605f a03a
00000050: 7e8a 323b c791 563b dcad dd3a c31d e03b
00000060: c8c5 3a3b dce7 e239 be71 053b e682 993c
00000070: 9578 273c 5b27 173c 1280 a13c ffc5 003d
00000080: f599 0e3d 1f02 a83c a800 183d b5ff 833c
00000090: 4d4a f73c da01 b83a 8b71 b93c 5084 763a
000000a0: a744 173b ef6d 9f3a 9d4a 6b3b 2f46 9c3a
000000b0: 9035 e03c fee1 383c 5234 553c 0b1d 143d
000000c0: d0ac 2f3c 938d 2d3c 851d b73c 6627 113c
000000d0: f1e6 ee3b 754b bf3b caea ac3b 7c8f 3d3c
000000e0: 30db 913d e7be ab3c 7015 b53c ac87 633a
000000f0: a476 af3c e48f 013c f3e3 a43d 27d3 1e3c

encoder.block1.shortcut.0.weight f4 [64, 1, 1]
0.055849567 -0.040019874 -0.035642706 0.0150853405 -0.01854243 -0.04143955 0.045343265 -0.040472675
0.016956626 2.429617e-07 0.04460947 0.018515581 -0.009683615 0.030908993 0.048521828 -0.03310867
-0.044477377 -0.034864403 -0.08828743 0.04233171 -0.03697734 -0.030553658 -0.038513046 0.033605475
-0.042471915 -0.02394209 0.024929445 -0.030027736 -0.03369079 -0.030433051 0.064004175 0.06340536
-0.050698005 0.026291845 0.038065765 0.045648526 0.031047925 -0.02952358 -0.03747962 -0.018523168
-0.02434704 0.020231478 -0.042359736 -0.033107206 0.04641285 0.03413733 0.04470253 -0.025368406
-0.04757014 -0.028054498 -0.057298165 -0.022670813 0.034287967 -0.037318867 -0.042204708 0.04212047
0.031380102 0.051278114 0.030874187 -0.036059726 0.048431203 -0.01691981 0.049944628 -0.027591478
00000000: 84c2 643d e1eb 23bd 16fe 11bd 8128 773c
00000010: 4be6 97bc 85bc 29bd dcb9 393d adc6 25bd
00000020: 9fe8 8a3c 6770 8234 6bb8 363d fdad 973c
00000030: 06a8 1ebc db34 fd3c d3be 463d f59c 07bd
00000040: e92d 36bd facd 0ebd 0ad0 b4bd 0464 2d3d
00000050: 8d75 17bd aa4b fabc dbbf 1dbd e5a5 093d
00000060: 08f7 2dbd 3422 c4bc d638 cc3c bafc f5bc
00000070: 5bff 09bd bc4e f9bc 9f14 833d abda 813d
00000080: b6a8 4fbd ff61 d73c d9ea 1b3d f3f9 3a3d
00000090: 3858 fe3c 6fdb f1bc 3b84 19bd e6bd 97bc
000000a0: 7273 c7bc 7cbc a53c 6781 2dbd 6c9b 07bd
000000b0: 671b 3e3d 96d3 0b3d 001a 373d 67d1 cfbc
000000c0: e8d8 42bd 8cd2 e5bc 7bb1 6abd 24b8 b9bc
000000d0: 8a71 0c3d abdb 18bd d8de 2cbd 8486 2c3d
000000e0: 6c88 003d 0009 523d ddeb fc3c 5db3 13bd
000000f0: cc5f 463d 6a9b 8abc bd92 4c3d 8607 e2bc

encoder.block1.shortcut.1.weight f4 [64]
0.1324836 -0.09629001 -0.08304042 -0.010875663 0.020582575 0.038638536 0.14605239 0.05661023
0.021755725 2.4263437e-07 0.07261082 0.04289329 0.00800487 0.0653102 0.14712085 0.08102881
0.006199854 -0.12461709 -0.5775187 0.02274471 0.10861613 0.06519986 0.034584332 -0.0013525834
0.042193092 0.013987201 -0.064263396 -0.038105436 -0.08093131 -0.059760418 -0.29725835 -0.2685508
0.17636356 -0.05226363 -0.091101065 0.14663473 0.008496702 0.008103711 0.08256103 0.04244657
0.033576068 0.023898287 0.05841888 0.060976684 -0.16840269 0.07823411 0.17086738 0.047260776
0.12540872 0.10836818 -0.10408432 0.03512205 0.09487269 0.061082218 0.06279592 -0.12615442
-0.06762614 -0.17674775 -0.06818507 0.06873235 0.15488082 0.012125035 0.15648349 -0.031694584
00000000: c8a9 073e b233 c5bd 1911 aabd d62f 32bc
00000010: ca9c a83c 7143 1e3d c28e 153e 21e0 673d
00000020: 1039 b23c 6a43 8234 fbb4 943d e0b0 2f3d
00000030: dc26 033c 5bc1 853d d9a6 163e 6ff2 a53d
00000040: 2528 cb3b 3f37 ffbd 44d8 13bf 1d53 ba3c
00000050: 2272 de3d 8187 853d 4da8 0d3d 2b49 b1ba
00000060: aad2 2c3d 932a 653c 879c 83bd 7214 1cbd
00000070: 51bf a5bd 57c7 74bd 3f32 98be 7e7f 89be
00000080: a698 343e 6312 56bd 3293 babd 6a27 163e
00000090: c035 0b3c 6dc5 043c c215 a93d 74dc 2d3d
000000a0: 0f87 093d 57c6 c33c a348 6f3d b0c2 793d
000000b0: c171 2cbe 3439 a03d dcf7 2e3e 8494 413d
000000c0: 256b 003e 23f0 dd3d 292a d5bd 24dc 0f3d
000000d0: 9d4c c23d 5931 7a3d 269b 803d a02e 01be
000000e0: 937f 8abd 5dfd 34be 9da4 8bbd 8cc3 8c3d
000000f0: 1499 1e3e 15a8 463c 353d 203e 2ed2 01bd

encoder.block1.shortcut.1.bias f4 [64]
-0.18256906 -0.101300105 -0.32674104 -0.049599648 -0.0020589528 0.030151725 0.1075582 -0.016517105
0.02178612 -0.26015368 -0.085219935 -0.0012838062 0.0044775573 -0.36927065 0.045302343 -0.045913827
0.02264862 -0.17773867 -0.3907625 -0.017509675 0.027010595 -0.15695445 0.0020205074 -0.15705223
0.0426934 -0.055151973 -0.18478687 -0.29671526 -0.28270295 -0.022199566 0.00021997116 -0.0143981185
0.017695008 -0.02449886 -0.1585623 0.004959651 0.020926759 -0.08367475 -0.056218803 -0.03452297
-0.04204773 0.037878178 -0.18317619 -0.010764959 -0.110901825 -0.021793474 -0.19371592 -0.13361444
-0.060784265 -0.17263173 -0.041433744 -0.026144996 -0.16837288 -0.12500453 0.05407842 -0.17279804
-0.11564623 -0.011015096 -0.18643385 0.009477944 0.015707849 0.014046037 -0.28281134 -0.017620057
00000000: 62f3 3abe 6e76 cfbd 9a4a a7be 0029 4bbd
00000010: 7fef 06bb c000 f73c 7947 dc3d e14e 87bc
00000020: ce78 b23c dd32 85be ca87 aebd 6345 a8ba
00000030: 79b8 923b 0b11 bdbe f38e 393d 2310 3cbd
00000040: 9989 b93c 2001 36be 0612 c8be 7370 8fbc
00000050: 5345 dd3c abb8 20be 7d6a 043b 4dd2 20be
00000060: 46df 2e3d 09e7 61bd c538 3dbe 10eb 97be
00000070: 71be 90be dddb b5bc 0fa8 6639 16e6 6bbc
00000080: 1ff5 903c d5b1 c8bc 285e 22be 9184 a23b
00000090: 986e ab3c ab5d abbd b045 66bd f567 0dbd
000000a0: 3e3a 2cbd 2626 1b3d 8a92 3bbe 835f 30bc
000000b0: 7f20 e3bd 3a88 b2bc 775d 46be 39d2 08be
000000c0: ecf8 78bd 5fc6 30be 6eb6 29bd 082e d6bc
000000d0: f169 2cbe 3001 00be 5581 5d3d f8f1 30be
000000e0: eed7 ecbd a978 34bc 84e8 3ebe 6149 1b3c
000000f0: bfad 803c 5921 663c a6cc 90be f057 90bc
