ldpi/training/output/ResCNN/best_model_with_center.pth (torch, 711778 bytes, 64 tensors)

encoder.block1.convblock1.0.depthwise_conv.weight f4 [1, 1, 7]
000000 d5 2e 89 3e 83 9f 02 40 dd 19 5d 3e c9 99 5b 3e
       0.26793543 2.0409858 0.21591897 0.21445383
000010 6a 57 f2 3c 76 78 d1 3c 45 be 53 bd
       0.029582698 0.025570136 -0.051695127

encoder.block1.convblock1.0.pointwise_conv.weight f4 [64, 1, 1]
000000 00 67 39 bd c5 49 40 3c 4d 9b bd bc 55 31 9f 3c
       -0.045264244 0.011736338 -0.023145342 0.019432703
000010 66 df 10 bd e0 be 20 3d 55 25 81 3c 56 d4 13 ba
       -0.0353693 0.039244533 0.015764872 -0.00056392455
000020 27 53 29 3d 1c 64 d5 bb af 6c a1 bc d3 bf 80 bc
       0.041339066 -0.006512178 -0.019705145 -0.015716469
000030 3b 1a 95 3c 2e be 76 bc c6 59 29 bd 9f 07 05 3d
       0.018200984 -0.015059991 -0.04134538 0.03247797
000040 67 22 77 3c dd c7 03 3d e8 29 23 3d e4 ea 80 3c
       0.015083886 0.032173026 0.039834887 0.015737005
000050 3c 73 1d 3d 0c 82 44 3c 11 e1 13 bd ae eb 2e bd
       0.038439974 0.011993896 -0.036103312 -0.04270523
000060 9c 8f a1 bb 98 4b 9d 3c 8f 1a 21 bc e3 a4 40 3c
       -0.0049304496 0.019201085 -0.009832992 0.011758062
000070 21 48 36 3c 1f cb 2b 3d 33 35 16 3d 47 41 93 3c
       0.011125595 0.04194176 0.03667183 0.017975463
000080 e0 f9 bd 3c a8 e2 09 bd bc 95 1d 3d d1 ab 96 39
       0.023190439 -0.033663422 0.038472876 0.00028738243
000090 35 58 4d bc df 84 fd bc aa bc 2c bd 2c 4a bf 3c
       -0.012533237 -0.030947147 -0.04217211 0.023350798
0000a0 9f 81 4b bd aa 85 a1 3c f7 ab b1 3c d9 aa a2 3d
       -0.049684163 0.019717056 0.021688445 0.07942743
0000b0 5d 7b e5 bc 50 e7 93 ba 19 b3 12 bd 85 94 a6 3b
       -0.028012926 -0.0011284146 -0.035815332 0.005083623
0000c0 7b 77 5b 3c 3e 78 da 3c 20 c2 7d bb 39 f8 3c 3d
       0.013395186 0.026668664 -0.0038720444 0.04613516
0000d0 ea 93 0e 3d fc ac 9a 3e e0 9d 80 bc 2b be 35 3d
       0.03480903 0.30210102 -0.01570028 0.04437081
0000e0 61 4d ae bc b3 93 de bc 1f 2d 25 3d 8a 0c 20 ba
       -0.021277132 -0.027170038 0.040326234 -0.0006105384
0000f0 01 c0 37 bd 26 2c 87 3c 92 7d b0 3c 71 22 29 3d
       -0.044860844 0.016500544 0.021544252 0.04129261

encoder.block1.convblock1.1.weight f4 [64]
000000 c1 d5 4b 3e 30 a7 8d 3d 62 8d 43 bb 48 7c c8 3e
       0.1990576 0.06916654 -0.002983891 0.3915732
000010 38 27 c5 3e 36 22 68 3d 70 94 35 3e 6c 4f 96 3e
       0.38506484 0.05667325 0.17732406 0.2935747
000020 48 8b 4a 3e 59 bd b1 3d 69 f5 5d 3e 39 eb ad 3e
       0.19779694 0.08678693 0.21675648 0.33968523
000030 25 53 0b 3f 3a c0 ba 3e b3 23 ae 3e 47 06 91 3d
       0.54423743 0.36474782 0.3401161 0.070812754
000040 95 b3 78 3e f9 1f 1b 3e 4c 62 d4 3d 95 25 fa 3d
       0.24287255 0.15148915 0.10370311 0.122141995
000050 a0 70 a8 3e c2 8f a7 3d 7d 67 d9 3d d5 d9 ad 3d
       0.32898426 0.081817165 0.10615442 0.08488814
000060 51 1c e7 3e 67 dd 28 3e 2d 63 85 3d 54 60 90 3e
       0.4513879 0.16490708 0.06513057 0.28198493
000070 e1 22 b5 3d e8 a6 21 3f 27 80 20 3e cb 49 db 3d
       0.08844543 0.63145304 0.15673886 0.10707434
000080 98 1c 73 3e 8b 8d 14 3d a9 9d 14 3f 9d 5a d7 3e
       0.23741376 0.0362678 0.5805307 0.4206132
000090 6a c6 52 3d 8f a4 d4 3d e3 ca 45 3e 2d 75 35 3e
       0.051458754 0.103829496 0.19315676 0.1772048
0000a0 41 18 2d 3f cd 45 9e bc ed 81 70 3e dc 51 1e 3f
       0.67615134 -0.019320393 0.23487063 0.6184366
0000b0 3c 83 7e 3e ea e5 00 3f 78 db a5 3d f2 8c 6b 3d
       0.2485475 0.5035082 0.08098501 0.057507463
0000c0 79 68 96 3e 71 1c d5 3e 35 c4 b2 3e 1c 13 e6 3e
       0.2937658 0.41623262 0.3491532 0.44936454
0000d0 0c a0 a8 3d 03 69 0f 3f 56 8a 1f 3e 00 c7 26 3f
       0.082336515 0.5601961 0.15580115 0.651474
0000e0 ae 7b 1f 3f 87 77 f4 3d 90 24 2b 3d 45 33 b6 3e
       0.62298095 0.119368605 0.041782916 0.3558599
0000f0 4a 0e 10 3f 46 7c a7 3e 1c ba 72 3e 74 d8 08 3f
       0.56271803 0.32712 0.23703808 0.5345528

encoder.block1.convblock1.1.bias f4 [64]
000000 65 b2 88 be fb eb 41 bc 85 5b 55 3f 28 90 0c be
       -0.26698604 -0.011836047 0.8334277 -0.13726866
000010 83 20 89 3e 8a ae 6d bc b6 aa 8f 3d 21 24 87 bd
       0.26782617 -0.014506945 0.070149824 -0.06598688
000020 f6 1d 37 3e ab 0f 3a 3c 68 f4 70 3d 1f 02 b8 bd
       0.17882523 0.011356275 0.058826834 -0.089847796
000030 0b 4c 5a be 9b 72 d9 be 94 06 dd bd 33 75 b2 3d
       -0.2131807 -0.4247025 -0.1079227 0.0871376
000040 5f d6 ae bd fa d2 31 bd ca ae d8 3d 67 ee 10 bd
       -0.08536982 -0.043414094 0.10580213 -0.03538361
000050 49 95 16 be c2 53 86 3d 9e b6 09 be 1d fa f4 bd
       -0.14705385 0.06558944 -0.13448569 -0.11961768
000060 d3 1f fa be 27 6a 5d 3e 37 a6 33 bd 53 28 a2 bd
       -0.48852405 0.21622525 -0.043859687 -0.079178475
000070 cc 2c be 3e cb 45 d1 3e b2 bc 3e bd d6 a4 02 bd
       0.37143552 0.4087356 -0.046566673 -0.03189548
000080 61 57 92 3e cf c8 3f bd 35 ab 17 3e 72 21 cd bd
       0.2858229 -0.046822365 0.14811404 -0.10016145
000090 bd f6 4b bc f9 b0 d4 bc 6a da 7c be 94 51 84 bd
       -0.012448964 -0.025963293 -0.24692693 -0.06460872
0000a0 ec e0 87 ba 57 cd 8e 3e 3e 4d 47 3e fb 35 0e 3f
       -0.0010366715 0.27891037 0.1946306 0.5555112
0000b0 2f d6 5b 3d 3a 83 57 be db e8 de bd 0d ff c0 bc
       0.05367106 -0.21046153 -0.108842574 -0.023559118
0000c0 77 e6 ed bd d9 e9 e2 3d 5b be e6 be 59 e5 e7 3d
       -0.11616223 0.11079759 -0.45067105 0.113230415
0000d0 3b 53 b7 bc f5 63 2f 3f dd 92 0e 3d 99 4a 23 3e
       -0.022378555 0.685119 0.03480803 0.15946425
0000e0 4b d4 61 be f7 7a 10 be 5f bd dc bc 33 3e 1d be
       -0.2205364 -0.14109407 -0.026945768 -0.15355758
0000f0 24 6e 10 3e ed 2f eb bd 80 6b a4 bd 3d 38 78 3e
       0.14104515 -0.114837505 -0.080283165 0.24240203

encoder.block1.convblock1.1.running_mean f4 [64]
000000 04 11 08 bd 8d 1e 0d 3c 15 27 8b bc 62 8f 69 3c
       -0.033219352 0.008613241 -0.01698641 0.0142553765
000010 ae a1 d4 bc 25 f1 eb 3c cc 91 3d 3c cc fb d8 b9
       -0.025956001 0.02880151 0.011570405 -0.00041386334
000020 be 88 f8 3c b3 9b 9c bb 36 ef 6c bc 8c ff 3c bc
       0.030338641 -0.004779303 -0.014461329 -0.0115355365
000030 0e d4 5a 3c 56 15 35 bc c9 92 f8 bc b8 42 c3 3c
       0.013356222 -0.01105245 -0.03034343 0.023835525
000040 81 63 35 3c 67 6d c1 3c c1 7d ef 3c ec 39 3d 3c
       0.011071087 0.023611737 0.029234769 0.011549454
000050 fa 19 e7 3c 8f 37 10 3c 7c 0e d9 bc ba 5f 00 bd
       0.028210629 0.008802309 -0.026496165 -0.031341292
000060 85 23 6d bb 11 e1 66 3c 96 77 ec bb 36 49 0d 3c
       -0.0036184501 0.014091746 -0.007216404 0.008623412
000070 11 ca 05 3c 0c 27 fc 3c 7c 79 dc 3c 8a 23 58 3c
       0.008165852 0.030780338 0.026913397 0.013192067
000080 bd 6c 8b 3c 3b 63 ca bc 36 4c e7 3c 95 27 5d 39
       0.017019624 -0.02470552 0.028234582 0.00021090948
000090 bd b3 16 bc aa 0e ba bc ef 8a fd bc c9 62 8c 3c
       -0.009198126 -0.02271207 -0.030950038 0.017136948
0000a0 29 5a 15 bd 24 15 6d 3c fe 65 82 3c 43 c3 6e 3d
       -0.036462937 0.014470372 0.015917774 0.058291685
0000b0 e9 69 a8 bc a8 17 59 ba 42 53 d7 bc 2d 82 74 3b
       -0.020558314 -0.0008281418 -0.026284818 0.0037309036
0000c0 eb f8 20 3c 93 5d a0 3c 9c 3b 3a bb 0c af 0a 3d
       0.009824972 0.01957587 -0.0028416878 0.033858344
0000d0 79 46 d1 3c 50 08 63 3e c4 c6 3c bc 08 61 05 3d
       0.0255463 0.2217114 -0.011521999 0.03256324
0000e0 91 e5 7f bc 51 59 a3 bc f9 71 f2 3c 62 eb ea b9
       -0.015618698 -0.01994005 0.029595362 -0.00044807332
0000f0 d4 da 06 bd 10 61 46 3c 7f 86 81 3c ff 44 f8 3c
       -0.032923535 0.012108102 0.015811203 0.030306337

encoder.block1.convblock1.1.running_var f4 [64]
000000 f7 c9 7f 3a d1 91 89 38 0b c3 85 39 eb 6a 3c 39
       0.0009757573 6.5598295e-05 0.00025513055 0.00017968907
000010 76 29 1c 3a 31 47 40 3a 83 3f f8 38 a6 9e 22 34
       0.0005957106 0.0007334827 0.000118373915 1.5145142e-07
000020 76 59 55 3a e8 6c a9 37 2e e6 41 39 fd c0 f6 38
       0.0008138636 2.0197083e-05 0.00018491663 0.00011766141
000030 62 65 25 39 1f 85 e2 38 b2 6a 55 3a 54 b0 03 3a
       0.00015773394 0.000108013155 0.0008141204 0.00050235284
000040 d2 48 e3 38 43 3a 01 3a 3e 1b 46 3a a7 59 f7 38
       0.00010837767 0.0004929641 0.000755716 0.00011794577
000050 3a 78 38 3a ea ac 8f 38 a9 ba 22 3a 2b af 63 3a
       0.0007036958 6.850979e-05 0.0006207624 0.0008685465
000060 d0 3b 42 37 6d 1d 38 39 91 22 41 38 a0 e5 89 38
       1.1577227e-05 0.0001755857 4.604698e-05 6.57544e-05
000070 64 4c 77 38 63 9b 5b 3a fb e4 27 3a 23 5b 21 39
       5.8960533e-05 0.00083773414 0.0006404665 0.00015388108
000080 1e 49 86 39 3b 7a 0d 3a 71 c8 38 3a 8c ee 28 33
       0.00025612948 0.0005396937 0.0007048911 3.9332505e-08
000090 2c e3 9c 38 82 22 ef 39 ff 08 5e 3a af 24 88 39
       7.480974e-05 0.00045611343 0.00084699685 0.00025967273
0000a0 dd 16 9a 3a 41 24 42 39 fe eb 6a 39 31 e7 44 3b
       0.0011756081 0.00018514787 0.00022403893 0.0030045027
0000b0 79 ee c3 39 68 c8 22 35 bb 24 20 3a 74 7e 4e 37
       0.00037370974 6.064133e-07 0.0006108989 1.2307999e-05
0000c0 87 00 b3 38 c1 a6 b1 39 18 96 ef 36 ab dc 84 3a
       8.535483e-05 0.00033884312 7.1402283e-06 0.0010136565
0000d0 58 45 17 3a ea 07 32 3d fa 2c f6 38 d8 c8 75 3a
       0.0005770526 0.04346458 0.000117385716 0.00093759364
0000e0 1b 2d 62 39 ee 52 b8 39 0e 06 4b 3a 7c 9d 3e 34
       0.00021569843 0.00035157002 0.00077447377 1.7752421e-07
0000f0 e5 40 7b 3a f0 ed 07 39 81 c9 67 39 3b e5 54 3a
       0.000958456 0.00012963242 0.00022104943 0.0008121316

encoder.block1.convblock2.0.depthwise_conv.weight f4 [64, 1, 5]
000000 dc fa dc 3d 2a 27 a8 3d 73 ab 8e 3d f3 09 f1 3d
       0.10790035 0.08210595 0.06966295 0.11769476
000010 e6 06 c1 3d d3 a8 9a 3c 3a 26 1b 3d d4 a5 30 3d
       0.09425144 0.01887933 0.037878253 0.043126896
000020 64 00 fc 3b 6e 20 97 bc d7 ac fa 3e e5 60 63 3d
       0.0076904763 -0.01844808 0.4895999 0.055512328
000030 18 c1 85 be 16 ee a4 3c 0a b1 e2 3e 7d 0d 02 be
       -0.2612388 0.02013306 0.44275695 -0.12700458
000040 2e d3 2a be d1 eb 4b bd ab 1a 1f be 06 0f 14 be
       -0.16682121 -0.04978544 -0.15537517 -0.14458856
000050 e5 28 ec be 96 cd 55 be a0 62 b6 3c 48 6a c6 3c
       -0.4612495 -0.20879206 0.022263825 0.0242206
000060 d2 4c 3e 3d b6 53 2b bd ce 1c 63 bc 49 93 53 3c
       0.04645998 -0.04182788 -0.013861848 0.0129135335
000070 fc a2 26 bc 64 55 9a bc 7e 1c 98 3d a3 6d 9f 3d
       -0.010170694 -0.018839546 0.074273095 0.077845834
000080 ed 2b 8d 3c d5 28 06 3d a8 f3 72 3d 62 a4 2c bd
       0.01723286 0.032753784 0.0593144 -0.042148955
000090 28 9e 1b bd 7d 8c 36 be 90 d2 fe bd f9 ad d9 bd
       -0.037992626 -0.1782703 -0.12442505 -0.10628886
0000a0 7c 37 dc bb b2 fd 69 3d 91 45 7c 3d 2e 15 2a 3d
       -0.0067204814 0.05712671 0.06158978 0.041524105
0000b0 f2 af 5e 3c 6c 5c 12 3d f5 05 47 3d 86 3c 7a bc
       0.013591753 0.03573267 0.048589665 -0.015273219
0000c0 92 ae cb 3c 19 92 06 3c 81 e9 90 bd 7c d9 12 bd
       0.024863515 0.008213543 -0.07075787 -0.03585194
0000d0 1a c3 ac bd 2f 94 b9 bc 16 65 d5 bc 1c 40 a9 bd
       -0.0843565 -0.022653667 -0.026049178 -0.08264181
0000e0 aa 81 c7 bd e0 ad b4 bd 90 8d 7d bd c6 b1 c7 bd
       -0.09741528 -0.088222265 -0.061902583 -0.097507045
0000f0 fc 5c 90 bc 78 c8 23 bd 4d e2 9c bd e1 46 39 bd
       -0.017622463 -0.039986104 -0.07660351 -0.04523361
000100 d6 1e f0 bd dc 10 c0 3c f7 c2 16 3d 62 ef 27 3d
       -0.117246315 0.02344554 0.036807027 0.040999778
000110 37 40 6e 3d b0 23 df 3d 15 ea 99 bd d9 dc 06 be
       0.05816671 0.10895479 -0.07515351 -0.13170184
000120 6a 5f 94 bd 53 1f a0 bd 1a 19 fd bd 8b 44 a1 3c
       -0.07244761 -0.078184746 -0.12358303 0.019686004
000130 6a 89 3a 3d 68 bb 03 bd dc bb 83 3b 93 ad 12 3c
       0.045541205 -0.032161146 0.0040201973 0.008952516
000140 2d 8f 58 3d 04 df 9e 3d 4a 83 cd 3c 55 0e 94 3d
       0.052870918 0.077573806 0.025087018 0.07229296
000150 33 03 d8 3d 6f 50 1f bd f6 cc 17 bd e9 16 f6 3c
       0.10547485 -0.038895067 -0.0370607 0.030040221
000160 97 94 44 bd 64 39 98 bd da 66 1f bc 14 78 11 ba
       -0.04799327 -0.074328214 -0.009729112 -0.0005549204
000170 5e 9b 73 3c ff ab fd 3c 72 78 e2 bb dd 08 65 3d
       0.014868585 0.030965803 -0.006911331 0.055916656
000180 85 e2 9f 3d 2e 66 b9 bd 97 83 dc 3c 95 fa 93 bb
       0.07806877 -0.09052692 0.026918216 -0.0045159557
000190 95 12 a6 3d de cb dd 3d eb 29 b5 3d d2 38 1e 3e
       0.08109013 0.108299 0.08845886 0.15451363
0001a0 c2 33 05 3e ae 0a 8c 3c 80 92 0e 3d b9 d8 4f bd
       0.13008025 0.017094936 0.034807682 -0.050743792
0001b0 af 83 a8 bc 82 b2 87 bb a3 82 b7 bc 0b b4 30 bd
       -0.020570604 -0.004141153 -0.02240116 -0.043140452
0001c0 be 5a 90 bc ce 5f 6f bd 21 0d b5 bc aa 76 72 bd
       -0.017621394 -0.058440976 -0.022100987 -0.059195198
0001d0 49 1b 26 bd 54 dd 5f bd e8 88 2e bd 75 bd 64 bd
       -0.040553365 -0.054654434 -0.042611033 -0.055844743
0001e0 f4 a6 a6 3d e7 d0 22 3d 2e d4 1e 3d dd 12 55 3d
       0.081373125 0.039750006 0.03877657 0.052019943
0001f0 3e 32 88 bc e6 c7 15 3e 97 7c 63 3d 2d fc f1 bc
       -0.01662552 0.14627036 0.05553874 -0.029539192
000200 9c c7 1d bd 3a 64 02 bd 3b b2 a0 3d 75 66 e9 3c
       -0.03852044 -0.031833865 0.07846495 0.028491238
000210 cb 77 85 bc 13 3c 15 bd 5c 9c 0e bd f9 8d 93 bd
       -0.016292473 -0.036434244 -0.034817085 -0.072048135
000220 4f d1 dc bd 3d 97 ee bd 13 2b af bd ff 31 b2 bd
       -0.1078211 -0.1164994 -0.08553138 -0.08700942
000230 cc 3c c1 bb a9 4a 7c bd 44 c3 75 bd 01 bb 3e 3d
       -0.00589714 -0.06159464 -0.060000673 0.04656506
000240 82 1f 25 3e 2c 75 fc be 6d c9 14 3e 7b 0f b0 be
       0.161253 -0.49308145 0.14529963 -0.3438681
000250 a4 ac be bd b9 22 66 be 72 0c f2 3c b7 d9 47 3d
       -0.09310272 -0.22474183 0.02954695 0.048791613
000260 5a 1f e9 3d 9a b8 3d 3d f6 9d 0e 3d b3 00 20 bd
       0.11382933 0.046318628 0.034818612 -0.039063167
000270 0f b0 a9 bc 3e d2 61 bd e8 fc 8b bd 4e 4d f1 bc
       -0.020713834 -0.055132143 -0.068353474 -0.029455807
000280 77 b6 ba bd 6f e9 3e 3c d1 c9 7b bc b8 aa 83 3d
       -0.09116834 0.011652335 -0.015367941 0.064290464
000290 73 c7 a0 3c 29 04 96 3c fd 72 aa 3a 67 01 5a 3c
       0.019626355 0.01831253 0.001300424 0.013305998
0002a0 3d 7c 7a 38 23 ff dc 3c 5f b7 6b 3e 98 fd fb 3d
       5.972035e-05 0.026977127 0.2301917 0.123042285
0002b0 aa 85 5a 3e 82 fc ea 3d 4e 0f 25 3e 47 11 04 be
       0.21340051 0.11473943 0.1611912 -0.12897216
0002c0 96 fb f6 bd 58 bd 28 be 4c 75 f6 bd c3 cf 14 be
       -0.12059705 -0.16478479 -0.12034091 -0.1453238
0002d0 03 1c 64 bc 16 03 9e bb e1 7e 6a bc 1c ba 32 3b
       -0.013922694 -0.004822145 -0.014312477 0.0027271574
0002e0 da b8 6d bc d3 11 31 bd 73 da 35 bd dc b7 99 bc
       -0.014509404 -0.04322989 -0.044397783 -0.018764429
0002f0 69 b0 19 bc a7 60 27 bd 40 c7 3d 3e 75 b8 1a 3e
       -0.009380438 -0.04086366 0.18533039 0.15109427
000300 f6 9c bf 3c da d5 56 3d d6 76 04 3e fe 6c 0e 3e
       0.023390274 0.05245004 0.12935957 0.13908765
000310 c2 07 6c 3e 04 cb d5 bd 03 eb 1a 3d c7 20 fc bb
       0.23049834 -0.10439113 0.03782178 -0.007694337
000320 f1 b1 32 3f a1 36 07 bf 7a 44 8b bc c2 2c 8f bd
       0.6980277 -0.5281773 -0.017000426 -0.06990959
000330 ee 92 66 be 95 00 4b be 2a c7 6f bd f4 a6 27 3e
       -0.22516987 -0.19824441 -0.058539547 0.16372281
000340 77 4b 82 3d 21 85 83 ba ff 29 e8 bd 8c 93 2f bd
       0.0636205 -0.0010034182 -0.11336135 -0.04286532
000350 fb f6 42 bd 64 7b 92 bd c3 e9 b1 bd 20 3c 41 3e
       -0.04759882 -0.07152441 -0.08687165 0.18870592
000360 d7 43 39 be 44 e9 8b 3f 79 d2 95 be 4c 26 7d be
       -0.18092285 1.0930562 -0.2926214 -0.2472164
000370 e9 82 38 be dd bb 06 be 98 10 47 bd 92 1d 03 bd
       -0.18018688 -0.13157602 -0.04859981 -0.032010622
000380 7a d2 d4 bc bc e7 a2 bd c1 ef 03 be 5d 88 1a be
       -0.02597927 -0.07954356 -0.12884428 -0.15091081
000390 c7 3b ef bd d7 f2 14 be 0a 38 a6 3d 08 7a 7c 3d
       -0.116813235 -0.14545761 0.08116157 0.061639816
0003a0 bd 1a 0e 3c 76 11 09 3d d2 62 64 3d 7b f2 94 bc
       0.008673367 0.033463918 0.055758305 -0.01818203
0003b0 66 8c aa ba 91 41 5f 3c 66 ee c7 bb da 27 02 bd
       -0.0013011813 0.013626472 -0.0061014174 -0.031776287
0003c0 ea 4c 97 bd 2d fc c9 bd b0 80 ec bd c5 68 c3 bd
       -0.07387717 -0.09862552 -0.11547983 -0.095414676
0003d0 da 45 cb bd 68 02 d9 3e 3b a2 83 be ad 48 88 3e
       -0.099254325 0.42384648 -0.2570971 0.26617947
0003e0 fe 15 23 bd e4 9c 65 be de bf 65 3e bf b4 9b 3e
       -0.039815895 -0.2242313 0.22436473 0.30411336
0003f0 91 c8 17 3e 94 7a 17 3e dc 2b 34 3e 02 28 17 bd
       0.14822604 0.14792854 0.17594856 -0.03690339

encoder.block1.convblock2.0.pointwise_conv.weight f4 [64, 64, 1]
000000 cb b1 8e bd 7c f2 23 bc e1 31 00 3c 75 83 97 3d
       -0.06967505 -0.010006543 0.007824392 0.0739812
000010 2c be db 3d 83 70 e3 3b de c1 40 3d 30 2b 5b 3c
       0.10729632 0.0069409027 0.047059886 0.013376996
000020 49 a6 cd bd 29 ec 9a 3a a7 60 97 bb 20 d6 86 3c
       -0.10041482 0.0011819649 -0.004619676 0.016459525
000030 0c 99 82 39 77 3b 29 3c d3 84 0d 3b 56 b3 b6 bd
       0.0002490956 0.010329119 0.0021594062 -0.08920924
000040 c1 c5 c1 3c 8c 03 df 3c b9 de c5 bd 3c f4 05 bc
       0.023653867 0.027223371 -0.096616216 -0.008175906
000050 4e 9c 6c bd 2a 56 1d bc 1f 29 1c 3d 3b 5b c4 3d
       -0.05776625 -0.009603063 0.038125154 0.09587713
000060 c4 22 0c 3c 70 ce b2 3d ae 81 12 bc 35 4f a7 3d
       0.008553211 0.08730781 -0.008942051 0.081694044
000070 db cd 07 bd b6 14 05 3d 5c 4c f2 bc ad 77 ee 3c
       -0.033155303 0.032490455 -0.029577427 0.0291098
000080 ca af 0c bc 44 12 63 3a 8c 85 d1 3b 3a 4b 8f 3d
       -0.008586833 0.00086620846 0.006394094 0.0699677
000090 e1 8b 5e bb 9a e5 8e bc 4d e8 2a be 15 45 af bc
       -0.0033957886 -0.017443467 -0.16690178 -0.021395246
0000a0 74 97 05 3e ce b6 e6 3d b8 a7 bc bd 1e 59 a6 bb
       0.13046056 0.11265336 -0.09211677 -0.0050765416
0000b0 4f 28 9f 3c f8 1a f0 3d b0 c1 a1 bd 0a 2a d3 bc
       0.0194284 0.11723894 -0.07898271 -0.025776882
0000c0 93 91 8b 3d 90 ed 87 bd cd 3b dc bd a9 f8 01 3d
       0.068148755 -0.06637108 -0.107535936 0.03173128
0000d0 66 c9 18 3c cd 15 0a bc 18 22 1f 3d a7 59 da 3d
       0.009325361 -0.008428049 0.038850874 0.10661631
0000e0 f2 8c d6 bc 66 fd 08 be 19 92 fc 3a 4f 6c 73 bd
       -0.026190255 -0.13377914 0.0019269615 -0.059429463
0000f0 c4 6d 79 bd ff 97 ad bd 9d 3f 02 bd bd 29 ac bc
       -0.060895696 -0.084762566 -0.031798948 -0.021015996
000100 b8 4c 77 bc 57 87 d5 b9 79 26 90 bd 84 6e 37 bb
       -0.015093975 -0.00040727362 -0.07038588 -0.0027989456
000110 e3 d8 7e 3d 0b a6 03 bc ad 86 4d 3d db 25 2e bd
       0.062218558 -0.008035193 0.050177265 -0.04251657
000120 cf ea 45 bd 55 9f 9f 3a a0 8a e3 bc 37 93 1b 3c
       -0.048319634 0.0012178222 -0.027776062 0.009495548
000130 b0 7e 14 bd 8e 30 01 3d 3a ff 56 3c df 51 af bc
       -0.03625363 0.031540446 0.013122374 -0.021401344
000140 fa cb 1e 3c 69 7f 65 bc 4a de 43 bd 67 de bd ba
       0.0096921865 -0.014007428 -0.047819413 -0.0014485837
000150 34 0b 29 3c 6a 95 f4 bc c7 70 9a bc ae e3 64 3d
       0.010317612 -0.029856402 -0.018852605 0.055881195
000160 26 b5 1e bc 36 0e ca 3b 9b d2 a9 bc b9 c0 38 3d
       -0.009686744 0.006166245 -0.020730307 0.04510567
000170 b9 c0 32 bc 88 bf 78 bb d5 13 71 bc ac cf 89 3b
       -0.0109102065 -0.0037955958 -0.014714201 0.0042056646
000180 06 a2 0e 3d c5 0a 2a bd 0a c1 dd bc 48 e4 fc 3c
       0.034822486 -0.041514177 -0.027069587 0.030870572
000190 3b f5 cd 3b 83 70 7f 3b 50 ab 8b bd ba 43 28 3a
       0.0062853373 0.0038976974 -0.06819785 0.00064187835
0001a0 10 65 69 3d ed cf 80 3d 7c 63 68 bd fd 14 ce bb
       0.056981146 0.06289659 -0.0567355 -0.006289123
0001b0 3a 75 0a 3d 30 f2 45 3d f9 7d ec bc 18 c6 b0 bc
       0.033803202 0.04832667 -0.028868662 -0.021578833
0001c0 f1 54 18 3c ce 84 0c bd 7c 74 ea bc a8 cb 88 bc
       0.009297595 -0.03430634 -0.028619997 -0.016698673
0001d0 92 5a 4f b9 6b 89 3d 3d fd 24 71 3c fa 85 38 3c
       -0.00019774798 0.04627363 0.014718291 0.011262411
0001e0 b3 b6 b4 3c f4 d1 54 bd ce 5f 52 b9 40 6b b4 bb
       0.022059774 -0.05195804 -0.0002006285 -0.0055059493
0001f0 0d 5d 24 bc d1 d4 54 3c c4 b4 c9 b9 8f db 44 bb
       -0.010031951 0.0129901925 -0.00038472388 -0.0030038094
000200 20 d2 68 3c 08 2a 1f 3b 09 ce dd 3a 3e 04 6d bd
       0.014210254 0.0024286527 0.0016922365 -0.057865374
000210 5f c0 bd bc c3 f7 69 bb f8 99 65 bb 6b 48 53 3c
       -0.023163019 -0.0035700656 -0.00350344 0.012895684
000220 86 5d 5d 3d fd b5 9b 3b 83 ec 83 bb 92 52 90 3c
       0.05404427 0.0047519193 -0.004025997 0.017617498
000230 5e c7 8a 3d 95 2d f3 bc a1 21 9a 3c ad ee 89 3c
       0.067763075 -0.029684821 0.018814864 0.016837442
000240 75 0a be 3c 21 96 88 bc 48 41 90 3c d6 2d 64 3b
       0.023198346 -0.01667315 0.017609254 0.003481736
000250 0f f6 4e 3d d3 f6 1e 3a 20 a4 d4 39 a0 52 b0 ba
       0.05052763 0.00060640014 0.00040558074 -0.0013452359
000260 00 ca 4a 3d 46 51 be bc e1 16 29 bb cb e1 f4 bc
       0.04950905 -0.023232114 -0.002580099 -0.029892823
000270 fe 47 0b 3c 27 5f 61 3d 58 98 b8 3c f8 07 72 bc
       0.008501051 0.055022385 0.02253358 -0.014772408
000280 52 f7 ca 3c 0c 6c 83 3b 53 b5 98 bc 2a 32 4b bd
       0.024776135 0.004010683 -0.01864115 -0.049608387
000290 01 e3 c2 ba 2b 94 03 3c 5f 0f 2f 3d ca 24 1a 3c
       -0.0014868678 0.008030931 0.04273927 0.009408185
0002a0 b3 ed 66 3a 06 8d bc bc ea 47 d9 3c 79 8b 29 bb
       0.00088092237 -0.023016464 0.02652355 -0.0025870486
0002b0 c3 c5 8c bc 7d b8 9b bd dc 8c b2 39 84 6e 04 3c
       -0.017184144 -0.07603548 0.00034055754 0.00808299
0002c0 2a a4 0f bd 60 13 4e 3c e6 90 01 3c f1 27 c8 3b
       -0.03506867 0.012577862 0.007908082 0.006108277
0002d0 ee 28 da bb 28 7b e6 3c 6b e0 2b bc dc 04 b0 3b
       -0.006657711 0.028134897 -0.010490517 0.005371673
0002e0 95 85 33 bd 97 89 99 3c 33 de 69 bb fb 73 29 3d
       -0.043828566 0.018742366 -0.003568542 0.041370373
0002f0 17 c4 0d 3c b6 d5 50 3d 06 af ba 3c 20 11 60 3c
       0.0086527085 0.05098506 0.022788536 0.013675958
000300 f6 21 4b 3c 75 d3 54 bc f5 7a 81 3d 8e 17 9f bc
       0.012398234 -0.012989868 0.0632228 -0.019420411
000310 a3 ea 6a 3d cc b6 04 bc 7f 38 ef 3c 16 64 9d bc
       0.057352673 -0.008100223 0.029201744 -0.019212764
000320 f8 fc f0 bc 3d 62 10 bc 1c c8 4a bc 97 d4 ce 3c
       -0.0294175 -0.008812484 -0.012376811 0.025247855
000330 47 aa 4f bb 71 3d f5 3b 28 12 8b 3b 56 47 04 bc
       -0.0031687187 0.007484131 0.0042441078 -0.008073648
000340 03 80 6d 3c 73 1b 97 bc 8f f4 dc bc a5 83 97 3c
       0.014495852 -0.018445706 -0.026972083 0.01849539
000350 8a 8a c5 ba b9 bd 91 bb a3 c0 8c bc 83 dc 9f 3c
       -0.0015071195 -0.0044476655 -0.0171817 0.019514328
000360 a8 fe ac 3c f7 57 84 3c 3c 46 66 bd 9b 7f ff 3c
       0.021117523 0.016155226 -0.056219324 0.031188777
000370 b0 b6 cd bb 93 10 ad 3b e4 9d 21 bc 68 b1 09 3c
       -0.0062778816 0.005281517 -0.009864304 0.008404113
000380 90 d0 b0 3c 7f 4f 0e 3b 9d be a4 bc f1 58 bc 3c
       0.021583825 0.0021714864 -0.020110423 0.02299163
000390 41 33 89 3a 11 29 5d 3c e6 81 b3 bc e4 bc 01 3d
       0.0010467545 0.0134985605 -0.021912526 0.03167428
0003a0 2a 3c c6 bc f7 56 11 3d 49 51 06 bd 9b bf 50 bc
       -0.02419861 0.035483327 -0.032792363 -0.012740995
0003b0 98 0e f7 3c 80 98 17 3d 17 40 61 bb 9e 4d a2 bc
       0.030158326 0.03701067 -0.0034370476 -0.019812401
0003c0 b2 39 92 3c 03 90 29 bd fb e5 91 bc 80 c3 de 3b
       0.017849777 -0.041397106 -0.017809859 0.0067982078
0003d0 f4 44 5d bc 06 7a 3b bd af c7 83 3a b7 5d 87 3c
       -0.013505209 -0.045770667 0.0010054017 0.016524179
0003e0 24 8a e6 bc 80 2b e9 bc c4 56 8c 3b 70 06 2e bb
       -0.028142042 -0.028463125 0.004282804 -0.002655413
0003f0 78 29 16 3d d6 08 ac 3b 89 b0 d1 bc 2f aa 8b 3c
       0.03666064 0.0052500768 -0.025596874 0.017048923

encoder.block1.convblock2.1.weight f4 [64]
000000 21 64 9a 3e 87 55 62 3e a9 0f 47 3e 8a 67 e9 3d
       0.30154517 0.22102939 0.19439568 0.11396702
000010 05 28 59 3e 76 a5 b6 3e 45 f2 f2 3d ae 77 05 3e
       0.21206672 0.35673112 0.118626155 0.13033935
000020 d3 57 1e 3d 31 b4 f4 3d 56 a0 15 3f 3e eb ad 3e
       0.038657974 0.11948431 0.5844778 0.33968538
000030 99 c0 e6 3e 01 19 23 3d f9 61 c6 3d 20 23 bd 3e
       0.45068815 0.039818767 0.096866556 0.3694086
000040 68 ba 80 3d 75 50 2c 3f a2 e8 e2 3d 59 96 34 3f
       0.06285554 0.6731027 0.110795274 0.7054191
000050 60 ae ae 3d c2 cc e2 3e 34 a3 e5 3d 9e 93 49 3d
       0.08529353 0.44296843 0.11212769 0.049213044
000060 de e7 2b 3f dc 0e 3d 3f 88 fe 23 3e d2 2b 74 3e
       0.67150676 0.738508 0.16015065 0.23844841
000070 26 04 dc 3d 20 d1 41 3d 65 f9 5f 3e c3 76 3b 3f
       0.10742979 0.047318578 0.2187248 0.7322809
000080 37 6c 38 3d f0 d9 2e 3d 83 48 60 3d 1c 1d aa 3d
       0.045025077 0.04268831 0.054756653 0.083063334
000090 93 bf 3b 3e fb 13 c0 3d 3b 1e 86 3f 63 4f 0e 3d
       0.18334799 0.09378811 1.0477976 0.034743678
0000a0 78 c6 b7 3d c5 92 4e 3e 6f 8d e6 3d 87 55 60 3e
       0.08973402 0.20173176 0.11257445 0.21907626
0000b0 47 78 80 3e 95 0a 3a 3d a8 81 92 3e 1a ab a2 3d
       0.25091764 0.045420248 0.28614545 0.07942791
0000c0 46 09 85 3f 1a 99 b8 3d dc ab 78 3e d7 e4 a9 3e
       1.0393455 0.09013577 0.24284309 0.33182403
0000d0 91 45 77 3e 6a 5d e6 3e c4 77 94 3e 43 e3 40 3f
       0.24147631 0.44993144 0.28997624 0.75346774
0000e0 00 a8 1c 3d 4d 1b c8 3d d7 a9 0a 3e da 6c ca 3e
       0.038246155 0.09770832 0.13541351 0.39536172
0000f0 82 ed 23 3e 21 36 77 3e 0a 13 32 3f 51 20 03 3e
       0.16008571 0.24141742 0.695603 0.12805296

encoder.block1.convblock2.1.bias f4 [64]
000000 4a 23 d5 be a4 ed 05 be d8 7c 90 bc d9 2c d3 bd
       -0.41628486 -0.13078934 -0.017637655 -0.103112884
000010 e0 fb 9e bd b6 bb 6f be 0f 71 79 bd 80 29 a5 bb
       -0.07762885 -0.2341145 -0.060898837 -0.0050403476
000020 22 1a 39 bc 0e 1a 4d be b9 36 3b bd 51 a7 ad be
       -0.011297734 -0.2002947 -0.045706484 -0.33916715
000030 95 2e 9b be 8d 8d 02 bc f0 d5 7f bd 00 3e 50 be
       -0.30308977 -0.007968319 -0.062459886 -0.20336151
000040 d2 ad 9e 3b b6 ba 16 3c a7 4d 5a b8 76 51 05 bd
       0.0048424983 0.009199789 -5.204757e-05 -0.03254839
000050 d3 57 66 3c 74 a0 5f 3e 76 3e 9f be 27 ee d5 b9
       0.014059025 0.21838552 -0.3110234 -0.00040803963
000060 4e 02 14 bd 65 1c 02 3c 95 af 85 bd b6 5e 61 be
       -0.03613501 0.00794134 -0.0652763 -0.22008786
000070 65 34 b2 3b 4b ff f3 3b a0 a6 98 3d 38 a7 88 3b
       0.005438375 0.007446205 0.07453656 0.0041703247
000080 c3 f6 9e bc 85 1b d3 ba d9 bd 63 bd 65 55 f6 ba
       -0.019404775 -0.0016106224 -0.055600975 -0.001879376
000090 3d 61 a6 be 22 ba 7b bd b5 3f 40 bf a1 59 09 bb
       -0.32496062 -0.061456807 -0.7509721 -0.0020957964
0000a0 a8 a2 61 bc b1 a6 80 be f2 b1 99 38 4a 3b 1f be
       -0.01377169 -0.25127175 7.3287534e-05 -0.1554996
0000b0 2c bd 0b be f8 15 5e ba 1e c6 d4 bd 83 7d 1d 3c
       -0.13646382 -0.00084719015 -0.1038935 0.009612444
0000c0 50 0e ac bd 69 82 b7 3c 0b 7d 95 be 73 49 ab be
       -0.084011674 0.022401052 -0.29196963 -0.33454475
0000d0 7f 63 e5 be c6 fd 7e be e5 d4 e1 bd 2a 53 09 be
       -0.44802472 -0.24901494 -0.110269345 -0.13410631
0000e0 7f df 22 bd 07 20 cb bc c8 b5 c5 3c 65 5b 23 be
       -0.039763924 -0.024795545 0.024134532 -0.15952833
0000f0 03 6e ba bd ab 0c 3e be 89 41 14 be df 82 d8 3b
       -0.09103014 -0.1855952 -0.14478125 0.006607398

encoder.block1.convblock2.1.running_mean f4 [64]
000000 1b ff b6 bd 6d 42 89 bd cb a0 d1 bc 3a 9c 37 3c
       -0.08935376 -0.06702123 -0.025589367 0.011206681
000010 7c c5 35 be c7 2a 56 3e 8a 18 3c bd 9c b0 3f 3d
       -0.17751116 0.20914756 -0.04592184 0.046799287
000020 94 30 df b9 ad 10 c8 bc 78 ef 9a be a6 e8 05 be
       -0.00042570068 -0.024422014 -0.30260825 -0.1307703
000030 94 2e 3f 3e c3 a4 0a 3c 45 b2 54 3c c3 05 3b be
       0.18670112 0.008462134 0.012981956 -0.18263917
000040 39 1b 97 3c f0 a2 13 bc 62 cc 38 bd ec 7e 30 be
       0.018445598 -0.009011015 -0.04511679 -0.17235917
000050 24 98 ee bc 6c 60 14 bd dc e9 63 bd f9 11 4e 3c
       -0.02912528 -0.036224768 -0.055642948 0.012577527
000060 ce 63 db 3c b6 11 67 3e 84 5a 84 3d 16 bf 14 3d
       0.026780989 0.2256535 0.06462577 0.036315046
000070 45 e7 4b bd 5c 44 05 3c 19 9b d1 3c 97 5b 75 be
       -0.049781103 0.008133974 0.025586652 -0.2396072
000080 d8 17 93 3a 29 6c 82 3a 1b 43 f2 ba 37 68 15 3d
       0.0011222316 0.0009950447 -0.0018483134 0.03647634
000090 17 43 13 bb b5 3b ab 3c 20 cd d8 be 1f ac f8 bb
       -0.0022470409 0.020902494 -0.42343998 -0.007588878
0000a0 30 4b d9 3b a1 12 e3 bd 93 87 7a 3c d3 8b 2a bd
       0.0066312775 -0.110875376 0.0152911125 -0.041637253
0000b0 37 96 e2 bd 81 5c c8 3a e1 27 fd bd 6c 69 e5 bb
       -0.110638075 0.0015286357 -0.12361122 -0.0070010927
0000c0 5e ac db be ec 45 e3 3b b8 f6 0b be 5d db 18 be
       -0.42904943 0.0069358256 -0.13668334 -0.1492743
0000d0 a9 ac 82 3c 39 2c 0b 3e 06 f9 1f 3d e7 89 3f 3d
       0.015951471 0.13591088 0.039055847 0.046762373
0000e0 83 1f 6f 3a 51 d4 12 bd 10 bd fa 3c c5 01 5d be
       0.0009121822 -0.035847012 0.03060773 -0.21582706
0000f0 cd b3 93 3c 76 9e 87 3d 0c b6 a4 be 03 fb 6b bd
       0.018030072 0.06622021 -0.3217014 -0.05761243

encoder.block1.convblock2.1.running_var f4 [64]
000000 87 a9 50 3b 6b ad 93 3a 42 25 62 3a 00 a1 24 3b
       0.0031839327 0.0011266893 0.00086267677 0.0025120378
000010 11 8b 41 3c d8 81 f0 3c 4b ff 97 3a 34 58 8d 3b
       0.011812941 0.02935879 0.0011596469 0.004313493
000020 5e ac 04 37 66 00 62 3a 76 93 39 3d 6e 2f 3f 3c
       7.9079455e-06 0.0008621275 0.045306645 0.011669023
000030 99 ca f2 3c f3 f4 58 39 59 1c 05 39 c9 01 68 3d
       0.029637622 0.00020690616 0.00012694429 0.056642327
000040 5f 7b ab 39 18 66 51 3e 07 0b 46 3b 27 78 8f 3e
       0.0003270758 0.20449102 0.0030218975 0.28021356
000050 a3 c2 b6 38 c6 c0 12 3c a2 27 2d 3b 8b 88 f5 38
       8.71469e-05 0.008957094 0.0026421328 0.000117079435
000060 dc c6 fc 3d b9 b8 66 3d 26 61 a6 3b 3e 06 dd 3c
       0.12342617 0.05632851 0.005077499 0.026980516
000070 a3 62 0a 39 bc 96 1f 38 72 51 32 3a 84 8d cc 3e
       0.0001319745 3.8048936e-05 0.00068022974 0.39951718
000080 c2 db b1 37 18 95 57 37 07 7e e8 39 7e e3 a9 3a
       2.1202377e-05 1.2849712e-05 0.00044344386 0.0012961475
000090 64 29 3b 3c 53 93 92 39 23 a8 2d 3e c8 31 fa 37
       0.0114234425 0.00027957055 0.1695867 2.9825504e-05
0000a0 84 7b 47 39 86 37 3f 3c 23 99 80 3b f0 a1 1c 3a
       0.00019024132 0.011670953 0.0039245053 0.00059750583
0000b0 aa 26 06 3b ef 4f 10 38 56 d1 f9 3c 29 17 d8 38
       0.0020469823 3.440672e-05 0.030495327 0.000103039965
0000c0 3f 4a ae 3e 2e e1 9d 38 7b ea 73 3c 54 0e b2 3c
       0.3404102 7.5282864e-05 0.0148874475 0.021735348
0000d0 22 10 3e 3c 66 b8 20 3d c0 04 4a 3d 66 ed 71 3e
       0.011600526 0.039238356 0.049320936 0.23625717
0000e0 80 39 f2 37 fc ed 6e 39 9d e2 43 3a bf 8b af 3d
       2.8875424e-05 0.00022786105 0.00074724277 0.08571576
0000f0 ee ba 7c 3a f5 77 03 3c 1d 15 8c 3d 36 3d 83 3a
       0.0009640892 0.008024205 0.068399645 0.0010012749

encoder.block1.convblock3.0.depthwise_conv.weight f4 [64, 1, 3]
000000 ba 42 94 3d b4 1f ca 3d 97 73 f4 3d 5e e5 33 bd
       0.072392896 0.09869328 0.119361095 -0.043919913
000010 19 f2 87 bd a8 6b 49 3c ab 43 cb bd 3b e0 d6 bd
       -0.06637973 0.012293734 -0.09925016 -0.10491987
000020 fd ed bf bd c4 22 68 3d 54 93 a7 3c 8a 3c 84 3d
       -0.093715645 0.05667378 0.020455994 0.064568594
000030 1a 42 92 3d cf 4e ae bd b5 5c 22 be aa ee 32 3e
       0.07141514 -0.08511125 -0.15855677 0.17473856
000040 c1 a0 58 3e c0 16 51 3e fc 8e c0 bc 38 0b 85 bd
       0.21155073 0.20418835 -0.02350568 -0.064962804
000050 8d f4 85 bd 11 db 77 bd 45 2f 3b bd cb 68 c4 bd
       -0.06540785 -0.060511652 -0.045699377 -0.095903
000060 ce 57 2c bc fb 41 92 3c 23 61 aa bc d9 b3 69 3d
       -0.010518981 0.017853728 -0.020798272 0.05705628
000070 f1 19 b5 3d fa 92 d2 3d 71 60 16 3e 07 f5 d2 3d
       0.088428386 0.1028194 0.14685227 0.103006415
000080 ea 04 a3 3e f2 71 48 bd bc 42 ec bb 00 e8 8d 3d
       0.31839687 -0.04893679 -0.007210104 0.06929016
000090 ec 33 73 3e b7 a7 54 3e 4d 7d 82 3e 1f c4 a5 3c
       0.23750275 0.20767103 0.25486222 0.02023512
0000a0 13 23 06 bd 9a f1 2d 3c 6d 43 f9 bc a8 39 fe bb
       -0.032748293 0.010616684 -0.030427659 -0.007758338
0000b0 fc a0 1b bd e9 21 65 bd 67 2d 0d be cd e2 53 be
       -0.037995324 -0.055940542 -0.13786851 -0.20691986
0000c0 4f 65 31 bc 93 3b 0e bd 6f 4b 01 bd d1 0e a9 3e
       -0.0108273765 -0.034724783 -0.03156608 0.33019117
0000d0 17 40 2c bf 8d bc b0 bd f8 df bc bc f7 86 8c 3d
       -0.67285293 -0.08629713 -0.023056015 0.0686168
0000e0 69 e8 9b 3d b4 a0 c1 3e 63 1e 71 3e 08 25 3c bf
       0.07612688 0.3781792 0.23546748 -0.73494005
0000f0 9d 7e 94 bd 0f 47 37 3d db f9 87 bb 66 24 e6 bd
       -0.07250712 0.0447455 -0.004149658 -0.11237411
000100 71 fc 2d bd 37 fb c4 3d 97 6c 89 bd 66 2b 76 bd
       -0.042477075 0.09618228 -0.06710165 -0.06009998
000110 df 20 ee bd 04 6d bd bc 38 19 dc bc 55 f9 90 bc
       -0.116273634 -0.023123272 -0.026867494 -0.017697016
000120 a9 c1 20 3f ad b1 12 bd e9 33 3b 3e 6c f1 41 be
       0.627955 -0.035813976 0.18281521 -0.18939751
000130 b8 cf 06 3c 60 5c 0a bf a3 d7 9c bd 80 73 ca bd
       0.008228235 -0.54047203 -0.07658317 -0.09885311
000140 95 68 b2 bd 91 8f fd bd 2e db 52 3e 0b e5 99 3d
       -0.08711354 -0.12380899 0.20591423 0.075143896
000150 e3 49 87 bd 04 97 77 3d 7f 0e 63 3d 4b 87 1f bd
       -0.0660589 0.060446754 0.055433746 -0.038947385
000160 a2 ee 18 bc bd cf 12 3c f8 04 03 be ea 4c fb bd
       -0.009334238 0.0089606615 -0.12794864 -0.122705296
000170 45 00 b1 bd cc c6 53 3f f1 08 32 bd d5 ad c1 be
       -0.086426295 0.82725215 -0.04346556 -0.37827936
000180 5a df 06 bc 47 90 77 bc ae 46 d3 3c 4e ad b4 3b
       -0.008231962 -0.015110082 0.025790539 0.0055138236
000190 4f a2 a6 ba a7 d7 1d 3b b3 e0 c8 3c d0 d5 9a 3c
       -0.0012713167 0.0024084838 0.024521207 0.018900782
0001a0 68 d1 04 3d b5 88 e7 3b 6d dc b8 3c 34 f4 9e 3d
       0.032426268 0.0070658573 0.022566045 0.07761422
0001b0 6d 0e cd bd bf 73 c0 bd 59 60 01 be 37 c2 e6 bb
       -0.10012517 -0.09397077 -0.1263441 -0.007042195
0001c0 3f f6 70 bd d8 27 5f bd 82 44 fe bc df 1e 96 bd
       -0.05882859 -0.054481357 -0.031038526 -0.07330107
0001d0 bc be a9 bd 62 e5 44 3b a4 03 e8 3a 8b b7 24 bc
       -0.08288333 0.003004395 0.001770128 -0.010053526
0001e0 0b fd 09 bd 41 e3 49 bd c6 ce 42 bd 22 4e 00 3e
       -0.033688586 -0.04928899 -0.047560476 0.12529805
0001f0 57 a8 eb 3d 4d 2b 0a 3e 2c a1 41 3d 7d 6d af bd
       0.11506718 0.1349308 0.047272846 -0.08565805
000200 1b ce 7d 3d e8 20 c5 3c fa 89 bf 3d 6c 40 b4 3d
       0.061964136 0.024063542 0.09352489 0.0880135
000210 8d c7 04 be 52 19 f4 bd c1 52 e4 bd 4b 2d b1 bb
       -0.12966748 -0.11918892 -0.111485966 -0.0054070107
000220 18 5d 99 3c 52 c5 e1 3b 54 a2 8b be 2d cc b8 bd
       0.018721148 0.0068899775 -0.27272284 -0.090233184
000230 1c 63 6a bd 23 d3 11 bc 68 8d 20 3d b8 10 84 3d
       -0.057223424 -0.008900437 0.039197356 0.06448501
000240 2c 45 f5 3e 69 5a e7 3d 0d 85 60 3e 89 5b 27 bd
       0.47904336 0.11296541 0.21925755 -0.04085878
000250 97 06 7a bd 7e a7 37 bd b3 7f 4b 3d a5 1e a2 3d
       -0.06104144 -0.044837467 0.04968233 0.07916001
000260 c1 14 c2 3d c7 0f 0f be 29 61 11 be 9d a6 45 be
       0.09476615 -0.13970862 -0.1419722 -0.19301839
000270 9a bb a1 bd 51 cb a1 bd 4b ed 10 be a5 89 20 be
       -0.0789711 -0.07900108 -0.1415302 -0.15677507
000280 63 7b 87 be 74 a2 9b be a6 b7 f2 3d 80 0a d8 3d
       -0.26461324 -0.3039738 0.118514344 0.10548878
000290 89 13 30 3e 94 fc 5d 3e 2b 69 85 bd f2 1a 02 3f
       0.17194952 0.21678382 -0.065142 0.50822365
0002a0 18 9f b7 ba b9 00 8a 3c bd 49 11 3d 91 bc 7f 3d
       -0.0014009206 0.016846048 0.035470713 0.06243569
0002b0 c7 14 43 bc 8a 10 a1 bd 3f c4 a4 bd 73 0e bb bd
       -0.011906809 -0.07864483 -0.080452435 -0.09133615
0002c0 75 09 22 bd a7 81 24 3e 72 63 cc 3c de 3a 29 3e
       -0.0395598 0.16065083 0.024949763 0.16526362
0002d0 65 d0 65 bd ed b7 ae bd 94 3c e3 bd 27 75 32 be
       -0.056106944 -0.08531175 -0.11095539 -0.17427503
0002e0 e6 9a 20 be 56 d5 04 be 3b af 0e bf f3 6a 01 3f
       -0.15684089 -0.12972006 -0.5573613 0.50553817
0002f0 06 d1 08 be b2 74 cc bd 48 df 5c bd 2b 6c 1a bd
       -0.13360986 -0.09983195 -0.053923875 -0.037700813

encoder.block1.convblock3.0.pointwise_conv.weight f4 [64, 64, 1]
000000 d4 9b c8 bb b8 d5 9f 3b 81 54 55 3d 97 f0 11 3d
       -0.006122092 0.004877772 0.052082542 0.035629835
000010 c0 fa 0b 3d 54 d0 25 bd 8e ff ba 3c 27 86 3c 3d
       0.03417468 -0.04048188 0.022826936 0.046026375
000020 72 24 8c 3b 9d be ed bb 44 f5 8b bc dc 6b 50 bd
       0.0042768056 -0.007255389 -0.017084725 -0.050884113
000030 b0 dc 75 bd 9d 49 b0 ba 84 43 a1 3c 52 f2 a9 3d
       -0.060024917 -0.0013449673 0.019685514 0.08298172
000040 66 ab 59 3c 69 60 bb 3d 41 a2 bf bc e4 bd 01 3e
       0.0132854935 0.09149248 -0.023392798 0.12670094
000050 58 16 0b 3b db 86 13 3d 67 8a 11 3d 30 96 4b 3c
       0.0021223035 0.03601728 0.03553238 0.012425944
000060 89 31 fd 3c d7 0d 87 be 75 e6 88 3d ad 78 25 bc
       0.03090741 -0.26377746 0.06684581 -0.010099572
000070 e7 77 e8 bb fe 1d ad 3b 2d a7 1b 3d c2 1f 1d 3a
       -0.0070943716 0.0052831164 0.038001228 0.0005993807
000080 fa 17 ab bb ca ef 7e bb 18 19 63 3c 40 51 a3 bc
       -0.005221364 -0.003890025 0.013860963 -0.019936204
000090 05 b5 a7 3c a7 12 ed 3c c6 d1 00 3e 04 37 48 ba
       0.020472059 0.028939558 0.12580022 -0.00076375925
0000a0 8e 2e ab 3b c2 21 3e bb 9e e1 07 3d 21 07 11 3d
       0.0052240556 -0.002901182 0.03317415 0.03540719
0000b0 b3 f4 de bb 65 a1 e4 ba fb 27 c4 bc 3e 44 bc bb
       -0.0068040728 -0.0017443119 -0.023944845 -0.00574544
0000c0 f2 41 07 3e 35 cc 48 3c a6 ee 87 bd 7b d3 b6 3d
       0.1320875 0.012255718 -0.066373155 0.089270554
0000d0 46 dc af 3c 66 ef 73 3d 53 0d 7c bd e2 ea 03 bf
       0.02146734 0.05955448 -0.061536144 -0.5153028
0000e0 99 55 f7 3a a4 2a cd 3b 08 ed 4b 3c b5 85 a1 bd
       0.0018870115 0.0062611867 0.012446649 -0.07886831
0000f0 13 46 4c 3d 9f a2 88 3c 6f ea 51 bd 57 8b d8 3c
       0.049871515 0.016679106 -0.051248964 0.02643363
000100 84 43 6e 3c f4 38 9c 3b dc 38 44 3c 4e c0 78 bb
       0.014542464 0.0047675315 0.011976447 -0.003795642
000110 dc ee 65 bb 6f ee 17 3c bb 1d c1 3b ec 8b 91 3b
       -0.0035084998 0.009273156 0.0058934367 0.004441729
000120 0e 1d 57 3b 25 6b 97 3b c5 16 50 3d 73 7b d6 bb
       0.0032823714 0.004620927 0.050802965 -0.006545478
000130 a2 d9 87 3c 08 39 a5 3b 8b 8d 3a bb 1e 68 42 3c
       0.016583268 0.005042199 -0.0028465714 0.011865644
000140 e1 95 9e bb 23 71 c1 bc 0a fe 34 3b 12 9d 07 bd
       -0.0048396443 -0.023613518 0.002761724 -0.03310878
000150 76 4b 48 bc 41 bb e5 3b 4c 68 e9 ba 26 ac 42 bb
       -0.012225023 0.007010848 -0.0017807572 -0.002970466
000160 7f 43 9b 3c 8f 15 23 3d d3 bc 2a 3c 64 f7 15 3c
       0.018953083 0.03981548 0.010420996 0.009153221
000170 e3 db 23 bc be dd 6e bb 52 b8 6b 3b 10 d7 7e bd
       -0.010001156 -0.0036448087 0.0035968018 -0.06221682
000180 ac de 4d ba 8f 17 07 39 c9 24 9d ba 4e 10 a2 bb
       -0.000785331 0.0001288338 -0.0011989112 -0.0049457913
000190 44 b1 93 bc 93 09 ee 3b 5d 5a 70 3d e2 20 38 bb
       -0.018028863 0.007264325 0.058679927 -0.0028095772
0001a0 1c 42 70 3a a5 fe 70 3b 34 e2 60 39 83 00 89 3b
       0.00091651245 0.0036772874 0.00021446572 0.004180969
0001b0 ac b8 7b bc 34 3c 5b ba 59 99 8f bb 05 e3 d9 b8
       -0.015363853 -0.0008363158 -0.004382294 -0.00010389652
0001c0 2d 8c 87 3d 8b 5b ba 3b 9f 0d b7 bc 7b d0 88 3b
       0.06618533 0.0056871823 -0.022345362 0.0041752434
0001d0 8e 6c e8 bb 9c c9 82 bb af 27 c8 3b 85 83 3a bd
       -0.007093019 -0.003991319 0.0061082463 -0.045535583
0001e0 ef 4f aa b9 57 33 c6 3a d3 df 99 bb 25 87 ba 3c
       -0.00032484482 0.0015121502 -0.0046958714 0.02276952
0001f0 52 f2 87 3c 08 19 f8 bb 40 a6 22 3d 9a c6 f3 ba
       0.01659504 -0.0075713433 0.03970933 -0.0018598617
000200 82 1e cc bb ee 41 3c bb 2f bd be 3c 7e 4b 43 bb
       -0.0062292228 -0.002872582 0.02328357 -0.0029799636
000210 32 2e 4b bc 3e 84 4c bb ac ba b2 bb b5 3b 28 3c
       -0.012401151 -0.0031206752 -0.005454382 0.0102681415
000220 9a 59 72 3a 79 4e 85 bb d4 e7 9d bc af d2 52 3b
       0.0009244919 -0.0040681926 -0.019275583 0.0032169034
000230 a2 12 d8 bc 5e 2a 34 3b 45 9b 43 39 58 2a 8b 3c
       -0.026376072 0.0027491073 0.00018654492 0.016987965
000240 e7 06 c3 3a 0d 58 4f 3e ff 31 fc bb 9a f6 a7 be
       0.0014879376 0.20248432 -0.0076963897 -0.3280533
000250 11 1f d7 3a dc c4 be bb 78 d3 a0 b9 bb 34 6c bb
       0.0016412457 -0.0058218073 -0.00030675135 -0.0036042172
000260 93 ad 5f 3c 8c b0 09 bc 47 4e 78 3a 60 52 8f bc
       0.013652223 -0.008403908 0.00094721135 -0.017495334
000270 bb 17 e6 3b cf 48 39 bb 2a 43 0f 3d d6 81 8b 3b
       0.007021872 -0.0028272157 0.034976162 0.004257421
000280 6f 73 7d 3b 31 65 6d bb cf f5 1a 3b 2b 77 a0 bb
       0.003867354 -0.0036223645 0.0023645048 -0.0048970184
000290 fe 85 5d 3c 50 ad c3 3b 6b 54 2d 3c 98 64 e9 3a
       0.013520716 0.005971588 0.010579209 0.0017806469
0002a0 e7 d7 18 3c ad 95 c3 ba 3b e5 99 3c e4 96 ff bb
       0.009328819 -0.0014921926 0.018786063 -0.00779997
0002b0 5b dd 8b 3c 0c 2a 8b bb f5 bd 94 3d 5a bc ea bb
       0.017073324 -0.0042469557 0.07262794 -0.0071635665
0002c0 0e 1a 7e 3b 01 4e d5 3b 98 6b a6 bb 73 ee 91 3c
       0.0038772854 0.006509543 -0.005078744 0.017813897
0002d0 d7 89 5a 3d 71 e4 1c 3d 96 ed b7 bc 96 8d f2 3c
       0.05335411 0.038303796 -0.022452157 0.029608529
0002e0 53 b9 89 3b 29 32 d4 b8 e0 a1 c6 3a ff e2 02 3b
       0.0042030006 -0.00010118291 0.0015154444 0.0019971726
0002f0 0a 65 4e 3c c9 9c bc 3b 7d 78 e4 bd 75 55 2f 3c
       0.012597332 0.005755995 -0.11155794 0.010701527
000300 81 4d 86 bd ee c0 55 3c c3 87 c1 3d f0 11 90 ba
       -0.065577514 0.013046486 0.094497226 -0.0010991674
000310 e0 20 f9 3c 2e 96 22 be 52 6d d6 3b 18 03 0e 3d
       0.030411184 -0.15877602 0.0065437937 0.03467092
000320 d1 1e be b9 60 b9 83 bd 99 f5 19 be 0c 8f e4 bb
       -0.00036262584 -0.06431842 -0.15035094 -0.0069750603
000330 3a 07 25 be e4 8a f9 b9 26 89 1b 3c 37 c7 29 3d
       -0.16116038 -0.00047596463 0.009493148 0.04144975
000340 19 5c ee 3b e5 29 05 3d 6b 5b f7 bc e2 9d b0 bd
       0.0072741625 0.032510657 -0.030194959 -0.08623864
000350 48 94 12 3b be ae dd bc 74 63 de 3c e1 e1 3c 3c
       0.0022366215 -0.027060863 0.027147032 0.011528463
000360 e1 f5 ea 3c 3b 76 7a be 05 8e 8f 3d f3 c3 b5 bb
       0.028681697 -0.24459164 0.0700951 -0.0055470406
000370 e5 a1 98 3b 9a 5c e3 3a f9 7d e2 3d cf 23 2b 3d
       0.004657971 0.0017346323 0.110591836 0.041782197
000380 95 a8 bf ba 36 66 29 3b 4d 0b 4a 3c d7 aa b1 bc
       -0.0014622385 0.0025848276 0.012331796 -0.021687908
000390 5c 70 f1 3d 60 22 1d 3c 6a cc 92 bd c6 c0 a7 3a
       0.11789009 0.009590715 -0.07167895 0.001279854
0003a0 33 4a aa 3c 7f 4d 9f bd 7d 42 6c bc ac 69 3a 3d
       0.020787334 -0.07778453 -0.014420149 0.045510933
0003b0 42 85 f2 3d 91 7c da ba fe b7 01 bc 8b ce 76 bc
       0.11841823 -0.0016669204 -0.007917402 -0.015063892
0003c0 29 df 06 be 90 6c e5 3c 3a ce 5d 3b ee ed 38 3d
       -0.13171066 0.028005868 0.0033844844 0.045148782
0003d0 d9 2d f6 3d db b5 e5 3d c1 2b a0 bd 28 62 ec 3d
       0.120204635 0.11216327 -0.078208454 0.11542159
0003e0 2a 35 f2 ba 7a 18 92 ba 7f 5c 3d 3d ff 6e a2 bd
       -0.0018478979 -0.0011146211 0.04623079 -0.07931327
0003f0 c4 79 c3 3c c0 72 dc 3d 74 fc 6f 3d 0e 17 df 3c
       0.023861773 0.10764074 0.058590367 0.027232673

encoder.block1.convblock3.1.weight f4 [64]
000000 da a2 ea 3e cd 60 1f 3e fc 57 85 3e cf 23 ef 3e
       0.4582737 0.1556427 0.2604369 0.46707007
000010 e0 65 03 3e d5 43 cc 3e 41 df c4 3e b8 1e 58 3e
       0.12831831 0.39895502 0.3845158 0.21105468
000020 82 ed aa 3e 73 93 ba 3e eb fa a8 3e 3c 47 06 3f
       0.3338433 0.3644062 0.33003935 0.52452445
000030 2e 28 a5 3e fe 31 9d 3e 93 fe cc 3e 1e 27 26 3e
       0.32257217 0.30702204 0.40037975 0.1622586
000040 43 78 b5 3d 8e c3 f5 3e 77 33 a7 3d 59 5c 0e 3f
       0.08860829 0.4800076 0.08164113 0.5560966
000050 3f 1a 66 3e 2e f3 bb 3e d8 dd 07 3f 5c 8f c3 3e
       0.2247095 0.3670897 0.5307288 0.38195312
000060 bf d0 9d 3e 45 51 d8 3e 31 11 ac 3e 4d a6 c3 3e
       0.30823323 0.42249504 0.33606866 0.38212815
000070 ba a1 8b 3e f6 78 c0 3e b6 35 f8 3e b4 17 73 3e
       0.27271825 0.37592286 0.48478478 0.23739511
000080 2b 82 ae 3d 32 34 20 3f 95 25 38 3e ed 6e 15 3e
       0.08520921 0.62579644 0.17983086 0.14593096
000090 b6 08 f4 3e 5e e2 94 3e 25 be 05 3e a9 0c 7c 3e
       0.47662896 0.29078954 0.13060816 0.24614204
0000a0 2e e2 58 3e b5 cf cc 3e 27 d1 25 3f 1d ed 16 3f
       0.2118003 0.40002218 0.64772266 0.58955556
0000b0 8e 1c 42 3e 9d 1c a6 3e 42 7f fc 3e 90 30 33 3f
       0.18956205 0.32443705 0.4931584 0.69995975
0000c0 0a e0 0b 3f a7 76 03 3f f1 1f 10 3f 2b 4f 0d 3e
       0.5463873 0.51352924 0.5629874 0.13799731
0000d0 de ff a4 3d ba b2 20 3f fc b6 a3 3e c2 d9 ab 3e
       0.08056615 0.62772715 0.31975543 0.33564574
0000e0 59 28 a6 3e 90 70 d3 3e df c7 12 3f 4e 32 06 3f
       0.32452658 0.41296816 0.5733623 0.5242051
0000f0 10 a1 b8 3e fa 49 9d 3e 5d 0a 5b 3e 75 80 2f 3f
       0.3606038 0.30720502 0.21390672 0.68555385

encoder.block1.convblock3.1.bias f4 [64]
000000 28 97 7f bd 60 1c a5 3b 98 df 81 bd b1 cb d9 bd
       -0.062400013 0.005038783 -0.06341475 -0.10634554
000010 bf 53 11 3b ab e7 22 bd 22 7b 96 bd d1 6b 13 bd
       0.002217516 -0.039771717 -0.073477045 -0.035991494
000020 16 a3 d4 bc 19 26 2a 3d e7 39 b6 3c e8 d6 23 be
       -0.025956672 0.04154024 0.022244407 -0.15999949
000030 f5 c4 21 be 01 10 c1 3c 01 b7 2f bd f2 54 f6 bd
       -0.1579779 0.023567202 -0.042899136 -0.12027921
000040 ed fb 87 38 0f be 01 be eb b6 7d bb b2 53 12 be
       6.4842265e-05 -0.12670158 -0.0038713764 -0.1428974
000050 45 31 d1 bc 26 18 d7 bc 91 b8 cc 3c 69 ff 47 be
       -0.025536189 -0.026256632 0.024990352 -0.19531025
000060 7c fb 6c bd d3 63 45 be e9 28 2e bd 9d 77 f2 bd
       -0.05785702 -0.19276361 -0.042519484 -0.11839221
000070 d1 fa 63 be a0 66 22 3d 3b 75 ed bd 9f d5 e0 3d
       -0.22263648 0.039648652 -0.115946256 0.10978245
000080 8c 32 c7 3b 50 2f 86 be 09 97 e0 bd 91 97 a2 bc
       0.0060790237 -0.26207972 -0.10966308 -0.019847663
000090 17 95 2a be 0f d6 eb bd 03 11 5c bc da 4d a1 bd
       -0.16658436 -0.11515438 -0.01343179 -0.07876177
0000a0 04 9e d7 bd f7 d2 1d be f3 e1 f3 bd c8 5b a9 be
       -0.10528186 -0.15412508 -0.11908331 -0.33077836
0000b0 c6 af 01 bc 6e 8c 1d bd 18 af 44 bd 60 bc b3 be
       -0.007915443 -0.038464002 -0.048018545 -0.35104656
0000c0 fa dc 8f be c6 2d 25 be 60 99 73 be a1 8d 64 3d
       -0.2809828 -0.16130742 -0.23788977 0.05579913
0000d0 2e e9 d3 39 02 0b b6 be a5 8c 83 3d 62 fe 13 be
       0.0004041879 -0.35555273 0.0642331 -0.14452508
0000e0 40 21 b4 bd 10 dc 85 be fc 69 02 be e6 9f 31 be
       -0.087954044 -0.26144457 -0.12735742 -0.17346153
0000f0 6d 74 12 bd b5 7a ab bd 1b bf 37 3d 3a c2 9f be
       -0.035755564 -0.08373014 0.044859987 -0.3120287

encoder.block1.convblock3.1.running_mean f4 [64]
000000 fd 16 a5 bb 31 af 24 3c ae 4f 1f bc 14 44 9a bc
       -0.005038141 0.0100515345 -0.009723587 -0.01883129
000010 a5 b6 5e 3b 05 52 75 3d 0b 3e 45 bc c7 ef 1e 3c
       0.0033983376 0.059892673 -0.012038718 0.009700722
000020 b7 a7 78 ba cb 1b a4 ba b5 c1 05 3c 7a c8 15 bd
       -0.00094854407 -0.001252049 0.008163859 -0.036568142
000030 e6 7a aa bc 24 70 ae 3c bf 97 8d 3d 59 89 41 3d
       -0.020810556 0.021293707 0.06913709 0.047250126
000040 96 ed 17 bb 32 f4 66 bb bb 3f e2 bb 5f c1 ac bd
       -0.0023182384 -0.0035240767 -0.00690457 -0.0843532
000050 11 66 b8 3c b9 ce 1a 3d 3a fc 29 3c cc 84 9c 39
       0.022509607 0.037794802 0.010375077 0.0002985358
000060 0c 5d f6 3a 61 fd 05 3b d3 70 ac bb e1 9e 81 ba
       0.0018796041 0.0020445215 -0.005262473 -0.0009889269
000070 83 b3 48 bc 75 73 30 3c 60 19 7c bc d9 db dc bc
       -0.01224983 0.010769715 -0.015386909 -0.0269603
000080 71 b8 71 bb 5a a2 0b 3e 0f 24 cf bc 81 f1 88 bb
       -0.0036883617 0.13636151 -0.025285749 -0.00417918
000090 43 34 63 3d e1 af a1 bc 7e f0 cb bc bd e2 88 3c
       0.055469763 -0.019737186 -0.024894949 0.01670968
0000a0 7a 5e cd bc 37 0d 7c 3d 55 27 8f bd ba 90 df bd
       -0.025069464 0.06153604 -0.06989924 -0.10916276
0000b0 91 91 e8 bc de 74 c2 3c 1e fc 18 bd 7b c9 9f 3d
       -0.028389724 0.023737367 -0.037349813 0.07802101
0000c0 f2 7d c0 3c fc eb 05 3e b6 47 32 bd e1 b0 e9 bc
       0.023497555 0.13078302 -0.04352542 -0.028526725
0000d0 50 12 bb bb 3d 80 43 3e fc 86 04 bc 67 ed 9b bd
       -0.00570897 0.19091888 -0.008088823 -0.0761364
0000e0 a2 93 a0 3c f8 37 72 3c 39 77 38 3d 97 e4 05 3e
       0.019601647 0.014783852 0.045035575 0.13075481
0000f0 ca 66 0c bd 93 c9 ca 3c 89 0c 26 bc ab 45 f6 bc
       -0.034277715 0.024754321 -0.010134825 -0.030062517

encoder.block1.convblock3.1.running_var f4 [64]
000000 54 3d 89 3c f0 e2 c2 3a 3b 18 4f 3c d9 af 32 3c
       0.016752876 0.0014868658 0.012640054 0.010906183
000010 e5 c0 dd 38 48 fc 24 3c 0e 5a 03 3d a8 c9 58 3c
       0.000105740306 0.010069914 0.032068305 0.013231672
000020 af 80 9d 3c 24 0b c6 3c 65 39 ee 3b 7a ae 67 3c
       0.0192264 0.024175234 0.0072700256 0.01414072
000030 cc ea 99 3b f0 ff 09 3c 1f 0e 64 3c fc 74 ec 39
       0.0046971794 0.008422837 0.013919382 0.00045100588
000040 37 28 92 39 cd d8 c8 3c b8 41 04 39 12 39 56 3c
       0.00027877252 0.024517441 0.00012612983 0.01307513
000050 1f b8 39 3b ba 2a 1d 3d 3b 27 e7 3c 3d 5d bd 3c
       0.0028338504 0.038370825 0.028216949 0.023115749
000060 a0 26 fb 3b d8 4d 72 3c 87 32 a6 3c b9 6d c7 3c
       0.0076645166 0.014789067 0.020287765 0.024344312
000070 85 81 7d 3c e5 d3 44 3d 7d eb 9c 3d dc 80 60 3c
       0.015472774 0.04805364 0.07662103 0.0137025975
000080 ca 9e a6 39 53 09 0b 3d 53 b1 7a 3b 02 a3 24 3b
       0.00031780294 0.03394444 0.0038252666 0.0025121574
000090 72 84 54 3d f6 eb bc 3c 8c ff 44 3a 5e ee c9 3b
       0.051884122 0.023061734 0.0007514886 0.006162449
0000a0 29 5a be 3b 8d 24 5f 3d 9f f6 46 3d 3a 67 47 3d
       0.005809088 0.054478217 0.04857504 0.04868243
0000b0 d0 83 e0 3a c8 e8 ff 3b c3 7f e5 3c 86 47 7b 3d
       0.0017129127 0.007809732 0.028015023 0.061347507
0000c0 a1 14 34 3c 36 c5 81 3c 21 71 b1 3c 72 be 6b 3a
       0.010991246 0.015841108 0.02166039 0.0008992917
0000d0 2c 55 83 39 4d 5e a6 3d e3 54 bc 3c 79 07 d6 3b
       0.00025049725 0.08123455 0.022989696 0.0065316525
0000e0 e2 b7 25 3c 43 41 49 3d a0 3c db 3c d1 30 35 3d
       0.010114642 0.049134504 0.026762307 0.044236008
0000f0 2a 2b b2 3c e1 eb 5b 3c c8 20 ab 3c 37 35 52 3c
       0.021749098 0.013422937 0.020889655 0.01283007
