ldpi/training/output/ResCNN/best_model_with_center.pth (torch, 711778 bytes, 64 tensors)

encoder.block1.convblock1.0.depthwise_conv.weight f4 [1, 1, 7]
00000000: 976c 2dbe 10cc 00c0 c023 40be 2c7f dabe
00000010: 1d0d d5bd ef78 83bb dba3 493d
-0.16935955 -2.012455 -0.18763638 -0.4267515 -0.10402892 -0.004012219 0.04922853

encoder.block1.convblock1.0.pointwise_conv.weight f4 [64, 1, 1]
00000000: 3e01 0cbd cfb8 4e3d 980d 983c 7bfa 5b3d
00000010: bf8b 94bc f80a 823c 80cc 043d e81c 333b
00000020: b905 173d 7be8 98bc 639d 9abc ea56 e6bc
00000030: 492c 293d 56f9 fe3c b854 82bc efec 35bd
00000040: f922 113d 36d0 e8bc 6bfe 4d3d 0152 13bd
00000050: 8faf d6bc dfb0 563d a8f8 d23c 1dec 96bc
00000060: 8bdc 9c3a fc3e 2bbd 29f6 c33a 425d 183d
00000070: 50d3 ebbc 78cd 14bd 04e7 973c 4340 58bc
00000080: 517d e3ba 889f 7fbd 5958 1f3c d484 073d
00000090: 887b 783c ef6b b43c 51e9 1b3d c082 0ebd
000000a0: 5e56 bb3c 806a a1bc 091b 183d 8459 b83b
000000b0: 79e0 9bbd ddc8 1fbd fa4c edbc dcff df3c
000000c0: 01bf 99bc a350 31bc c82c 153d caab 353a
000000d0: d095 df3c 058a 2cbd 1b16 b4b9 69af 0dbc
000000e0: 058a 0d3d 5377 e9bc 6180 fc3c 7d8f bb3b
000000f0: c3c1 daba 893a d2bc a425 323d f3b0 ee3c
-0.034180872 0.050469216 0.01856117 0.053705674 -0.018133042 0.015874371 0.03242159 0.0027330462
0.036870692 -0.018665543 -0.018873876 -0.028117616 0.041302 0.031124752 -0.015909538 -0.04441541
0.035433743 -0.028419595 0.05029146 -0.035966877 -0.02620676 0.05241477 0.025753334 -0.018423134
0.0011967582 -0.041808113 0.0014950681 0.037198313 -0.028787285 -0.036328763 0.018542774 -0.013198915
-0.0017356073 -0.062408 0.009725654 0.03308566 0.015166171 0.022024123 0.038064305 -0.03479266
0.022868332 -0.019704103 0.037135158 0.0056259055 -0.07611174 -0.039009918 -0.02896737 0.027343683
-0.018767836 -0.010822448 0.03641966 0.00069302006 0.027293116 -0.042123813 -0.00034348745 -0.008647778
0.034555454 -0.028499281 0.030822935 0.0057238922 -0.0016689826 -0.025662677 0.04349293 0.02913711

encoder.block1.convblock1.1.weight f4 [64]
00000000: 75f7 023d fe4e 213f c85f df3d f9a9 2d3f
00000010: 2af3 523e 1dab a53e e570 093f 3047 c03e
00000020: 5dcd 013d 6300 273e 75a6 3d3e 4f14 a13e
00000030: 6d0a b43e a547 8c3e f6bb e83d f2ea e93e
00000040: 1cba 803e adab 853e 9377 ee3e 3ace e43d
00000050: 194f fd3d da11 2e3f ee04 9d3d 96b3 433e
00000060: a5ed 8d3e 59a1 e93c c4aa e23e b6a4 e43d
00000070: d1ea d83e 03b6 683d 5212 ff3d 847c 463e
00000080: 2f58 893e 46ca 013f cf9a 1e3d 2652 383e
00000090: 0d08 db3d 1cdb 223e 07b7 1e3e d9e9 313d
000000a0: f035 3c3e f67c 4b3e 7fc8 bf3e 6439 493d
000000b0: 6501 c83e f633 063f fe13 853e 0b33 3e3e
000000c0: e8eb fb3d f593 c53d c0ca 8a3d 4fd8 083e
000000d0: 578c 0d3e 4b68 033d 56e5 ac3e e06a b33d
000000e0: b07d fd3d aaa0 e63e c326 953e 9c9a dd3c
000000f0: e9b1 ce3e 3d5d 813e 9439 053f 2958 d83e
0.031974275 0.6301116 0.10906941 0.6783748 0.20600572 0.32357112 0.5368789 0.37554312
0.03168999 0.16308741 0.1852053 0.31460807 0.35164204 0.2739841 0.11363976 0.45687062
0.2514199 0.2610754 0.46575603 0.11172147 0.12368602 0.6799599 0.07666956 0.19111475
0.2772037 0.02851932 0.4427091 0.111642286 0.4236665 0.056814205 0.12454666 0.19383436
0.2682509 0.5069927 0.038721856 0.18000087 0.10694895 0.15903896 0.15499507 0.043435905
0.1837995 0.19871888 0.37457654 0.049126998 0.39063564 0.52423036 0.25991815 0.18574159
0.12300855 0.09647361 0.06776953 0.13363765 0.13823067 0.032081883 0.3376872 0.08760619
0.123774886 0.45044452 0.29131135 0.027051263 0.4037011 0.25266448 0.5204098 0.4225476

encoder.block1.convblock1.1.bias f4 [64]
00000000: 1c16 2ebe 8b66 cb3d 033f bcbd c0e6 fd3d
00000010: 659d 15bd 2165 f3be f2e2 803e 6911 a0be
00000020: 012e 733e ec6c 31bd cf90 363d e158 cabd
00000030: f180 15be d107 ec3d c806 083d a40b 1c3f
00000040: 0803 933d d242 94bd 295a 373e 1adb 04bd
00000050: 4f01 4cbe 550b 923d 8e0c c33d 2b7d 9abd
00000060: c464 febd ba03 4b3d 83be 7bbe d54e db3c
00000070: 96e4 4f3e 37fc 243d 37a2 f63c e4c9 ef3d
00000080: aa38 c0be 08cb 96bd ce26 8d3e 5f0e 513d
00000090: 3d35 ec3d bde8 2a3d e531 733d 0b42 64bd
000000a0: c3ee 183d e236 a83e 9a22 043e 2d42 afbd
000000b0: fad0 ba3e 94c4 1a3f d7cb 8d3d c64f d5bc
000000c0: 5d61 c6be 74ec 673d 6b04 a2bc 62f2 21bd
000000d0: 2019 e0bd c385 763d 552a 93be 2204 c6bc
000000e0: 6d94 06bd 3703 94be 1b1b 79bd 2534 1c3d
000000f0: c767 0dbf 291e ddbd 8954 253e e29f 25bf
-0.17000622 0.09931668 -0.09191706 0.12397528 -0.036527056 -0.47538093 0.25173146 -0.31263283
0.23748018 -0.043316767 0.044571694 -0.098802336 -0.14599968 0.11524928 0.033209592 0.6095526
0.071783125 -0.072393075 0.17905487 -0.032435514 -0.19922374 0.07131068 0.09523879 -0.07543405
-0.12421563 0.0495641 -0.24584393 0.026770988 0.20302042 0.040279593 0.030106647 0.117084295
-0.3754323 -0.07362944 0.27568668 0.051039096 0.11533592 0.041725863 0.059373755 -0.055727046
0.037337076 0.32854372 0.12903824 -0.08557544 0.3648756 0.60456204 0.06923645 -0.026039016
-0.38746157 0.056621984 -0.019777497 -0.039537795 -0.10942292 0.06018616 -0.28743234 -0.024171893
-0.032856394 -0.28908703 -0.060816865 0.038135666 -0.55236477 -0.10796768 0.16145529 -0.64697087

encoder.block1.convblock1.1.running_mean f4 [64]
00000000: 944a d93c 726b 20bd 98fd 6bbc e3b4 2abd
00000010: 838c 663c 82d4 49bc de18 cebc 76fe 0abb
00000020: 0764 eabc 9c51 6d3c 5af7 6f3c c1be b23c
00000030: ca47 03bd acdc c5bc 6f47 4a3c a72e 0d3d
00000040: 7e41 e1bc 41aa b43c 7eda 1fbd 22a5 e43c
00000050: 8e99 a63c 3e9a 26bd 6db7 a3bc 943b 6a3c
00000060: 0274 73ba a4e3 043d 9f11 98ba 3379 ecbc
00000070: 3b02 b73c 13f2 e63c 9cc1 6bbc 05cd 273c
00000080: f188 b03a 385d 463d ef50 f7bb 3054 d2bc
00000090: f2d2 40bc 6102 8cbc 8afa f1bc 372e dd3c
000000a0: 5860 91bc 8a85 7a3c 2512 ecbc cb0e 8fbb
000000b0: f1ec 713d e3fd f73c 2a26 b83c 9ad3 adbc
000000c0: 369e 6e3c 1699 093c 0186 e7bc a9fa 0cba
000000d0: 4c81 adbc 87e4 053d d9bf 8b39 a0e4 db3b
000000e0: 2eac dbbc 142c b53c eaf1 c3bc a78c 91bb
000000f0: 21c2 a93a 3d22 a33c 7f3e 0abd 413a b9bc
0.02652482 -0.039164968 -0.014403723 -0.041676413 0.014071587 -0.012318732 -0.025158342 -0.00212088
-0.02861215 0.014484789 0.014646376 0.021819474 -0.032050885 -0.024153076 0.012346133 0.03446832
-0.02749705 0.02205384 -0.03902673 0.027910773 0.020336892 -0.04067444 -0.019984925 0.014296431
-0.0009287001 0.032443658 -0.0011601931 -0.028866386 0.02233993 0.028191602 -0.014389422 0.010241752
0.0013468546 0.048428744 -0.00754749 -0.02567491 -0.011769043 -0.017090978 -0.029538412 0.026999576
-0.017746136 0.015290627 -0.028817246 -0.004365777 0.059063856 0.03027243 0.022479136 -0.021219064
0.014564088 0.008398315 -0.02826214 -0.00053779274 -0.021179818 0.032688644 0.00026655084 0.006710604
-0.0268155 0.022115745 -0.023919065 -0.004441816 0.0012951532 0.019913787 -0.033751007 -0.022610785

encoder.block1.convblock1.1.running_var f4 [64]
00000000: 0947 103a 5b46 9d3a 8a2d 2a39 8a17 b23a
00000010: 916b 2239 b8f3 f838 81cb 013a 5423 6c36
00000020: dae0 273a 4f19 2c39 c3f5 2f39 6e42 c339
00000030: eda7 523a 5642 ef39 8d0f fa38 b9a1 733a
00000040: 420c 1b3a 077a c739 a32a 9c3a aabf 1f3a
00000050: 4ba0 a939 b3a1 a93a 3bce a339 efa6 2739
00000060: 631c 3535 c3d9 573a a253 8d35 01e0 2a3a
00000070: 85af cc39 c7fa 223a 13d7 2939 a814 ac38
00000080: e875 be35 a279 f03a 6be7 3a38 022e 073a
00000090: ed3a e338 ac99 6f39 7bec 323a 087d 153a
000000a0: 3329 8139 cbc7 3f39 314b 2a3a d825 7a37
000000b0: 5fd8 323b 34ed 3b3a 923e cf39 4ea9 b839
000000c0: 07fd 2d39 246b 6738 d4cb 233a 6bee 7234
000000d0: 97fa b739 6d1f 5b3a 31b6 6e33 d0c0 1338
000000e0: ff74 133a 1f99 c839 39a5 ea39 fc77 8137
000000f0: 701e b035 3ba4 a239 d198 693a d3ad d139
0.0005503749 0.0011999117 0.00016229428 0.0013587337 0.00015489596 0.00011870958 0.0004951284 3.5187304e-06
0.000640405 0.00016412626 0.00016780854 0.00037242792 0.0008035887 0.00045635056 0.000119238255 0.0009293813
0.00059146073 0.00038047155 0.0011914562 0.0006093929 0.0003235362 0.0012941867 0.00031243436 0.00015988549
6.746906e-07 0.0008234048 1.0529659e-06 0.00065183645 0.00039040684 0.00062171783 0.00016197217 8.205447e-05
1.4190418e-06 0.0018346796 4.456138e-05 0.0005156697 0.00010835179 0.00022850063 0.00068253995 0.000570253
0.00024635493 0.00018289608 0.000649619 1.4909972e-05 0.0027289612 0.000716883 0.00039528735 0.00035221357
0.00016592826 5.5174474e-05 0.00062483293 2.2624742e-07 0.00035091184 0.000835887 5.5579395e-08 3.52271e-05
0.0005625039 0.00038261057 0.00044755058 1.543387e-05 1.312188e-06 0.0003102141 0.0008911016 0.00039993096

encoder.block1.convblock2.0.depthwise_conv.weight f4 [64, 1, 5]
00000000: 340f c9bc c4ba dfbc e9a7 59bc 1ab3 6bba
00000010: 098d dcbc 7c42 d13e 08a3 cdbe 862c a6bd
00000020: 49a9 92be 6fa3 80bc daa3 62bb b3f5 aebc
00000030: 4427 a7bc f460 b2bc d805 29bd 5752 d23e
00000040: 7842 f9be c30f aabd 812b 50be 5fde 81be
00000050: cdb3 073e f1f2 cb3d e1bc 9d3d fc69 61bc
00000060: 10cc 90bb 2f17 a23d fdcb 503d c623 b13c
00000070: d951 f33d f5eb 023e 3af9 cc3e 4285 023f
00000080: 92a1 66be 5c6e 0c3e a104 763e efc9 6d3d
00000090: 1d72 85bc c8f6 a3bc c0df 353d 6d99 ad3d
000000a0: 9d91 363d e4b0 943d e959 c53c 6f1a 10bc
000000b0: 250a 813c cd5e 47bd 1a30 87bd 30c7 9fbd
000000c0: 1a2a 85bd 0a34 19bd 44d3 7b3d 503b e03d
000000d0: 2bdc 9c3c 86e0 813d c680 a73d c907 17be
000000e0: 15e8 4ebd 23f5 36bd f72e 3ebd f818 eebd
000000f0: e912 c33d 5c31 bb3d 98f6 a13d 4064 7b3d
00000100: 5114 ce3d 27b8 c3bd e108 39be a0a7 d9bd
00000110: bbb5 84bd 1026 a4bd f09b 8f3c 86df f6bc
00000120: debc d2bd f96a 923c 4f46 00bd baf0 b7be
00000130: 8bbb 723d f0e6 4c3f a535 71be cacf 12bf
00000140: 8a58 03be 2185 b1bd de5f dabd ee91 a8bd
00000150: 1e6d 82bd 1ac7 c5bd 853e 05bd 4ed7 b63d
00000160: d4dc efbd 4a07 35be be68 91bd e7f5 76be
00000170: 1ba4 44be f210 babc a141 5b3c 5cfa 743d
00000180: 8ffb 1c3c 6bc7 2dbc b0e6 843c 0a02 bb3d
00000190: bfa3 d33d 255c ac3d 6b6b 543d 74c3 ae3c
000001a0: 1822 e3bb 9619 3ebf f38a 9bbe fdd3 d03d
000001b0: dd2b 00be 4ca7 0fbe 514f d43c 030b b13c
000001c0: c046 e9bc 46c0 5abc cdd7 18bd 012d 30bd
000001d0: cf6d 36bd 5742 3c3d 50dc 82bd 6b83 d1bd
000001e0: ca60 b2bc 19c2 55bd f67b 00be 6689 bcbd
000001f0: 6cac e2bd 912b 66b9 8393 d63b 3f3f 273b
00000200: 2aa5 0d3c ce7d 1e3c 667b bb3c ac21 863d
00000210: 7954 bb3d b070 2b3c ca53 68bc 746d 37bd
00000220: 0547 34bc 926f 86bd b57e 01bc ea70 56bd
00000230: e652 fd3c 88ca f9bd 4c6a 5ebe 06fa 34be
00000240: 13b5 31bd aba3 073d 443e 233d 95f1 b6bc
00000250: e946 8dbc 5bd0 9a3b 59fc 243d f12e c03d
00000260: 5ab3 da3c 88b9 683c b3c8 203d 486a 993c
00000270: 7653 3ebe 7e43 f6bb d688 adbc 1ef9 353e
00000280: c254 2dbd 6324 44bd e8cc 9fbd 04bd 1bbd
00000290: 2827 4fbd 4420 973e bd35 023f fbc4 5cbf
000002a0: 8add 213e 2fbc a8be 8bab 02be 1db4 22bd
000002b0: 3290 6e3c bf21 2d3d 91c8 46bc 2933 21be
000002c0: be57 5bbd b85d 443d b0b8 913d 4809 c43d
000002d0: ce07 943c c4ec 833d 134e 22bd 21d1 b9bd
000002e0: 550f e0bb b234 2bbd d7b7 c5bd b71a 84bd
000002f0: d16a 7cbd 5360 9cbc cad3 1dbd 60ae d2bc
00000300: b0a8 1ebd f2f9 09bd f130 4abd 1f95 9fbb
00000310: 4306 103d b34c 9bbb df63 153b 1246 933c
00000320: e6b9 1abe 8a36 b5bd 80a6 f7bc 86d9 8c3c
00000330: 4641 52bd c5b1 013d 88cc 04be 0872 babc
00000340: dfd6 25bd 060e f3bb 86ea 25be 5aae 00be
00000350: 3d18 49be 8962 cfbd 2c27 e6bd c0b1 edbc
00000360: c23a e3bb e967 c0bc c49d 0dbc 7caf 94bc
00000370: 6bf6 95be b4f1 6ebe 447b ddbe c114 633d
00000380: dbcd 153f 9cfa 813e be15 53be a86e 623f
00000390: d395 c1be 749f a33e 215c ff3d 5df5 2f3e
000003a0: 1d99 d03c 1af2 4a3d bc6e 863d 8fac e13c
000003b0: d72e cc3b 0eb6 9c3d ca94 c33d 52e8 be3d
000003c0: a9fd 503d ec4b fd3c 392b 033c 7f80 e3bb
000003d0: 12f3 f4bc 35a7 413d e3f7 093c 9eff ac3b
000003e0: ddcf 7a3d 92a7 df3c de02 a43c 4a56 a2bc
000003f0: 61b5 c93c ce94 8e3c 10c0 063a 5cbc 283d
-0.024543382 -0.027310736 -0.013284662 -0.0008991227 -0.02692272 0.40871036 -0.40163445 -0.08113961
-0.2864478 -0.015702931 -0.0034582526 -0.021357393 -0.020404465 -0.021774746 -0.04126534 0.41078445
-0.48683524 -0.083037876 -0.20329095 -0.25364968 0.13252182 0.09958447 0.077020414 -0.013758179
-0.0044188574 0.07914578 0.05097579 0.021623503 0.118808456 0.12785323 0.40033895 0.50984585
-0.22522572 0.13713974 0.24025203 0.058053907 -0.016289765 -0.020015135 0.044402838 0.08476529
0.04457246 0.07260302 0.024090724 -0.008795365 0.015751908 -0.048674393 -0.066009715 -0.07801664
-0.06502171 -0.037403144 0.061480775 0.10948813 0.019147953 0.063416526 0.081788585 -0.14749064
-0.0505143 -0.044667374 -0.046431508 -0.11625856 0.09525091 0.09140274 0.07908362 0.061374903
0.10062469 -0.09556609 -0.18069793 -0.10627675 -0.06479975 -0.08015072 0.017530411 -0.030135881
-0.1028993 0.017873274 -0.03131705 -0.35925847 0.059260886 0.8003988 -0.2355562 -0.5734831
-0.12826744 -0.086679704 -0.106628165 -0.08230959 -0.06368469 -0.09657116 -0.032530326 0.08927785
-0.117120415 -0.17678562 -0.07100056 -0.24117242 -0.19203226 -0.022713158 0.013382346 0.059809074
0.009581461 -0.010606627 0.016223282 0.09131248 0.103339665 0.08416013 0.051860254 0.021333434
-0.0069315545 -0.7425779 -0.30379447 0.101966836 -0.12516733 -0.14028662 0.025916727 0.021611696
-0.028476119 -0.013351506 -0.03731518 -0.04301167 -0.044538315 0.045961704 -0.063896775 -0.10230144
-0.021774668 -0.05218706 -0.12547287 -0.09205894 -0.11068043 -0.00021950739 0.0065483465 0.0025519875
0.008645335 0.009673549 0.02288599 0.06549391 0.09146971 0.0104638785 -0.014180133 -0.044782117
-0.0110032605 -0.06564249 -0.0079037445 -0.052353777 0.030923318 -0.12196833 -0.21720237 -0.17673501
-0.043385576 0.03311507 0.039854303 -0.022331992 -0.017245727 0.004724545 0.04027972 0.09383953
0.02669685 0.01420439 0.0392539 0.018727437 -0.18586525 -0.00751537 -0.021183413 0.17770812
-0.04231716 -0.047886264 -0.07802755 -0.038022056 -0.05057445 0.29516804 0.5086325 -0.8623807
0.15807167 -0.32956073 -0.12760751 -0.03972255 0.014560746 0.04226851 -0.01213278 -0.15742172
-0.053550474 0.04794094 0.071153045 0.09572083 0.018070128 0.06441644 -0.03962524 -0.09073091
-0.006837765 -0.0417983 -0.09654205 -0.06450408 -0.061625306 -0.0190889 -0.038532056 -0.025717914
-0.03873509 -0.033685632 -0.04936308 -0.0048700715 0.03516222 -0.004739368 0.0022795124 0.017977748
-0.15109977 -0.08848293 -0.03023076 0.017193567 -0.05133178 0.031663675 -0.12968647 -0.022759452
-0.04048812 -0.007417443 -0.16202745 -0.1256651 -0.19638152 -0.10126216 -0.1123794 -0.029015422
-0.0069344947 -0.023487048 -0.008643571 -0.018150084 -0.29289564 -0.2333439 -0.43258107 0.055439714
0.58517236 0.25386512 -0.20613763 0.884501 -0.3780962 0.3195759 0.12468744 0.17183442
0.025463635 0.049547292 0.0656409 0.027548103 0.0062311697 0.07651912 0.09549864 0.09321655
0.05102316 0.030919991 0.008005911 -0.006942808 -0.029901061 0.0472786 0.008420917 0.0052794954
0.06123339 0.027301583 0.020020898 -0.019816536 0.024622621 0.01740494 0.0005140314 0.04119526

encoder.block1.convblock2.0.pointwise_conv.weight f4 [64, 64, 1]
00000000: 8ae6 6bba c565 033b a901 8cbb fce9 923b
00000010: fcd4 1a3b 5a6b f83b ff50 82bb a467 bfbb
00000020: 4707 a23b 97dc 6c39 3894 b73b 93a3 87b9
00000030: 93e3 423b 5459 dbba 9e39 293b cedb 57ba
00000040: 4db6 adbb 6155 a8ba 0384 1c3b ed22 063c
00000050: 0ed1 a3bb 1267 463b c6fe 48bb 6fa6 e7bb
00000060: 68e1 a33b bd66 44b8 2070 843a 334c 20bb
00000070: 1f42 573b 78a2 f8ba d0f2 823b 439e f63b
00000080: 660a 693a 9fa2 e13b fc72 8e3b 2346 743b
00000090: b424 883a bef1 0fbb 5286 75bb ce13 c33b
000000a0: 205a 4aba 6b97 00bc 4d79 fe3a 863e d0bb
000000b0: d519 163b 6966 b6ba 4dd4 9bbb a11c c33b
000000c0: 1a20 093c f6e3 d33b f394 94ba 510f 153a
000000d0: 80c5 5a3a 6117 afba cb2f d5bb 4c4e 79bb
000000e0: f6d7 a9ba f5ee 88bb 2c1a 9eba a58e 423b
000000f0: 001e 34bb 61f7 003b a538 84bb d2e3 7d3b
00000100: 1217 c63c a8b7 29bd 0239 68bb d431 98bd
00000110: c53f 3ebd fde4 b03c 7802 23bc 06a6 3dbe
00000120: 296c 4cbd 0305 c53c efbb a73c 922a 003e
00000130: 2879 bebd 9199 8a3c 8689 bfbc 6718 533d
00000140: 6422 2fbd 72b1 84bc eae4 fe3d 4028 adb7
00000150: d0c8 7e3d 3555 91bc 47b4 92bd 0e41 0bbd
00000160: 7628 e5bc a69e 35bc 94ac 94bb 28d6 103d
00000170: c0f3 ac3c b1c7 9d3c 0495 9dba 30df 743c
00000180: 773f 043e 47b0 5a3c 435c 823d 8dc4 753d
00000190: 4ad0 5dbd c2cf bd3c 8a88 263d 6a3b 283c
000001a0: a9bc ab3c 46b9 94bd a987 5e3d 3c9a eebb
000001b0: d2e9 e8bd efe5 8ebc 9942 f0ba d931 eb3b
000001c0: 3491 c33d 613e 12bd 7543 3fbd a421 2abd
000001d0: 9ee9 a03c d7a1 b9bb 6d76 873d 254a b83c
000001e0: 1829 9e3d 5676 aabd 1f7e 333e dc16 29bc
000001f0: 876e 60be d2a3 2dbd d8e3 d53d 0dcd 39b9
00000200: fade 6b3a 76c8 1e3c 398b c1b9 803f 4b3c
00000210: 769e 8ebb fa16 0ebd 56d1 463b 5146 99bb
00000220: 1f5d 4ebc dadf 2dbb 39c3 45ba 1333 0038
00000230: 22c2 17bc 629c febb 5404 a13a f77f a33b
00000240: 4d1d 553c 4b12 523b cbfe 4cbb f8f1 eb3a
00000250: b4a4 763b a063 003c d210 04bc 0f07 22bb
00000260: d6b1 8bbb db01 b03b 1ae3 fd3b 1c4e af3a
00000270: 95fd 65bb b5a9 6c3b 1170 4bbb 2d0a a53b
00000280: 8cf2 ae3b 1a5e 15bd 8e3e 543a 5145 a1bb
00000290: 1dae eb3b 140f 67bb b998 823c c682 43bb
000002a0: 2c4f 6eba 0aff 5c3b 8297 7f3b 5a4d 9dbb
000002b0: ecdd dc3c c86b c93b 57ab 15bc cd38 163c
000002c0: 1429 193b 3961 1d3b 23a6 bfbb f7fd a1bb
000002d0: c172 c23c b4f2 c9bb 442e 4f3c 3b90 713b
000002e0: baa5 38bb ca30 39bc 52c5 b0bb 510d 853b
000002f0: a121 09bc 149e 553c e1f9 22bb b01c 37bc
00000300: e961 b9bb 47fe 45bd 10cb 953b c10b 5dbd
00000310: 002b 84ba ef91 713c 9849 9bba d43d 0a3d
00000320: 660b f6b9 66b5 10ba 5650 8dbc 9ac4 c0bc
00000330: ef53 183d a306 f0bc 3316 203c b612 903d
00000340: 41cf 97bc 75e5 ecbc 35f5 40bd 04d6 0a3c
00000350: f3a1 c5bc d5ab 37bc 759d a23b 4af0 87bc
00000360: a960 0c3c 81e6 c2ba 21f4 b0bc cdf5 ccbb
00000370: ae59 8e3d 5cdb 26bb 649c 283b 7038 8cbc
00000380: 9069 08bd 712d e83d 4488 0ebb e80d 2d3b
00000390: 0b2b 3c3c deef 60bc 4ab5 4abb f875 583b
000003a0: 4c5b aabb 823e e83c 0896 dabc f394 a6bb
000003b0: cba4 123c f910 e5bd 1074 9ebc 8760 833b
000003c0: 754c c7bc df97 a03b 76f2 a8bb d3a6 e63b
000003d0: 2392 5a3c 0b43 f23b ac9d 6cbd 5d6e b8ba
000003e0: 5b9d 52bc b9ee ad3c 4345 82bb a7b7 14bb
000003f0: 73b3 e43c 1491 e8ba d65b c53b 0079 e43b
-0.00089988916 0.0020049673 -0.004272659 0.0044834595 0.0023625484 0.0075811567 -0.0039769406 -0.0058412123
0.004944715 0.0002258889 0.005602386 -0.0002587108 0.0029737696 -0.0016734996 0.0025821696 -0.00082343526
-0.005301273 -0.0012842828 0.0023882396 0.008187038 -0.0049992865 0.0030273837 -0.0030669435 -0.007069401
0.0050012358 -4.6825724e-05 0.0010104217 -0.002445948 0.0032845808 -0.0018969318 0.0039962307 0.0075261905
0.0008889794 0.006885841 0.0043472033 0.003727325 0.0010386915 -0.0021964158 -0.0037464094 0.0059532886
-0.0007719118 -0.007848601 0.0019414813 -0.0063551096 0.002290358 -0.0013916019 -0.004755533 0.0059543406
0.00836947 0.006466384 -0.0011335894 0.0005686181 0.000834547 -0.0013358408 -0.0065059415 -0.0038041053
-0.0012958038 -0.0041788765 -0.0012062243 0.0029687074 -0.0027483702 0.00196787 -0.004035073 0.0038740528
0.024180923 -0.041434914 -0.003543437 -0.07431379 -0.046447534 0.021593565 -0.009949319 -0.18520364
-0.049907837 0.024050241 0.020475356 0.1251624 -0.093004525 0.01691893 -0.023381006 0.051536944
-0.042757407 -0.016197894 0.12446006 -2.064195e-05 0.06220323 -0.017740825 -0.071632914 -0.033997588
-0.027973395 -0.011085188 -0.0045371745 0.035360485 0.021112323 0.01926026 -0.001202256 0.01494579
0.12914835 0.013347692 0.06365254 0.0600019 -0.054153718 0.023170356 0.040657558 0.010268072
0.020963984 -0.072619006 0.054328594 -0.0072815698 -0.11372723 -0.017443625 -0.0018330395 0.007177573
0.0954918 -0.03570402 -0.04669519 -0.04153599 0.019642647 -0.0056650448 0.06614385 0.022496292
0.07722682 -0.08323352 0.1752858 -0.0103203915 -0.21917163 -0.04239256 0.10443848 -0.00017719362
0.00089977647 0.009691348 -0.00036915558 0.012405276 -0.004352386 -0.03468988 0.0030337176 -0.004677572
-0.012595444 -0.002653113 -0.0007544044 3.0565145e-05 -0.009262593 -0.007770107 0.0012284615 0.00498962
0.013007474 0.003205436 -0.0031279798 0.001800119 0.0037634792 0.007836252 -0.008060651 -0.0024723446
-0.004263143 0.005371315 0.00774802 0.0013374719 -0.0035093774 0.0036111895 -0.0031042139 0.0050366134
0.0053389724 -0.036466695 0.00080964796 -0.0049215932 0.007192387 -0.003525679 0.015941964 -0.0029832586
-0.0009090777 0.003372135 0.0039000218 -0.004800481 0.02696129 0.0061468817 -0.009135089 0.009168816
0.0023370432 0.0024014248 -0.0058486625 -0.004943605 0.02373636 -0.0061629657 0.012645308 0.003685965
-0.0028174953 -0.011303136 -0.005394616 0.0040604253 -0.008369834 0.013038177 -0.0024868178 -0.011176273
-0.0056574238 -0.0483382 0.004571326 -0.053966288 -0.0010083616 0.014744266 -0.0011847494 0.03375037
-0.0004692927 -0.00055201945 -0.017250221 -0.023531247 0.03718942 -0.02930004 0.009770918 0.07034819
-0.018531444 -0.028918007 -0.047108848 0.008473877 -0.024125075 -0.011210402 0.004962618 -0.016594071
0.008567967 -0.0014869721 -0.021600785 -0.0062548877 0.06950699 -0.0025460338 0.0025727982 -0.017116755
-0.033303797 0.11336792 -0.00217487 0.0026405994 0.011484872 -0.013729064 -0.003093081 0.00330293
-0.0051988717 0.028350119 -0.026682869 -0.005083674 0.0089504225 -0.11184878 -0.019342452 0.0040093097
-0.02432845 0.004900917 -0.0051558567 0.00703893 0.013340506 0.007393246 -0.057767555 -0.0014070977
-0.012854899 0.021231996 -0.003975542 -0.0022692473 0.0279176 -0.0017743432 0.0060229106 0.006972432

encoder.block1.convblock2.1.weight f4 [64]
00000000: 6789 133d 1dc7 ae3e 3180 8b3d 7c73 2e3e
00000010: 7536 533e 2835 083f f5f2 2f3f 06bf 1e3d
00000020: 716d 5b3d 00de f23d 6525 3e3e a2cf 173f
00000030: b5ee 773f bd9b 293d d8c4 563e 11df 183f
00000040: c8eb 2a3d 7637 373d e770 c43e 98d0 3c3d
00000050: fc05 373f bad3 b13d 449d 243d 551c 433f
00000060: 1b1c 2a3f da05 9e3e d152 a73e 2116 f93d
00000070: 2a61 243d 600b 3a3e 01ae a53e bde7 2e3d
00000080: 00f3 2b3d cfa5 8a3f 7c7c 6b3e 3c7e aa3d
00000090: 9e52 2a3d d775 393e 96e2 3e3e 4312 5a3e
000000a0: 26a9 de3d e572 923e cf66 2f3d ad1f ae3d
000000b0: 4adb 243f 975a d13d 7420 7f3d 24d3 ce3d
000000c0: c56a fa3d 9fbd 373e 7b40 c53e cad2 c13d
000000d0: f5a0 123e 092b 003e 800d 133e 8868 2d3e
000000e0: 1afb c73d ba34 383d 77dc a43d 1536 6a3e
000000f0: 10a6 373d cd9b b53d 74e4 ca3d 69d8 863d
0.03601971 0.34136286 0.0681156 0.17036241 0.20626242 0.5320611 0.687301 0.038756393
0.05357117 0.118587494 0.18568952 0.593012 0.96848613 0.04140829 0.20973527 0.5971537
0.041728765 0.044730626 0.38367388 0.046097368 0.71493506 0.08682962 0.040189043 0.76215106
0.66449136 0.3086384 0.3268037 0.12162424 0.040131725 0.18168402 0.32359317 0.04270147
0.04197979 1.0831851 0.22996706 0.083248585 0.041582696 0.18111359 0.18641123 0.21296029
0.10872106 0.28603283 0.042822655 0.085021354 0.6439711 0.10222357 0.06228681 0.10098866
0.12227396 0.17943428 0.38525757 0.09464033 0.14319213 0.12516417 0.14360619 0.16934407
0.09764691 0.04497216 0.08049863 0.22872193 0.044836104 0.08867607 0.09906855 0.06584246

encoder.block1.convblock2.1.bias f4 [64]
00000000: 2fcd d6bc 76b1 78be c896 7cbc d645 f5bd
00000010: 2315 87be b031 82be fb50 a5bb 469d b8ba
00000020: d87e ca3b 49d7 a0bd 6e84 fdbd de7c 2ebe
00000030: cab1 2cbf 8282 febc 8777 353d f9a1 3dbe
00000040: 778b ccbb 06e7 39bd c236 993d 07bf 48ba
00000050: b008 8c3c 3f14 8d3c cc46 f1bc 6954 513e
00000060: de39 44be ca28 f9be 2cdb 2dbe 39ca 65be
00000070: 4679 abbb 59ce 63be 9441 06be 01d8 bf3b
00000080: 6956 c4ba 3b4f 6dbd b190 7a3d 225d ab3b
00000090: b0fa 9fb9 e6d2 283d 1fee e1bc 6be7 23bc
000000a0: 0e09 59bc 2a99 93be b405 fbba fac3 833a
000000b0: 0bb9 0abe 1e5f a73b 19ac 3cbd a8b7 68bd
000000c0: 5556 b5bd 263b ecbd 204b 26bf 7e8a 41bc
000000d0: 3d70 eebd 4691 3abe 7b9a 84bd 9312 5abc
000000e0: 1868 2f3d b4b6 0ebd 5cd9 bebb 1972 983d
000000f0: 5053 b23b 8816 a6bd 64fb 343c 2826 e53b
-0.026220886 -0.24286446 -0.015416808 -0.11976211 -0.26383314 -0.25428534 -0.005045054 -0.0014084957
0.0061796717 -0.078535624 -0.123787746 -0.1703982 -0.67458785 -0.03106809 0.044303443 -0.18518819
-0.0062422114 -0.045386337 0.07481147 -0.000765786 0.017093986 0.017221568 -0.029452704 0.20442356
-0.191627 -0.48663932 -0.16978139 -0.22440423 -0.005232963 -0.22246684 -0.13110954 0.005854607
-0.0014979366 -0.05793689 0.061173145 0.005229608 -0.0003051362 0.041216753 -0.027579365 -0.010003905
-0.013246788 -0.28827792 -0.001915148 0.0010052912 -0.13547151 0.0051077744 -0.046062563 -0.056815773
-0.08854357 -0.11534719 -0.6495838 -0.011812804 -0.116425015 -0.1821948 -0.06474777 -0.0133100925
0.04282388 -0.034842208 -0.005824251 0.074436374 0.0054420605 -0.08109766 0.011046264 0.006993074

encoder.block1.convblock2.1.running_mean f4 [64]
00000000: aa54 8dbb 7069 cabc c0b9 c4bb 23f7 55bd
00000010: 9dd4 babc f7e5 61be 65f4 403d 05f3 b03a
00000020: e060 86bc 2fcb 88bc e659 bfbd 6770 f1bd
00000030: 1dca 5a3d 97d9 e3bb d1b0 4b3d 6f06 0abe
00000040: 7e12 2f3c 7426 9fba b67e 053e 2342 fe3a
00000050: 549c d83d ce85 ff3a 2dc3 77bc 653b bcbe
00000060: b842 f73d efab 91be 134a d5bd 41ac 95bd
00000070: 27ae 12bc 0f1b fcbb 5622 19be 567d beba
00000080: b529 403c ff3b f3be b514 85bc 8660 993c
00000090: c33f 1f3b 86dc 22bc 05e7 86bd 8ae8 053d
000000a0: 36ef 35bd 096f 83bd 55ab 81ba 34c2 26bd
000000b0: 80c7 0abf 0e8a 92bc 96e6 e7bb 1dc4 793c
000000c0: 3dc3 18bd 6e95 0cbe 9c00 74be 49f2 c33c
000000d0: 943b b23b 7ddc 083d a415 433c f223 ae3b
000000e0: c937 dbbc eaec 1a3c 3282 90bc a932 973d
000000f0: e6cd b43a bc15 093d ceb6 33bc ee9e 193c
-0.0043130713 -0.02470848 -0.0060035884 -0.05223764 -0.02280646 -0.22060381 0.047108073 0.001350016
-0.016403615 -0.016698448 -0.09343319 -0.11789017 0.053415406 -0.006953429 0.049729172 -0.13479017
0.010685561 -0.0012142197 0.13036618 0.0019398372 0.10576692 0.0019494833 -0.015122217 -0.36764064
0.120732725 -0.28451487 -0.10414519 -0.073082455 -0.008952654 -0.0076936553 -0.14954504 -0.0014533203
0.011728694 -0.4750671 -0.016245225 0.018722784 0.002429948 -0.009940272 -0.06587032 0.03269247
-0.044417582 -0.06417663 -0.000989298 -0.04071255 -0.5421066 -0.017888095 -0.0070770485 0.015244511
-0.03729557 -0.13728878 -0.23828357 0.023919242 0.005439231 0.0334134 0.011907015 0.0053143436
-0.026759999 0.009455899 -0.017640207 0.073827095 0.0013794273 0.033467993 -0.010968877 0.009376271

encoder.block1.convblock2.1.running_var f4 [64]
00000000: ed08 4e37 fab8 8e3b f759 a539 1f1b 3a3c
00000010: 0f02 983a f447 bc3c 3935 3c3e 57fa 0337
00000020: 0785 bd38 adfc d63b d1eb 2a3c f24e d93d
00000030: 7d37 f13d bd6a 5138 41f8 4e3d 1ede a33d
00000040: b39d 5538 b244 6c38 7e43 a23d 3cbb 1738
00000050: 10d0 733e 2f30 053a ecf0 5238 0f1a 3f3e
00000060: e6cc c33d 6829 f03d 5c7e 473c 2a6d dd3b
00000070: 8e26 0939 022f 303b 7360 f43c 7277 eb36
00000080: a51a 6938 1c5d 2f3e 4716 803b 4a10 8f3a
00000090: 8618 2238 7e08 653c 4e90 933b 4b97 bc3c
000000a0: 66fa 9739 7453 d13c 3cfe 0138 7e02 423a
000000b0: e221 123e 4d64 523a 04f5 6539 8555 a739
000000c0: 5f70 c13b 585a 063c b04a 013e 9644 5b3b
000000d0: 26ad 413b 6930 2d3a 1acb 9d3c aaa3 973b
000000e0: b37e 953a 6741 3c39 db4b 6f3a ca49 353d
000000f0: 9dc6 8938 7cdb 243a df77 f23a 4c85 f838
1.2280635e-05 0.004355547 0.00031538281 0.011359005 0.0011597293 0.022983529 0.18379678 7.866495e-06
9.0370006e-05 0.006560883 0.0104322 0.10610761 0.11778162 4.992889e-05 0.050529722 0.0800135
5.0930026e-05 5.6330762e-05 0.07923029 3.617558e-05 0.23809838 0.0005080727 5.0292278e-05 0.18662284
0.09560566 0.117266476 0.0121761225 0.006757398 0.00013079701 0.0026883488 0.029831147 7.017451e-06
5.5576344e-05 0.17125362 0.0039089057 0.0010914889 3.864665e-05 0.0139790755 0.0045032864 0.02302136
0.00028987526 0.025552489 3.099277e-05 0.0007400884 0.14270738 0.000802581 0.00021930417 0.0003191644
0.0059032883 0.008200251 0.12626147 0.0033457628 0.0029552667 0.000660664 0.019261885 0.0046276646
0.0011405557 0.00017953441 0.000912843 0.044259824 6.569664e-05 0.0006288809 0.0018498859 0.0001185039

encoder.block1.convblock3.0.depthwise_conv.weight f4 [64, 1, 3]
00000000: e536 ce3c 78cb 623c f2bb 89bb 7d19 9e3d
00000010: e2b1 e33c 1f16 543e 4adc 903b 4af0 563d
00000020: 71fd c23c b7e3 f43c b752 cb3d 2a78 013e
00000030: dade a0bc 3aa8 85bd 2aa1 6bbd 8dfb 29be
00000040: 1a0f 6ebe 8f6b 93be 581d 233e c724 aa3e
00000050: e431 563e 88cf e1bc e1cd 32bb db15 7b3c
00000060: a820 37bd 5978 8cbc bb1f f93b 5f8f 0fbe
00000070: 81e1 a83d 5ea6 993c cc63 bbbc 3f2d 0dbc
00000080: 1a86 20be e01f 9bbc 1367 0d3e 8df8 153f
00000090: d6ac ea3d 30fa a23e 1d6d 8f3e ed22 023d
000000a0: f9c7 96bc 5978 edbb d9f2 e1bd 5cef ffbd
000000b0: ba59 39bd 1fdd 49ba b172 583e dd63 c23e
000000c0: b028 38bc f722 babc 48e1 1b3c f765 773b
000000d0: 062d 3dbc 2843 e0bc 5ede 54be 116a a6be
000000e0: df56 343e 616d 653c 386b abbc 570a 2b3c
000000f0: b3e0 c9be f50d 66be 729d 0bbe 933e 653d
00000100: 007a ff3c bc82 393d e97f a0bc 0452 4bbb
00000110: 17c4 94bc 9867 7f3d b519 f43e b0d7 63bf
00000120: 9264 393f 45b4 ab3d 1ae4 e93d 2a65 223e
00000130: 11b1 2b3e b89b dc3d a030 8bbd 4d88 e9bd
00000140: d905 f4bd 29ae a63d 111b 733d d4d3 d83d
00000150: 9768 ac3c 82b3 95bc 2d0e a8bb be78 043d
00000160: adc6 813d 4932 a03d 3335 8d3d 097a b23d
00000170: 38bc c83d 16de 02bd 5df2 393c 6f2e 58bc
00000180: 3244 5ebc 667a 9d3c 9d7e 17bb 280b f8be
00000190: fd38 7cbe 0218 f6be 1de2 2abe 9e44 353e
000001a0: 1ab0 09bc 6315 78bd 6c71 04bd 1597 14bd
000001b0: 6b17 133c c380 cbbc 6645 3fbc ac1f c5bd
000001c0: c9fd 46bd 8ca6 8cbd 41f1 d83c fd75 f13d
000001d0: 159c b73d e626 b83d b35b ee3d 35df c23d
000001e0: 1632 cd3d e2fd 18bc 3796 07bd e6f4 b33c
000001f0: 25eb 4e3d 1772 6bbe 35fc 60bc 4e45 7e3c
00000200: da90 133b 1a49 623c 2f58 53bc 57cc babd
00000210: 00b5 1b3f d5e9 07bf 4850 f43b 8792 b5bd
00000220: 3954 183d 5d09 86bd ff42 0abd 2148 5c3c
00000230: dd94 14bd d08b 31bd f125 56bd 8252 49bd
00000240: e204 f4bd 4102 113e 2d34 2e3d daa6 08be
00000250: 3835 3b3e 3f77 7ebd 55c5 16be 22fc 3fbe
00000260: 4142 6bbe a225 7a3d 1ab0 153d adf9 543d
00000270: 928a 1cbe 499c d23a f790 6f3c 5c75 c93c
00000280: 2ef7 073d 98f1 4f3d 3497 21bd b942 61bd
00000290: 46fa 9dbd 8817 843d 1677 b33d 26ce e73d
000002a0: 66d8 e8bc 258b 6ebd 9054 98bd ae3c 10bd
000002b0: 5691 7dbc 657e 9d3c c060 72bd a01c babc
000002c0: ccdb eebc 451a fa3d 5fde 0f3e e992 d03d
000002d0: 0ea8 db3c cc5f 83bb 51a1 673c 003e e53a
000002e0: b138 47bd de22 fcbc 4fc4 8a3d 6799 763d
000002f0: 6500 3d3c 43c7 3f3d a3dd 173d d7bd 833c
0.02517266 0.013842456 -0.004203313 0.07719705 0.027794782 0.20711564 0.0044207918 0.05247525
0.02380249 0.02989374 0.09927886 0.12643495 -0.019637514 -0.06526227 -0.057526745 -0.16599865
-0.23247948 -0.28792998 0.15929163 0.33231184 0.2091747 -0.027564779 -0.0027283358 0.015325035
-0.044708878 -0.01714723 0.0076026595 -0.14019535 0.082461365 0.018756088 -0.022874735 -0.008616745
-0.15676156 -0.018936098 0.13808851 0.58582383 0.11458747 0.31831503 0.28012934 0.03177159
-0.018405901 -0.0072470126 -0.11032648 -0.12496826 -0.045251586 -0.0007700491 0.21137501 0.37966815
-0.011240169 -0.02272175 0.00951416 0.0037749985 -0.011546379 -0.027375773 -0.20787951 -0.32502797
0.17611264 0.014003129 -0.02092515 0.010439477 -0.39429244 -0.22466262 -0.1363428 0.05596788
0.031186104 0.045290694 -0.019592242 -0.0031024227 -0.01815991 0.062354654 0.47675863 -0.8900099
0.72419083 0.08383993 0.1142046 0.15858904 0.16766764 0.107718885 -0.06796384 -0.114029504
-0.11915178 0.08138687 0.059351984 0.10587278 0.021045966 -0.018274073 -0.005128643 0.03234171
0.063367225 0.07822091 0.068949126 0.087146826 0.09801525 -0.03195008 0.011349288 -0.013194664
-0.013566064 0.019223403 -0.002311624 -0.48446012 -0.24631114 -0.48065192 -0.16687818 0.17701957
-0.008403802 -0.06056727 -0.03233473 -0.036276896 0.008977751 -0.024841672 -0.011674261 -0.096251816
-0.048581872 -0.06867704 0.026482226 0.117900826 0.08965317 0.08991794 0.11638584 0.095152296
0.10019319 -0.009337874 -0.03310224 0.021967363 0.05051722 -0.2299274 -0.013732006 0.015519453
0.0022516758 0.013811374 -0.012899443 -0.09121006 0.6082306 -0.53091174 0.0074558593 -0.088658385
0.037189696 -0.06544755 -0.0337553 0.013444931 -0.03627478 -0.043346226 -0.052282277 -0.04915095
-0.11914994 0.14161016 0.042530227 -0.13344899 0.1828202 -0.06212544 -0.14723714 -0.18748525
-0.22974493 0.061071046 0.036544897 0.051995922 -0.15287235 0.0016068305 0.014621965 0.024592094
0.033194713 0.05076751 -0.03945084 -0.054995272 -0.077137515 0.06449801 0.08762948 0.113186166
-0.0284235 -0.058238167 -0.07438004 -0.03521412 -0.015476545 0.019225309 -0.0591743 -0.022718728
-0.029157542 0.12212042 0.14049672 0.10184271 0.026813533 -0.0040092226 0.014137582 0.0017489791
-0.04863805 -0.030778345 0.06775724 0.06020489 0.011535739 0.04682089 0.037076604 0.016081734

encoder.block1.convblock3.0.pointwise_conv.weight f4 [64, 64, 1]
00000000: 8645 0d3b 36ae 453d 9791 d8ba 6088 d63b
00000010: 7632 8a3b 729a 4dbc 28e6 cb3d f823 6e3b
00000020: 2f0f b13a 048c dfbb b512 f4bc 883c e8be
00000030: 2adc 4abe ed3a 22bb 95f0 52bc b655 fb3d
00000040: 3ec1 4dba bb23 fc3b e00f 8ebe 65d9 78ba
00000050: 9138 c9bd 7895 f2bc 42df 663b 998a fcbe
00000060: 5d61 ad3d c6ce ebbc d3bc 75bc 1f8d 5c3c
00000070: 9ba5 66bb fdd4 5fbc e73e 28bd 37bc 113c
00000080: bbe0 0c3c a0ec 4d3e 9fc2 c73c b50f 473c
00000090: a0a5 b93b 5004 e73d c502 3bbd 0d87 99bb
000000a0: 1b8a cabb 9a0b 063e 4113 2d39 9049 343b
000000b0: 8c9c 083f c59c d73c a6fd 3e3b dc1c d73c
000000c0: 369b f6bc 1828 91bc 9176 83bd fc30 8bbc
000000d0: 5a5a ea3c e7da c9bc 3467 5d3d 76d9 e1bc
000000e0: 26c5 243d e7b2 6abb 51c2 633b 7b75 253d
000000f0: f21c f1ba e84f 5b3c 58a6 a1bc 3b2a 57bc
00000100: 4c7c 52bb 2f26 78bd f965 76bc 62a1 13bd
00000110: c639 f43c 9b43 e03d adb5 283e 3e06 d33a
00000120: 5c7e be3b da82 70bd c605 083d 6ac2 b23d
00000130: 4caf 6ebe df90 b4bb ffda 653c b8d6 dabd
00000140: dfb2 89bb 7883 ddbb bc36 05be 7fb2 ecbb
00000150: 42ec 6dbe 11a6 91bc f154 683b af8b c43d
00000160: dc6b b6bd 5684 1e3e c8b9 8cbd 86cb 633c
00000170: 9dbb a53b 3f8d fdbc 9b09 80bd eab5 80ba
00000180: 5cdc 853b b20c 743e 0e1d 483d 5a56 0c3c
00000190: f079 3c3b 66ca 863d 133a 53bd a2ef 323d
000001a0: 4113 663b f734 88bc 46c8 02bc 6c32 753c
000001b0: f987 843e b730 253c d2fd c5bb b790 5b3c
000001c0: 01dc c0bb 3208 debc 177d e3bd 71d3 8abc
000001d0: 292e c1bc f546 28bd 52bb 98bc 62ef 0ebd
000001e0: 8e60 9f3c 5bde a9bb f880 dc3a 76f4 8b3c
000001f0: b48e a6ba 4df7 223d 4079 8ebc 4ff5 2dbc
00000200: a8bf 5e3b 8091 ad3c 9e62 24bc ca41 33bd
00000210: 7400 123c 0d2b fb3d 06b1 6fbc c2fd c83b
00000220: 0c65 cd3b 7e9f 5bba 5da4 973d 8984 8d3e
00000230: d5f3 0bbc b81f 85bb 49df ba3c b664 fdbd
00000240: 3127 16ba fb38 ac3c 201a 1ebe 49c6 543a
00000250: 8ce1 2ebb 475b ee3b 2295 c9bb 54d9 37be
00000260: 04d8 993d 812b 00bd ba28 913d fb41 6abd
00000270: cda3 63bc ce43 dabb 5279 97bd 3e9f 7a3b
00000280: 875e 81bb 2393 a6bd 085f 45bb 6654 cc3b
00000290: 25e0 503b 86ac 5c3c 8471 1fbc febc c2bc
000002a0: 4f78 0fba 0e5b 92bd 523b 31bb b5ea d3b9
000002b0: 67dd 0e3d 49ca debb 17fe 873c 8505 8a3a
000002c0: 3980 6d3d d24e 8c3a dc8d a83d a605 febb
000002d0: 7e32 88bd 87a5 eabb 08d7 0e3d ac8a cfbc
000002e0: 0563 a839 db03 b5bc 0cb2 bd3c 44f0 11bd
000002f0: a8aa a3bb 7e55 31bc c7bc b2bc 9b0b d7bb
00000300: 494e c1ba d07e 743d 39f9 2ebb a19e 0bbd
00000310: 6e10 1ebd 4d70 b43d 839a e3bd 7a6e c33a
00000320: 6ba1 503a 8fc7 b7bc dec0 4a3d 41f3 8d3d
00000330: 6531 093e 312a cb3b 5206 4d3d ebe4 833c
00000340: 6370 02ba 58a5 a53b 27e2 a1bd 4cba 5ab9
00000350: 3097 fa3d c996 0bbc 9cc1 a3bb ff39 a1be
00000360: 4097 25bd 5da2 00be 0d32 453d c83c 05bd
00000370: 7fe1 67ba e388 923c 2a61 9a3c 2576 b63a
00000380: 8033 c5ba d65c 2f3d 2d85 4e3c 229d 613c
00000390: 0e72 113c edec 8ebc fed6 04bd 0774 7dbd
000003a0: 2aa8 12bb 5355 813b cbcb ed3a 97a1 b23c
000003b0: 675a 6a3d 2fde 30bc ebc7 eb3b 7e14 e73b
000003c0: 0c69 30bd 0c5e 5bbc a93d b93d 6cdd a9bc
000003d0: a928 a23b 2d2e a33c 41fc 273d 5644 95bc
000003e0: 6680 80ba 83a8 bfbb 4584 373c 4fc6 80bd
000003f0: ddb0 b3bb 1298 3ebc a4e8 2ebc 4f44 4abb
0.0021556332 0.048261844 -0.0016522881 0.006547019 0.004217441 -0.01254903 0.09956008 0.0036337357
0.0013508553 -0.006822111 -0.029794076 -0.45358682 -0.19810548 -0.002475436 -0.012874742 0.122722074
-0.0007848925 0.007694689 -0.27746487 -0.00094928435 -0.09825242 -0.029612288 0.0035228287 -0.49324492
0.08465836 -0.02878512 -0.0149986325 0.01346138 -0.0035193923 -0.01366162 -0.041075613 0.008894972
0.008598502 0.20109797 0.024384795 0.012149741 0.005665496 0.112801194 -0.045656938 -0.0046852888
-0.0061810142 0.13090363 0.00016505738 0.0027509667 0.5336387 0.02631987 0.0029142885 0.026258878
-0.030103307 -0.017719314 -0.06419099 -0.016991131 0.028607536 -0.024640514 0.0540535 -0.027569514
0.040227078 -0.00358122 0.0034753273 0.04039524 -0.0018395467 0.01338575 -0.01973264 -0.013132627
-0.0032117544 -0.06058329 -0.015038961 -0.03604258 0.029812705 0.10950395 0.16475554 0.0016099883
0.005813403 -0.05871854 0.03320863 0.08728488 -0.23309058 -0.005510434 0.0140292635 -0.106854856
-0.0042022313 -0.006760057 -0.13009161 -0.007223427 -0.23234656 -0.017779382 0.003545102 0.09596955
-0.08907291 0.1548017 -0.068713725 0.013903504 0.0050577656 -0.03095114 -0.06251832 -0.000981984
0.004085107 0.23832968 0.048855834 0.00856551 0.0028759204 0.06581573 -0.051569056 0.043685563
0.003510669 -0.016626818 -0.007982319 0.014965635 0.2588499 0.010082415 -0.0060422206 0.013401202
-0.0058856015 -0.027103517 -0.11107843 -0.016946526 -0.023581581 -0.041083295 -0.018644009 -0.034896262
0.01945522 -0.0051839775 0.0016823104 0.017084341 -0.0012707324 0.039786626 -0.0173918 -0.010617568
0.0033988748 0.021187544 -0.010033278 -0.043763913 0.008911241 0.12264071 -0.014629608 0.006133766
0.0062681492 -0.0008377953 0.07404397 0.2764018 -0.008542021 -0.004062619 0.022811549 -0.12372725
-0.0005727886 0.021023264 -0.15439653 0.0008116705 -0.002668473 0.0072740647 -0.006151811 -0.17953998
0.07511905 -0.03129149 0.07087846 -0.05719183 -0.013894034 -0.006660915 -0.07396187 0.0038241888
-0.003948036 -0.08133533 -0.0030116457 0.006235647 0.0031871882 0.013468867 -0.009731654 -0.02377176
-0.00054729445 -0.071462736 -0.0027043414 -0.00040419927 0.034879114 -0.0067990166 0.016600652 0.0010530209
0.05798361 0.0010704643 0.082301825 -0.007752138 -0.066502556 -0.0071608457 0.03487304 -0.025334679
0.00032117232 -0.022096565 0.023156188 -0.035629526 -0.004994709 -0.010823606 -0.021818532 -0.006562663
-0.0014748062 0.05969125 -0.0026698841 -0.034086827 -0.038589887 0.08810482 -0.11113455 0.0014910244
0.00079586235 -0.022434024 0.04950034 0.069311626 0.13397749 0.006200098 0.050054856 0.016100368
-0.00049758534 0.005055111 -0.07904463 -0.00020859501 0.12235868 -0.008519837 -0.0049974453 -0.3148956
-0.040427446 -0.12561937 0.048143435 -0.03252867 -0.0008845552 0.017887538 0.01884516 0.0013920708
-0.0015045255 0.042813145 0.012604994 0.013770374 0.00887729 -0.01744696 -0.032431595 -0.06187823
-0.0022378066 0.003946939 0.00181424 0.021805568 0.05721512 -0.01079516 0.007195463 0.0070520034
-0.04306893 -0.013389122 0.09044964 -0.020735465 0.0049486947 0.01991948 0.041012052 -0.018221062
-0.0009803891 -0.0058489456 0.011200969 -0.06287824 -0.00548373 -0.011632936 -0.010675583 -0.003086347

encoder.block1.convblock3.1.weight f4 [64]
00000000: d5d3 bc3d 0875 e33e 47b0 a03e bd45 ef3e
00000010: d9b9 df3e b09b aa3e d220 d43e cf6f 1e3e
00000020: 1167 8a3e 14c4 043f 1b63 1b3e 1578 7c3e
00000030: c0e1 bc3e cefd 0a3f dbe4 223f caa2 4f3e
00000040: 5210 ac3e cd64 113f 2eaf bf3e efa3 553e
00000050: 2a53 583e 4a83 653e ae9a c73e 0c87 9d3e
00000060: a417 093f 4300 483e fab8 113f 675e 313e
00000070: f7e8 113f 3ac7 be3e 8e1c 8b3e c755 ab3e
00000080: 912b be3e 5ad5 1f3e aa5d 1d3e ead3 4d3f
00000090: d78d 0d3f bebc c93e 9865 c93e 0c33 ed3e
000000a0: 1b55 dd3e 86d3 4a3e 5f91 d63e fef0 aa3e
000000b0: ae9e b73e 1fab 363e 3642 ad3e 97d2 473e
000000c0: 6978 7a3e 19fd 983e 19f0 c33e 84f8 983e
000000d0: f804 a93e c05a d13e 4723 103e 2a73 5a3e
000000e0: 6344 9e3e 2073 4a3e b672 243f 7f6d f83e
000000f0: eae3 733d bb01 563d c752 7f3e be52 0d3e
0.09220091 0.44425225 0.3138449 0.46732894 0.43696478 0.33321905 0.4143129 0.15472339
0.27031758 0.5186169 0.15174524 0.24655183 0.36890984 0.54293525 0.63630456 0.20276943
0.336062 0.56794435 0.3743834 0.20863317 0.21125475 0.22413364 0.389852 0.30767095
0.535517 0.1953135 0.56922877 0.17321168 0.569961 0.37261373 0.27170223 0.3346388
0.37142614 0.15608731 0.15367761 0.8040148 0.55294555 0.3940181 0.39335322 0.46328008
0.43228993 0.19807252 0.41907784 0.33386987 0.3586325 0.17838715 0.33839577 0.19513927
0.24459995 0.29880598 0.38269117 0.29877102 0.33011603 0.4088955 0.14075957 0.21332994
0.3091155 0.19770479 0.64237535 0.4852104 0.059543528 0.052247744 0.24933921 0.13801095

encoder.block1.convblock3.1.bias f4 [64]
00000000: 066c dbbe 1afd 48be aab9 68bb f255 09be
00000010: 5ac2 40bd e6ca 59bd 2ba0 66be 54c0 90b9
00000020: 07ad 053d 831d f0bc 3876 8cbd cd0b a7bd
00000030: 7d5a 333c c7e9 94bb 01b7 b2be 7f81 41be
00000040: b1eb 61be b191 f4be 9dcf 043e 93ec 173c
00000050: f880 733e d2b8 03bc 41ee 7ebc 31af debb
00000060: ccc5 043e f762 4e3d d294 a1be fca5 c23d
00000070: 1f42 02bd 037a d0bd d0c1 4cbe 7f98 e0bd
00000080: eb3c 5fbc 56ec 1c3d b5fb 24bd ae96 43be
00000090: 126d 1fbe 106a d9bc 1595 1fbd e1aa b83d
000000a0: 4800 19bd c995 073e 4af6 49be 2866 75be
000000b0: a1a9 04be c7f6 aaba 8a96 acbe 01af 9dbd
000000c0: d20d 06be 2574 1abe de7f adbd c02e dc3c
000000d0: 9b32 253c 8ca7 17be 546f 9d3c cbf9 e3bd
000000e0: 7204 103d 4dfd f7bd f84e 96bd 7573 8cbd
000000f0: 8eb0 28bd 4a8f 14bd 7d30 0dbd 2258 8fbd
-0.42855853 -0.196278 -0.0035511055 -0.13411692 -0.047060348 -0.053172015 -0.22522037 -0.00027609116
0.032635715 -0.029310947 -0.06858486 -0.08156548 0.010946867 -0.00454447 -0.34905246 -0.18897055
-0.22062565 -0.47767404 0.12969823 0.009272712 0.23779666 -0.00803967 -0.015559734 -0.006795787
0.12966079 0.05038735 -0.31558853 0.09504315 -0.03180134 -0.10179522 -0.19995809 -0.10966586
-0.013625364 0.038311325 -0.04027911 -0.19100448 -0.15568951 -0.026539832 -0.038960535 0.090169676
-0.037353784 0.13240732 -0.19722858 -0.23964751 -0.12955333 -0.0013043516 -0.33708602 -0.07699395
-0.1309121 -0.15083368 -0.08471654 0.02687776 0.010082866 -0.14810008 0.019218124 -0.111316286
0.03516049 -0.1210886 -0.07339281 -0.06857959 -0.041184 -0.036269464 -0.03447007 -0.06999232

encoder.block1.convblock3.1.running_mean f4 [64]
00000000: 1e3e 94bc 6c50 c0bd ec32 c73d 6c5e babc
00000010: f1cd cebd df21 90bd 3421 913c 943d e93c
00000020: 6d11 84bd 11e2 683a 89c1 003d f9d8 c13c
00000030: a1dc 6a3d df08 00be 8c1e 583d c9c6 ad3d
00000040: 7a4b eebd 8e2c c6bc 1263 d63d 8499 ea39
00000050: 0f57 30be f5c4 c6bd a041 cabd 6f61 b4bd
00000060: 1124 3cbe 347a a4bd 0b79 afbd e6d2 013c
00000070: 36d0 0bbd fdd0 9d3c 1958 04be f12e 94bc
00000080: 66ea b9bd c375 7abd 82c8 133d 146d 5ebe
00000090: fec1 97bb ce1d acbd 79c0 38be b38d 1fbc
000000a0: 99d4 bdbd c1f5 033d b321 8abd cf0e 91bd
000000b0: be35 c6bd d92c 8bbc 4672 b9bd 7e5d 453c
000000c0: 7a7c e1bb 2fa9 6a3c 82e7 403d 775f f6bc
000000d0: 25df 013d dc98 42bd 5d06 42bc 0896 1ebb
000000e0: 4323 b63d a72d 273d 0766 09bd 7639 983d
000000f0: 6cd8 bbbb 4ae4 89bb 952f c03b 569c 043d
-0.018096026 -0.09390339 0.097265095 -0.022750102 -0.10097874 -0.070377104 0.017716028 0.028471746
-0.06448636 0.0008883784 0.03143457 0.023663031 0.057339314 -0.12503384 0.052763507 0.08485181
-0.1163549 -0.024191167 0.10468115 0.00044746336 -0.1722071 -0.09705535 -0.09875798 -0.088076465
-0.18373133 -0.08031121 -0.08568009 0.007923817 -0.034134112 0.019264692 -0.12924232 -0.01808879
-0.09077911 -0.061147463 0.03607989 -0.21721298 -0.00463128 -0.08404122 -0.18042172 -0.009738374
-0.092690654 0.03221679 -0.06744709 -0.07082903 -0.09678219 -0.016989158 -0.09054999 0.012046216
-0.006881294 0.014322563 0.047095783 -0.030074818 0.031706948 -0.04750906 -0.011842337 -0.0024198312
0.088934444 0.04081502 -0.033544566 0.07432835 -0.0057325866 -0.0042081224 0.005865047 0.032375656

encoder.block1.convblock3.1.running_var f4 [64]
00000000: c331 c73d 5b87 2e3d 2ba1 a03c e071 0c3d
00000010: 9abd 6d3d f000 943c 7e8a 723c f242 913a
00000020: 26c4 f23b b2d2 223d 1860 743a 32ec d73c
00000030: 9d20 163d c5d2 7b3d 2bdb 513d 49a4 a63d
00000040: 0639 723b 4693 693e 6fc1 7d3c b51d b53b
00000050: 4987 393c a9b8 013d 7848 1e3c 8070 e63c
00000060: a39b 863d c45a 5c3d 9e39 d93d 6707 b33b
00000070: d523 8a3d 1eed 9b3c 8ba5 813c c5ed 7d3c
00000080: fdbd e23b 7f1a 243c 0ce3 0e3b 75aa 4d3e
00000090: b82c 5b3d 8396 aa3c 68de eb3c 156c ac3d
000000a0: 2cec 153c 0134 653d 2655 263d 5e5a 1a3d
000000b0: f41d e33c 741b 053c 5fa7 2c3d 3d18 a83b
000000c0: 8ce7 f23b 09f8 8c3c 7651 ef3b 0591 913c
000000d0: ccb6 ed3c f379 163d def3 9e3a 024a 543b
000000e0: e63c 803c 085c 1d3d c8eb f93c a70a 2b3c
000000f0: 020d dd37 52c2 1e39 bf6e a63b 0c26 593b
0.09726288 0.042609554 0.0196081 0.034288287 0.058042146 0.018066853 0.014803527 0.0011082573
0.0074086366 0.039751716 0.00093221804 0.026357744 0.036652196 0.061480302 0.051234405 0.08136804
0.0036960258 0.22810087 0.015488013 0.005527223 0.011323758 0.031670246 0.009660833 0.028129816
0.06572654 0.0537975 0.10606693 0.005463529 0.06745116 0.019033965 0.015826007 0.015498583
0.006919621 0.010016083 0.002180281 0.20084555 0.053509444 0.020823723 0.028792575 0.084190525
0.009150546 0.055957798 0.040608548 0.037683837 0.027724244 0.008124221 0.042151805 0.0051298426
0.0074128564 0.017208116 0.007303412 0.017769346 0.029017828 0.036737394 0.0012127121 0.0032392745
0.015654039 0.038417846 0.030507937 0.010439551 2.635131e-05 0.00015140444 0.00507912 0.003313425

encoder.block1.shortcut.0.weight f4 [64, 1, 1]
00000000: 9149 b0bd 85c5 a43a ee2d 963c 4101 c13c
00000010: 26d4 0f3d 013b b8bc c126 3c3d a236 37bd
00000020: af87 08bd 2f19 08bd 5441 193c 7fd7 9ebc
00000030: 6735 9f3c 41dd 4f3d 5cf2 3d3d 7d62 0e3d
00000040: 4f6c ac3c 54fe 2cbd fe68 0b3d b63d 293d
00000050: 3b47 263d f574 2bbd 32c4 423d cce9 71b8
00000060: b289 e1b7 753e fa3c 0921 643d 2efb a63b
00000070: d67b 39bd b23a c8ba cd99 debc 988d ba3c
00000080: ddc5 12bd 4685 193c 743f b33c 07e6 3d3e
00000090: 1356 8e3c 5f49 0cbd ab1c 133d 2c5f 5d3d
000000a0: 573f 7f39 f2b5 ebbc fd41 10bd 18ab 05bd
000000b0: eb08 683c ad9a 71bc 1eee c03c d7bd f33c
000000c0: efc2 823b afca f53c c65e 88bc 3dcc 1cb7
000000d0: ef15 cdbc 57dc e4bc fadc 1ebd 39e1 c03b
000000e0: e1c2 fabc ab0e 34bd 83f6 44bd e85d 43bd
000000f0: 070c 0dbc bce9 8ebc 18e7 13bd 0244 ddbc
-0.08607782 0.0012571072 0.018332448 0.023560168 0.03511443 -0.022489073 0.045935396 -0.044729836
-0.033332523 -0.033227142 0.009353954 -0.019389866 0.019434644 0.050748114 0.04637371 0.034761894
0.02104774 -0.042234734 0.034035675 0.041318618 0.040595274 -0.041859586 0.047550388 -5.7676618e-05
-2.688621e-05 0.03054736 0.055695567 0.005095861 -0.045284115 -0.0015276282 -0.027172947 0.022772595
-0.03583323 0.009370154 0.021880843 0.1854478 0.017375028 -0.03424966 0.03591601 0.05404584
0.00024342291 -0.028773282 -0.03521918 -0.03263387 0.014162282 -0.01474635 0.023551043 0.029753609
0.003990523 0.030003874 -0.016646754 -9.3458775e-06 -0.025034873 -0.027937097 -0.03878496 0.0058862236
-0.030610504 -0.0439593 -0.048086654 -0.047696978 -0.008608825 -0.017445438 -0.03610906 -0.027009968

encoder.block1.shortcut.1.weight f4 [64]
00000000: e0a0 04bf 6b71 943a d1dd e93c acbe b3bc
00000010: 3a0d ca3d 318e 0a3d 4f43 cf3d 8b1c 263d
00000020: 9b6c 933d 783c 96bd bd30 b33c 9069 adbc
00000030: 21e6 f83c b537 243e b492 ba3d 0e9d ca3d
00000040: 0f18 96bd 49dc 92be c462 8abd 0722 8e3c
00000050: 980b c43d 54ce 803d e818 1b3e 5521 80b8
00000060: 6606 da37 09c4 8abd 7548 513e a092 11bb
00000070: 761c 693e 2e2a 993a ac70 a0bd f854 653c
00000080: 595b 2ebd 3f2d 96bc d03b 93bc f593 713e
00000090: e25a 3a39 0980 f63c d79a db3d f316 49be
000000a0: 9014 8ab9 ef25 72bd c176 3c3d b6e0 a73d
000000b0: 074b ef3b 326e a13c 8689 fc3c 222b 8abb
000000c0: 9ef8 ae3b b240 89bd 15ab 303d 15b6 a9b6
000000d0: 6386 46bd b92a 813d 25ad 6e3d 9dcc fcba
000000e0: 7783 99bd 1247 61bd f7c6 523e 9594 403e
000000f0: 6b42 813c ed37 df3c 45af bf3d 6cf0 653d
-0.51807976 0.0011325305 0.028548153 -0.021941505 0.09865804 0.03382701 0.1012026 0.040554564
0.07198449 -0.07335752 0.021873826 -0.0211685 0.030383172 0.16036876 0.09110013 0.09893237
-0.073288076 -0.2868369 -0.06757119 0.01735021 0.09572524 0.06289354 0.1514622 -6.109724e-05
2.5990605e-05 -0.06775672 0.20437796 -0.002221264 0.22764763 0.0011685544 -0.078339905 0.013997309
-0.042567585 -0.018332122 -0.017972857 0.23591597 0.00017772199 0.030090349 0.10722893 -0.1963766
-0.0002633673 -0.059118208 0.04601169 0.08197157 0.007302645 0.019705866 0.030827295 -0.0042165676
0.005339696 -0.06701793 0.043131907 -5.0577896e-06 -0.048468005 0.06306977 0.058270592 -0.0019287054
-0.07495778 -0.05499942 0.20583712 0.1880668 0.01577874 0.027248347 0.09359602 0.056137487

encoder.block1.shortcut.1.bias f4 [64]
00000000: 066c dbbe 1afd 48be aab9 68bb f255 09be
00000010: 5ac2 40bd e6ca 59bd 2ba0 66be 54c0 90b9
00000020: 07ad 053d 831d f0bc 3876 8cbd cd0b a7bd
00000030: 7d5a 333c c7e9 94bb 01b7 b2be 7f81 41be
00000040: b1eb 61be b191 f4be 9dcf 043e 93ec 173c
00000050: f880 733e d2b8 03bc 41ee 7ebc 31af debb
00000060: ccc5 043e f762 4e3d d294 a1be fca5 c23d
00000070: 1f42 02bd 037a d0bd d0c1 4cbe 7f98 e0bd
00000080: eb3c 5fbc 56ec 1c3d b5fb 24bd ae96 43be
00000090: 126d 1fbe 106a d9bc 1595 1fbd e1aa b83d
000000a0: 4800 19bd c995 073e 4af6 49be 2866 75be
000000b0: a1a9 04be c7f6 aaba 8a96 acbe 01af 9dbd
000000c0: d20d 06be 2574 1abe de7f adbd c02e dc3c
000000d0: 9b32 253c 8ca7 17be 546f 9d3c cbf9 e3bd
000000e0: 7204 103d 4dfd f7bd f84e 96bd 7573 8cbd
000000f0: 8eb0 28bd 4a8f 14bd 7d30 0dbd 2258 8fbd
-0.42855853 -0.196278 -0.0035511055 -0.13411692 -0.047060348 -0.053172015 -0.22522037 -0.00027609116
0.032635715 -0.029310947 -0.06858486 -0.08156548 0.010946867 -0.00454447 -0.34905246 -0.18897055
-0.22062565 -0.47767404 0.12969823 0.009272712 0.23779666 -0.00803967 -0.015559734 -0.006795787
0.12966079 0.05038735 -0.31558853 0.09504315 -0.03180134 -0.10179522 -0.19995809 -0.10966586
-0.013625364 0.038311325 -0.04027911 -0.19100448 -0.15568951 -0.026539832 -0.038960535 0.090169676
-0.037353784 0.13240732 -0.19722858 -0.23964751 -0.12955333 -0.0013043516 -0.33708602 -0.07699395
-0.1309121 -0.15083368 -0.08471654 0.02687776 0.010082866 -0.14810008 0.019218124 -0.111316286
0.03516049 -0.1210886 -0.07339281 -0.06857959 -0.041184 -0.036269464 -0.03447007 -0.06999232
