ldpi/training/output/ResCNN/pretrained_model.pth (torch, 711292 bytes, 63 tensors)

encoder.block1.convblock1.0.depthwise_conv.weight f4 [1, 1, 7]
-0.26103738 -2.0969062 -0.40168124 -0.27135724 0.0070427465 0.011938446 0.010975915
00000000: b1a6 85be b633 06c0 2aa9 cdbe 56ef 8abe
00000010: d7c6 e63b 7999 433c 53d4 333c

encoder.block1.convblock1.0.pointwise_conv.weight f4 [64, 1, 1]
-0.039219484 0.033628263 0.021899505 0.04426518 -0.02101429 0.018201567 0.013085858 -0.02851047
0.04223614 0.0132939415 -0.012885189 -0.039805505 0.004330618 0.028633855 -0.015019088 -0.02396797
0.037044942 -0.03204703 0.010652949 -0.041247964 -0.030789949 0.024293687 0.02955339 -0.019693784
0.031405587 -0.047919925 0.045002654 0.042581324 -0.023064187 -0.041757036 0.01864834 -0.0033567306
-0.0069609815 -0.008096839 0.0031734642 0.037035406 0.02266177 -0.00077208405 0.043106534 -0.039892465
0.021240791 -0.021372186 0.0143611375 0.0064481944 -0.0064261565 -0.04154541 -0.009818026 0.0013654314
-0.021514928 -0.006305457 0.04179212 -0.0048503093 0.029284056 -0.048289914 -0.00039395003 -0.010354746
0.03965533 0.03635891 0.034836844 -0.0013839601 -0.005360483 -0.029718198 0.023382261 0.03340966
00000000: 9ca4 20bd cabd 093d 9766 b33c 684f 353d
00000010: 2926 acbc 741b 953c 1166 563c ca8e e9bc
00000020: ceff 2c3d d5ce 593c 661c 53bc 190b 23bd
00000030: dbe7 8d3b 8c91 ea3c 9f12 76bc 7a58 c4bc
00000040: 70bc 173d bf43 03bd b589 2e3c a0f3 28bd
00000050: 343b fcbc 8e03 c73c f319 f23c dc54 a1bc
00000060: 25a3 003d af47 44bd b454 383d c169 2e3d
00000070: 1bf1 bcbc 6d09 2bbd 67c4 983c 98fc 5bbb
00000080: f218 e4bb 9ba8 04bc e5f9 4f3b 70b2 173d
00000090: 2da5 b93c af65 4aba 7a90 303d 4866 23bd
000000a0: 2b01 ae3c b914 afbc fa4a 6b3c 604b d33b
000000b0: 8292 d2bb 852b 2abd c9db 20bc 46f8 b23a
000000c0: 1340 b0bc 029e cebb 372e 2b3d 58ef 9ebb
000000d0: 1ee5 ef3c a5cb 45bd 148b ceb9 f4a6 29bc
000000e0: a16d 223d 15ed 143d 14b1 0e3d ff65 b5ba
000000f0: fea6 afbb 9473 f3bc 288c bf3c 91d8 083d

encoder.block1.convblock1.1.weight f4 [64]
0.03665096 0.51637113 0.12804179 0.5681223 0.2620061 0.3709848 0.6389432 0.62209725
0.03010213 0.20693164 0.22353108 0.43772084 0.36010024 0.27646527 0.124888174 0.5242672
0.24958475 0.3096782 0.4915141 0.12859032 0.14878726 0.60358053 0.08829909 0.2282812
0.3826963 0.033822894 0.67073447 0.12574902 0.50905865 0.0697194 0.1356 0.23565644
0.30785158 0.6959499 0.051339857 0.19444966 0.14123051 0.17246957 0.1646498 0.048859473
0.19539571 0.22777785 0.3760245 0.05632415 0.5733779 0.7557374 0.3253354 0.19175893
0.1411432 0.11272281 0.07900542 0.16356249 0.13875557 0.03829482 0.38715598 0.10410646
0.14313115 0.6896498 0.33363438 0.030866459 0.53983957 0.31494886 0.46374816 0.48469338
00000000: 511f 163d e630 043f 631d 033e 7770 113f
00000010: aa25 863e b8f1 bd3e c891 233f c441 1f3f
00000020: be98 f63c e3e5 533e 55e5 643e f21c e03e
00000030: 0f5f b83e db8c 8d3e 5fc5 ff3d 6036 063f
00000040: 2593 7f3e 248e 9e3e bca7 fb3e 2ead 033e
00000050: b05b 183e 4184 1a3f 27d6 b43d 8cc2 693e
00000060: c5f0 c33e e089 0a3d 41b5 2b3f 5ac4 003e
00000070: ab51 023f 0bc9 8e3d bada 0a3e ec4f 713e
00000080: b99e 9d3e c629 323f be49 523d d01d 473e
00000090: bb9e 103e dd9b 303e f599 283e df20 483d
000000a0: d015 483e 993e 693e 4986 c03e 27b4 663d
000000b0: e5c8 123f 0278 413f 5d92 a63e 745c 443e
000000c0: d887 103e 37db e63d 98cd a13d ed7c 273e
000000d0: f115 0e3e 07db 1c3d 4f39 c63e c535 d53d
000000e0: f990 123e e48c 303f 20d2 aa3e a8db fc3c
000000f0: ed32 0a3f fa40 a13e 6670 ed3e bb29 f83e

encoder.block1.convblock1.1.bias f4 [64]
-0.19496897 0.13596426 -0.102585375 0.16340913 -0.01743714 -0.54549366 0.34809333 -0.23801969
0.27200305 -0.036649004 0.041446783 -0.07042475 -0.20224264 0.11092791 0.032835934 0.6882663
0.058325972 -0.09474329 0.17230901 -0.03775078 -0.2257852 0.15681574 0.10767808 -0.08407515
-0.08884442 0.056813896 -0.16811678 0.025111232 0.113975726 0.04229379 0.030013986 0.14653583
-0.43040353 0.2453003 0.31563598 0.06647301 0.1259751 0.037698746 0.06765134 -0.064208746
0.039821994 0.37631086 0.076339476 -0.09816081 0.28031677 0.21316168 0.07781938 -0.04778505
-0.44431645 0.06897592 -0.020908916 -0.038541827 -0.14327407 0.06904181 -0.32946733 -0.022943841
-0.038348883 -0.17270851 -0.08317551 0.043807037 -0.58965135 -0.09197296 0.25939268 -0.7417832
00000000: f2a5 47be 373a 0b3e 4818 d2bd b954 273e
00000010: 55d8 8ebc 79a5 0bbf 4a39 b23e 6fbb 73be
00000020: fc43 8b3e 441d 16bd 1ac4 293d da3a 90bd
00000030: b218 4fbe 2c2e e33d f97e 063d 3832 303f
00000040: 37e7 6e3d c508 c2bd c671 303e 90a0 1abd
00000050: 3c34 67be 4e94 203e 5386 dc3d 982f acbd
00000060: 10f4 b5bd b0b5 683d ce26 2cbe 12b6 cd3c
00000070: 1b6c e93d 413c 2d3d e4df f53c 7d0d 163e
00000080: da5d dcbe 0030 7b3e 0a9b a13e 0023 883d
00000090: 9eff 003e 006a 1a3d c98c 8a3d e07f 83bd
000000a0: 631c 233d d1ab c03e df57 9c3d 8908 c9bd
000000b0: ae85 8f3e 0e47 5a3e c45f 9f3d 42ba 43bd
000000c0: 727d e3be 3f43 8d3d 2d49 abbc 09de 1dbd
000000d0: 70b6 12be cb65 8d3d f1af a8be b9f4 bbbc
000000e0: b813 1dbd 80da 30be ec57 aabd 026f 333d
000000f0: 64f3 16bf 525c bcbd 1ecf 843e 81e5 3dbf

encoder.block1.convblock1.1.running_mean f4 [64]
0.0145917265 -0.012511496 -0.008147776 -0.016468985 0.007818433 -0.0067719505 -0.0048686326 0.010607406
-0.01571408 -0.004946053 0.0047939727 0.014809756 -0.0016112188 -0.010653313 0.005587901 0.008917359
-0.0137826875 0.011923196 -0.0039634616 0.015346433 0.011455495 -0.009038543 -0.01099543 0.007327131
-0.011684545 0.01782875 -0.016743373 -0.015842523 0.008581103 0.015535837 -0.00693817 0.0012488827
0.002589854 0.0030124513 -0.0011806971 -0.013779135 -0.00843138 0.0002872565 -0.016037917 0.014842111
-0.007902699 0.00795159 -0.005343105 -0.002399071 0.0023908725 0.015457091 0.0036528264 -0.0005080128
0.008004697 0.0023459634 -0.015548887 0.0018045732 -0.010895215 0.017966414 0.00014654001 0.0038525143
-0.0147538865 -0.013527443 -0.012961154 0.0005149065 0.001994384 0.01105674 -0.008699441 -0.012430167
00000000: 2312 6f3c 05fd 4cbc 407e 05bc f7e9 86bc
00000010: e318 003c 3de7 ddbb 0d89 9fbb afca 2d3c
00000020: d0ba 80bc 8012 a2bb c216 9d3b 9ea4 723c
00000030: 882f d3ba 3c8b 2ebc b61a b73b 1d1a 123c
00000040: c8d0 61bc 8259 433c eddf 81bb 9b6f 7b3c
00000050: d4af 3b3c 6616 14bc 2d26 34bc 6e18 f03b
00000060: 8970 3fbc 990d 923c 6629 89bc 2ec8 81bc
00000070: c197 0c3c 068a 7e3c 9759 e3bb 8db1 a33a
00000080: 8aba 293b 8c6c 453b 9fc1 9aba e2c1 61bc
00000090: c523 0abc ea9a 9639 f361 83bc 532c 733c
000000a0: 527a 01bc 6347 023c 3715 afbb bb39 1dbb
000000b0: 2fb0 1c3b bd3f 7d3c 4264 6f3b 292c 05ba
000000c0: 2226 033c bcbe 193b c2c0 7ebc 6e87 ec3a
000000d0: d881 32bc 4d2e 933c 89a8 1939 777a 7c3b
000000e0: 49ba 71bc 35a2 5dbc 055b 54bc cafa 063a
000000f0: 36b4 023b 5427 353c 1a88 0ebc e6a7 4bbc

encoder.block1.convblock1.1.running_var f4 [64]
6.364012 4.678817 1.9842471 8.106842 1.8270761 1.3707075 0.7084866 3.3630705
7.3806677 0.7311976 0.68692416 6.5556154 0.07759378 3.3922424 0.9332851 2.3767838
5.6778646 4.249157 0.46953383 7.0393443 3.9223397 2.4418228 3.6136146 1.6046693
4.08076 9.500786 8.379216 7.5018005 2.2009158 7.2141724 1.4388236 0.046618704
0.20047869 0.27124286 0.041667208 5.6749425 2.1247842 0.0024663606 7.688 6.58429
1.8666745 1.8898402 0.8533062 0.1720297 0.17085585 7.141235 0.39881876 0.007713774
1.9151686 0.16449791 7.2263002 0.09733435 3.5480497 9.648062 0.00064204884 0.4436149
6.506244 5.4695168 5.0211687 0.007924546 0.1188872 3.6540306 2.2620397 4.6181846
00000000: fca5 cb40 deb8 9540 cffb fd3f a0b5 0141
00000010: a1dd e93f 5873 af3f 615f 353f 8c3c 5740
00000020: 6e2e ec40 c42f 3b3f 43da 2f3f 9ac7 d140
00000030: 7de9 9e3d 801a 5940 c6eb 6e3f 3a1d 1840
00000040: 11b1 b540 18f9 8740 bd66 f03e 4f42 e140
00000050: 9d07 7b40 d346 1c40 7645 6740 ce65 cd3f
00000060: 9695 8240 3803 1841 4511 0641 c00e f040
00000070: cedb 0c40 80da e640 5f2b b83f 41f3 3e3d
00000080: 494a 4d3e 58e0 8a3e 3cab 2a3d 2199 b540
00000090: 77fc 0740 aaa2 213b 1904 f640 81b2 d240
000000a0: 31ef ee3f 49e6 f13f 4672 5a3f 8e28 303e
000000b0: d6f4 2e3e ff84 e440 f931 cc3e d4c3 fc3b
000000c0: 3f24 f53f 2472 283e da3d e740 3b57 c73d
000000d0: 3f13 6340 765e 1a41 2b4f 283a 7e21 e33e
000000e0: 2733 d040 4806 af40 6aad a040 f4d5 013c
000000f0: 227b f33d a3db 6940 42c5 1040 2bc8 9340

encoder.block1.convblock2.0.depthwise_conv.weight f4 [64, 1, 5]
-0.028140292 -0.03129907 -0.015235989 -0.0010296777 -0.030862438 0.3190451 -0.262721 -0.14029883
-0.28740898 -0.051148042 -0.005776227 -0.026038911 -0.024700047 -0.025489828 -0.047548145 0.38100803
-0.3774168 -0.08617164 -0.09656855 -0.27701667 0.13870513 0.13940717 0.1253348 -0.0002475565
-0.0032183654 0.09079088 0.058448315 0.024806231 0.13632965 0.14654242 0.2427495 0.55783546
-0.47732213 -0.21664128 0.25700793 0.1380404 0.14832889 0.17076601 0.12443817 0.15662993
0.051829625 0.08015009 0.025260558 -0.009975062 0.019743584 -0.0673374 -0.08112734 -0.098990776
-0.08256432 -0.057525806 0.07971933 0.14126746 0.028657535 0.04196677 0.10141552 -0.13162372
-0.12718818 -0.16219284 -0.11404798 -0.16419281 0.08143015 0.070313476 0.068063736 0.050688047
0.110351406 -0.08633665 -0.18264359 -0.08313433 -0.023090672 -0.08352522 0.021510607 -0.027320916
-0.11324158 0.01847526 -0.03126885 -0.21427044 -0.1529504 0.867017 0.1224557 -0.6098726
-0.12229072 -0.08053744 -0.08735798 -0.061162252 -0.052704725 -0.12085294 -0.06304964 0.08584299
-0.14642164 -0.20786837 -0.09236306 -0.17594141 -0.15773228 0.020252967 -0.012136869 0.06781568
0.017714052 -0.0053214324 0.020202426 0.10512704 0.1211113 0.09827694 0.05834964 0.020202518
-0.01632497 -0.53639174 -0.42593664 0.35500216 0.11026616 -0.102428414 0.027826734 0.019191591
-0.03645831 -0.018244192 -0.03873249 -0.055295832 -0.06734993 0.04135246 -0.077932596 -0.122699596
-0.060649976 -0.09138251 -0.17563856 -0.13048217 -0.16165505 0.0014041968 0.008255904 0.0036900952
0.0107803 0.012501794 0.15608594 0.1938055 0.22366178 0.100551695 0.11839381 -0.050465822
-0.009990363 -0.07045762 -0.007323046 -0.059912536 -0.011442275 -0.12824595 -0.26210985 -0.119664654
-0.053697154 0.03545103 0.04718724 -0.026183395 -0.025193783 0.0037980506 0.04000447 0.1029269
0.024026845 0.006569916 0.042187005 0.007128501 -0.23674296 -0.018684963 -0.0289039 0.19977663
-0.048412044 -0.054983247 -0.08980994 -0.043537114 -0.058076903 0.36168274 0.8640321 -0.83882403
-0.2440421 -0.29452685 -0.14886941 -0.041922305 0.019420847 0.046392556 -0.017040882 -0.16847453
-0.072706945 0.057788108 0.08204415 0.10202203 0.009813801 0.061007272 -0.057399448 -0.119425416
-0.008564886 -0.046723228 -0.09938273 -0.0675757 -0.06304944 -0.021585705 -0.028688725 -0.023054728
-0.02668839 -0.022323016 -0.04499451 -0.005527236 0.0401506 -0.005816387 0.0026813152 0.019539809
-0.15348871 -0.103386834 -0.015179312 0.036705326 -0.052504186 0.056346618 -0.11462833 0.007193578
0.038122702 0.011762289 -0.15262151 -0.10145004 -0.15047042 -0.059441492 -0.122206785 -0.03325644
-0.007944101 -0.026936885 -0.009916613 -0.020800725 -0.42871854 -0.14795822 -0.43479097 0.04602105
0.71289784 0.09908138 -0.4478369 0.84275067 -0.2144234 0.1426974 0.15390892 0.22596352
0.04067773 -0.018074125 0.07685202 0.015467236 -0.0034659798 0.07399485 0.09824003 0.09786075
0.058500838 0.035464257 0.009175943 -0.007954281 -0.034320936 0.052144296 0.017127557 0.013226031
0.074289404 0.033698667 0.024585728 -0.022264672 0.028835883 0.020764831 0.0019554473 0.05066828
00000000: 7886 e6bc 7433 00bd 5fa0 79bc 40f6 86ba
00000010: 39d3 fcbc e159 a33e 5e83 86be 7faa 0fbe
00000020: 4527 93be 9c80 51bd 8146 bdbb 8e4f d5bc
00000030: c157 cabc 0bd0 d0bc d8c1 42bd 7c13 c33e
00000040: c63c c1be c27a b0bd bbc5 c5bd 21d5 8dbe
00000050: b808 0e3e c1c0 0e3e c457 003e 79ca 81b9
00000060: 36eb 52bb 92f0 b93d 8067 6f3d 7036 cb3c
00000070: 009a 0b3e 370f 163e 5393 783e 4ece 0e3f
00000080: 9163 f4be 36d7 5dbe 8b96 833e 765a 0d3e
00000090: 87e3 173e 49dd 2e3e 70d9 fe3d 9963 203e
000000a0: 4d4b 543d bb25 a43d 3bef ce3c 716e 23bc
000000b0: 4cbd a13c 31e8 89bd 1726 a6bd adbb cabd
000000c0: 7b17 a9bd 2ea0 6bbd e343 a33d 6ba8 103e
000000d0: 35c3 ea3c 59e5 2b3d f1b2 cf3d 5ec8 06be
000000e0: 9e3d 02be e115 26be fd91 e9bd 2922 28be
000000f0: dac4 a63d 8300 903d 0065 8b3d 459e 4f3d
00000100: ebff e13d 45d1 b0bd ec06 3bbe 5542 aabd
00000110: a628 bdbc 450f abbd 0337 b03c 1dd0 dfbc
00000120: 34eb e7bd 6e59 973c c413 00bd b669 5bbe
00000130: 089f 1cbe d3f4 5d3f 0eca fa3d 9c20 1cbf
00000140: 8f73 fabd d0f0 a4bd bee8 b2bd 4585 7abd
00000150: e9e0 57bd bf81 f7bd 2b20 81bd 73ce af3d
00000160: 8eef 15be 72db 54be d828 bdbd fc29 34be
00000170: 9284 21be 8de9 a53c b8d9 46bc f2e2 8a3d
00000180: 0f1d 913c 695f aebb 8f7f a53c d84c d73d
00000190: 3409 f83d 6c45 c93d 0800 6f3d c07f a53c
000001a0: f2bb 85bc f850 09bf 5e14 dabe d8c2 b53e
000001b0: 39d3 e13d fdc5 d1bd e4f4 e33c af37 9d3c
000001c0: 4f55 15bd d874 95bc f6a5 1ebd e27d 62bd
000001d0: c3ee 89bd 3261 293d 209b 9fbd ed49 fbbd
000001e0: 1c6c 78bd c126 bbbd 98da 33be 1e9d 05be
000001f0: e788 25be 070d b83a c543 073c 86d5 713b
00000200: db9f 303c 53d4 4c3c fed4 1f3e f374 463e
00000210: 9807 653e 0cee cd3d 7478 f23d 40b5 4ebd
00000220: 9fae 23bc 164c 90bd 2af6 efbb d966 75bd
00000230: 6178 3bbc e852 03be 4333 86be be12 f5bd
00000240: 8cf1 5bbd 1935 113d 6847 413d 8f7e d6bc
00000250: 3163 cebc b7e8 783b badb 233d 57cb d23d
00000260: f2d3 c43c 7348 d73b 48cc 2c3d 3396 e93b
00000270: bf6c 72be 3511 99bc dfc7 ecbc 3f92 4c3e
00000280: b54b 46bd 1d36 61bd 46ee b7bd f953 32bd
00000290: 0ce2 6dbd 7b2e b93e 3531 5d3f 2cbd 56bf
000002a0: 2ce6 79be 39cc 96be 3971 18be b9b6 2bbd
000002b0: 7818 9f3c 1f06 3e3d 5299 8bbc 9684 2cbe
000002c0: 61e7 94bd 39b3 6c3d c306 a83d edf0 d03d
000002d0: 11ca 203c c3e2 793d af1b 6bbd 5095 f4bd
000002e0: bc53 0cbc db60 3fbd 2c89 cbbd 2165 8abd
000002f0: 1120 81bd 81d4 b0bc 9e04 ebbc 45dd bcbc
00000300: 9ca1 dabc c2de b6bc 2a4c 38bd d11d b5bb
00000310: f574 243d 6497 bebb 01b9 2f3b f311 a03c
00000320: 252c 1dbe 7abc d3bd a6b2 78bc 5358 163d
00000330: a10e 57bd b6cb 663d 42c2 eabd 1bb8 eb3b
00000340: 8d26 1c3d 9eb6 403c d048 1cbe 0ac5 cfbd
00000350: eb14 1abe ec78 73bd 8d47 fabd e837 08bd
00000360: f927 02bc beaa dcbc 4a79 22bc 4866 aabc
00000370: ff80 dbbe 5c82 17be ec9c debe 9280 3c3d
00000380: 7980 363f 2eeb ca3d e14a e5be 82be 573f
00000390: cf91 5bbe 441f 123e 4d9a 1d3e fb62 673e
000003a0: b19d 263d 3010 94bc 9864 9d3d 4a6a 7d3c
000003b0: 7e25 63bb 9d8a 973d 1232 c93d 386b c83d
000003c0: 939e 6f3d f842 113d b256 163c ac52 02bc
000003d0: 1c94 0cbd 4295 553d 174f 8c3c ffb1 583c
000003e0: 0b25 983d 9d07 0a3d 0268 c93c 6764 b6bc
000003f0: 3b39 ec3c 021b aa3c f626 003b 8b89 4f3d

encoder.block1.convblock2.0.pointwise_conv.weight f4 [64, 64, 1]
-0.001030711 0.0020630197 -0.0049007647 0.0048830174 0.0027530564 0.008702723 -0.004784013 -0.006691718
0.0056638955 0.00025479397 0.0064349915 -0.00030586412 0.0033973022 -0.0018731221 0.0029527657 -0.00047460047
-0.006039299 -0.0014467615 0.0028523381 0.009377908 -0.0057263505 0.0038744344 -0.003521989 -0.00809665
0.0057508494 -5.389707e-05 0.001126735 -0.0027955652 0.003677683 -0.002173026 0.004577838 0.008609163
0.0010165069 0.0083036 0.0049954862 0.004307641 0.0011731705 -0.002508854 -0.004289279 0.0068271006
-0.0008527113 -0.009019811 0.0023141159 -0.00728628 0.0018039272 -0.0012778344 -0.0053931437 0.0068218987
0.009594875 0.007416095 -0.0013012781 0.0006532859 0.0009570249 -0.0015308956 -0.0074633285 -0.004368226
-0.0014844553 -0.0047419067 -0.0014040497 0.0034054334 -0.0031563228 0.0022417 -0.0042599216 0.0044429097
0.02773339 -0.00051746797 -0.0035837647 -0.01176804 -0.049755298 0.024770007 -0.0893926 -0.20700333
-0.057873625 0.029707711 0.032986034 0.13228194 -0.11599975 0.04084533 -0.027391553 -0.040470365
-0.032617796 -0.02693651 0.16663495 0.0014590224 0.07117681 0.053485725 -0.08097999 -0.04191113
-0.0224236 -0.012461009 -0.02154046 0.044052184 -0.0061895656 0.02246754 -0.0051229466 0.009915419
0.14799513 0.031415034 0.07335532 0.06331525 -0.058459822 0.033019107 0.051818278 0.011780484
0.030358052 -0.08530136 0.10014564 -0.00834826 -0.10020188 -0.007998107 0.014706227 0.000952578
0.10954869 -0.037646286 -0.05387309 -0.046645384 0.021779187 -0.0063260105 0.07578001 0.025338426
0.086649604 -0.07667112 0.18871182 -0.01185411 -0.25262395 -0.04900894 0.108436815 -0.00020302962
0.0010305747 0.010754639 -0.00042152655 0.013874433 -0.0050254907 -0.0397999 0.004298509 -0.005149946
-0.0144238705 -0.0028616628 -0.0011298076 0.00045146837 -0.010596277 -0.009018409 0.001426741 0.008971313
0.014919101 0.0043385574 -0.0038840927 0.0019471459 0.004290129 0.008880062 -0.009230804 -0.0025678915
-0.0049285716 0.006153995 0.0089296345 0.001542195 -0.00348967 0.004126097 -0.003547097 0.0058216094
0.0061308094 -0.042143 0.00091135857 -0.005687202 0.008293055 -0.004059471 0.018292908 -0.0034262594
-0.0010518741 0.004044604 0.0044612032 -0.0055094613 0.029329088 0.008024303 -0.010879856 0.010494568
0.0026773857 0.0027081445 -0.006706344 -0.0056578135 0.027215993 -0.0070677088 0.014492311 0.004250942
-0.003223609 -0.012845437 -0.0062023248 0.00465229 -0.009507475 0.014876248 -0.0031045247 -0.012813041
-0.0064831157 -0.04385438 0.0053734947 -0.04789734 0.005596599 0.016915789 -0.025745003 0.060087707
-0.0010018991 0.00075027207 -0.0148642 -0.04066565 0.039883748 -0.026789607 0.010014461 0.09301656
-0.016368119 -0.035875462 -0.0434956 0.010488621 -0.027712094 0.016884414 0.0057861675 -0.020556303
0.01449753 -0.0016107248 -0.03348234 -0.0062710918 0.05780718 -0.0026214207 0.0016188853 -0.018348128
-0.03818164 0.13709666 -0.0019900347 0.003575964 0.013857671 -0.013524133 -0.0023224815 0.0038229323
-0.0033222167 0.030705383 -0.020056404 -0.0058267466 -0.02072415 -0.104439415 -0.011377494 0.0030868421
-0.027896537 0.0069141174 -0.0059908633 0.009963905 0.015123968 0.008539242 -0.06618488 -0.002280169
-0.015399546 0.032527722 -0.007879355 -0.0026031306 0.036189187 0.0019415636 0.016994512 0.007985291
00000000: ec18 87ba ba33 073b 9896 a0bb b801 a03b
00000010: 9f6c 343b de95 0e3c 36c3 9cbb 3346 dbbb
00000020: 3398 b93b de95 8539 9fdc d23b 635c a0b9
00000030: 46a5 5e3b 8c83 f5ba 3083 413b ccd3 f8b9
00000040: 50e5 c5bb 43a1 bdba 4bee 3a3b cca5 193c
00000050: 1ca4 bbbb 39ea 7d3b 2cd1 66bb d0a7 04bc
00000060: 9f71 bc3b 8a0f 62b8 f4ae 933a cd35 37bb
00000070: 4805 713b 5469 0ebb b001 963b 720d 0d3c
00000080: 503c 853a d30b 083c 2db1 a33b 1d27 8d3b
00000090: 12c5 993a 966b 24bb 158d 8cbb dfb5 df3b
000000a0: 7d88 5fba d4c7 13bc 6ca8 173b bfc1 eebb
000000b0: c171 ec3a 027d a7ba f8b8 b0bb 3c8a df3b
000000c0: d333 1d3c b702 f33b a68f aaba 4641 2b3a
000000d0: dbe0 7a3a 55a8 c8ba f08e f4bb 5623 8fbb
000000e0: 0e92 c2ba ff61 9bbb 1708 b8ba b12d 5f3b
000000f0: 4fda 4ebb 7ce9 123b d096 8bbb d495 913b
00000100: 2231 e33c b0a6 07ba 98dd 6abb bdce 40bc
00000110: 36cc 4bbd 78ea ca3c 7813 b7bd aef8 53be
00000120: e50c 6dbd 965d f33c 5d1c 073d eb74 073e
00000130: 4791 edbd 6f4d 273d 4064 e0bc 41c4 25bd
00000140: 3d9a 05bd f5a9 dcbc 5aa2 2a3e ab3c bf3a
00000150: 26c5 913d d913 5b3d d6d8 a5bd 01ab 2bbd
00000160: b3b1 b7bc 4329 4cbc 9e75 b0bc 1070 343d
00000170: d7d1 cabb d90d b83c 64de a7bb 4874 223c
00000180: 098c 173e 0dad 003d 503b 963d 6dab 813d
00000190: 9173 6fbd 0b3f 073d 673f 543d ee02 413c
000001a0: 73b1 f83c 7bb2 aebd 2819 cd3d 24c7 08bc
000001b0: a536 cdbd 7e0a 03bc 63f2 703c 6db6 793a
000001c0: 105b e03d fe32 1abd 07aa 5cbd 3b0f 3fbd
000001d0: 446a b23c 6c4a cfbb 8d32 9b3d 8892 cf3c
000001e0: 5975 b13d c005 9dbd ac3d 413e be37 42bc
000001f0: ed57 81be 99bd 48bd 1f14 de3d 59e4 54b9
00000200: 5914 873a 3a34 303c 5600 ddb9 9751 633c
00000210: dfac a4bb 3805 23bd 82da 8c3b e1c0 a8bb
00000220: 1952 6cbc bc8a 3bbb 0d16 94ba 0fb3 ec39
00000230: 029c 2dbc f3c1 13bc 7c01 bb3a 6afc 123c
00000240: 3f6f 743c 752a 8e3b 438c 7ebb 6037 ff3a
00000250: 3694 8c3b ae7d 113c cc3c 17bc 124a 28bb
00000260: db7f a1bb 74a7 c93b 9a4d 123c 7a23 ca3a
00000270: f3b2 64bb 3634 873b 6a76 68bb 33c3 be3b
00000280: f5e4 c83b 239e 2cbd 3de8 6e3a b55b babb
00000290: 98df 073c 5005 85bb 02db 953c 188b 60bb
000002a0: 0adf 89ba 9988 843b 492f 923b b688 b4bb
000002b0: 8e43 f03c 5e78 033c 6c41 32bc 69f1 2b3c
000002c0: 1477 2f3b 207b 313b e4c0 dbbb 2e65 b9bb
000002d0: 13f4 de3c 3d98 e7bb 2871 6d3c 7c4b 8b3b
000002e0: 2f43 53bb ab75 52bc df3c cbbb 3d72 983b
000002f0: 3ec5 1bbc 82bb 733c 4875 4bbb caed 51bc
00000300: 5170 d4bb a6a0 33bd 2414 b03b 0030 44bd
00000310: ad63 b73b fb92 8a3c 2fe7 d2bc 871e 763d
00000320: 2852 83ba e8ad 443a f988 73bc 0691 26bd
00000330: 245d 233d e175 dbbc b213 243c 777f be3d
00000340: 6f16 86bc 26f2 12bd 7128 32bd 77d8 2b3c
00000350: 7904 e3bc 2f51 8a3c e499 bd3b b165 a8bc
00000360: 0c87 6d3c f51e d3ba c724 09bd bb7d cdbb
00000370: 39c7 6c3d 24cc 2bbb c730 d43a d04e 96bc
00000380: 5a64 1cbd 1163 0c3e 3e6b 02bb b85a 6a3b
00000390: 490b 633c 5394 5dbc c634 18bb 298a 7a3b
000003a0: 8cb9 59bb db89 fb3c 544d a4bc 4bee bebb
000003b0: b1c5 a9bc 55e4 d5bd ab68 3abc 9e4c 4a3b
000003c0: 4787 e4bc d28f e23b 014f c4bb a63f 233c
000003d0: 85ca 773c 2de8 0b3c f08b 87bd e36e 15bb
000003e0: 614e 7cbc ca3b 053d 6918 01bc 4999 2abb
000003f0: 1d3b 143d 107c fe3a 1338 8b3c bdd4 023c

encoder.block1.convblock2.1.weight f4 [64]
0.0412683 0.35349447 0.07783015 0.23215795 0.21964897 0.61038846 0.72697663 0.044772424
0.063179255 0.14080232 0.24956459 0.72351545 1.120429 0.047818214 0.2219487 0.69017303
0.048063777 0.052193724 0.45587894 0.052606575 0.7333229 0.11007901 0.04563865 0.852637
0.64578694 0.6607041 0.3500057 0.14153263 0.046174385 0.21048881 0.41817495 0.04938093
0.04793906 1.1208404 0.1804566 0.09343156 0.04796203 0.22483988 0.23425281 0.23050015
0.12679206 0.35946026 0.04926026 0.099909864 0.9045837 0.1220417 0.07390356 0.12192777
0.13769439 0.20222145 0.45565435 0.11961547 0.1567028 0.12928998 0.20559424 0.20044972
0.10920482 0.051459763 0.10065334 0.19903369 0.051625945 0.09610559 0.11781104 0.08083248
00000000: f308 293d 3afd b43e 6a65 9f3d d0ba 6d3e
00000010: a9eb 603e 6b42 1c3f 241b 3a3f 4a63 373d
00000020: 2064 813d 7c2e 103e dc8d 7f3e 4f38 393f
00000030: 386a 8f3f 08dd 433d 8546 633e 2eaf 303f
00000040: 86de 443d 16c9 553d f768 e93e fe79 573d
00000050: 0dbb 3b3f 1b71 e13d 98ef 3a3d 6b46 5a3f
00000060: 4b52 253f e723 293f f233 b33e eeed 103e
00000070: 5a21 3d3d 618a 573e 071b d63e a843 4a3d
00000080: bf5b 443d b377 8f3f 9dc9 383e 0c59 bf3d
00000090: d573 443d 6d3c 663e f8df 6f3e 3b08 6c3e
000000a0: c7d5 013e 2d0b b83e 20c5 493d 8b9d cc3d
000000b0: cc92 673f 00f1 f93d c05a 973d 44b5 f93d
000000c0: c2ff 0c3e 2413 4f3e 874b e93e f5f8 f43d
000000d0: b376 203e 9864 043e 4c87 523e b142 4d3e
000000e0: c7a6 df3d 79c7 523d 5723 ce3d 7dcf 4b3e
000000f0: ba75 533d 02d3 c43d ea46 f13d 808b a53d

encoder.block1.convblock2.1.bias f4 [64]
-0.03015437 -0.28431043 -0.016189383 -0.09891355 -0.31195083 -0.27150363 -0.083254516 -0.0013904069
0.008528896 -0.087144226 -0.11107941 -0.07803627 -0.7052933 -0.035540853 0.086266674 -0.1027533
-0.0070217205 -0.05146308 0.13428116 -0.00097196485 -0.09581408 0.018769871 -0.03395763 -0.12807739
-0.115707 -0.3921033 -0.23938136 -0.25604135 -0.0059488504 -0.25368023 -0.11532612 0.006917664
-0.0017746027 -0.15084702 0.09344458 0.008849409 -8.682486e-05 0.032270294 -0.020103535 -0.02774928
-0.014246684 -0.3054858 -0.002253816 -0.0017671237 -0.15051746 0.005248612 -0.05114816 -0.05859513
-0.106437735 -0.13428348 -0.7370583 -0.0055364296 -0.12549415 -0.21488522 -0.009866388 0.0019164783
0.044786673 -0.040043734 0.0007795531 0.10060778 0.00646714 -0.097022325 0.013109398 0.009766388
00000000: 4c06 f7bc 2391 91be 999f 84bc 3093 cabd
00000010: 05b8 9fbe 8602 8bbe 5881 aabd 503e b6ba
00000020: c8bc 0b3c ac78 b2bd 9a7d e3bd 7bd1 9fbd
00000030: 1a8e 34bf 4993 11bd 95ac b03d 5270 d2bd
00000040: 7616 e6bb f3ca 52bd 0081 093e 75cb 7eba
00000050: 2c3a c4bd 46c3 993c 2817 0bbd b826 03be
00000060: cbf7 ecbd c4c1 c8be 6320 75be da17 83be
00000070: 93ee c2bb 60e2 81be 1a30 ecbd 92ad e23b
00000080: c999 e8ba a477 1abe df5f bf3d 1dfd 103c
00000090: be15 b6b8 db2d 043d 2bb0 a4bc 7552 e3bc
000000a0: ec6a 69bc a368 9cbe c2b4 13bb d59e e7ba
000000b0: 4021 1abe 8cfc ab3b bc80 51bd 7201 70bd
000000c0: 07fc d9bd 9c81 09be daaf 3cbf f06a b5bb
000000d0: 8a81 00be df0a 5cbe a1a6 21bc 5732 fb3a
000000e0: 3b72 373d e604 24bd ec5a 4c3a 740b ce3d
000000f0: 4dea d33b a4b3 c6bd cdc8 563c 3303 203c

encoder.block1.convblock2.1.running_mean f4 [64]
-0.0026517073 -0.07027566 -0.0026809117 -0.01193635 -0.015184172 -0.10410056 -0.1067822 0.002044482
-0.0025124366 -0.016032074 -0.025463356 -0.10483604 -0.016418956 -0.0039037922 0.034871005 -0.1133158
0.0047816504 0.00021847634 -0.051346112 0.0019367489 -0.10786687 0.0122022815 -0.007449244 -0.232297
-0.027393699 -0.09932609 -0.08359437 -0.05349706 -0.0040439805 -0.0056733317 -0.060761757 0.0014690977
0.005279418 -0.26565984 0.010276762 0.0088780485 0.002680319 0.0149610005 0.00015909303 -0.013795629
-0.009299146 -0.07996213 -0.00034463117 -0.009118429 -0.2275381 0.0018213673 -0.0048158546 0.016934304
-0.029228222 -0.06495133 -0.1715644 0.0016835987 -0.02112932 0.017527329 -0.0032345382 0.005581766
-9.8971635e-05 -0.0020529858 -0.0011670019 0.03429765 0.002105115 0.026322091 0.004723872 0.007588444
00000000: 44c8 2dbb afec 8fbd 3cb2 2fbb ae90 43bc
00000010: 09c7 78bc ad32 d5bd a0b0 dabd b7fc 053b
00000020: b1a7 24bb b255 83bc 8798 d0bc 47b4 d6bd
00000030: 0c81 86bc c4d6 7fbb e6d4 0e3d 1d12 e8bd
00000040: 64af 9c3b cc16 6539 4d50 52bd 82da fd3a
00000050: 4ee9 dcbd 14ec 473c ca18 f4bb 44df 6dbe
00000060: c068 e0bc 7a6b cbbd 8633 abbd bc1f 5bbd
00000070: 5e83 84bb 5be7 b9bb 52e1 78bd bd8e c03a
00000080: f8fe ac3b 9104 88be dd5f 283c 3c75 113c
00000090: 4aa8 2f3b fc1e 753c 36d2 2639 1007 62bc
000000a0: 725b 18bc 2fc3 a3bd 9daf b4b9 7765 15bc
000000b0: bfff 68be f2ba ee3a 51ce 9dbb cfb9 8a3c
000000c0: 0670 efbc 3405 85bd 94ae 2fbe 33ac dc3a
000000d0: 6517 adbc 7995 8f3c 8cfa 53bb 3fe7 b63b
000000e0: fe8e cfb8 638b 06bb 16f6 98ba b17b 0c3d
000000f0: f8f5 093b 6da1 d73c b6ca 9a3b 7ba8 f83b

encoder.block1.convblock2.1.running_var f4 [64]
4.3484824e-06 0.012405184 2.292778e-05 0.0003155131 0.00019809318 0.009694076 0.03245178 8.280509e-06
8.474505e-06 0.0019675875 0.00067720516 0.025125185 0.012509351 3.7714042e-05 0.0022106695 0.028914759
2.052228e-05 2.1792875e-05 0.018933559 5.289173e-06 0.04233736 0.00065494794 2.3656554e-05 0.06504881
0.015176151 0.0075271814 0.019467777 0.0047440273 5.5562024e-05 0.0012777295 0.00079748454 1.9037727e-05
4.488535e-05 0.09458205 0.00012048474 6.139836e-05 1.1870373e-05 0.0017984653 0.0024342327 0.0023587008
2.7015485e-05 0.010082756 4.1912426e-06 7.686692e-05 0.05809517 0.00041768752 8.101121e-05 0.0018486003
0.0004234947 0.0037947972 0.09607617 0.00014564265 0.0012449354 0.0014246183 0.0049869022 0.0004889642
7.313798e-05 3.1016676e-05 0.00017339515 0.0020857323 2.4051418e-05 0.0016722856 0.00028661196 0.0002182074
00000000: 2ee9 9136 1d3f 4b3c 0855 c037 746b a539
00000010: 3cb7 4f39 e7d3 1e3c 28ec 043d 84ec 0a37
00000020: b92d 0e37 a4f2 003b 7886 313a 55d3 cd3c
00000030: 05f4 4c3c 252f 1e38 e1e0 103b a5de ec3c
00000040: 4327 ac37 d8cf b637 8d1a 9b3c a679 b136
00000050: f169 2d3d d0b0 2b3a 1072 c637 4f38 853d
00000060: 64a5 783c 93a6 f63b e37a 9f3c c973 9b3b
00000070: 450b 6938 7d79 a73a 480e 513a 35b3 9f37
00000080: 4743 3c38 3cb4 c13d c1ac fc38 fec2 8038
00000090: dd26 4737 7bba eb3a a687 1f3b 6f94 1a3b
000000a0: 509f e237 2532 253c 80a2 8c36 9d33 a138
000000b0: 33f5 6d3d 12fd da39 90e4 a938 bc4c f23a
000000c0: 7f08 de39 22b2 783b 95c3 c43d a7b7 1839
000000d0: 1a2d a33a 42ba ba3a 2b69 a33b d52d 003a
000000e0: a761 9938 e717 0238 68d1 3539 c8b0 083b
000000f0: 07c2 c937 9830 db3a 6844 9639 9ace 6439

encoder.block1.convblock3.0.depthwise_conv.weight f4 [64, 1, 3]
0.028888313 0.01588658 -0.004809169 0.09918918 0.03346277 0.17218295 0.0046630707 0.059664365
0.026683334 0.033959944 0.12821259 0.1609548 -0.0138716325 -0.065712705 -0.06398892 -0.25667903
-0.2774329 -0.25352973 0.09395654 0.29403728 0.21969996 -0.03190351 -0.0032603482 0.017856108
-0.053013198 -0.02146984 0.0077163023 -0.16402644 0.09513868 0.013441989 -0.037339464 -0.028895054
-0.20233718 -0.019794993 -0.09619808 0.67844456 -0.0057645203 0.23557845 0.3161515 0.036712382
-0.021111013 -0.008667225 -0.12790254 -0.1291509 -0.047789264 0.16054296 0.27173287 0.32067192
-0.013445406 -0.026319133 0.010443616 0.0041137473 -0.013631207 -0.03178836 -0.2231792 -0.3975775
-0.04249632 0.015427076 -0.023988172 0.0116204675 -0.367554 -0.23002504 -0.07164781 0.0709074
0.040589634 0.05971377 -0.02199118 -0.0035899905 -0.02064932 0.32092294 0.52054065 -0.84680206
0.6691864 -0.14732508 -0.044592574 0.24201173 0.29466632 0.3309204 -0.08962648 -0.13263294
-0.1375012 0.0933506 0.06826437 0.121461995 0.024397243 -0.020972142 -0.0058971317 0.037921797
0.07336335 0.09027633 0.08692361 0.115821525 0.18187568 -0.03734681 0.012097459 -0.01563045
-0.015626283 0.021581102 -0.002484976 -0.1377059 -0.1424262 -0.4237277 -0.15097006 0.14226165
0.03932356 -0.068723336 -0.034209818 -0.041059908 0.010016616 -0.028900735 -0.013674551 -0.12251371
-0.08102831 -0.06825526 0.035486862 0.14057681 0.13257815 0.08815163 0.118303694 0.11108669
0.11836482 -0.0073362947 -0.03442267 0.03390684 0.08762745 -0.26450282 -0.015754936 0.01821621
0.002822468 0.016431356 -0.010856979 -0.10723347 0.651026 -0.81198364 0.2194009 -0.09636584
0.052435905 -0.082046635 -0.039717343 0.013885239 -0.04339601 -0.050707847 -0.061998323 -0.059137218
-0.14186406 0.16168779 0.03886587 -0.14883319 0.20962717 -0.07386339 -0.16969112 -0.21531096
-0.26394433 0.076470904 0.04858536 0.06625599 -0.16088879 0.008908843 0.022528013 0.014817338
0.028153948 0.05721491 -0.07862939 -0.103536285 -0.09433571 0.0911074 0.11293629 0.1116494
-0.03332141 -0.065182745 -0.0799193 -0.04016679 -0.017427325 0.022593254 -0.07155006 -0.03195886
-0.0425423 0.10477493 0.10995672 0.097280316 0.030743593 -0.00429245 0.017018491 0.0039864224
-0.054155555 -0.032783087 0.07782931 0.07390979 0.020418083 0.058017362 0.045718763 0.020901633
00000000: 2fa7 ec3c 9324 823c 3c96 9dbb b223 cb3d
00000010: 4210 093d ba50 303e accc 983b 9f62 743d
00000020: 0297 da3c 9519 0b3d 294a 033e 56d1 243e
00000030: d845 63bc 6294 86bd 9f0c 83bd 6f6b 83be
00000040: af0b 8ebe a6ce 81be 496c c03d 0e8c 963e
00000050: 07f9 603e 41ad 02bd 91ab 55bb f946 923c
00000060: 5e24 59bd 85e1 afbc 09d9 fc3b 8cf6 27be
00000070: 11d8 c23d ca3b 5c3c 44f1 18bd 52b5 ecbc
00000080: 7a31 4fbe 1c29 a2bc 8003 c5bd 8bae 2d3f
00000090: 4de4 bcbb 7a3b 713e 9cde a13e b95f 163d
000000a0: 01f1 acbc fa00 0ebc e2f8 02be 2240 04be
000000b0: adbe 43bd 6065 243e 9220 8b3e 1c2f a43e
000000c0: 1f4a 5cbc 399b d7bc b31b 2b3c 9dcc 863b
000000d0: 6d55 5fbc 8334 02bd 1789 64be 478f cbbe
000000e0: 9f10 2ebd d9c1 7c3c d882 c4bc c663 3e3c
000000f0: 0a30 bcbe af8b 6bbe 16bc 92bd e637 913d
00000100: 5141 263d 6d96 743d d926 b4bc 0c46 6bbb
00000110: c328 a9bc 0350 a43e 2742 053f 05c8 58bf
00000120: cd4f 2b3f 63dc 16be b4a6 36bd ecd1 773e
00000130: 81de 963e 666e a93e 178e b7bd eed0 07be
00000140: 1dcd 0cbe 992e bf3d 31ce 8b3d 11c1 f83d
00000150: badc c73c c5cd abbc ba3c c1bb e353 1b3d
00000160: 863f 963d cce2 b83d 0105 b23d d633 ed3d
00000170: 9e3d 3a3e f8f8 18bd 6c34 463c 6e0b 80bc
00000180: b102 80bc daca b03c fbda 22bb c702 0dbe
00000190: 2cd8 11be d6f2 d8be e597 1abe 0aad 113e
000001a0: be11 213d d2be 8cbd 981f 0cbd 6f2e 28bd
000001b0: bc1c 243c 3cc1 ecbc 390b 60bc 78e8 fabd
000001c0: 2cf2 a5bd 6ac9 8bbd ac5a 113d 5ef3 0f3e
000001d0: 91c2 073e d788 b43d 3549 f23d 6b81 e33d
000001e0: 4169 f23d 4d65 f0bb c9fe 0cbd e6e1 0a3d
000001f0: 0576 b33d ea6c 87be 7f10 81bc 293a 953c
00000200: 28f9 383b 0d9b 863c 78e1 31bc 399d dbbd
00000210: a4a9 263f 29de 4fbf a1aa 603e 745b c5bd
00000220: 08c7 563d 1108 a8bd a7ae 22bd ea7e 633c
00000230: 04c0 31bd 08b3 4fbd f4f1 7dbd de39 72bd
00000240: d044 11be 7c91 253e d231 1f3d ba67 18be
00000250: 81a8 563e b045 97bd 82c3 2dbe 7a7a 5cbe
00000260: b623 87be c79c 9c3d 7101 473d 38b1 873d
00000270: 08c0 24be 65f6 113c ab8c b83c 6cc4 723c
00000280: 1ca3 e63c 2e5a 6a3d 7208 a1bd d50a d4bd
00000290: 1533 c1bd 8496 ba3d 244b e73d 71a8 e43d
000002a0: 087c 08bd 887e 85bd bbac a3bd ef85 24bd
000002b0: c0c3 8ebc 7d15 b93c d688 92bd 4be7 02bd
000002c0: d640 2ebd 3d94 d63d fd30 e13d e73a c73d
000002d0: fdd9 fb3c aea7 8cbb 5d6a 8b3c 89a0 823b
000002e0: 37d2 5dbd 8f47 06bd f964 9f3d 045e 973d
000002f0: d343 a73c 9da3 6d3d 9943 3b3d e739 ab3c

encoder.block1.convblock3.0.pointwise_conv.weight f4 [64, 64, 1]
0.0027604476 0.050199457 -0.0016312712 0.00094667805 -0.0013524652 -0.059685048 0.12346322 0.0046121315
0.0018485641 -0.003450758 -0.026155386 -0.45614725 -0.2228019 -0.0025626572 0.04081208 0.20343901
-0.0006079374 0.008974274 -0.14363478 -0.00085521827 -0.11645608 -0.026732285 0.003967523 0.029864268
-0.022612562 0.13833173 -0.011873741 0.015415503 -0.0033796756 -0.015662776 -0.010404768 0.009251624
0.0097738905 0.20731416 0.0334279 0.02139398 0.006711585 0.1042036 -0.0802417 0.013186103
-0.006464371 0.13441199 0.0009782468 0.0071269497 0.05175399 0.03142806 0.0020658656 0.028190274
-0.029156955 0.0035347783 -0.07337331 -0.025638394 0.035314016 -0.026777074 -0.005138073 -0.02087636
0.02827531 -0.0037105444 0.0005008823 0.012049739 -0.0023558638 0.015966894 -0.028272279 -0.013981895
-0.0036267908 -0.06814974 -0.016334433 -0.040540893 0.033588473 0.08969788 0.16854668 0.0018832226
0.0067853397 -0.06760969 0.03838596 0.10017002 -0.29403475 -0.006304904 0.019582016 -0.110893086
-0.00481122 -0.0077887615 -0.1812571 -0.008254994 -0.27361912 -0.019156883 0.00403742 0.09155292
-0.035083786 0.17859335 -0.07806019 0.015924389 0.0057263444 -0.03571076 -0.0682157 -0.0011068741
0.004644535 0.27577248 0.05547058 0.010100657 0.003312062 0.07147384 -0.061124064 0.051621165
0.0029502357 -0.018604081 -0.009176938 0.01730741 0.27844635 0.010317076 -0.007003386 0.014582844
-0.0070769046 -0.03123975 -0.12727576 -0.01956769 -0.03011808 -0.04698953 -0.026770813 -0.032639157
0.020043015 -0.0062504103 0.0017894185 0.016721645 -0.0016220114 0.045528155 -0.020291843 -0.011367799
0.00392521 0.02440791 -0.011582932 -0.050631985 0.010214722 0.15411763 -0.0066027557 0.006960065
0.007584948 -0.0008830965 0.085950404 0.2844177 -0.01903638 -0.0046556587 0.02023042 -0.1770917
-0.0007390723 0.024114965 -0.1877453 0.0007943018 -0.037139155 0.007322436 -0.006873475 -0.028959485
0.10910208 -0.06726002 0.08694327 -0.06546825 -0.015896231 -0.0076452717 -0.09731827 0.004467963
-0.0044540935 -0.032428812 -0.001751597 0.0062024547 0.003566967 0.018981798 -0.007863943 -0.028109875
-0.000115138086 -0.081282035 -0.003239883 -0.00024996608 0.0016698161 -0.0054891603 0.019200182 0.0023114576
0.065715164 0.004608115 0.09422909 -0.009287512 -0.07678326 -0.00827032 0.04474812 -0.02982371
0.0034643584 -0.02541545 0.027582686 -0.03231193 -0.005681707 -0.012324152 -0.023620687 -0.0077217664
-0.001590917 0.07073136 -0.0038166593 -0.037515547 -0.043136187 0.10914141 -0.12945117 0.0015924713
0.0011345623 -0.025755934 0.054611757 -0.041627754 0.1532782 0.0069592446 0.05866474 -0.002689069
-0.00041619607 0.00567491 -0.080004215 -2.9237333e-05 0.14975524 -0.01023569 -0.0057564727 -0.23959737
-0.046217643 -0.15754314 0.049817484 -0.03725142 -0.0013085664 0.020555852 0.00881071 0.001801572
-0.001868255 -0.17698033 -0.0020473248 0.015665738 0.0098819835 -0.01838508 -0.036957562 -0.074030995
-0.0028230518 0.017929632 0.0018708791 0.024273926 0.13883212 -0.010647693 0.008513637 0.009655155
-0.04767897 -0.017021345 0.10387835 -0.024191823 0.004545734 0.022875823 0.05374414 -0.02450235
0.002658667 -0.0068400283 0.013654924 -0.074684076 -0.0064813104 -0.013752698 -0.011922326 -0.004064919
00000000: a0e8 343b f29d 4d3d 61d0 d5ba 7d2a 783a
00000010: 3445 b1ba 4f78 74bd 49da fc3d 5d21 973b
00000020: 854b f23a 1d26 62bb d243 d6bc 228c e9be
00000030: 2e26 64be 41f2 27bb 912a 273d 5152 503e
00000040: fd5d 1fba d508 133c ff14 13be ba30 60ba
00000050: 8680 eebd aafd dabc ff01 823b e9a5 f43c
00000060: fb3d b9bc d5a6 0d3e 148a 42bc 4e91 7c3c
00000070: 8c7d 5dbb 394f 80bc c378 2abc 2094 173c
00000080: ab22 203c 2a4a 543e b2eb 083d 6e42 af3c
00000090: dbec db3b b268 d53d c355 a4bd 860a 583c
000000a0: 13d3 d3bb 4ca3 093e 8438 803a 3089 e93b
000000b0: fefb 533d b6ba 003d 7963 073b 4aef e63c
000000c0: 91da eebc bda7 673b bf44 96bd 9c07 d2bc
000000d0: 6ea5 103d 985b dbbc 485d a8bb e604 abbc
000000e0: 9fa1 e73c 9b2c 73bb a44d 033a 456c 453c
000000f0: d664 1abb 01cd 823c 449b e7bc 5114 65bc
00000100: 74af 6dbb 1792 8bbd cacf 85bc 350e 26bd
00000110: 1194 093d 86b3 b73d 8097 2c3e 77d6 f63a
00000120: 8e57 de3b f376 8abd 993a 1d3d f025 cd3d
00000130: b98b 96be 5e99 cebb 776a a03c ea1b e3bd
00000140: 70a7 9dbb de38 ffbb 769b 39be f43f 07bc
00000150: ce17 8cbe e5ee 9cbc 554c 843b 1980 bb3d
00000160: 04b4 0fbd 2de1 363e 05de 9fbd dd73 823c
00000170: 0fa4 bb3b 7245 12bd acb4 8bbd 8814 91ba
00000180: 2f31 983b 0d32 8d3e 1e35 633d 3a7d 253c
00000190: 2e0f 593b e060 923d 3a5d 7abd b770 533d
000001a0: be58 413b 9667 98bc de5a 16bc 45c8 8d3c
000001b0: 8590 8e3e f408 293c a97c e5bb e2ec 6e3c
000001c0: 61e5 e7bb 81ea ffbc 9454 02be 6c4c a0bc
000001d0: 31ba f6bc 1878 40bd 774e dbbc a3b0 05bd
000001e0: 4031 a43c 3ed0 ccbb ec8a ea3a d5fb 883c
000001f0: ac99 d4ba bb7b 3a3d 143b a6bc 0140 3abc
00000200: 0c9f 803b 19f3 c73c 57c6 3dbc 7c63 4fbd
00000210: a65b 273c 03d1 1d3e ee5b d8bb 4211 e43b
00000220: 288b f83b 9a7f 67ba c406 b03d 329f 913e
00000230: 2ff2 9bbc 7f8e 98bb 44ba a53c 8757 35be
00000240: 4dbe 41ba bf8c c53c 4e40 40be b138 503a
00000250: 3a1f 18bd 0cf1 ef3b e33a e1bb 713c edbc
00000260: e970 df3d 9fbf 89bd 500f b23d 3814 86bd
00000270: d038 82bc 3085 fabb cd4e c7bd fd67 923b
00000280: a5f3 91bb 13d4 04bd d895 e5ba f63d cb3b
00000290: c7c3 693b b77f 9b3c c5d7 00bc ae46 e6bc
000002a0: 4a76 f1b8 3277 a6bd 3854 54bb e10d 83b9
000002b0: bbdd da3a 6ade b3bb b349 9d3c d37b 173b
000002c0: ac95 863d acff 963b 2efb c03d a62a 18bc
000002d0: 8b40 9dbd 3c80 07bc ce49 373d da50 f4bc
000002e0: 4a0a 633b 1034 d0bc 16f5 e13c 8459 04bd
000002f0: 9d2d babb 3deb 49bc 2c80 c1bc df06 fdbb
00000300: 5186 d0ba 9adb 903d eb20 7abb e7a9 19bd
00000310: 92af 30bd 8885 df3d d98e 04be 78ba d03a
00000320: 98b5 943a 1cfe d2bc 94b0 5f3d dd81 2abd
00000330: f6f4 1c3e 600a e43b 704a 703d 173b 30bb
00000340: e434 dab9 98f4 b93b 40d9 a3bd b242 f5b7
00000350: 7059 193e 98b3 27bc cba0 bcbb 0359 75be
00000360: b64e 3dbd fd52 21be 6b0d 4c3d f294 18bd
00000370: 3484 abba bf64 a83c cc5a 103c ba22 ec3a
00000380: 3ce0 f4ba 553a 35be 692c 06bb 6f55 803c
00000390: 0be8 213c 4f9c 96bc d060 17bd 909d 97bd
000003a0: f302 39bb 2ae1 923c 4938 f53a 1dda c63c
000003b0: 022a 0e3e a973 2ebc c87c 0b3c a830 1e3c
000003c0: 064b 43bd 5970 8bbc 2cbe d43d ee2d c6bc
000003d0: 61f4 943b 1466 bb3c d122 5c3d 27b9 c8bc
000003e0: 083d 2e3b 5122 e0bb e7b8 5f3c f7f3 98bd
000003f0: 2c61 d4bb ff52 61bc dc55 43bc 0333 85bb

encoder.block1.convblock3.1.weight f4 [64]
0.5683152 0.5713616 0.38097373 0.420977 0.41187915 0.26831466 0.39738557 0.17642908
0.21315375 0.4221254 0.16686094 0.29025665 0.3961121 0.5396007 0.79728454 0.42043963
0.4183519 0.8571902 0.30980766 0.21130757 0.31401795 0.34583625 0.4519102 0.29573244
0.55586344 0.25324667 0.6644392 0.17132379 0.61522704 0.38706478 0.458035 0.39802292
0.39381108 0.22390074 0.17572719 0.62049305 0.560503 0.37597337 0.44701397 0.5049608
0.34089464 0.22324486 0.51665574 0.41505516 0.43147096 0.29357365 0.5345093 0.2692593
0.31558275 0.38481244 0.38390583 0.3423649 0.31497234 0.37854466 0.17226413 0.2380692
0.3013844 0.30572027 0.66039264 0.47003892 0.0680991 0.05924678 0.28501502 0.21862498
00000000: 1b7d 113f c144 123f fd0e c33e 4c8a d73e
00000010: d3e1 d23e 8a60 893e 1f76 cb3e d3a9 343e
00000020: fa44 5a3e d220 d83e 98dd 2a3e 859c 943e
00000030: 35cf ca3e 4523 0a3f d71a 4c3f dd43 d73e
00000040: 3832 d63e d170 5b3f 1c9f 9e3e 0361 583e
00000050: f6c6 a03e 7311 b13e c660 e73e 3e6a 973e
00000060: 114d 0e3f 8ca9 813e b018 2a3f 816f 2f3e
00000070: 857f 1d3f 5b2d c63e 9083 ea3e a9c9 cb3e
00000080: 9ba1 c93e 3c46 653e d4f1 333e a2d8 1e3f
00000090: 207d 0f3f 957f c03e 04df e43e 1c45 013f
000000a0: be89 ae3e 4d9a 643e 8d43 043f 1c82 d43e
000000b0: c3e9 dc3e 494f 963e 9ad5 083f 5bdc 893e
000000c0: 1094 a13e 2306 c53e 4e8f c43e 744a af3e
000000d0: 0e44 a13e 9bd0 c13e 0266 303e 6ac8 733e
000000e0: 0e4f 9a3e 5e87 9c3e 7e0f 293f f1a8 f03e
000000f0: 8a77 8b3d c0ac 723d 7ded 913e 3adf 5f3e

encoder.block1.convblock3.1.bias f4 [64]
-0.30024475 -0.19629964 -0.038050476 -0.2213844 -0.0799595 0.0026465978 -0.29485804 0.0012388028
0.041437708 -0.09082509 -0.07607161 -0.055650834 -0.05452494 -0.07567485 -0.37639305 -0.15592071
-0.23086889 -0.43636873 0.017823854 0.03581047 0.14407064 -0.02015244 -0.032532804 -0.05104572
-0.033977844 0.07821447 -0.27970514 0.11349964 -0.10511533 -0.12100633 -0.10208145 -0.103936695
-0.055503897 0.0319982 -0.046177436 -0.20786956 -0.18859756 -0.06769283 -0.045785163 -0.07462908
-0.06224225 0.055220768 -0.22459015 -0.24984202 -0.10106918 0.03343718 -0.2856567 -0.084125586
-0.13990243 -0.087941416 -0.10614718 -0.035562932 -0.0018355693 -0.21820174 0.027678395 -0.12157267
0.06642321 -0.016089572 -0.11960838 -0.10761644 -0.047402646 -0.04196238 -0.025514051 -0.048134528
00000000: aeb9 99be c602 49be d1da 1bbd 98b2 62be
00000010: cec1 a3bd 8b72 2d3b a2f7 96be 535f a23a
00000020: 96ba 293d 8102 babd 6fcb 9bbd 21f2 63bd
00000030: 8b55 5fbd 6afb 9abd 97b6 c0be aea9 1fbe
00000040: e568 6cbe b96b dfbe 5503 923c 00ae 123d
00000050: 4187 133e bb16 a5bc 1e41 05bd 5115 51bd
00000060: 5a2c 0bbd e82e a03d 8335 8fbe 8072 e83d
00000070: b546 d7bd 2bd2 f7bd 1410 d1bd c3dc d4bd
00000080: 0e58 63bd 8b10 033d 8d24 3dbd c2db 54be
00000090: b81f 41be 8aa2 8abd 3989 3bbd 22d7 98bd
000000a0: bbf1 7ebd 2c2f 623d f6fa 65be 96d6 7fbe
000000b0: 5cfd cebd 6df5 083d 9841 92be 094a acbd
000000c0: 9542 0fbe a11a b4bd b163 d9bd 70aa 11bd
000000d0: 7c97 f0ba 4770 5fbe cdbd e23c 18fb f8bd
000000e0: e408 883d 47ce 83bc 3df5 f4bd 0266 dcbd
000000f0: 4729 42bd bfe0 2bbd d802 d1bc b628 45bd

encoder.block1.convblock3.1.running_mean f4 [64]
-0.0010502635 0.020704899 0.03237785 -0.0027631808 -0.01873768 -0.0017473147 0.00017821812 0.0019034811
-0.00422867 -0.012618306 0.01092094 0.0062880144 0.008387883 0.019296138 0.012214529 -0.003426526
-0.02216866 0.023917487 -0.008876697 0.0069718705 -0.01533227 -0.023392318 0.009345793 -0.0042545837
0.0072702267 -0.004685842 0.0068594455 0.005647214 0.0008565843 -0.015290794 -0.022304052 0.010778205
-0.00019904015 -0.02228927 -0.0015235238 0.017744407 0.02199211 0.00034552655 -0.0164357 -0.00013386208
-0.016593678 -0.00952113 0.0071262456 0.0068412567 0.023044255 0.018338032 -0.012877333 0.0019304204
-0.0067884712 0.011290729 0.006870392 0.006448701 -0.0022546246 -0.00040488332 -0.007611347 0.0035610325
-0.005637457 -0.004276697 -0.0028538608 0.0035377073 0.00045442197 -0.002078566 0.015675846 -0.00078702526
00000000: ffa8 89ba 529d a93c a39e 043d 7b16 35bb
00000010: c37f 99bc 2706 e5ba 10e0 3a39 3a7e f93a
00000020: a890 8abb 03bd 4ebc beed 323c b00b ce3b
00000030: 556d 093c ef12 9e3c 731f 483c 918f 60bb
00000040: 0d9b b5bc 9bee c33c 916f 11bc 4a74 e43b
00000050: 3434 7bbc 3fa1 bfbc 191f 193c 096a 8bbb
00000060: 153b ee3b b18b 99bb 33c5 e03b 440c b93b
00000070: 668c 603a 3d86 7abc fdb6 b6bc 1197 303c
00000080: 6fb5 50b9 fd97 b6bc fab0 c7ba b85c 913c
00000090: cc28 b43c ca27 b539 29a4 86bc 545d 0cb9
000000a0: 77ef 87bc 83fe 1bbc 4883 e93b 9f2c e03b
000000b0: 4ec7 bc3c a439 963c 73fb 52bc 2906 fd3a
000000c0: d371 debb c0fc 383c 0621 e13b a04f d33b
000000d0: 53c2 13bb 8546 d4b9 9b68 f9bb 3660 693b
000000e0: 6bba b8bb 8923 8cbb d707 3bbb e1d8 673b
000000f0: 7c3f ee39 8d38 08bb a26a 803c 5f50 4eba

encoder.block1.convblock3.1.running_var f4 [64]
0.0006308035 0.0011862173 0.0010971122 0.00039943526 0.0008480234 0.00016423782 0.00026946783 4.185654e-05
5.5899844e-05 0.00058086315 0.00010443626 0.0003811857 0.0009032845 0.0021703455 0.0025267587 0.0008697395
0.0010624866 0.0026707195 0.00022252505 0.0005486582 0.000437024 0.0009115043 0.0029930419 0.00028608154
0.005118988 0.0004823496 0.0014075601 8.836488e-05 0.0035808135 0.00056430773 0.0009266072 0.00043607468
0.0006412697 0.00024171376 0.00024221852 0.0022233964 0.0011003627 0.0005265597 0.0013111227 0.0032465002
0.00044383452 0.00035972695 0.00056041917 0.00027741067 0.0008244303 0.0007564552 0.000458566 0.000104573286
0.00019824888 0.0005993012 0.00029817646 0.00051149714 0.0012332717 0.00024345203 0.00017025578 4.9594077e-05
0.0003869211 0.0005591236 0.0046044313 0.002191849 2.9658171e-05 7.4504974e-06 0.00031770777 0.00029266908
00000000: 825c 253a d97a 9b3a facc 8f3a 4b6b d139
00000010: e34d 5e3a 4137 2c39 5c47 8d39 1e8f 2f38
00000020: 0076 6a38 1145 183a ca04 db38 e1d9 c739
00000030: 66ca 6c3a 5b3c 0e3b fa97 253b 3bff 633a
00000040: 2243 8b3a 3d07 2f3b 9d55 6939 d4d3 0f3a
00000050: 5e20 e539 05f2 6e3a e926 443b 37fd 9539
00000060: 2fbd a73b dee3 fc39 e17d b83a 8950 b938
00000070: 15ac 6a3b 0dee 133a 8ee7 723a f4a0 e439
00000080: e21a 283a 8b74 7d39 0afc 7d39 67b6 113b
00000090: 0c3a 903a d308 0a3a fad9 ab3a 3cc3 543b
000000a0: 76b2 e839 bc99 bc39 18e9 123a 6e71 9139
000000b0: 951e 583a d94c 463a b06b f039 5b4e db38
000000c0: 07e1 4f39 6c1a 1d3a 9154 9c39 fe15 063a
000000d0: bba5 a13a 2847 7f39 b086 3239 3c03 5038
000000e0: acdb ca39 2692 123a c5e0 963b 20a5 0f3b
000000f0: 70ca f837 49ff f936 0492 a639 6171 9939

encoder.block1.shortcut.0.weight f4 [64, 1, 1]
-0.013393729 0.03335544 -0.0064664986 0.030096138 0.03107226 0.011350075 0.047359735 -0.0073166676
-0.03139101 -0.036535975 0.014477238 -0.022373525 0.024183653 0.046741515 0.048826143 -0.010370398
0.024803996 0.034618597 -0.035118736 0.047778755 0.041468102 -0.048050728 0.04654807 0.0065149507
-0.0059127356 0.026349626 0.017462963 0.0017920533 -0.036323085 0.004584757 -0.019820783 0.040108886
-0.04808099 0.025722923 0.024693685 0.014456618 0.030667238 -0.045675807 0.047398765 0.047113914
-0.0050362563 -0.030632898 -0.038424868 -0.008193632 0.031441618 -0.010468892 0.02944802 0.03496654
-0.0015587506 0.006001766 -0.02198573 -0.0024437788 -0.028273366 -0.01062744 -0.043337874 0.013865871
0.02142682 -0.048795197 -0.028527623 -0.024045674 -0.008898751 -0.01981288 -0.023563081 -0.030736323
00000000: 5f71 5bbc b79f 083d ece4 d3bb 2d8c f63c
00000010: 418b fe3c aaf5 393c 48fc 413d a8c0 efbb
00000020: dc93 00bd bfa6 15bd f031 6d3c af48 b7bc
00000030: cc1c c63c 0874 3f3d ecfd 473d 9ae8 29bc
00000040: c031 cb3c 3bcc 0d3d aad8 0fbd a8b3 433d
00000050: 75da 293d d7d0 44bd 30a9 3e3d 5e7b d53b
00000060: 9fbf c1bb 2cdb d73c 7d0e 8f3c 55e3 ea3a
00000070: 84c7 14bd bb3b 963b 325f a2bc 3749 243d
00000080: 92f0 44bd e1b8 d23c 694a ca3c 73db 6c3c
00000090: dc39 fb3c 8e16 3bbd 3525 423d 85fa 403d
000000a0: 2e07 a5bb d8f1 fabc 6563 1dbd 953e 06bc
000000b0: edc8 003d b785 2bbc f93c f13c 1339 0f3d
000000c0: fe4e ccba 76aa c43b 6b1b b4bc ce27 20bb
000000d0: 8c9d e7bc b71e 2ebc 0e83 31bd ae2d 633c
000000e0: 4c87 af3c 79dd 47bd c3b2 e9bc 6ffb c4bc
000000f0: 11cc 11bc 9f4e a2bc 5d07 c1bc beca fbbc

encoder.block1.shortcut.1.weight f4 [64]
0.037427813 0.07362822 0.048379898 -0.035126537 0.005701996 0.023278758 -0.021162186 0.063430086
0.044608522 -0.016716173 0.033125035 -0.01902215 0.015779488 0.14307697 -0.00690017 0.086294
-0.08572986 0.108042695 -0.016132012 0.017293317 0.03782352 0.02028758 0.118913375 0.001316101
-0.12783158 0.019708777 0.16848586 0.019347295 0.23950729 -0.0037446725 -0.07953665 0.09425237
-0.11092073 0.028323181 -0.0070154765 0.18794088 0.14062569 0.003172374 0.11838418 -0.0990498
-0.05041987 0.045439683 0.013010778 0.07198931 0.069127485 -0.0107225785 0.047873784 0.009084715
0.013918667 -0.053291198 0.11137961 -0.036675803 -0.0015147837 0.03702843 0.03450094 0.007516177
0.025440667 -0.015868342 0.18684989 0.17384064 0.0172005 0.030744178 0.019835146 0.010321068
00000000: e84d 193d 64ca 963d 002a 463d d8e0 0fbd
00000010: cfd7 ba3b 18b3 be3c 525c adbc a2e7 813d
00000020: 6db7 363d 5bf0 88bc 1eae 073d 57d4 9bbc
00000030: fc43 813c c582 123e d21a e2bb e9ba b03d
00000040: 2393 afbd 7d45 dd3d 4827 84bc b7aa 8d3c
00000050: d6ec 1a3d 2432 a63c db88 f33d 0681 ac3a
00000060: 48e6 02be 4d74 a13c 8f87 2c3e 387e 9e3c
00000070: 6641 753e 2e69 75bb 1ce4 a2bd 6307 c13d
00000080: 682a e3bd 0406 e83c 15e2 e5bb 9373 403e
00000090: 2e00 103e 9be7 4f3b 6873 f23d 9fda cabd
000000a0: 1185 4ebd f61e 3a3d 292b 553c 226f 933d
000000b0: b692 8d3d c1ad 2fbc 4d17 443d 0ed8 143c
000000c0: 1f0b 643c df47 5abd fe1a e43d 5e39 16bd
000000d0: b58b c6ba 1fab 173d dc50 0d3d 434a f63b
000000e0: f268 d03c 53fe 81bc 9455 3f3e 4803 323e
000000f0: 10e8 8c3c 37db fb3c 517d a23c b219 293c

encoder.block1.shortcut.1.bias f4 [64]
-0.30024475 -0.19629964 -0.038050476 -0.2213844 -0.0799595 0.0026465978 -0.29485804 0.0012388028
0.041437708 -0.09082509 -0.07607161 -0.055650834 -0.05452494 -0.07567485 -0.37639305 -0.15592071
-0.23086889 -0.43636873 0.017823854 0.03581047 0.14407064 -0.02015244 -0.032532804 -0.05104572
-0.033977844 0.07821447 -0.27970514 0.11349964 -0.10511533 -0.12100633 -0.10208145 -0.103936695
-0.055503897 0.0319982 -0.046177436 -0.20786956 -0.18859756 -0.06769283 -0.045785163 -0.07462908
-0.06224225 0.055220768 -0.22459015 -0.24984202 -0.10106918 0.03343718 -0.2856567 -0.084125586
-0.13990243 -0.087941416 -0.10614718 -0.035562932 -0.0018355693 -0.21820174 0.027678395 -0.12157267
0.06642321 -0.016089572 -0.11960838 -0.10761644 -0.047402646 -0.04196238 -0.025514051 -0.048134528
00000000: aeb9 99be c602 49be d1da 1bbd 98b2 62be
00000010: cec1 a3bd 8b72 2d3b a2f7 96be 535f a23a
00000020: 96ba 293d 8102 babd 6fcb 9bbd 21f2 63bd
00000030: 8b55 5fbd 6afb 9abd 97b6 c0be aea9 1fbe
00000040: e568 6cbe b96b dfbe 5503 923c 00ae 123d
00000050: 4187 133e bb16 a5bc 1e41 05bd 5115 51bd
00000060: 5a2c 0bbd e82e a03d 8335 8fbe 8072 e83d
00000070: b546 d7bd 2bd2 f7bd 1410 d1bd c3dc d4bd
00000080: 0e58 63bd 8b10 033d 8d24 3dbd c2db 54be
00000090: b81f 41be 8aa2 8abd 3989 3bbd 22d7 98bd
000000a0: bbf1 7ebd 2c2f 623d f6fa 65be 96d6 7fbe
000000b0: 5cfd cebd 6df5 083d 9841 92be 094a acbd
000000c0: 9542 0fbe a11a b4bd b163 d9bd 70aa 11bd
000000d0: 7c97 f0ba 4770 5fbe cdbd e23c 18fb f8bd
000000e0: e408 883d 47ce 83bc 3df5 f4bd 0266 dcbd
000000f0: 4729 42bd bfe0 2bbd d802 d1bc b628 45bd
