ldpi/training/output/ResCNN/pretrained_model.pth (torch, 711292 bytes, 63 tensors)

encoder.block1.convblock1.0.depthwise_conv.weight f4 [1, 1, 7]
000000 d5 ed b6 3e 6e 79 05 40 2a 09 5a 3e 59 5a 82 3e
       0.35728326 2.0855365 0.21292558 0.25459555
000010 4d eb 82 bc 8d 4d 81 bb cb 65 12 bc
       -0.01598134 -0.0039460124 -0.008935402

encoder.block1.convblock1.0.pointwise_conv.weight f4 [64, 1, 1]
000000 6f a0 41 bd 6b f7 4a 3c 21 1b e8 bc 97 bc 4c 3c
       -0.047272142 0.012388091 -0.028333249 0.012496135
000010 73 44 6c bc 75 ff 27 3d 5d 89 b1 3b 49 69 c1 bb
       -0.014420616 0.041015107 0.0054179863 -0.0059024435
000020 35 62 31 3d ca b4 d3 bb 7f e2 40 bc 1b b5 98 bc
       0.04330655 -0.0064607607 -0.011772751 -0.018641045
000030 16 87 92 bc 06 fc 99 bc 57 a5 39 bd e2 36 0b 3d
       -0.01788668 -0.018796932 -0.045323696 0.033987887
000040 5d c6 b7 3c 4f ab 0a 3d a1 71 2a 3d 04 c5 8a 3c
       0.022433454 0.03385478 0.04161227 0.016939647
000050 fe 4b 30 3d 76 49 95 bb e4 54 1a bd 44 c3 36 bd
       0.04304122 -0.0045558764 -0.037678614 -0.044619814
000060 20 d6 a8 bb cc 75 ad 3c e8 95 12 bc f0 7a 9d 3c
       -0.005152479 0.021174334 -0.008946873 0.01922366
000070 21 d0 ab 3a 5d ad d7 3c 82 15 1e 3d fc 46 9e 3c
       0.0013108292 0.026327783 0.03859473 0.019320957
000080 16 23 e0 3c fa 21 10 bd 98 5e c7 3c 24 ac 20 3c
       0.02736048 -0.035188653 0.024337098 0.0098066665
000090 52 37 57 bc 1e b4 04 bd 59 5a 34 bd 53 30 da 3c
       -0.013135748 -0.032398336 -0.044031475 0.02663437
0000a0 60 1a 64 bc be 71 a7 3c 39 80 e8 3b f5 1d c6 3c
       -0.013922304 0.020439979 0.0070953635 0.024184207
0000b0 4d 8a 25 bc ae a2 a8 3b 7e 27 19 bd 98 a7 a0 3a
       -0.010103774 0.005146346 -0.03739118 0.0012256978
0000c0 4b 4d cb 3c c0 28 51 3c b0 6f 84 bb 30 09 43 3d
       0.02481713 0.012766063 -0.0040416345 0.047616184
0000d0 a0 17 15 3d 72 53 ef 3c ad 14 aa bb c4 bc 36 3d
       0.036399484 0.029214595 -0.005190453 0.044613615
0000e0 72 24 c6 bc 7d 22 e8 bc 66 87 2c 3d f4 9a 17 3c
       -0.0241873 -0.028336758 0.042121314 0.009253252
0000f0 9c 12 e6 bc a6 dd 7f 3c 8d 71 d9 3c 4f 5c 87 3c
       -0.028085046 0.01561681 0.026543403 0.016523508

encoder.block1.convblock1.1.weight f4 [64]
000000 cb ab 54 3e 1a 66 94 3d 2d cd 23 bc f6 9c e8 3e
       0.20768659 0.07246037 -0.009997648 0.45432252
000010 fc 01 b9 3e 19 e2 73 3d 1f 95 3a 3e 38 1b 9d 3e
       0.36134326 0.059541795 0.18220948 0.3068483
000020 b9 e6 55 3e 82 99 b9 3d ce 51 63 3e f8 1e bf 3e
       0.20888795 0.090624824 0.22199175 0.37328315
000030 d0 1a 1c 3f ed 2c c4 3e 7e dd c1 3e a2 ba 9a 3d
       0.6097841 0.38315526 0.37864298 0.07555129
000040 1c 4d 88 3e 39 e2 24 3e 4e b5 dd 3d 89 88 03 3e
       0.2662133 0.16101922 0.10825597 0.12845053
000050 1e d8 be 3e 5e 87 ae 3d e6 1a e3 3d 51 98 b5 3d
       0.3727426 0.08521913 0.11089115 0.08866943
000060 96 7a f1 3e fa 97 33 3e a3 28 89 3d fd b6 a0 3e
       0.47163838 0.17538443 0.06697204 0.3138961
000070 7b 9a be 3d fc 3d 2e 3f 40 b4 2c 3e 2f 8d e8 3d
       0.093068086 0.6806333 0.16865635 0.11355054
000080 7c b5 85 3e 6a 14 1b 3d 89 b6 12 3f 03 65 e1 3e
       0.26115024 0.037861265 0.57309777 0.44022378
000090 b8 7e 5c 3d a3 0d e0 3d d5 9e 4e 3e 84 25 48 3e
       0.053831786 0.10940101 0.20177777 0.19545561
0000a0 2f 96 14 3f d8 79 83 bc 7c fb 72 3e 2d af 45 3f
       0.5804166 -0.01604931 0.23728746 0.7722042
0000b0 05 77 83 3e 3f 95 06 3f 28 36 ad 3d f6 d2 74 3d
       0.25676742 0.5257148 0.08457595 0.0597715
0000c0 20 29 a8 3e 92 d5 e6 3e 8d bc ba 3e e0 a1 ee 3e
       0.32843876 0.45084816 0.36471978 0.46607876
0000d0 62 49 b2 3d 61 df 40 3f 71 42 25 3e 42 15 2c 3f
       0.08705403 0.7534085 0.16138627 0.67219937
0000e0 5b 2e 38 3f 5f a7 fe 3d 26 e0 34 3d 06 4f c9 3e
       0.7194573 0.12434267 0.044159077 0.39318103
0000f0 52 9b 04 3f 3f b0 ba 3e 37 90 85 3e e8 0a 1b 3f
       0.517995 0.3646259 0.2608659 0.60563517

encoder.block1.convblock1.1.bias f4 [64]
000000 d3 ca 8e be b4 03 4f bc 0d 3e 5f 3f 96 12 df bd
       -0.27889118 -0.01263516 0.87204057 -0.10892217
000010 c1 55 a1 3e 2b d8 76 bc bf 44 97 3d 1a 81 8c bd
       0.31510738 -0.015066187 0.07386159 -0.06860562
000020 c5 53 42 3e 6a 80 49 3c a9 2f 74 3d 37 42 8f bd
       0.18977268 0.012298683 0.059615765 -0.06995051
000030 3c fc 28 be ae 32 e2 be d9 51 ae bd 87 7e ba 3d
       -0.1650247 -0.4417929 -0.08511705 0.091061644
000040 d1 f9 a8 bd 83 42 34 bd 6d cb e2 3d 75 50 17 bd
       -0.08250774 -0.044008743 0.11073957 -0.036941964
000050 cf f6 04 be e2 b1 8b 3d 9e f4 0f be 88 ac ff bd
       -0.12984775 0.06821038 -0.14058158 -0.124840796
000060 09 9f 02 bf 70 f9 66 3e ba aa 40 bd 80 ea 86 bd
       -0.5102392 0.2255609 -0.047037818 -0.06587696
000070 25 d6 c6 3e 96 fb 73 3e 89 cc 38 bd df f0 fd bc
       0.38835254 0.23826441 -0.045116935 -0.030998645
000080 78 d8 98 3e c0 64 48 bd 5f 86 18 3e 1c ef d4 bd
       0.29852653 -0.048924208 0.14895009 -0.10397169
000090 71 84 54 bc 46 c4 d5 bc c4 fe 83 be 19 65 6c bd
       -0.01297103 -0.026094567 -0.25780308 -0.0577136
0000a0 c9 cd 0b 3e ce 60 95 3e 6d 03 48 3e c1 78 e3 3e
       0.1365272 0.2917542 0.19532557 0.44428065
0000b0 ab d3 2e 3d 49 2d 61 be 5f a7 e8 bd ec e2 cb bc
       0.04268233 -0.21989931 -0.113600485 -0.024888478
0000c0 a6 98 cf bd c4 6a d8 3d 0f 17 f1 be b6 e0 eb 3d
       -0.10136537 0.10567239 -0.47087905 0.115174696
0000d0 fb ad c5 bc 88 f3 04 3f e1 d7 02 3d 7c 4f 2c 3e
       -0.024130812 0.519341 0.03194416 0.16827196
0000e0 06 d5 18 be ef 19 17 be 05 b0 e5 bc f3 b2 17 be
       -0.14925012 -0.14755987 -0.028038034 -0.14814357
0000f0 14 e2 11 3e 55 42 d5 bd da b1 98 bd 82 a5 25 3e
       0.14246398 -0.104130425 -0.074557975 0.16176417

encoder.block1.convblock1.1.running_mean f4 [64]
000000 1f 3f 1d be de d4 24 3d fd 7e bc bd e5 44 26 3d
       -0.1535611 0.04024207 -0.092039086 0.040593047
000010 27 e0 3f bd df 6e 08 3e f9 2d 90 3c 56 12 9d bc
       -0.046844628 0.13323544 0.017600046 -0.019173782
000020 2c 0e 10 3e dd ed ab bc df a4 1c bd f7 07 78 bd
       0.14067906 -0.020987445 -0.03824317 -0.06055447
000030 68 fe 6d bd f3 1a 7a bd e7 c3 16 be 87 1d e2 3d
       -0.05810395 -0.061060857 -0.14723168 0.11040788
000040 eb 3e 95 3d d5 3a e1 3d 65 6b 0a 3e 95 64 61 3d
       0.07287391 0.109975494 0.1351753 0.055027563
000050 3c 2c 0f 3e b8 79 72 bc 49 ab fa bd 80 6c 14 be
       0.13981718 -0.014799528 -0.12239701 -0.14494514
000060 35 1d 89 bc 7b de 8c 3d 7a 16 ee bc 7d c8 7f 3d
       -0.01673756 0.06878372 -0.029063452 0.06244706
000070 0a 88 8b 3b 70 27 af 3d c6 61 00 3e f5 89 80 3d
       0.0042581605 0.08552444 0.12537298 0.06276313
000080 3f 06 b6 3d 95 1a ea bd 0e e9 a1 3d e8 7b 02 3d
       0.0888791 -0.11430851 0.0790578 0.031856447
000090 93 c7 2e bd 54 8a d7 bd 7f 77 12 be 99 31 b1 3d
       -0.042670798 -0.10524431 -0.14303397 0.08652038
0000a0 c6 3e 39 bd c9 fb 87 3d 16 d1 bc 3c aa e4 a0 3d
       -0.04522588 0.06639821 0.023048919 0.07856114
0000b0 ee 6f 06 bd 6e f3 88 3c c1 c1 f8 bd 37 78 82 3b
       -0.03282159 0.016717639 -0.121463306 0.003981616
0000c0 9d 1a a5 3d 56 dc 29 3d 2f 1b 57 bc 18 64 1e 3e
       0.08061717 0.041469894 -0.01312904 0.1546787
0000d0 c7 28 f2 3d 06 5c c2 3d e9 1f 8a bc 39 67 14 3e
       0.11824184 0.09490208 -0.01686092 0.14492501
0000e0 ee e9 a0 bd f7 84 bc bd df 1c 0c 3e b0 3d f6 3c
       -0.078571185 -0.092050485 0.13682888 0.030058712
0000f0 45 d8 ba bd ad ca 4f 3d a9 96 b0 3d 1e db 5b 3d
       -0.091232814 0.050730396 0.08622486 0.053675763

encoder.block1.convblock1.1.running_var f4 [64]
000000 94 b8 fe 40 8d f1 0b 3f ca 02 37 40 32 65 0e 3f
       7.9600315 0.5466545 2.8595452 0.5562316
000010 d1 a1 3d 3f bd c0 bf 40 62 25 d6 3d 90 27 fe 3d
       0.7407504 5.9922776 0.10456349 0.1240989
000020 f6 c6 d5 40 47 41 18 3e ce c5 fc 3e b2 6f 9e 3f
       6.680537 0.14868651 0.49369663 1.2377837
000030 61 df 91 3f e6 18 a1 3f e0 27 ea 40 bd ac 83 40
       1.1396295 1.2585723 7.3173676 4.114836
000040 b1 75 e5 3f 3a a5 82 40 93 60 c5 40 af d5 82 3f
       1.7926542 4.0826693 6.168039 1.0221461
000050 6d 2a d3 40 0e 6b 97 3d 0d d3 a1 40 76 f0 e2 40
       6.598929 0.07393466 5.057013 7.091853
000060 02 ac c1 3d c4 6c cc 3f e4 fc 91 3e a8 7e a8 3f
       0.09456636 1.5970693 0.28513253 1.3163652
000070 99 8f c8 3b 31 05 1e 40 0c ca a9 40 65 34 aa 3f
       0.006120634 2.4690669 5.305914 1.329724
000080 f3 a8 2a 40 9f 24 8d 40 01 07 07 40 1a 65 af 3e
       2.6665618 4.4107203 2.1098025 0.34256822
000090 66 58 1d 3f f4 4a 6f 40 7e fe dc 40 d5 b8 21 40
       0.6146301 3.7389498 6.906066 2.5269063
0000a0 ba c0 30 3f c5 7d be 3f 5a a2 37 3e 0d 56 05 40
       0.6904408 1.4882132 0.17933026 2.0833771
0000b0 02 2f ba 3e 0e 36 c1 3d 67 5d 9f 40 2d 5b af 3b
       0.3636399 0.09434138 4.9801517 0.005351445
0000c0 12 68 0c 40 0d 9d 14 3f 6c 54 6e 3d 9a 38 01 41
       2.193852 0.5805214 0.05818598 8.076319
0000d0 06 06 97 40 d8 92 42 40 84 89 c4 3d 52 e0 e2 40
       4.7194853 3.0402126 0.095965415 7.089883
0000e0 c9 5e 05 40 66 0e 37 40 5d 3c ca 40 54 28 9c 3e
       2.0839102 2.8602538 6.3198686 0.30499518
0000f0 8c d1 33 40 a0 65 5e 3f 83 9e 20 40 92 f8 78 3f
       2.8096647 0.8687382 2.5096748 0.9725429

encoder.block1.convblock2.0.depthwise_conv.weight f4 [64, 1, 5]
000000 1b be e6 3d a4 88 af 3d b0 11 95 3d f5 ac fb 3d
       0.112667285 0.08570984 0.07278764 0.12288848
000010 90 be c9 3d 0b 48 a1 3c 05 73 23 3d c0 c0 39 3d
       0.098508 0.019687673 0.039904613 0.045349836
000020 1e ec 05 3c b0 07 9a bc cc f9 01 3f dd 7d 7e 3d
       0.0081739705 -0.018802494 0.50771785 0.06213175
000030 c5 8d 89 be f2 11 fc 3c 13 67 f5 3e ae c8 14 be
       -0.26865974 0.030770276 0.47930202 -0.14529678
000040 cb 08 39 be bd aa 93 bd c2 57 19 be 1d 22 61 be
       -0.1806976 -0.072103 -0.14974883 -0.2198567
000050 06 8d e9 be 78 f8 77 be 88 3d 80 3c 69 61 c0 3c
       -0.45615405 -0.24215877 0.01565434 0.023483949
000060 b6 69 7a 3d 09 b3 33 bd e7 8c 6f bc de 22 5c 3c
       0.06113597 -0.043871913 -0.014620996 0.013436047
000070 1f 9e 31 bc 8f 4e a4 bc 84 b2 a1 3d c9 37 a7 3d
       -0.010840922 -0.02005699 0.07895377 0.08164937
000080 dc 13 80 3c 95 7e 07 3d 21 b4 51 3d fe 98 35 bd
       0.01563447 0.033079702 0.051197175 -0.044335358
000090 e8 22 23 bd 1b 97 3e be a4 36 05 be 75 44 e3 bd
       -0.03982821 -0.1861233 -0.13009125 -0.110970415
0000a0 c1 ee 85 ba b8 95 6d 3d f5 e6 88 3d ca 07 5b 3d
       -0.0010218249 0.05800411 0.066846766 0.053474225
0000b0 d4 4f fc 3c 90 50 17 3d f0 c2 51 3d cb 7b 71 bc
       0.030799784 0.036942065 0.051211298 -0.014738987
0000c0 af 91 d7 3c c2 b8 12 3c e8 fa 92 bd 18 16 11 bd
       0.026314585 0.0089551825 -0.07176763 -0.03542146
0000d0 5e 79 a2 bd ce 88 64 bc 11 db c9 bc 71 37 bd bd
       -0.07933305 -0.013948632 -0.024640592 -0.0923909
0000e0 67 7d c2 bd 0b db ec bd 3e 84 a9 bd 2e 13 e6 bd
       -0.09496575 -0.11565217 -0.08277176 -0.11234127
0000f0 e2 c2 0d bc 54 ca 3d bd f9 b2 f0 bd fa da bc bd
       -0.008652421 -0.046335533 -0.11752886 -0.09221454
000100 b1 ec 22 be 20 57 c9 3c 28 b3 1d 3d a8 73 2f 3d
       -0.15910603 0.024577677 0.038500935 0.042834908
000110 b7 49 79 3d ed 11 e9 3d 69 89 b2 bd 82 4b 04 be
       0.060861316 0.11380372 -0.08717615 -0.12919429
000120 cb 0d d7 bd 2a f8 d3 bd 1f f1 11 be e1 ee ac 3c
       -0.10500678 -0.10350068 -0.14252137 0.02111
000130 ba 49 4b 3d 67 62 02 bd 6f 91 ad 3b 04 5a 60 3c
       0.049630858 -0.031832125 0.005296878 0.013693336
000140 1e a8 74 3d 60 ab ab 3d 0a 85 d7 3c ca 2d a6 3d
       0.05973064 0.083822966 0.026308555 0.08114202
000150 b9 e1 fe 3d 71 3d 2c bd 58 ce 1e bd 85 73 ff 3c
       0.12445397 -0.042050783 -0.038771003 0.031183014
000160 a7 9b 4c bd 92 81 a7 bd 06 9b 23 bc bb 94 74 36
       -0.04995313 -0.081790105 -0.009985691 3.6445406e-06
000170 53 62 84 3c 56 94 06 3d 65 4a 91 ba d3 27 7a 3d
       0.016160166 0.032856308 -0.0011084793 0.061073136
000180 5c d5 a7 3d 7b cb c0 bd 34 e2 da 3c e7 5f 1e bb
       0.08194992 -0.09413811 0.02671919 -0.002416605
000190 da 55 b9 3d 4d 9d f1 3d c2 c5 d5 3d ab 3e 1d 3e
       0.09049578 0.11797581 0.1043811 0.15355937
0001a0 bc bd 32 3e 49 9a 95 3c f1 23 16 3d 47 52 57 bd
       0.1745519 0.018262045 0.03665537 -0.0525687
0001b0 45 a6 a2 bc 3c fc 4f bb 9a 8e bf bc 62 ab 38 bd
       -0.019854674 -0.0031736037 -0.023383427 -0.04508532
0001c0 fb c2 96 bc c5 01 7a bd d8 0d bd bc 3e 1a 7d bd
       -0.01840352 -0.061036844 -0.02307789 -0.061792605
0001d0 d7 6f 2d bd 48 a0 69 bd cc 57 36 bd a2 df 6e bd
       -0.042342987 -0.05703762 -0.044517323 -0.05831874
0001e0 82 fb ad 3d c7 20 2a 3d 69 e9 25 3d 9a c7 5e 3d
       0.08495237 0.041535165 0.0405058 0.054389574
0001f0 9e 32 8e bc 50 8b 1b 3e 11 bf 7b 3d c5 3d f7 bc
       -0.01735812 0.15189862 0.061461512 -0.030180821
000200 29 a5 29 bd 93 e0 2b bd f6 af a7 3d f8 3e f4 3c
       -0.041417275 -0.041962218 0.08187859 0.029815182
000210 75 c5 8a bc d9 6a 1b bd 0e 96 14 bd e1 93 a4 bd
       -0.016939858 -0.037943695 -0.036275916 -0.08036018
000220 96 12 ef bd ce 44 04 be 9a d1 b3 bd 78 14 f3 bd
       -0.11673467 -0.12916872 -0.08780213 -0.118691385
000230 55 28 11 bc a9 a8 82 bd a7 be 77 bd 1d 48 4a 3d
       -0.008859714 -0.063798256 -0.060484555 0.04938518
000240 94 b6 2e 3e 27 0f e2 be 14 41 23 3e 29 5b 95 be
       0.17061836 -0.44152185 0.15942794 -0.29171112
000250 f5 31 da 3c ad f8 5d bd fd 8c 02 3d 3b 33 5a 3d
       0.02663515 -0.054192234 0.03187274 0.053271513
000260 ae fd f3 3d c8 c6 54 3d 6a 5e 32 3d cd 31 27 bd
       0.1191362 0.051947385 0.04354707 -0.040818978
000270 fb 30 b6 bc e0 60 70 bd 12 67 90 bd e1 29 0b bd
       -0.022240153 -0.058686137 -0.07050909 -0.033975486
000280 c1 97 a6 bd a4 12 9a 3c 0c 4a e4 3a 5e e6 ba 3d
       -0.081344135 0.018807717 0.0017417087 0.0912597
000290 83 f4 69 3d be b4 9c 3c a4 03 b2 3a 8e bf 63 3c
       0.05711795 0.019129153 0.0013581407 0.013900651
0002a0 a3 c8 82 38 0d c2 e6 3c 9a 93 58 3e bc a1 a3 3d
       6.2362546e-05 0.028168702 0.21150056 0.07989833
0002b0 99 79 4f 3e d8 4f 8e 3d 96 84 a7 3d f2 00 0a be
       0.2026123 0.06948823 0.08179586 -0.13476923
0002c0 f8 07 01 be 25 70 30 be 6e 52 01 be 1a b1 1b be
       -0.12600696 -0.1723028 -0.126291 -0.15204278
0002d0 45 0a 70 bc 5f dc a2 bb 49 dd 77 bc 48 40 31 3b
       -0.014650886 -0.004970118 -0.015128442 0.0027046371
0002e0 f4 f7 78 bc 6b 82 3b bd c2 c8 3b bd 43 74 af bc
       -0.015195835 -0.045778673 -0.045845754 -0.021417743
0002f0 81 6d 33 bc 96 1b 31 bd a2 42 46 3e 63 7b 21 3e
       -0.010951401 -0.0432392 0.19361356 0.15769725
000300 3f 2e c8 3c 07 97 60 3d 32 43 0a 3e 5d f3 1b 3e
       0.024436114 0.05483153 0.13502195 0.15229554
000310 3a e6 78 3e 93 1f dc bd d8 92 21 3d 97 7b 48 3a
       0.24306574 -0.1074821 0.03944668 0.0007647811
000320 87 af 2d 3f 15 37 f2 be 88 90 b5 bd 7a 6a ea bc
       0.6784596 -0.4730765 -0.08865458 -0.028615225
000330 37 77 71 be 0f a3 53 be 7e b4 7d bd 6e 34 2f 3e
       -0.23580633 -0.2066767 -0.06193971 0.17109844
000340 f2 e2 89 3d dd 14 17 ba ee 2d e8 bd 94 ed 23 bd
       0.067327395 -0.0005763302 -0.113368854 -0.040021494
000350 9e 0b 37 bd 2a 09 86 bd 59 b3 6f bd 72 2b 2c 3e
       -0.044688813 -0.06544717 -0.05852065 0.16813448
000360 3f d9 51 be cb 0d 88 3f f5 9f 99 be fb c1 ec be
       -0.20493029 1.0629209 -0.3000485 -0.46241745
000370 14 fe 38 be 42 23 0e be 77 07 4c bd c5 9e cf bc
       -0.18065673 -0.13880637 -0.049811807 -0.025344262
000380 5a cd e7 bc 1f 60 aa bd 03 c7 09 be b1 4f 21 be
       -0.028296161 -0.08319115 -0.13454823 -0.15753056
000390 2a 04 fa bd cd 87 1b be a4 8c ad 3d 9e cb 83 3d
       -0.122078255 -0.15188523 0.08474091 0.06435321
0003a0 e3 7b 14 3c 7c 36 0f 3d f6 74 6e 3d 6c 43 9b bc
       0.00906274 0.03496407 0.05821701 -0.018953048
0003b0 aa 1b a4 ba 86 70 68 3c 77 4d ce bb 90 e2 06 bd
       -0.0012520452 0.014186984 -0.0062958556 -0.03293091
0003c0 71 84 a6 bd 25 f3 d8 bd 94 21 04 be 9d cd c1 bd
       -0.0813073 -0.10593251 -0.12903434 -0.09463046
0003d0 4a 9b 07 be 60 df f7 3e 74 e5 89 be ec 14 8d 3e
       -0.13242832 0.4841261 -0.2693287 0.27555025
0003e0 bf a8 e1 bc f4 7e 10 be 8e 05 70 3e be 96 a2 3e
       -0.027546285 -0.14110929 0.23439619 0.31755632
0003f0 55 79 1e 3e 58 2b 1e 3e 90 2d 3c 3e 09 62 33 bd
       0.15475972 0.15446222 0.18376756 -0.043794665

encoder.block1.convblock2.0.pointwise_conv.weight f4 [64, 64, 1]
000000 af 17 95 bd 9c c1 2a bc 90 69 03 3c 2a 31 9a 3d
       -0.07279908 -0.010422137 0.0080207735 0.075289086
000010 31 39 ea 3d 79 96 ec 3b e8 95 4b 3d 6d bc 64 3c
       0.1143669 0.007220086 0.04970351 0.01396094
000020 a9 88 d5 bd 1e 6a 98 3a 21 cb 90 bb ca 7c 92 3c
       -0.104264565 0.0011628305 -0.004418746 0.01788177
000030 3d 83 1b ba 2f bc 30 3c 71 24 42 3b 98 ab be bd
       -0.0005932337 0.010787054 0.0029623772 -0.09310073
000040 f1 16 cf 3c 25 fe e6 3c 5c 8f ce bd 47 fb 0a bc
       0.025279494 0.028197357 -0.100859374 -0.008482761
000050 04 6f 71 bd 54 20 25 bc 14 17 23 3d 33 34 cd 3d
       -0.058943763 -0.010078508 0.03981693 0.10019722
000060 fa 83 12 3c f3 2a bb 3d 6f 69 19 bc 49 b7 ac 3d
       0.0089425985 0.09139051 -0.009363516 0.08433396
000070 ce aa 0d bd b6 b8 e7 3c a5 ad fa bc 82 7d f7 3c
       -0.03458672 0.02828632 -0.030600378 0.030211214
000080 4f 2a 10 bc d9 dd 6c 3a c2 fd 42 3c 75 bb 95 3d
       -0.00879915 0.00090357434 0.011901321 0.07311145
000090 b4 b1 67 bb 1e 9c 94 bc 58 7e 32 be a2 0d b5 bc
       -0.0035353722 -0.018140849 -0.17431009 -0.022101227
0000a0 68 bc 0e 3e 0c f3 f0 3d af 3c c7 bd 70 a0 af ba
       0.13939059 0.117651075 -0.09728371 -0.0013399255
0000b0 8e d3 ad 3c 84 bf fa 3d 34 08 a9 bd 33 b3 dc bc
       0.021219041 0.1224356 -0.08253518 -0.026940918
0000c0 5c cd 8f 3d 27 02 92 bd c1 fe e5 bd e0 c7 f7 3c
       0.07021591 -0.07129317 -0.11230231 0.030246675
0000d0 98 42 1e 3c 77 71 27 bc fa a5 27 3d 1e ab da 3d
       0.009659432 -0.010219923 0.040929772 0.10677169
0000e0 79 1b ef bc 5d 1f 0f be ae 2f 03 3b 43 18 7e bd
       -0.029187905 -0.13976808 0.0020017433 -0.062034857
0000f0 17 c8 81 bd 0b fe b2 bd 5a 33 05 bd 37 9a e2 bc
       -0.06336992 -0.08739861 -0.032519676 -0.027661426
000100 3c 1e 81 bc b1 17 ed b9 e2 9a 97 bd 79 32 5e bb
       -0.015761487 -0.00045221814 -0.074025884 -0.0033904596
000110 10 60 85 3d 74 71 09 bc cd a6 56 3d 77 f1 35 bd
       0.06512463 -0.008388866 0.052405167 -0.044419732
000120 e0 f4 4e bd 5a 6a a6 3a 2e 66 ed bc fd 12 21 3c
       -0.0505265 0.001269649 -0.028979387 0.009831187
000130 02 4f 1f bd 8c e5 06 3d 26 fa 5d 3c 4f 37 b7 bc
       -0.038893707 0.032933757 0.01354841 -0.02236524
000140 53 6d 29 3c f9 35 71 bc 15 af 4c bd 36 02 d1 ba
       0.010341006 -0.014722341 -0.04997166 -0.0015946093
000150 26 89 36 3c 50 86 ff bc 20 2b a1 bc 4a 0c 6f 3d
       0.011141097 -0.031191975 -0.019673884 0.05836133
000160 30 c8 25 bc b2 62 d1 3b 86 56 b1 bc 71 10 40 3d
       -0.010118529 0.006389939 -0.021647703 0.04689068
000170 69 fb 39 bc 0c 22 c4 bb e3 08 7b bc 89 af 8f 3b
       -0.011351445 -0.005985504 -0.015321943 0.004384939
000180 48 8a 14 3d 29 9c 31 bd 3b 50 e4 bc 4b 11 04 3d
       0.036264688 -0.043361817 -0.027870288 0.032243054
000190 ff 19 d7 3b ac a9 85 3b 87 0c 92 bd 3e c8 de 39
       0.0065643783 0.0040790644 -0.07131296 0.00042492332
0001a0 c5 b5 5f 3d 94 84 86 3d 90 43 73 bd 49 61 ed bb
       0.05461671 0.06568256 -0.059390604 -0.0072442633
0001b0 c6 29 11 3d 07 cc 4e 3d df 1c f7 bc 0b b7 b8 bc
       0.03544023 0.050487544 -0.030165134 -0.02254822
0001c0 01 e0 1a 3c b7 5a 18 bd 62 13 f5 bc 9f 49 89 bc
       0.009452821 -0.037195887 -0.029916469 -0.016758738
0001d0 5c 4b 9a b9 29 44 4b 3d ce f9 7a 3c e2 e4 39 3c
       -0.00029429316 0.04962555 0.015318347 0.011346074
0001e0 78 5b c0 3c c0 81 5e bd 29 9a 6d b9 17 c2 c5 bb
       0.023481116 -0.054322958 -0.0002265951 -0.0060351
0001f0 8d b9 04 bc ff 42 62 3c 1f 85 d8 b8 75 5c 1e bc
       -0.008100879 0.013809918 -0.00010324478 -0.009665598
000200 92 57 73 3c df d6 22 3b 3c 70 1b 3b fe d5 6e bd
       0.014852421 0.0024847311 0.002371802 -0.058309548
000210 90 8d 2d bc 09 99 73 bb ff ac 36 bb 21 a3 5e 3c
       -0.010592833 -0.0037170073 -0.002787411 0.013588698
000220 31 e5 6a 3d a0 3f 93 3b 1b b6 e5 ba 9d d7 c1 3c
       0.05734748 0.0044936687 -0.0017525585 0.023662383
000230 17 95 90 3d 1e d6 fd bc cf 00 d2 3c 53 dc 91 3c
       0.07059687 -0.030985888 0.025635151 0.017805254
000240 94 79 c2 3c 94 94 8d bc c0 1e 97 3c ce 8f 5a 3b
       0.023739614 -0.017282762 0.01844728 0.0033349874
000250 36 b3 51 3d 24 2d 40 3a be 30 de 39 f8 4a b8 ba
       0.0511963 0.0007330945 0.00042379455 -0.0014060428
000260 f8 a2 53 3d d1 f3 b9 bc fd 6a 36 bb ba 8b fa bc
       0.05166909 -0.022699269 -0.0027834766 -0.030584205
000270 bc 23 1e 3c 47 5e 09 3d 28 4c bf 3c 6f c3 79 bc
       0.009652074 0.033537176 0.023351744 -0.015244349
000280 91 d8 cc 3c 61 37 89 3b 2a 20 32 bc 22 e0 53 bd
       0.02500561 0.00418751 -0.010871926 -0.05172742
000290 e7 5f c1 ba 17 2b 14 3c 76 eb 36 3d 8e 4b 12 3c
       -0.0014753313 0.009043477 0.044658147 0.008929146
0002a0 3f 82 61 bc 55 5f c4 bc ac a8 c7 3c e1 58 82 bb
       -0.013763963 -0.02397124 0.024372421 -0.0039778803
0002b0 dd b8 45 bc 82 9b a2 bd c2 8e ba 39 87 e6 09 3c
       -0.012068001 -0.07939817 0.00035583047 0.008416778
0002c0 05 c6 12 bd 34 0a 7c 3c 58 57 07 3c c2 77 dd 3b
       -0.035833377 0.015383292 0.0082605705 0.006758661
0002d0 29 e1 e5 bb b1 3e 78 bb c3 31 11 bc 1d b4 72 ba
       -0.0070153666 -0.0037879164 -0.008861962 -0.00092584064
0002e0 50 dd 64 bd a4 37 a0 3c ac 86 74 bb bb 54 22 3d
       -0.055875123 0.019557782 -0.0037311716 0.039631587
0002f0 e8 16 88 3c fa b4 53 3d 37 99 c0 3c cb 93 22 bb
       0.016612485 0.051686265 0.023510559 -0.002480733
000300 fc fa 53 3c 78 0d 5e bc 22 22 87 3d 0a 3f a8 bc
       0.012938257 -0.013553016 0.06598307 -0.020537872
000310 e6 92 76 3d 5d b8 0a bc 49 b3 fa 3c cb 7e a4 bc
       0.060198687 -0.008466807 0.030603068 -0.02007999
000320 39 49 fb bc 2e d2 16 bc 70 15 53 bc ca 3d d8 3c
       -0.030674564 -0.009205384 -0.012883529 0.02639665
000330 0e df 56 bb c8 f5 ff 3b 6a 01 92 3b e7 e2 09 bc
       -0.003278676 0.007811282 0.004455735 -0.008415914
000340 1e 1a 79 3c 83 ee 9d bc 8f e8 e6 bc 55 8d 9e 3c
       0.015203981 -0.01927877 -0.028187064 0.019354502
000350 36 05 c3 ba 24 f1 97 bb e1 21 93 bc cc 1d a7 3c
       -0.0014878872 -0.0046369005 -0.01796049 0.02039995
000360 2b a5 b4 3c 3d 67 8b 3c 41 8f 70 bd 54 db 04 3d
       0.022051414 0.017017001 -0.058730368 0.03243573
000370 90 3a d8 bb 54 0d 93 3b 8c 42 28 bc 82 d1 0f 3c
       -0.006598778 0.004487673 -0.010269772 0.008777978
000380 12 93 b7 3c c9 b3 14 3b 1b 3e a6 bc c1 b8 c4 3c
       0.022408996 0.0022690168 -0.020293286 0.024013879
000390 cb 64 8f 3a a9 06 67 3c a3 83 bb bc 4f 56 08 3d
       0.0010940073 0.014100709 -0.022889918 0.033285435
0003a0 08 46 ca bc 2f dd 17 3d d0 c1 0c bd ba ff 34 bc
       -0.024691597 0.03707617 -0.03436452 -0.011047298
0003b0 22 3e 01 3d 3e 49 1e 3d 0b 03 6b bb a7 96 a9 bc
       0.031553395 0.038644068 -0.0035859968 -0.02070172
0003c0 0b c3 97 3c 87 58 2f bd df 4b 98 bc 3a dd d2 3b
       0.01852562 -0.042809036 -0.018590866 0.0064350637
0003d0 86 e5 66 bc a0 1b 48 bd 28 f3 8d 3a 54 5f 85 3c
       -0.014092809 -0.04885447 0.0010829912 0.016280808
0003e0 a0 36 f1 bc 80 b8 f3 bc 91 f4 92 3b a3 aa 2b bb
       -0.029444993 -0.029751062 0.004484721 -0.0026194237
0003f0 65 ce 1a 3d b1 0b b6 3b 5c 00 db bc 66 d9 a0 3c
       0.03779449 0.005555593 -0.02673357 0.019634914

encoder.block1.convblock2.1.weight f4 [64]
000000 eb 9e a3 3e 1d 0f 69 3e b0 14 3c 3e 6a 65 f0 3d
       0.31957182 0.22759672 0.18367267 0.11738093
000010 1f 99 6b 3e e7 7f c8 3e 0d 4c fa 3d b0 b1 0a 3e
       0.2300763 0.39160082 0.12221537 0.13544345
000020 52 7b 25 3d 2c 6d 00 3e 52 c9 1e 3f 29 1f b7 3e
       0.04040081 0.12541646 0.6202594 0.3576596
000030 da 6e fb 3e 00 b8 2a 3d 50 7b ce 3d 57 6b cc 3e
       0.4910801 0.041679382 0.10082114 0.39925644
000040 3b 1b 85 3d 3c e0 2c 3f 17 b4 f0 3d 0f d5 34 3f
       0.064993344 0.67529655 0.117530994 0.706376
000050 0a 93 b4 3d 2d 3c ea 3e 92 09 f0 3d 8a d6 51 3d
       0.08817108 0.45749035 0.117205754 0.05122999
000060 32 ff 2d 3f 02 7d 4a 3f aa cd 26 3e 94 dd 82 3e
       0.6796752 0.79096997 0.16289392 0.25559676
000070 91 53 e5 3d 33 5e 4a 3d ac d6 62 3e 50 cb 35 3f
       0.1119758 0.04940624 0.22152203 0.71013355
000080 c2 05 41 3d f0 ad 36 3d 5c 47 68 3d 45 59 b1 3d
       0.04712463 0.044599473 0.05670868 0.08659605
000090 73 2e 44 3e ee bf c7 3d 9b 1f 93 3f 3a a8 14 3d
       0.19158344 0.097534046 1.149402 0.036293246
0000a0 9a 91 bd 3d c5 99 56 3e 2b ea f0 3d bc b1 69 3e
       0.09256287 0.20957096 0.11763414 0.22821707
0000b0 67 91 83 3e 04 8f 42 3d 6f 7e 99 3e 24 73 a9 3d
       0.2569687 0.04749967 0.29979274 0.082739145
0000c0 3e 11 87 3f 87 0c be 3d e6 bf 81 3e d8 69 b3 3e
       1.0552137 0.09279733 0.2534172 0.3504169
0000d0 07 6f 84 3e 2a 0e f3 3e 23 2e a0 3e 22 af 4c 3f
       0.25865957 0.47471744 0.312852 0.7995473
0000e0 68 aa 23 3d 32 67 cb 3d f6 16 0f 3e 5c 76 df 3e
       0.039957434 0.09931792 0.13973603 0.4364499
0000f0 e6 9a 27 3e 17 ee 88 3e b7 94 3b 3f ef 78 04 3e
       0.16367683 0.26744148 0.73273796 0.12936758

encoder.block1.convblock2.1.bias f4 [64]
000000 33 17 dd be 2b 77 0d be a6 bb de bc 81 d6 df bd
       -0.43181762 -0.1381499 -0.027189087 -0.10929585
000010 19 b7 97 bd d6 99 73 be 76 54 81 bd 55 fa a6 ba
       -0.0740797 -0.23789153 -0.06314938 -0.00127394
000020 75 89 41 bc 27 a8 55 be 0a f6 ad bd 7e 3b b4 be
       -0.0118125575 -0.20864926 -0.08494194 -0.3520164
000030 4a 88 99 be ec c4 08 bc 93 b5 85 bd f9 05 59 be
       -0.29986793 -0.008347731 -0.06528773 -0.21193685
000040 9c b3 a6 3b 4f 2d a4 bd f1 4a f7 39 d3 62 8e bd
       0.005087329 -0.080164544 0.00047167347 -0.06952443
000050 e6 f1 56 3c b3 8e 67 3e 05 65 a6 be 7c b9 6f ba
       0.0131191965 0.22613029 -0.32498947 -0.0009144766
000060 6c d2 da bd ac fd 95 bd 42 d6 8f bd 8e df 68 be
       -0.10684666 -0.07323775 -0.07023288 -0.2274153
000070 4d 2b 8f 3b 80 e4 fe 3b 26 8b b4 3d 66 5e d4 bd
       0.0043691755 0.007778704 0.08815603 -0.103695676
000080 d1 1c a6 bc 1f b3 d9 ba bf 7c 6e bd 54 e0 ec ba
       -0.020277413 -0.0016609168 -0.058224436 -0.0018072226
000090 81 f5 ad be 9c ce 82 bd 82 22 41 bf 8d c3 0d bb
       -0.33976367 -0.06387064 -0.7544328 -0.002163145
0000a0 55 1c 85 bc 58 c1 86 be 07 b8 a0 ba 6b 48 25 be
       -0.016248861 -0.26319385 -0.0012261876 -0.16140907
0000b0 d7 25 11 be a0 d0 5a ba 1a 19 a9 bd 44 c4 3b 3c
       -0.14174591 -0.00083471276 -0.08256741 0.011460368
0000c0 b1 6e ff bd 18 00 b5 3c 10 8c 9c be ef 44 b0 be
       -0.124722846 0.022094771 -0.3057561 -0.34427592
0000d0 d1 f0 ed be f4 57 77 be d4 fb bd bd 0f 87 af bd
       -0.4647279 -0.24154645 -0.09276548 -0.08570682
0000e0 e6 4b 2a bd 83 da e8 bc 5b 83 e5 3c af 84 13 be
       -0.04157629 -0.028424507 0.028016737 -0.14406084
0000f0 cf f7 ca bd 72 25 31 be 10 05 ee bd e9 0e 9d 3b
       -0.09910547 -0.1729944 -0.11622059 0.004793037

encoder.block1.convblock2.1.running_mean f4 [64]
000000 a4 8e a6 bd ec a0 a2 bd a6 e8 2d 3c 8f 0d d0 3c
       -0.08132675 -0.0794085 0.01061455 0.02539709
000010 5b e2 2f be b8 9a c3 3d bc c3 a1 bd aa ae 94 3c
       -0.17176192 0.09550995 -0.078986615 0.018149693
000020 74 bf 41 ba c2 05 d4 bc 27 b0 17 be b6 50 83 bd
       -0.00073908945 -0.025881652 -0.1481329 -0.06411879
000030 0a 09 ce 3d f4 5f 0b 3b ee 63 35 3c 48 08 28 bd
       0.10060318 0.002126691 0.011071188 -0.041023523
000040 0c 58 0a 3c b2 4b 44 3d 71 13 12 bd 96 a3 8f bd
       0.008443844 0.04792375 -0.035663072 -0.070136234
000050 38 e2 18 bd 38 5e ba 3b 91 4d b0 bc 03 b3 04 3c
       -0.037325114 0.0056875013 -0.021521362 0.00809932
000060 da e9 2b 3e ce 10 10 3e ee 22 a2 3c a2 1a 90 3d
       0.16788426 0.1406891 0.019792046 0.0703633
000070 85 04 6a bd ef c3 c2 3b b6 f6 05 3d f4 fd 72 bd
       -0.057133216 0.0059437673 0.032705985 -0.05932422
000080 18 0b e6 3a 67 25 0c bb 3f b0 c0 3b 37 e3 a4 3c
       0.0017550914 -0.0021384598 0.005880385 0.020127876
000090 02 a9 59 bd a1 0c a5 3c b9 37 b3 bd bd b5 c2 bb
       -0.053139694 0.020147623 -0.08750863 -0.005942075
0000a0 05 85 81 3c 83 c8 e6 bc 5e 6c b2 3c 46 77 90 bc
       0.015810499 -0.028171783 0.02178019 -0.017634999
0000b0 af 32 98 bd 42 79 4a 3b 36 9a 48 be 48 09 93 bc
       -0.07431542 0.003089503 -0.19590077 -0.017948762
0000c0 e5 b8 cf bd ac 0e fb 3b 88 46 63 bd df f6 94 bd
       -0.10142688 0.007661661 -0.055487186 -0.072736494
0000d0 02 a0 41 bd f7 48 30 3c 5d 37 8f bc e4 e6 ea 3c
       -0.047271736 0.010759584 -0.017482454 0.02867455
0000e0 63 a5 4e 3a 3d a1 32 bd c2 5c 1c 3c ec e6 5e be
       0.0007882921 -0.0436108 0.0095436 -0.21767777
0000f0 4c c7 1b 3c 69 61 c4 3c 82 36 0e be 9d 57 77 bd
       0.009507965 0.02397223 -0.1388798 -0.06038629

encoder.block1.convblock2.1.running_var f4 [64]
000000 18 52 b3 3c 05 b9 59 3a 01 73 95 3b 2a 48 65 3a
       0.021889731 0.0008305463 0.0045608287 0.000874641
000010 14 55 0e 3a 9f d2 8c 3a 32 02 1d 3a 9a c4 60 39
       0.0005429548 0.0010743922 0.0005989402 0.00021435544
000020 f9 a9 73 38 2b 21 dc 3b a4 28 7f 3c d9 b4 82 3b
       5.8094014e-05 0.006717821 0.015573654 0.003988844
000030 5c 3d 5e 3b 7e e2 6c 37 fa 2d 84 3a 36 72 ea 3a
       0.0033911085 1.41194305e-05 0.0010084503 0.0017886821
000040 b5 80 ed 38 15 8f b1 3c a6 60 6d 3a e1 7f 37 3d
       0.00011325014 0.021674672 0.0009055234 0.04479969
000050 a5 05 a1 37 a5 34 58 3c 64 8d 0f 3a 7c a7 cb 38
       1.9195324e-05 0.013196145 0.0005476086 9.710991e-05
000060 e9 0c dc 3c f5 53 72 3d af a9 a5 39 0b 60 9e 3b
       0.026861625 0.0591621 0.00031597677 0.0048332266
000070 ec 90 c0 37 ec 7c 2a 38 e4 93 d2 3b 19 be 76 3d
       2.2955668e-05 4.06475e-05 0.0064263213 0.060239885
000080 34 02 a5 38 22 b9 6a 36 b5 42 82 37 e3 a3 93 3a
       7.8682235e-05 3.4976479e-06 1.552827e-05 0.0011264052
000090 28 80 61 3c 05 cc 96 3a 45 4b 15 3c 75 bb f7 37
       0.013763465 0.0011504894 0.009112184 2.9531986e-05
0000a0 fe 54 02 3a 0f 40 e8 39 e3 46 38 3a e0 e5 af 3b
       0.0004971771 0.00044298216 0.0007029606 0.0053679794
0000b0 11 3f 02 3c 54 32 96 37 ef a0 9e 3a 91 e0 f7 38
       0.0079496065 1.790483e-05 0.0012102405 0.000118197066
0000c0 60 32 9f 3d 32 6a 8e 39 c3 ea 7b 3b 43 73 e0 3b
       0.0777328 0.00027163472 0.003843949 0.006849678
0000d0 79 be 18 3c 00 13 8f 3b a3 ce 20 3a 25 22 1d 3d
       0.009322756 0.0043662786 0.0006134307 0.03836264
0000e0 19 1b 43 37 9f 4a a6 37 64 26 2b 3a 0b 2d a9 3a
       1.1629215e-05 1.982349e-05 0.0006528853 0.0012907101
0000f0 ab aa 55 3b 18 ee dc 39 a5 90 1e 3c 87 31 10 39
       0.0032602947 0.00042139064 0.009678041 0.0001375136

encoder.block1.convblock3.0.depthwise_conv.weight f4 [64, 1, 3]
000000 db b0 99 3d 76 c5 d6 3d 6c 1a 00 3e 62 30 33 bd
       0.07504436 0.104868814 0.12510079 -0.043747313
000010 ba 3e 82 bd 58 53 b8 3b ad 9f b8 bd 6e 8f cc bd
       -0.063596204 0.0056251697 -0.09014831 -0.099882945
000020 80 b0 ac bd 26 a0 74 3d 9b 38 bb 3c 05 7d 87 3d
       -0.08432102 0.059723042 0.02285414 0.066156425
000030 11 96 99 3d 1d 19 c2 bd 87 4b 2e be eb 3c 47 3e
       0.07499326 -0.09477446 -0.17020999 0.19456832
000040 bf 17 64 3e dc 77 6a 3e 13 fe ca bc 29 b7 81 bd
       0.22274683 0.22897285 -0.024779355 -0.06333763
000050 d7 7e 8d bd 15 55 77 bd 51 59 33 bd 8c 25 d2 bd
       -0.069089584 -0.060383875 -0.04378635 -0.10261068
000060 36 c8 35 bc 8e 0b 98 3c 40 7a b2 bc 17 2f 74 3d
       -0.011095097 0.018560197 -0.021786809 0.05961522
000070 b9 22 bd 3d 79 f7 db 3d 73 b2 57 3e 20 d2 21 3e
       0.092351384 0.10740561 0.21064167 0.15802813
000080 68 3e 9b 3e e1 b9 5c bd 05 ac 97 ba 3b 8b 97 3d
       0.3032105 -0.053888205 -0.0011571652 0.07399603
000090 4c f1 72 3e 6d 55 6d 3e 23 ae 90 3e 7e 00 ac 3c
       0.2372486 0.23177119 0.28257856 0.020996328
0000a0 cf c5 0c bd c9 7f 37 3c ac e9 02 bd 24 1e eb bb
       -0.034368332 0.0111999 -0.031961128 -0.007175224
0000b0 1c 4c 1f bd b2 04 c8 bd 68 33 21 be 13 62 5f be
       -0.038890943 -0.097665206 -0.15742266 -0.21814756
0000c0 06 f6 32 bc 6d 0d 11 bd 14 0f 06 bd 89 99 c9 3e
       -0.010922914 -0.035413194 -0.032729223 0.3937495
0000d0 8d e4 24 bf eb 21 f9 bd 8f 14 ca bc 9d 9c 95 3d
       -0.6441124 -0.121646725 -0.024668006 0.07305262
0000e0 81 45 a5 3d 73 2f ce 3e ef 1d 8b 3e ec f9 39 bf
       0.080698974 0.40270576 0.27171275 -0.72646976
0000f0 86 b8 99 bd 04 f6 3a 3d 28 7c 7c bb 7c d0 d0 bd
       -0.07505898 0.045644775 -0.0038526151 -0.10196015
000100 b5 16 29 bd f4 f7 a7 3d bf 9b 8f bd db 79 80 bd
       -0.04128142 0.0820159 -0.07012128 -0.06273242
000110 f5 c4 f8 bd 71 13 c6 bc 88 44 e4 bc 8d cf 95 bc
       -0.121469416 -0.024179192 -0.02786471 -0.018287444
000120 07 b9 27 3f 03 4a b1 bd c8 2e 35 3d 58 27 aa be
       0.65516704 -0.08656695 0.044234067 -0.33233142
000130 dc 4e 9b bd 36 62 04 bf 91 d9 aa bd c8 c0 c2 bd
       -0.075834006 -0.5171236 -0.08342279 -0.09509426
000140 49 41 b9 bd 85 da 04 be e8 92 60 3e f8 b6 a3 3d
       -0.09045655 -0.12973984 0.2193104 0.07993883
000150 92 20 8a bd 03 7f 81 3d c0 d4 71 3d bf 91 26 bd
       -0.067444935 0.06323054 0.059040785 -0.040666338
000160 31 fb 1d bc fa a9 1a 3c 27 0d fd bd 03 09 f8 bd
       -0.009642408 0.00943994 -0.12356024 -0.12111094
000170 4e 22 d7 bd 59 0e 53 3f d8 8f 20 bd 33 6e cb be
       -0.1050459 0.8244377 -0.03919968 -0.39732513
000180 4f 53 0d bc 46 5b 81 bc 2b 04 de 3c dc 50 be 3b
       -0.008625819 -0.015790593 0.027101597 0.005807979
000190 b9 8c a4 ba 4e 68 2a 3b 74 d3 ce 3c cb 99 9f 3c
       -0.0012554146 0.0026002112 0.025247313 0.019482514
0001a0 99 37 0a 3d cc 67 fd 3b ff c5 c1 3c 57 84 a5 3d
       0.03374443 0.007733321 0.023653982 0.080818824
0001b0 b1 b8 d8 bd 91 04 c4 bd 3a 80 09 be a7 e4 f4 bb
       -0.10582102 -0.095711835 -0.13427821 -0.0074735465
0001c0 78 f2 77 bd 93 9e 68 bd f9 42 b2 bd 74 03 17 be
       -0.06053397 -0.056791853 -0.0870418 -0.14747411
0001d0 a5 51 76 be 20 8f 4d 3b e9 3d ea 3a 47 a9 2b bc
       -0.24054582 0.0031365827 0.0017871234 -0.010477371
0001e0 fc b6 10 bd b9 9b 4e bd 47 de 48 bd 51 88 06 3e
       -0.035330757 -0.050441477 -0.049040105 0.13137938
0001f0 e4 56 f5 3d eb f3 0f 3e 6b 1d 50 3d f7 ef b7 bd
       0.11979464 0.14057891 0.050809305 -0.089813165
000200 b7 70 81 3d f7 e1 05 3d 72 85 be 3d 91 83 ba 3d
       0.06320327 0.0326862 0.093027964 0.091071256
000210 87 83 0e be e1 a6 e8 bd d6 3d e3 bd 02 99 bb bb
       -0.13917361 -0.113599546 -0.11095779 -0.005725027
000220 6c bc a0 3c ff f5 f0 3b 20 5a 8d be ab 51 9b bd
       0.019621097 0.007353544 -0.27607822 -0.07583936
000230 83 ef ae bd 24 72 21 bc e9 ec 23 3d 65 ce 8a 3d
       -0.08541777 -0.009853873 0.040020857 0.06777648
000240 6c 9c db 3e 78 19 17 3d d7 91 71 3e 36 23 2c bd
       0.42892778 0.036889523 0.2359079 -0.042025767
000250 b7 50 7d bd 8f 1b 3f bd 07 49 51 3d 89 63 aa 3d
       -0.061844554 -0.04665714 0.051095035 0.08319766
000260 9c ed ce 3d db 0f 11 be 40 ee 19 be 41 32 4e be
       0.10103914 -0.14166205 -0.15032291 -0.20136358
000270 92 83 a8 bd f2 39 a7 bd cb 32 19 be 82 2c 22 be
       -0.0822822 -0.08165349 -0.14960782 -0.15837291
000280 ad f7 80 be 44 13 ab be a6 97 df 3d 5a 6c c9 3d
       -0.25188962 -0.33413136 0.109175965 0.098351195
000290 f0 eb 4b 3e 8a 98 1e 3e 15 eb c7 bd 09 22 0d 3f
       0.19914222 0.15487877 -0.09761635 0.5513006
0002a0 85 24 b9 ba 83 8c 90 3c 24 ec 17 3d af 9e 81 3d
       -0.0014125264 0.017645126 0.037090436 0.063290946
0002b0 65 1e 5e bc 39 c3 a5 bd 1a 50 ac bd b2 79 be bd
       -0.013557051 -0.080938764 -0.08413716 -0.09300555
0002c0 e1 42 2e bd ce 7c 2c 3e 23 7a 11 3d 15 b6 50 3e
       -0.04254425 0.16844484 0.03551687 0.20381959
0002d0 ff 86 7a bd b6 b2 b3 bd ef 6e e9 bd 2b 3b 32 be
       -0.0611639 -0.08774321 -0.11398112 -0.17405383
0002e0 64 26 27 be a8 67 17 be 8e 06 12 bf 51 61 0d 3f
       -0.16323239 -0.14785635 -0.5704125 0.5522662
0002f0 63 6c 1b bd 9b 4f cc bd 5c a7 58 bd 01 3e 27 bd
       -0.037945163 -0.09976121 -0.05289398 -0.040830616

encoder.block1.convblock3.0.pointwise_conv.weight f4 [64, 64, 1]
000000 05 de b4 bb 3b 04 c0 3b a8 0e 56 3d 17 33 18 3d
       -0.005519631 0.0058598793 0.05226007 0.037158098
000010 73 b9 0b 3d 4a f7 cf bc 8b 54 c6 3c cf e2 44 3d
       0.034112405 -0.025386471 0.024210235 0.048067864
000020 88 2d 94 3b e0 40 f8 bb 1c 3f 58 bb 68 17 5c bd
       0.0045220293 -0.007576093 -0.00329966 -0.05373326
000030 6e 22 f5 bc a5 0e ca ba 35 e9 ac 3c 75 8d b5 3d
       -0.029923644 -0.0015415741 0.021107296 0.088648714
000040 62 bd 60 3c b4 ef ca 3c 03 ef bf bc 50 7c 18 3e
       0.013717027 0.024772502 -0.0234294 0.14891171
000050 b1 e2 dc 3a 1a 67 1c 3d f9 f7 17 3d 2e aa 54 3c
       0.0016852227 0.038184263 0.03710172 0.012980027
000060 28 44 a0 3d e0 4d 88 be 63 c1 8f 3d 56 88 c3 bb
       0.078255 -0.26621914 0.070193075 -0.0059671802
000070 67 0c fb bb 0d bc b3 3b 2e ec e6 3c c5 fe 13 bd
       -0.0076613906 0.005485064 0.028188791 -0.03613164
000080 b6 68 b1 bb 09 d4 85 bb 69 99 6b 3c c7 68 ad bc
       -0.005414094 -0.0040841145 0.014379838 -0.021168126
000090 5c 60 ad 3c 8c 3b fc 3c 0a 26 18 3e f7 22 51 ba
       0.021164112 0.030790113 0.14858261 -0.00079779275
0000a0 29 53 9b 3b 2e 54 3c bb fa 58 07 3d 46 21 1f 3d
       0.004740138 -0.0028736698 0.03304384 0.03885009
0000b0 06 73 28 bc c3 30 df ba 18 31 c5 bc e5 e5 bf bb
       -0.01028133 -0.0017028082 -0.024071261 -0.005856263
0000c0 0b 07 e2 3d c2 fd 3d 3c ec c8 8e bd 69 98 ba 3d
       0.110364996 0.011596145 -0.069719166 0.09111101
0000d0 5c 82 b8 3c 37 67 6b 3d b7 53 7d bd 92 ae 07 bf
       0.022523098 0.05747148 -0.061847415 -0.5300075
0000e0 26 d3 fe 3a fc 95 c6 3b 33 56 56 3c 08 28 b4 bd
       0.0019441589 0.00606036 0.013082075 -0.08796698
0000f0 6e 92 59 3d a3 6e ff 3b 7d 43 55 bd f1 f0 d2 3c
       0.05311816 0.0077951713 -0.052066315 0.025749655
000100 05 8f 71 3c 7d 9f a8 3b fc e5 52 3c fd 29 81 bb
       0.014743571 0.0051459656 0.012872215 -0.003941773
000110 b3 d2 7c bb 9c c5 6a 3c 02 4a c1 3b a6 66 92 3b
       -0.0038577735 0.01432934 0.005898715 0.004467803
000120 36 59 60 3b 87 1a 9e 3b 11 9a 4e 3d 27 66 e2 bb
       0.0034232861 0.0048249396 0.050439898 -0.00690915
000130 69 a0 cc 3c 11 0a ac 3b a8 08 45 bb 92 af 5d 3c
       0.024978833 0.0052502234 -0.0030064974 0.013530629
000140 2b 26 aa bb 9e d9 eb bc 17 ca 45 3b 4c b3 3e bd
       -0.0051925383 -0.028790291 0.003018027 -0.04655771
000150 68 32 52 bc 5d 99 13 3c 41 e0 f3 ba e4 2e 51 bb
       -0.012829401 0.009008733 -0.0018606262 -0.0031918818
000160 1f 7c 62 3c 99 19 f8 3c c1 cf 26 3c 2d 82 24 3c
       0.013823538 0.030285643 0.010181368 0.010040802
000170 11 66 2e bc b9 06 80 bb 1b 57 b7 3a 22 fe 88 bd
       -0.010644452 -0.0039070514 0.0013987751 -0.06689097
000180 3f c2 53 ba 91 d4 0c 39 0e 07 a6 ba a2 49 a5 bb
       -0.0008077956 0.00013430628 -0.0012666897 -0.005044178
000190 80 e9 99 bc f4 89 f6 3b 2a db 80 3d c3 20 40 bb
       -0.0187881 0.0075237695 0.06291802 -0.0029316403
0001a0 e2 c8 73 3a 33 26 7d 3b 96 6b a9 39 c7 a5 93 3b
       0.0009299648 0.0038627505 0.0003231435 0.004505846
0001b0 f7 1d 7f bc 8b 6c 61 ba 05 5d 50 bb e4 69 68 38
       -0.015571109 -0.0008599243 -0.0031793725 5.541173e-05
0001c0 f0 79 89 3d 49 73 b9 3b a6 36 bf bc 1b 37 88 3b
       0.06712711 0.005659495 -0.023341488 0.0041569597
0001d0 71 f9 f1 bb 17 b5 07 bc 95 9b dc 3b 58 c0 46 bd
       -0.007384472 -0.008282921 0.006732414 -0.048523277
0001e0 db d5 a9 b9 c6 ac c6 3a c7 f1 b4 bb 5d 77 ca 3c
       -0.00032393527 0.0015157692 -0.005521986 0.02471512
0001f0 7a 5f 8a 3c 9f 71 2b bc da 99 99 3c f4 c7 dc ba
       0.01689123 -0.010464101 0.01875012 -0.0016844259
000200 83 0f c1 bb 90 cd 2c bb 2d d6 cd 3c 21 1d 44 bb
       -0.0058917417 -0.0026367642 0.025126541 -0.0029924589
000210 21 92 68 bc fa 4b 0c bc c5 4e a9 bb 68 95 34 3c
       -0.014194996 -0.008563036 -0.0051668608 0.011021949
000220 ae 63 7d 3a fb d2 8a bb 6d 42 32 bc 08 33 51 3b
       0.00096660375 -0.0042365766 -0.010880095 0.0031921286
000230 44 53 1d bd c9 fc 44 3b 5b 8d e4 39 22 dd 71 3c
       -0.038409486 0.0030057898 0.00043592867 0.014762195
000240 b5 6d f0 3a f6 a5 47 3e 85 df fd bb 50 09 b3 be
       0.0018343242 0.19496903 -0.007747593 -0.34968042
000250 9d 82 f9 3a f2 53 01 bc fe 7b a8 b9 8b 08 6d bb
       0.0019036118 -0.007893549 -0.00032135838 -0.0036168422
000260 cf f0 c6 3c 55 12 36 bc 68 54 14 3b 4b f9 91 bc
       0.024284748 -0.011112769 0.0022633318 -0.017819067
000270 4b 40 fa 3b e2 db 3c bb c5 53 24 3d 57 01 04 bd
       0.007637059 -0.0028817584 0.04011895 -0.03222784
000280 fe a7 84 3b ad 57 77 bb 5e aa 23 3b 1d 67 b1 bb
       0.0040483465 -0.0037741468 0.0024973373 -0.0054139034
000290 85 8b 64 3c 9d e9 d3 3b bb c1 2c 3c f7 9c f3 3a
       0.01394928 0.006467058 0.010544236 0.0018586208
0002a0 b0 12 23 3c 24 88 ce ba be 47 a0 3c cd ef 01 bc
       0.009953186 -0.0015757126 0.01956546 -0.007930708
0002b0 82 fa 97 3c 84 91 90 bb e1 58 9d 3d 7b 90 00 bc
       0.018552069 -0.004411878 0.07682968 -0.007846947
0002c0 03 a5 13 3c bd a6 f2 3b c8 85 ae bb fe 4a 9a 3c
       0.00901151 0.0074051307 -0.0053260066 0.018834587
0002d0 1f bb 63 3d ef 5d 2a 3d 00 f9 cd bc be f7 06 3d
       0.055598374 0.04159349 -0.025143147 0.03295111
0002e0 5c 4e 8f 3b 4c bf 4a ba d7 46 42 3b 15 e6 59 3b
       0.004373355 -0.0007734194 0.0029644275 0.0033248712
0002f0 9d f1 63 3c 3d 73 12 3c 90 2e d4 bd 4d 74 37 3c
       0.013912586 0.008938608 -0.103604436 0.011197162
000300 cb be 8f bd ac ce 52 3c bd a2 b9 3d 8e fb 48 ba
       -0.07018813 0.012866657 0.09064243 -0.0007666879
000310 a9 59 09 3d c6 70 2a be 04 c3 c0 3b 28 8e 11 3d
       0.033532772 -0.16644582 0.0058826227 0.03553596
000320 c7 19 bd b9 71 96 89 bd f0 94 1b be 4b c1 f3 bb
       -0.00036068095 -0.067181475 -0.15193534 -0.007438814
000330 06 3f 37 be a3 06 18 ba ad 1b 1b 3c c6 b6 20 3d
       -0.17895135 -0.0005799329 0.009467048 0.039236806
000340 a9 3f eb 3b 7f de 4e 3d 70 d3 ff bc ea ca 1f 3b
       0.0071792197 0.050505158 -0.031228751 0.002438242
000350 51 fc 23 3b c8 53 f3 bc db 30 e8 3c c9 73 40 3c
       0.0025022218 -0.029703036 0.028343609 0.011746355
000360 91 2f 77 3d 33 f6 8b be 69 e7 8f 3d 01 9a 00 bc
       0.060348097 -0.27336273 0.0702656 -0.007849217
000370 9f e4 95 3b 46 f3 d9 3a 45 42 f0 3d a3 0b 62 3d
       0.004574373 0.0016628287 0.1173139 0.05518688
000380 92 c0 c0 ba 19 f3 30 3b e0 cc 53 3c 01 73 af bc
       -0.0014705828 0.0027000366 0.012927264 -0.021417143
000390 8b 55 fd 3d 2a 3f 17 3c b1 05 b0 bd e2 1c b1 3a
       0.12369832 0.009231368 -0.085948355 0.0013512636
0003a0 41 04 af 3c 7c 66 a6 bd 0a a6 65 bc 56 15 47 3d
       0.021364333 -0.08125016 -0.014016638 0.048604332
0003b0 c2 80 f4 3d d6 9f e5 ba ad 1f 44 bc a3 a6 80 bc
       0.11938621 -0.0017518948 -0.011970443 -0.015704459
0003c0 34 d7 08 be b5 7d ee 3c 7a ee 85 3b 72 d0 40 3d
       -0.13363343 0.029112676 0.0040872665 0.04707379
0003d0 50 df 00 3e cf de f2 3d db 6f 9c bd d7 53 53 3d
       0.12585187 0.118589036 -0.07638522 0.051593628
0003e0 6f 7f f2 ba a1 6d c2 ba 56 68 43 3d 8a 36 9c bd
       -0.0018501113 -0.0014833697 0.047706924 -0.0762759
0003f0 70 47 b6 3c f7 a3 df 3d 08 b9 b5 3c e2 8d e2 3c
       0.02225086 0.10919946 0.022182956 0.027655546

encoder.block1.convblock3.1.weight f4 [64]
000000 01 69 fa 3e 69 7b 25 3e 81 ea 8d 3e 3d f3 02 3f
       0.48908237 0.16160358 0.27717975 0.511524
000010 5b a2 06 3e 65 d9 e5 3e 02 bb ca 3e 2d de 86 3e
       0.13147871 0.4489242 0.395958 0.26341382
000020 58 d0 a1 3e 2b 78 9e 3e fb 7e bf 3e 12 c8 0e 3f
       0.31604266 0.30951056 0.37401566 0.55774033
000030 91 7e b2 3e c9 28 7e 3e 8e 62 dc 3e 93 c5 2d 3e
       0.34862188 0.24820246 0.4304394 0.169699
000040 b6 dc bc 3d b0 c0 ff 3e 5f f7 b8 3d 4b 3d 1e 3f
       0.09221785 0.49951696 0.09031557 0.61812276
000050 08 4a 6b 3e 85 d5 c2 3e 0c 09 ff 3e 13 05 d2 3e
       0.2297746 0.38053527 0.4981159 0.41019496
000060 f2 08 90 3e 32 2a c4 3e 40 f4 af 3e 09 b0 cf 3e
       0.28131825 0.38313442 0.34366035 0.40563992
000070 af e3 a2 3e e4 e4 a8 3e b2 a9 06 3f e8 69 8d 3e
       0.31814334 0.3298713 0.52602684 0.27619863
000080 e0 a5 b4 3d cb 69 33 3f e3 f6 3d 3e 84 56 23 3e
       0.08820701 0.700833 0.18551211 0.15950972
000090 4f 10 15 3f 42 03 ab 3e b2 78 12 3e e0 30 88 3e
       0.5822801 0.33400923 0.14303854 0.2659979
0000a0 8a 22 54 3e 4d 5d f1 3e 8c 52 3f 3f aa 8d 25 3f
       0.207163 0.47141495 0.7473533 0.6466929
0000b0 bd ba 35 3e c3 84 bd 3e 68 0d 04 3f 1d 24 39 3f
       0.17747016 0.37015352 0.51582956 0.7232073
0000c0 18 d9 11 3f 0c d2 12 3f 7f 00 1c 3f 12 32 06 3e
       0.56971884 0.57351756 0.60938257 0.13105038
0000d0 1e 65 aa 3d 31 0b 45 3f ae d6 a8 3e c8 bf ad 3e
       0.08320068 0.769702 0.32976288 0.3393538
0000e0 df ee 9b 3e c6 cd e5 3e 4a 66 11 3f 90 64 0f 3f
       0.30455682 0.44883555 0.56796706 0.5601282
0000f0 12 22 a1 3e ff e4 a1 3e 4d c0 61 3e 1f d2 3f 3f
       0.31471306 0.31620023 0.22046013 0.74929994

encoder.block1.convblock3.1.bias f4 [64]
000000 b0 67 8b bd c7 04 26 3b 0c 3e 3b bd b1 66 d6 bd
       -0.06806886 0.0025332437 -0.04571347 -0.104688056
000010 83 3a e3 3a 50 10 f2 bc d6 fc 97 bd 0d f6 33 3b
       0.0017336163 -0.029548794 -0.074212715 0.002745989
000020 11 12 a4 bc 43 d8 b5 3c 36 27 0f 3d 7a 30 20 be
       -0.020028146 0.022197848 0.034949504 -0.15643492
000030 d2 38 20 be cb 22 bf 3c 4b ef 9f bc 30 21 00 be
       -0.15646675 0.02333202 -0.019523283 -0.1251266
000040 2a 0e 26 3a bd 01 07 be f3 60 5f bb 5f 0c d5 bd
       0.0006334508 -0.13184257 -0.0034084886 -0.1040275
000050 cb fb 07 bd 84 92 5b bd 5d eb 9f bd bd 56 1f be
       -0.033199113 -0.053606525 -0.07808564 -0.15560432
000060 6a 69 87 bd 8e 90 60 be dc 34 6f bd 7a 41 ed bd
       -0.06611903 -0.21930143 -0.05840002 -0.11584754
000070 16 a7 5d be ea 26 34 bc d2 3f d8 bd 03 0e d4 3d
       -0.2164577 -0.010995606 -0.10559048 0.10354235
000080 2c 48 c9 3b 12 a3 80 be 59 07 ee bd d5 53 89 ba
       0.0061426368 -0.25124413 -0.11622495 -0.0010477254
000090 14 5f 31 be fa 9a d4 bd 89 3a 19 bc 9e 57 ae bd
       -0.17321426 -0.10381122 -0.009352335 -0.085128054
0000a0 ac a1 f4 bd 9f 6c f0 bd 2c 61 07 be bd 46 ad be
       -0.11944899 -0.11739468 -0.13220662 -0.33843032
0000b0 0c 4c d8 bc da 5f 07 bd 47 95 a2 bd c9 2b ba be
       -0.02640345 -0.033050396 -0.07938629 -0.3636153
0000c0 c7 5a 94 be c6 14 dd bd 5d 9d 6e be 17 7a 68 3d
       -0.28975508 -0.10794978 -0.23302217 0.05675706
0000d0 b3 89 9d ba 89 03 a1 be 88 bd 87 3d ef e5 25 be
       -0.0012019187 -0.3144801 0.06627947 -0.16200994
0000e0 18 ea c5 bd b3 3a 85 be 39 49 31 be 50 88 3c be
       -0.096637905 -0.26021346 -0.17313088 -0.18411374
0000f0 b4 2f ec bc 25 98 c1 bd cb 5c 33 3d 2f 4a 9e be
       -0.02883134 -0.094528474 0.043789666 -0.30915973

encoder.block1.convblock3.1.running_mean f4 [64]
000000 81 f6 cd 3b 70 d9 88 3b 84 f1 e0 bb e9 e3 ca ba
       0.006285489 0.004176311 -0.0068647284 -0.00154793
000010 3f 70 83 bb 5d 4f 46 3c c7 57 65 bc 2b ae 49 3b
       -0.0040111835 0.012103883 -0.0139979785 0.0030773978
000020 e4 e7 c7 3a 41 af 75 bc d3 62 03 3c 60 a7 f8 bb
       0.0015251604 -0.014995397 0.008019167 -0.007588312
000030 bd 97 37 bc f5 aa 61 3b a4 3c a3 3c c9 e9 dc 3c
       -0.011205611 0.0034434174 0.019926377 0.026966946
000040 a3 df e6 ba 0c 58 4f 3b ff 39 74 bb e9 b1 98 bc
       -0.0017614256 0.0031638173 -0.0037266014 -0.018639522
000050 fd 55 27 3c 54 03 b9 39 20 e7 58 bb 10 51 bd ba
       0.010213372 0.0003528843 -0.0033096746 -0.0014443714
000060 a5 b5 3f ba 26 c5 13 bc e4 06 78 ba 7a 89 7e bb
       -0.0007313139 -0.009019172 -0.0009461476 -0.0038839267
000070 c5 12 ed 39 1c a6 a2 bb cb db ac bc 5c 26 cf bb
       0.00045218147 -0.0049636494 -0.0211009 -0.0063217115
000080 90 c3 2b b9 ba 1f 4d 3d 9c 11 50 bc e9 c4 2f bb
       -0.00016380684 0.050079085 -0.012699511 -0.0026820248
000090 70 dc bb 3c 22 c2 89 bb e2 d8 5d bc 8a d4 ce 3b
       0.022932261 -0.0042040506 -0.013540478 0.0063119577
0000a0 2e a5 2f bc 26 fb d5 3c 2f 85 47 bc 65 f1 de bc
       -0.010720534 0.026120733 -0.01217775 -0.027214715
0000b0 ea 67 eb ba eb 5f 95 3c ec 8f b8 3b 05 40 33 3d
       -0.0017960046 0.018234214 0.005632391 0.043762226
0000c0 12 2d a7 bb ea df 0a 3d 0c a2 8f bc a2 ab 75 bc
       -0.0051018083 0.033904947 -0.017533325 -0.014994534
0000d0 88 64 99 ba d3 48 ab 3d f0 fd 2a bc 63 9f 1a bd
       -0.0011702934 0.083634995 -0.01043652 -0.03774966
0000e0 e8 c8 0e 3c a6 c4 02 3b 8e ca eb 3c 0b b1 36 3d
       0.008714892 0.0019953637 0.028783109 0.044602435
0000f0 b1 0d 65 bc af 25 a0 3b a1 d8 71 bb fa 1b 6e bc
       -0.013980315 0.0048873047 -0.0036902803 -0.014533037

encoder.block1.convblock3.1.running_var f4 [64]
000000 d9 8f a3 3a 01 f8 14 38 e6 b4 10 39 fa f9 07 3b
       0.0012478783 3.551692e-05 0.000138003 0.0020748363
000010 fe 45 70 38 5f c6 ff 3a 34 f3 19 3a 5a bc a1 39
       5.7285644e-05 0.0019514075 0.0005872727 0.00030848646
000020 b6 de 0f 3a 91 82 11 3a 81 4f d5 3a 4a a5 95 3a
       0.00054882036 0.0005550767 0.0016274304 0.0011417058
000030 e2 d7 96 39 36 39 bd 38 92 56 18 3b 4d f3 98 39
       0.00028771075 9.022879e-05 0.002324496 0.00029172972
000040 62 2e 29 36 9d 4b 82 3a 55 a6 00 38 0b 77 5e 3b
       2.520996e-06 0.0009940747 3.0672487e-05 0.0033945467
000050 e3 a9 69 38 3a 81 ea 39 d7 50 b5 3a 11 6f cb 39
       5.570975e-05 0.0004472824 0.0013833296 0.00038801928
000060 c2 b7 93 39 db e2 91 39 84 0c 05 3a 65 a9 09 3a
       0.00028174935 0.00027825576 0.00050754123 0.0005251377
000070 24 ef 4b 39 71 ee 56 3a 0f c8 b6 3a b0 ca 41 3a
       0.00019448675 0.00081989827 0.001394512 0.00073925685
000080 92 e0 e3 36 49 85 ca 3a bb f9 fe 39 c5 e5 01 39
       6.7912706e-06 0.0015451099 0.0004863272 0.00012387995
000090 bc fd 97 3a 3a 36 b9 39 ee e3 fa 38 43 64 c2 38
       0.0011596004 0.00035326352 0.00011963384 9.269316e-05
0000a0 61 9e 3e 3a c2 84 80 3a 4b fe c9 3b 99 58 81 3a
       0.0007271525 0.000980519 0.0061643473 0.0009868323
0000b0 fc c4 aa 38 52 54 95 3a 0c e7 eb 3a 5d 6d 78 3a
       8.142923e-05 0.0011392927 0.0017997934 0.00094767456
0000c0 6f f0 6d 3a 24 b0 fd 3a 15 ce a8 3a 08 9d 53 39
       0.000907666 0.0019354862 0.00128788 0.00020181027
0000d0 82 51 3d 36 a4 a3 17 3b 92 fc 1b 3a 08 95 b6 39
       2.8210638e-06 0.002313831 0.00059504167 0.00034824782
0000e0 5a 2e 13 39 21 e8 00 3a 10 87 86 3a 0c b0 99 3a
       0.0001403628 0.00049174024 0.001026364 0.001172544
0000f0 7a d8 c1 39 0a c6 41 39 3a 4c 8d 39 2a 53 d9 3a
       0.00036973116 0.0001847969 0.0002695041 0.0016580571
