ldpi/training/output/ResCNN/pretrained_model.pth (torch, 711292 bytes, 63 tensors)

encoder.block1.convblock1.0.depthwise_conv.weight f4 [1, 1, 7]
000000 be a9 93 3e cc 00 02 40 42 30 cf 3e 64 8e 8a 3e
       0.2884044 2.0312986 0.40466505 0.2706176
000010 46 1a 8d bc ee a1 3d bc 7f 24 95 bc
       -0.017224442 -0.011574252 -0.01820588

encoder.block1.convblock1.0.pointwise_conv.weight f4 [64, 1, 1]
000000 8e f2 23 3d 6c 66 19 bd c3 23 a9 3c 11 4c 33 3d
       0.04002624 -0.037451193 0.020646935 0.043773714
000010 d5 9a 17 bc 7d 85 14 bd fd 75 10 bd c7 d7 b5 bc
       -0.009253223 -0.036260117 -0.035268772 -0.022197617
000020 29 f4 b4 bb 60 c1 9f bc d9 9b ba 3c 59 72 33 bd
       -0.00552227 -0.019501388 0.022779392 -0.043810222
000030 fc f9 33 bd 92 69 67 3c 31 8b 68 3c 6e 51 c1 3c
       -0.043939576 0.014124291 0.014193342 0.023598399
000040 ac 60 15 bd 13 bf 80 bc 7c ed 11 bd ba 0d 31 bd
       -0.036469147 -0.015716111 -0.035626873 -0.04322598
000050 a3 2e fb 3c b4 54 fd 3c 76 78 ff 3c f2 5f e1 bc
       0.030661887 0.030924179 0.03118537 -0.02751157
000060 b2 40 20 3d 55 ea fb 3c 46 d3 0d bd ea 49 ee bc
       0.0391242 0.030751387 -0.034625314 -0.02908798
000070 9e 09 48 bd 2a 98 52 3c 59 40 76 3c 47 81 8d bc
       -0.048837297 0.012853662 0.01502999 -0.017273558
000080 e4 94 ac bb d3 b4 eb 3c 13 06 03 3d 56 a0 e1 3c
       -0.0052667726 0.028772747 0.031988215 0.027542274
000090 bc 6a 9c bc ae 64 48 bd bc 59 3b 3d cd db 99 3c
       -0.019093864 -0.04892414 0.045739874 0.018781567
0000a0 66 da a8 3c 2a 18 a4 bc a5 0c ba bc 15 d1 17 bd
       0.020611953 -0.020031054 -0.022711108 -0.03706463
0000b0 b3 26 16 3d 38 bd 49 3d 64 f6 ff 3c 64 fe 22 3d
       0.036658 0.04925272 0.031245418 0.039793387
0000c0 29 d0 13 bc c9 2c 2d 3b bc 9d fe bc fc 36 22 bd
       -0.009021797 0.00264244 -0.031081073 -0.03960322
0000d0 10 b2 c2 3c 72 79 28 3d 0c c8 fe 3c 96 72 03 bc
       0.023766547 0.041131444 0.03110125 -0.008022925
0000e0 35 af 81 bb 98 66 8f 3c f1 9e af 3b 93 d4 a7 bb
       -0.003957654 0.017504975 0.0053595235 -0.0051217764
0000f0 b2 12 9f bc ad 4f e0 bc af c8 fa 3c 66 6e f2 bb
       -0.019418094 -0.027381742 0.030613272 -0.0073984144

encoder.block1.convblock1.1.weight f4 [64]
000000 7c 00 dc 3d c7 3f 85 3d 0b bd 13 3f 16 a9 07 3f
       0.1074228 0.06506305 0.5771033 0.5299238
000010 98 b7 e3 3d d4 a0 48 3f 8c f7 05 3f 03 7d 71 3d
       0.11119002 0.78370404 0.5233085 0.05895711
000020 7e f6 45 3e 9f 15 2b 3f e0 62 9c 3d bb b4 96 3e
       0.1933231 0.66829866 0.076360464 0.2943476
000030 7a b0 ba 3e b0 46 44 3e 25 01 ee 3e 33 3d b1 3e
       0.36462766 0.1916759 0.46485248 0.34617004
000040 26 4f eb 3d 27 6d 10 3f 33 74 80 3e 84 0a 82 3e
       0.11489706 0.56416553 0.25088653 0.25398648
000050 f2 e4 d0 3d 94 c7 29 3e 28 b9 01 3e c4 b1 96 3d
       0.10199918 0.1658004 0.12668288 0.07358125
000060 1b f4 3b 3f 51 29 26 3e e2 6b 15 3f b5 dc 4f 3f
       0.7341935 0.16226698 0.5836774 0.8119615
000070 cd af 09 3f 1c f5 b5 3d 04 c6 be 3d 3b 40 bb 3d
       0.53783876 0.088846415 0.09315112 0.0914311
000080 aa 51 5c 3d e8 36 eb 3e d9 36 a3 3d 8b 4a 34 3e
       0.05378882 0.45940328 0.07969446 0.17606561
000090 d8 b2 01 3f b7 b7 93 3e 05 da da 3e 3c 7a d6 3e
       0.5066352 0.288511 0.4274446 0.41890132
0000a0 14 76 26 3e 04 22 28 3f e2 89 27 3e e6 2c 05 3f
       0.1625598 0.65676904 0.16361192 0.52021635
0000b0 ca 69 4e 3e 79 95 12 3f 5f 34 a5 3e fe 62 c8 3e
       0.20157543 0.5725933 0.32266518 0.39138025
0000c0 f4 30 00 3e 2c 11 50 3e b2 3c 5e 3d e2 5f d2 3e
       0.12518674 0.2031905 0.054257102 0.41088778
0000d0 ee e8 03 3e 91 e8 e2 3d af ee d3 bc c4 22 2c 3e
       0.12881824 0.11079515 -0.02587065 0.16810137
0000e0 f3 4c 8d 3e 3c 6e 61 3e 73 d8 3d 3e da 1e 83 3e
       0.2759777 0.22014707 0.185396 0.25609475
0000f0 9b fc 72 3e dd 4f b6 3d dd b8 12 3f 17 83 b1 3e
       0.23729174 0.089019515 0.5731333 0.34670326

encoder.block1.convblock1.1.bias f4 [64]
000000 ff 31 db be 4b 08 6a bc 51 45 37 3f 94 a9 1b be
       -0.42811581 -0.014284204 0.71590143 -0.15201408
000010 23 ff e9 bc c2 aa a2 be df 6d 5d 3e 9e c5 4e bd
       -0.028564041 -0.31770903 0.21623944 -0.05048143
000020 16 d8 01 bd 90 7f 81 3e 6f 40 8c 3e c6 16 b6 be
       -0.031700216 0.25292635 0.2739291 -0.3556425
000030 38 07 1e bf b0 5a 5b bd f1 e2 2e 3f 1a bb ff bd
       -0.61729765 -0.053553283 0.68315035 -0.12486859
000040 c2 83 6f 3e 82 3b 04 be ef 71 42 3b c7 94 71 be
       0.23390105 -0.12913325 0.002966996 -0.2359191
000050 71 14 5f 3f 26 5a 0f be d8 7e 2c be ea fb ac 3c
       0.87140566 -0.13999233 -0.16845262 0.021116216
000060 1c 0a 3d 3e d4 04 19 3d 78 e9 03 3f dd c3 63 3e
       0.18460888 0.03735812 0.5152812 0.22242685
000070 90 6d 11 be 5a e9 ee bd af 12 4e be ad 9f b8 bc
       -0.14201951 -0.11665602 -0.20124315 -0.022537077
000080 4b 53 3f bc 4c 2d f8 3e 96 13 ba bd b3 d9 9d bd
       -0.011677573 0.4847206 -0.09085767 -0.077075385
000090 45 78 1b 3e 9e ce d9 bd de c3 bd be c6 53 3b 3e
       0.15182598 -0.10635112 -0.37063497 0.18293676
0000a0 67 1d 1c 3d 76 15 f6 be e1 34 0f 3d 04 dd 1e 3e
       0.038113978 -0.48063248 0.03496254 0.15513998
0000b0 13 7a 0d 3d e2 25 2d be 96 f1 a5 3d 8b 2e 28 3f
       0.034540247 -0.16908982 0.081027195 0.6569602
0000c0 e8 62 8c 3d 1a 95 4f 3d 94 6c 5c bc 64 dc 34 bc
       0.06854802 0.050679304 -0.013453621 -0.011038873
0000d0 ad 34 ef bd a0 d0 00 3e ea 7a ff 3e 85 6a 38 be
       -0.11679969 0.12579584 0.49898463 -0.18009384
0000e0 c8 ab 8f bd de 96 80 bd 64 37 a9 be 72 13 92 3d
       -0.070151865 -0.06278776 -0.33050072 0.07132615
0000f0 13 b3 8a 3d 58 af b7 bd ce 6a 02 be 52 b8 c3 be
       0.06772437 -0.08968991 -0.12736055 -0.38226563

encoder.block1.convblock1.1.running_mean f4 [64]
000000 2e cd ce 3c 42 7f c1 bc ca 59 55 3c d3 29 e2 3c
       0.025244322 -0.023620252 0.013021896 0.027607834
000010 8a 3b bf bb e1 57 bb bc a9 38 b6 bc e3 5f 65 bc
       -0.005835955 -0.022869052 -0.022243815 -0.013999912
000020 c6 40 64 bb 7b 83 49 bc dc 62 6b 3c 19 5a e2 bc
       -0.0034828647 -0.012299414 0.014366832 -0.027630853
000030 32 05 e3 bc 52 f3 11 3c fc a9 12 3c 65 d9 73 3c
       -0.027712438 0.00890811 0.00895166 0.014883374
000040 5c 6c bc bc 31 66 22 bc 4d 12 b8 bc 57 55 df bc
       -0.023000889 -0.00991206 -0.022469664 -0.027262373
000050 50 6b 9e 3c 3c c6 9f 3c b1 1f a1 3c 81 24 8e bc
       0.01933828 0.019503705 0.019668432 -0.01735139
000060 17 24 ca 3c b1 e1 9e 3c 94 e5 b2 bc 8e 49 96 bc
       0.024675412 0.019394727 -0.021837987 -0.01834562
000070 38 53 fc bc 19 d2 04 3c 2d 4f 1b 3c 25 7e 32 bc
       -0.0308014 0.008106732 0.009479326 -0.010894333
000080 45 b1 59 bb 9c a8 94 3c 9a 45 a5 3c 1a 4d 8e 3c
       -0.0033217233 0.018146805 0.02017479 0.01737075
000090 70 4d 45 bc 16 c6 fc bc 60 52 ec 3c 4f 13 42 3c
       -0.012042388 -0.030856173 0.028847873 0.011845424
0000a0 4a fd 54 3c 9e fc 4e bc 37 ae 6a bc fa 7f bf bc
       0.012999842 -0.012633471 -0.014323763 -0.023376454
0000b0 21 66 bd 3c b1 78 fe 3c 1c 6f a1 3c 33 99 cd 3c
       0.023119988 0.03106341 0.019706301 0.025097465
0000c0 23 73 ba bb e1 70 da 3a c3 95 a0 bc aa 9d cc bc
       -0.005689995 0.0016665721 -0.019602662 -0.024977524
0000d0 39 96 75 3c fe 82 d4 3c 6c b0 a0 3c 75 ce a5 bb
       0.014989429 0.025941368 0.019615375 -0.005060012
0000e0 18 95 23 bb 51 e2 34 3c b4 86 5d 3b 03 b3 53 bb
       -0.0024960693 0.011040286 0.0033802213 -0.0032302744
0000f0 23 a7 48 bc c7 78 8d bc ff 2a 9e 3c 62 e6 98 bb
       -0.01224688 -0.017269505 0.019307612 -0.0046661356

encoder.block1.convblock1.1.running_var f4 [64]
000000 e5 c9 ca 40 1a 89 b1 40 30 d6 d7 3f e1 89 f2 40
       6.3371453 5.547986 1.686224 7.579331
000010 88 67 ad 3e 33 6c a6 40 76 72 9d 40 8f 79 f9 3f
       0.3386805 5.200708 4.9202223 1.9490222
000020 8a 0a f7 3d fa 8c c0 3f 8f 5c 03 40 7d f1 f2 40
       0.12062557 1.5043023 2.0525243 7.5919785
000030 4c 61 f4 40 17 03 4a 3f fb fd 4b 3f 2e fa 0c 40
       7.636877 0.78910965 0.7968442 2.2027698
000040 d2 58 a8 40 a0 1c 7a 3f 1f a9 a0 40 c4 81 ec 40
       5.2608423 0.9769993 5.0206447 7.3908405
000050 ad 00 6e 40 8c 17 72 40 e2 32 76 40 c7 9b 3f 40
       3.7187912 3.7826872 3.8468556 2.993883
000060 60 c0 c1 40 e4 64 6f 40 25 c1 97 40 27 32 56 40
       6.0547333 3.7405329 4.742327 3.346811
000070 ae f2 16 41 fb 4c 27 3f 0b c0 64 3f df 11 97 3f
       9.434248 0.6535184 0.89355534 1.1802329
000080 dc b5 e0 3d 18 94 51 40 e8 84 81 40 56 09 40 40
       0.10972187 3.274664 4.047474 3.0005698
000090 55 96 b8 3f 3c 7c 17 41 6e 68 04 41 33 99 b2 3f
       1.4420878 9.467831 8.275496 1.3953003
0000a0 1b 1b d7 3f fa 26 cb 3f 40 93 02 40 b7 e3 ad 40
       1.6805147 1.587127 2.0402374 5.434047
0000b0 54 18 aa 40 e3 86 19 41 d5 25 77 40 a2 6f c8 40
       5.3154697 9.595431 3.861684 6.263627
0000c0 cd d6 a4 3e 17 42 e2 3c 02 8e 74 40 60 86 c6 40
       0.3219513 0.027619405 3.8211675 6.203903
0000d0 55 fe 0e 40 5e 24 d6 40 51 df 74 40 c8 5b 82 3e
       2.2342732 6.6919394 3.8261302 0.2546065
0000e0 06 c5 7d 3d 0d 25 9b 3f d3 b1 e8 3d 0b 82 d4 3d
       0.061955474 1.2120682 0.11362042 0.10376366
0000f0 cd e8 be 3f eb cd 3d 40 a0 3f 6d 40 3f b5 5d 3e
       1.4914795 2.9656932 3.7070084 0.21651171

encoder.block1.convblock2.0.depthwise_conv.weight f4 [64, 1, 5]
000000 59 65 8d bc 64 78 96 bb a2 26 88 3b 07 76 16 3d
       -0.01726024 -0.0045919884 0.004154996 0.036733653
000010 34 67 8b 3d 71 b3 06 3d 73 99 7d 3b 96 e6 09 3d
       0.06806794 0.032885972 0.00386962 0.03366717
000020 e7 9a e2 3b bf 41 a5 bc 03 c6 0f 3f 3a bf c5 3e
       0.0069154385 -0.020172952 0.56161517 0.38622457
000030 21 f6 ec be aa 75 cd be 74 7c a9 bd f5 b5 0c 3e
       -0.4628153 -0.40128833 -0.08275691 0.13741286
000040 2e 44 16 3e e4 10 1d 3e 16 2d c0 3d 48 fa 21 3e
       0.14674446 0.15338475 0.093835995 0.15818131
000050 f4 8d 29 3d 5d 2a 5f 3d da 9a 9d 3c ae a0 13 3d
       0.041395143 0.05448376 0.019238878 0.036041908
000060 c2 2a 6e 3d 52 6a a2 3d fd 11 c7 3d 95 c3 0a 3e
       0.058146246 0.07930435 0.09720228 0.13551171
000070 b7 bc 08 3e 83 27 5f 3e a6 09 c9 3e b9 cf 07 3f
       0.13353239 0.21792416 0.39265174 0.53051335
000080 de ed c9 be 06 d8 a5 bd 50 9d 25 be a4 46 f8 bb
       -0.3943929 -0.08097844 -0.16173291 -0.0075767804
000090 42 df 95 3c 81 35 69 bc 22 ea 15 bb 83 06 ed bb
       0.018294934 -0.014233948 -0.002287515 -0.0072334423
0000a0 e3 21 ad bd bd 19 93 bc 3f bf ef bd 85 ed 87 3c
       -0.08453729 -0.017956609 -0.11706399 0.01659275
0000b0 90 2b b2 3c 7e 78 36 3e 74 38 31 3f 2d 90 1e bf
       0.021749288 0.17819402 0.69226766 -0.61938745
0000c0 76 7a 82 3d bd 29 a9 be d5 da 96 bb 9f b7 05 bd
       0.06371014 -0.33039656 -0.0046037235 -0.032645818
0000d0 5a ce 29 bc be 72 39 3d b2 28 49 3d 3b b2 2c be
       -0.010364139 0.045275442 0.049111076 -0.16864865
0000e0 2e 2c 0b be b1 b6 ea bd 4f a8 df bd 5c 3a a9 bd
       -0.13591072 -0.11460627 -0.10920774 -0.08263084
0000f0 5b d1 b2 3d 2f 59 c2 3d 81 6e f4 3d 10 45 a2 3d
       0.08731338 0.09489667 0.119351394 0.07923329
000100 6d 01 07 3e 01 20 a4 bc f0 fd 9b 3d f1 d9 03 be
       0.13184138 -0.020034792 0.07616794 -0.12876107
000110 e1 03 b6 bd 90 9e b5 bd 9e 66 55 bd 43 d6 ee bd
       -0.088874586 -0.08868134 -0.052099817 -0.11661961
000120 d9 a3 b7 bc 8b a8 80 3d c2 a5 a9 bc 7f 45 33 3e
       -0.022416996 0.06282147 -0.020708922 0.1750698
000130 5b e2 34 3e f3 5b f5 bd 87 7b d8 bd bf e0 86 3c
       0.17664473 -0.119804285 -0.10570436 0.01646459
000140 23 9a cd bc 11 d0 9f 3d 5e 82 09 bd a9 25 2c 3d
       -0.025097912 0.078033574 -0.033571593 0.042028103
000150 81 87 b6 bd 1c 60 a1 bd f0 bf f9 bd 6c b5 10 be
       -0.08912564 -0.078796595 -0.12194812 -0.14131707
000160 60 7b 14 be 21 b1 30 be 17 c3 17 bd 8d cc 49 3a
       -0.14500189 -0.1725507 -0.037051287 0.0007698022
000170 af 1c 01 be 65 c9 c4 bc 10 a5 03 bc b4 0e 39 be
       -0.12608598 -0.024021814 -0.008034959 -0.18072015
000180 01 e3 0d be 64 a7 2f be ad a7 bd bd 2b 3d 88 bd
       -0.13856126 -0.17153698 -0.09260497 -0.06652292
000190 cf dc 79 bc d8 4f 29 bd c2 6a eb bd f1 50 3c bd
       -0.015250399 -0.04133591 -0.11494972 -0.04597563
0001a0 9d 79 c3 bd 93 a2 ba 3d 52 5d b6 3d f9 1c 5a 3d
       -0.0954468 0.0911304 0.08904518 0.053250287
0001b0 aa 5f 20 3d 50 3a 2e 3d 12 43 00 bd 36 9a 19 bd
       0.039153732 0.04253608 -0.031313963 -0.037500583
0001c0 82 c1 40 bd 2e 2f 43 bd 15 32 3d bd 6a 1c 4c bc
       -0.047059543 -0.047652416 -0.04619034 -0.012457946
0001d0 73 77 3c 3d 62 42 0e bd 79 86 9f bc fc 75 eb 3c
       0.046012353 -0.034731276 -0.019473301 0.028742783
0001e0 bf 78 36 be 62 a3 72 be db 29 43 be 63 c1 f9 bd
       -0.17819498 -0.23695138 -0.19058935 -0.12195089
0001f0 04 7c 1e be 51 71 43 bd 35 cf a8 3d c1 00 67 bd
       -0.15476996 -0.04771549 0.082426466 -0.056397203
000200 9b 7b 12 bd 70 eb 39 bd 8d 1c 7f 3f 48 3e d7 3e
       -0.03576241 -0.045390546 0.9965294 0.42039704
000210 ae 9c dc be 1b 8e 07 bf f3 45 8b be f6 b5 b2 3e
       -0.43088287 -0.5295121 -0.27201805 0.3490445
000220 bb d2 d8 be 90 64 84 3f dd 58 52 be 6c 98 10 bf
       -0.42348275 1.0343189 -0.20541711 -0.5648258
000230 01 8a 01 be 7c b0 06 be d2 f8 26 be dc ab 1b be
       -0.126503 -0.13153261 -0.16305855 -0.15202278
000240 07 bb 2a be 8c 89 f4 bc dd 4b 2f bd ca d7 59 bd
       -0.16672908 -0.029850744 -0.04279696 -0.053184308
000250 d0 86 a6 bc 5c 97 78 3b ce f7 ae 3c ae b4 5b 3b
       -0.020327955 0.0037932014 0.021358397 0.0033524442
000260 df ea c9 3c e8 1b 95 b8 10 0c 10 3b 44 e9 5b 3d
       0.024648128 -7.1100716e-05 0.0021979846 0.053689256
000270 0e 45 d2 3b 36 67 16 3d 97 e0 4c 3d 11 ad 56 3c
       0.0064169234 0.036719523 0.050018873 0.013102786
000280 04 2c 51 3c f9 54 80 3c e2 0e 04 3d ea 1a 83 3a
       0.012766842 0.015665518 0.032240756 0.0010002528
000290 0a 2a c2 bc ac 9c 2e 3f d0 cc 95 bd 39 f7 b8 bd
       -0.023701686 0.6820781 -0.073144555 -0.09031529
0002a0 ec c0 ff bd bc 88 b9 bd 1b 66 0d 3c 33 83 b5 3c
       -0.12487969 -0.09059283 0.008630301 0.022157287
0002b0 74 b3 cb 3c 16 43 25 3d 5d 2f 0d 3d f0 21 82 3d
       0.024865843 0.04034718 0.034468997 0.06354129
0002c0 cd 27 ad 3d dd b8 1c bd 49 4a 92 bd e3 f8 e9 bc
       0.08454857 -0.038262237 -0.07143075 -0.028561061
0002d0 a9 93 6f be 01 03 df bd 06 31 94 be 7b 76 e4 bd
       -0.23396172 -0.10889245 -0.28943652 -0.11155411
0002e0 0d c5 9b bd 27 5e 1e bd 49 53 5c 3d 34 5c aa bd
       -0.07605944 -0.03866401 0.053790364 -0.083183676
0002f0 c7 b4 af bd 2b ad f9 bd 15 aa cb 3d 96 20 0f 3e
       -0.085794024 -0.12191232 0.0994455 0.13977274
000300 35 4f 09 3e ac 99 bf 3d 59 d9 db 3d d5 ac 69 3e
       0.13409121 0.093554825 0.10734815 0.22819836
000310 08 23 59 3c fc fa 2b 3e 42 a9 12 bd 6a 26 58 bd
       0.013252981 0.16794962 -0.035805948 -0.05277101
000320 da 02 79 bd ce e8 2d bd b2 a6 23 bd bd f3 86 bd
       -0.060793735 -0.042458348 -0.039953895 -0.06589458
000330 b5 4a cf bd 13 ae d0 bc 9a ff 36 3c e2 55 67 3d
       -0.10121671 -0.02547363 0.011169339 0.05647839
000340 52 22 68 3c 32 ce 97 3d 1d 86 88 bd 8b 26 4b 3d
       0.014168339 0.074123755 -0.06666205 0.049597304
000350 24 e5 68 3d 29 54 ec 3d 31 02 0f 3d 77 c8 65 be
       0.05685915 0.1153949 0.0349142 -0.22439753
000360 fe e8 b9 3d ab a6 39 bd f2 0f 98 3e 56 5c 04 3f
       0.09077643 -0.045324963 0.29699665 0.51703393
000370 fb b0 1c 3c 3e b2 cc 3d 94 e6 21 3d 96 d8 08 3d
       0.00956368 0.099949345 0.039526537 0.033409677
000380 e6 41 6c 3d ee 09 e3 3d 3e 70 dd 3d f3 73 21 3e
       0.057680033 0.11085878 0.10812424 0.15766887
000390 60 68 b4 3d a8 e1 fa 3d ca a5 87 bd 43 01 c1 bd
       0.088089705 0.12250072 -0.06623419 -0.09424069
0003a0 f9 35 38 be 56 26 0a be 8e 5c eb bd cf e3 8b bd
       -0.17989339 -0.13491186 -0.11492263 -0.068305604
0003b0 48 eb 71 be 48 c7 fb 3b 33 fd 64 3d 92 83 7b bc
       -0.23624909 0.0076836683 0.055905532 -0.015351193
0003c0 c8 97 21 3d f6 d2 01 3c a8 3b c4 bc 7d 95 8b 3b
       0.03945139 0.007923832 -0.023954228 0.0042597638
0003d0 e0 8d 34 3d 1e 74 96 3d d0 c5 d0 3d 12 b3 a1 3d
       0.044080615 0.07346366 0.1019398 0.07895483
0003e0 da 54 86 3d 33 f7 90 3d 66 fa 10 bb 04 d9 12 3c
       0.06559153 0.070783995 -0.0022121905 0.008962873
0003f0 ae 19 4d bc 83 32 69 3c 2e 84 03 3d e6 03 c1 bd
       -0.01251833 0.014233234 0.03210848 -0.09424572

encoder.block1.convblock2.0.pointwise_conv.weight f4 [64, 64, 1]
000000 0c 82 6b 3c bc e5 42 3b 4d 62 2c bd d3 66 75 3b
       0.014374267 0.0029738983 -0.042085934 0.0037445321
000010 3e 84 58 bb 1d e2 df bc 72 cb b8 3c f1 3a 4f 3c
       -0.0033037807 -0.027329499 0.022557948 0.01264833
000020 f4 1f d2 b8 96 52 78 3c d7 94 d2 3c 52 7b f9 bc
       -0.00010019532 0.015156409 0.025705738 -0.030454312
000030 c2 f3 fd bc 04 f4 32 bd f7 76 a9 bb cf ce df bc
       -0.031000022 -0.043689743 -0.0051716524 -0.027320294
000040 e4 7b 3e 3c b1 f1 09 3d fc fc a5 3c d7 2c d5 bb
       0.0116262175 0.03367776 0.020262234 -0.0065055895
000050 cd fd 6c 3c 3b e1 1f 3a 2d 9c 6f bc 0c 03 fb bb
       0.014464808 0.00060989306 -0.014624638 -0.0076602753
000060 75 a7 85 3c e3 7d 0a bb 86 e3 93 3d 36 e7 04 3c
       0.016315201 -0.0021132163 0.07221131 0.008111766
000070 a2 20 2e 3d 52 19 00 3c 05 aa 67 bc d1 10 48 3b
       0.04251159 0.007818537 -0.014139657 0.0030527601
000080 b3 1f 0b bb ea 9e 97 bc f4 44 16 3c 3d ab 2d bd
       -0.002122861 -0.018508393 0.009171713 -0.042399634
000090 ea 55 05 3c ce f4 b0 bc 2e 31 aa bc 21 2e 37 bd
       0.008138159 -0.021601107 -0.020775404 -0.044721726
0000a0 a1 69 44 bb df 04 5a bd 46 81 96 bc 6f 84 2b bd
       -0.0029970186 -0.0532273 -0.01837219 -0.041874345
0000b0 a3 6b 9c bc 7f 57 0c bc c2 bd 47 3c 40 a6 3e 3c
       -0.019094294 -0.008565783 0.012191238 0.011636317
0000c0 28 8d f5 3c d9 5f 0a 3b a9 20 b1 bb f9 4d af 3c
       0.029974535 0.0021114259 -0.0054055047 0.021399485
0000d0 b4 77 d5 3a c7 aa bb 3b a0 70 9e bc 70 fb 56 3c
       0.0016286285 0.0057271454 -0.019340813 0.013121471
0000e0 e3 96 a1 3c 7e 6c 83 3c 66 96 d1 bc 1b 12 12 3d
       0.019725269 0.016042944 -0.02558441 0.035661798
0000f0 81 ed a8 bc 18 b7 f4 3c 16 c6 02 bd 76 a6 22 bd
       -0.020621063 0.029872462 -0.03192719 -0.03970953
000100 93 dd 4d 3d 80 94 a4 3b 6a 3e 36 be 75 06 b1 3c
       0.050260138 0.0050225854 -0.17797247 0.021609524
000110 3a f0 00 bc 2b f7 99 bc d7 b8 ec bb 7e ac ce 3b
       -0.0078697745 -0.018794617 -0.007224183 0.0063071838
000120 09 f9 5c bd d1 89 90 bc 35 e2 90 3d 87 4a 92 bd
       -0.053948436 -0.017643841 0.070743956 -0.07143121
000130 79 db 40 bd 94 b8 1b bd b9 b1 a0 3c e7 6a 86 bd
       -0.047084305 -0.038017824 0.019615995 -0.06563359
000140 d1 da af bd 6c e1 dc 3c 6b d7 b3 bc b9 1d 66 bd
       -0.08586658 0.026962958 -0.021953305 -0.05618069
000150 77 ad 54 3d 66 88 05 bd 0f 5c a5 bc 02 ba 57 3c
       0.05192324 -0.032600783 -0.020185499 0.013166906
000160 38 4b 4f 3c b3 64 fb bb dc d1 ed bd d6 c8 13 3a
       0.012652211 -0.0076719164 -0.11612293 0.0005637532
000170 f2 39 17 3d ce ea 27 bc a6 ff 73 3c 06 45 fc bb
       0.036920495 -0.010248853 0.014892494 -0.007698658
000180 02 b5 1c bb 4e 83 6c 3b ca 59 94 3c f1 6b a6 bd
       -0.00239116 0.0036089006 0.018109221 -0.08126057
000190 f6 5b c0 bc 10 f6 33 3d cf 95 be 3c 77 24 b8 bd
       -0.02348135 0.043935835 0.023264794 -0.0899133
0001a0 28 8d 04 3c b8 7f 72 bc 67 cc dc 3c 7c 66 93 3d
       0.008090295 -0.014800958 0.026952935 0.07197282
0001b0 88 d6 d6 bd cd 73 6a 3c 97 54 6c 3c 38 8d b7 3c
       -0.10490137 0.014309836 0.014424465 0.022406206
0001c0 27 e7 1b 3d 20 66 75 bc 88 43 ed bb b3 57 9f bc
       0.03806224 -0.014977962 -0.0072407164 -0.019450998
0001d0 c5 8e 17 3d 05 fc 9f 3c c7 de bc 3c 3a e2 6d bc
       0.03700139 0.019529352 0.023055447 -0.014519269
0001e0 09 22 0f 3c ae dc 9e 3d 1d c8 ac bc 3b fa 7c 3d
       0.008736142 0.07756935 -0.021091515 0.061762076
0001f0 00 0d f5 3b c4 c1 a4 bc 58 9f ce 3b 93 c7 87 bd
       0.0074783564 -0.020111926 0.0063056163 -0.06629863
000200 e9 a8 c3 3d 2f 6e 03 bc 23 d8 3f bc e1 0c 40 3e
       0.095537014 -0.008021875 -0.011709246 0.18754913
000210 23 b3 68 bd 00 e1 ea be 54 7e 92 3d ea 63 ba 3b
       -0.056811463 -0.45874786 0.071530014 0.00568818
000220 a4 f4 15 3d b8 0d c5 3a a5 23 9a 3d 95 53 3f be
       0.03661026 0.0015033996 0.0752633 -0.18684228
000230 29 0f 34 be 49 9d 69 bd 9d d9 e9 3e 14 a8 a4 bd
       -0.17583908 -0.057034764 0.45673838 -0.08039871
000240 26 5f 72 bd b7 9b 8b 3e 4d 95 8a 3c b1 d2 17 3c
       -0.059172772 0.27267238 0.016916895 0.009266541
000250 05 59 22 3e 8b b2 0c be 4c 62 f2 bc b0 f7 5d 3a
       0.15854271 -0.13739984 -0.029587887 0.0008467389
000260 0f 7b e1 3e 42 13 1a 3d 48 cf cd bc 35 8e 99 3d
       0.440392 0.037616022 -0.025123253 0.07497827
000270 0b 9d 9b 3e fb 9c 6c ba 48 72 9a 3b 4d 8d 1c bd
       0.30393252 -0.00090260775 0.0047133304 -0.038220692
000280 6d 7e e9 bb 16 e9 d2 3d d3 e1 a7 3b 5f 66 9e bd
       -0.007125667 0.10298364 0.005123356 -0.077343695
000290 b2 93 fa bd e1 7a 76 3d e5 d4 df 3d 97 65 75 be
       -0.12235202 0.06017578 0.10929278 -0.23964535
0002a0 ca 33 90 3d ba 92 b9 be bb 57 02 3d de 6e fe 3d
       0.07041128 -0.36244756 0.031821948 0.1242349
0002b0 6e da d4 bd 60 68 12 3e 79 23 4c 3e 11 7a be 3e
       -0.10393225 0.14297628 0.19935407 0.37202504
0002c0 93 73 c5 3d 87 5f c8 bd 41 d6 7e bc c1 63 97 3d
       0.09641185 -0.097838454 -0.015554012 0.073920734
0002d0 22 9f 9d 3d bc 20 4c 3c 0d 7c 29 be c3 44 c9 3c
       0.07696368 0.012458976 -0.16551228 0.024568921
0002e0 41 16 0f 3e 86 4b 07 3e 94 c8 45 bd 4b 04 c6 3d
       0.13973333 0.13212404 -0.04828699 0.096687876
0002f0 8f df 55 3d cd 9c 8d 3c 7f 3b 55 3d eb 65 5b be
       0.052215155 0.017286683 0.052058693 -0.21425597
000300 08 bf 31 3d 6f fd a0 bb f9 ae e6 bd c5 7a 1e 3e
       0.043395072 -0.004913024 -0.11263842 0.1547652
000310 76 46 19 bd 91 50 b9 be 7e 5e 96 3d df d5 34 3c
       -0.037420712 -0.3619428 0.07342242 0.011037319
000320 8c 95 52 3d 41 93 aa bc 6a 05 0f 3d 36 b6 d5 bd
       0.05141215 -0.02082217 0.034917273 -0.104351446
000330 0c c3 07 be 1d cb 87 bd 57 8c 8d 3e 7a bd eb bd
       -0.13257998 -0.06630538 0.27646133 -0.11510749
000340 e8 b9 5a bd a5 1b 4d 3e 77 43 c7 3c 1e c5 61 3c
       -0.05339995 0.20030077 0.024324162 0.013779907
000350 99 12 01 3e 7f c2 ae bd f9 b4 ff bc f2 45 02 bc
       0.1260475 -0.08533191 -0.031214224 -0.007951247
000360 18 db a0 3e 52 87 db 3c 64 a2 94 3d 37 8e 02 3e
       0.31417155 0.026797924 0.07257536 0.12749563
000370 3b 50 40 3e 7a 49 36 bc d7 a2 bb 39 8e 58 02 bd
       0.18780605 -0.011125917 0.00035788745 -0.031822734
000380 c9 a3 0c bc 8a 9f 27 3c 1e ae 92 3b c1 a2 44 bd
       -0.008583971 0.010230908 0.004476323 -0.048006777
000390 bf ec 01 be 1c dc 5e 3d ab f4 f0 3d e3 2f 4f be
       -0.12687968 0.05440913 0.11765417 -0.20233111
0003a0 4d 56 4f 3d 88 63 ae be 4a da 0f 3c 8f 58 78 3d
       0.050619412 -0.3406031 0.0087800715 0.06063133
0003b0 a9 84 2e bd f2 ff 21 3e 81 b9 05 3e 22 1a 84 3e
       -0.042606983 0.15820292 0.13059045 0.25801188
0003c0 e5 ce 9d 3c 34 c1 a3 bd 3f 24 3a bb 77 b5 77 3d
       0.019263694 -0.07995835 -0.0028402952 0.060475793
0003d0 64 88 8c 3d 0e 0d 0b 3d 81 bd ff bd ec 15 2b 3c
       0.06861952 0.033947997 -0.12487317 0.010442238
0003e0 16 e0 b9 3d 59 60 d4 3d 17 ac 30 bd c7 d4 81 3d
       0.09075944 0.10369939 -0.043132868 0.06339412
0003f0 70 f3 45 3c 5c 3a 48 3c 57 ba 90 3d c1 20 1d be
       0.012081966 0.012220945 0.070667915 -0.15344526

encoder.block1.convblock2.1.weight f4 [64]
000000 da c9 f9 3d 05 51 7d 3e af d3 4d 3f bf 04 28 3f
       0.12196703 0.24737938 0.8040113 0.6563224
000010 10 56 ac 3e 85 e7 f3 3e 3f fa 72 3e 3b 9a 4a 3e
       0.3365941 0.47637573 0.23728274 0.19785397
000020 fa d5 f9 3e e4 2b c5 3d 25 19 30 3d 25 2b a1 3d
       0.48796064 0.09627512 0.04299273 0.07869557
000030 20 d5 3a 3f fd 92 a4 3d 37 aa 3f 3e f2 ac 3e 3e
       0.7298145 0.08035848 0.18717276 0.18620661
000040 a6 35 72 3d 1c 1b ca 3e 3e 5f 31 3f 7e 3a b4 3e
       0.059133194 0.39473808 0.69285953 0.35200876
000050 0a f6 6b 3d 50 fe 60 3d 79 14 7a 3d 15 10 dd 3e
       0.057607688 0.05493003 0.06105468 0.43176332
000060 e3 88 b1 3d bd 47 a2 3e 5d d0 75 3d 09 a9 8e 3e
       0.08668687 0.31695357 0.060013164 0.2786334
000070 78 1d 63 3e 89 28 d3 3d 9c fe 0a 3f 4b 3a c3 3d
       0.2217921 0.10310466 0.54294753 0.09532603
000080 3f af d4 3d 40 3f 43 3d 55 4d 61 3e 42 f2 4c 3f
       0.10384988 0.04766774 0.22002156 0.80057156
000090 87 e4 13 3e f0 14 f4 3e 68 1e 1b 3f 37 e9 26 3f
       0.14442645 0.47672224 0.6059327 0.6519961
0000a0 00 d4 44 3f 2e 53 cc 3e f4 8d a6 3e 0b c8 ee 3d
       0.76885986 0.3990721 0.32530177 0.11659249
0000b0 67 89 fa 3e 8b 5f 94 3e 90 ca 5d 3d 43 73 54 3d
       0.48932955 0.28979144 0.054148257 0.051867735
0000c0 02 13 30 3f 70 33 2e 3f 66 ca 37 3d 27 e5 4c 3e
       0.68779004 0.6804724 0.044870757 0.2000929
0000d0 8e 68 a2 3e f1 0a 4d 3d 7f f9 91 3d f1 92 6d 3f
       0.31720394 0.050059263 0.07127666 0.9280234
0000e0 ff cf 69 3d 7f 0a 69 3e 43 c9 e0 3d c0 15 05 3f
       0.057083126 0.2275791 0.109758876 0.5198631
0000f0 61 41 33 3d 29 10 4d 3d 65 44 b5 3d 2d 5b 2b 3d
       0.043763522 0.05006424 0.08850936 0.041835

encoder.block1.convblock2.1.bias f4 [64]
000000 21 f5 db bd ce 18 93 be 85 98 b4 3c 05 98 3b bd
       -0.10740114 -0.28729862 0.022045383 -0.045799274
000010 13 41 d3 be 37 d2 5b be f3 7c 6e be 8c 9f b5 bd
       -0.41260585 -0.2146691 -0.23289852 -0.08868322
000020 31 9c c1 be 7c ff 8d be e0 db 12 bc 1e 2c ae bd
       -0.37814477 -0.27733982 -0.008963555 -0.085045084
000030 c7 42 4b bf 16 b6 ab be 6d df 7b 3c ee 9b 13 be
       -0.7939877 -0.33537358 0.015373093 -0.14414951
000040 2c 34 f3 3a 1d 5c 60 be 7e 57 cf be a6 69 27 3e
       0.0018554977 -0.21910138 -0.4049644 0.16348895
000050 48 af ae bb 80 46 26 bc 2e a6 c7 ba 7a 1f fa be
       -0.0053309537 -0.010148644 -0.001523202 -0.4885214
000060 d9 e7 26 be 31 1a 80 3e 8b 3c 25 bd 80 9f f5 bd
       -0.1629938 0.25019982 -0.04034094 -0.11993313
000070 f6 41 11 be a7 fa 22 bd 89 36 5e bd e5 e5 02 be
       -0.14185318 -0.039789822 -0.054251228 -0.1278301
000080 cc 26 0f 3c 77 3b 98 bc 1d 4c 81 bd e6 d7 07 be
       0.008737277 -0.018583043 -0.063133456 -0.13265952
000090 d2 a1 a7 bb fc a9 a9 be 2c 2f 60 bd 70 38 be bd
       -0.005115726 -0.331375 -0.054732487 -0.09288108
0000a0 a7 b8 f9 bd 9c b2 8e be a9 08 bf bd 93 27 84 be
       -0.12193423 -0.27870643 -0.09327824 -0.25811443
0000b0 07 96 a1 3d a6 e6 03 3d 7a 58 39 3c bc 6a e2 ba
       0.078899436 0.032202385 0.011312598 -0.0017274241
0000c0 88 75 92 bd 30 54 dc be fd 1a 5d bb d2 68 0c bd
       -0.071513236 -0.4303298 -0.003373801 -0.034279652
0000d0 a8 87 91 3e 96 74 55 3b d4 6d 3c 3c f8 e9 11 bf
       0.2842381 0.0032570711 0.011500794 -0.56997633
0000e0 9a ff 35 bb 01 53 27 be f9 9f cf bd f7 dc a6 3b
       -0.0027770759 -0.16340257 -0.10137934 0.005092259
0000f0 c4 5e 15 bd a4 46 e2 39 f0 a1 ac 3c 88 3b 64 bd
       -0.03646733 0.0004315871 0.021073312 -0.055720836

encoder.block1.convblock2.1.running_mean f4 [64]
000000 4f ae a4 bc bf 26 03 bd 2c 61 7a be 60 58 22 be
       -0.020102648 -0.032019373 -0.2445113 -0.15854025
000010 82 9c 32 bd 17 d8 b1 bd c4 c3 79 bd 41 a9 d5 bc
       -0.04360629 -0.08683794 -0.060977712 -0.026081683
000020 03 ad 2d be 79 d8 30 bc e7 38 64 3a 0e c8 91 bc
       -0.1696053 -0.010793799 0.0008705989 -0.017795589
000030 a8 9f f2 bd 3c c3 8f bc 93 de 91 3c 06 8c 29 bd
       -0.11846858 -0.01754915 0.017806327 -0.041393302
000040 eb 37 9d 3a 22 94 e6 bd 9d 26 00 be 4e 2a 0f 3d
       0.0011994814 -0.11258723 -0.1251473 0.034952454
000050 f3 09 cf 3b a4 81 52 3b d2 22 bb bb 8a b0 23 be
       0.0063183247 0.003212073 -0.005710938 -0.15985313
000060 e2 01 1c bc 63 b0 0d bd 85 4a 8a ba a8 c9 da bd
       -0.009521933 -0.034592044 -0.0010550773 -0.10682994
000070 70 57 d8 bc d0 c5 4b 3b 51 92 54 bd f8 d1 8e bc
       -0.026408881 0.0031093247 -0.05189735 -0.017434105
000080 65 d8 d1 bb 52 8c 97 bb a3 4d 2c 3d 0b 2f c3 bd
       -0.00640397 -0.004624882 0.042066228 -0.09530457
000090 a7 5c 0c 3c bf 69 3e be a6 26 5e bd 6c e4 b6 bd
       0.008567012 -0.18595026 -0.054236077 -0.08930287
0000a0 48 ef c7 bd 0b 15 93 bd 3b 8e f2 bc 49 72 5a bc
       -0.09762436 -0.07181748 -0.029608836 -0.013332912
0000b0 56 0d 6f be 97 a7 a0 bd a0 ec bf 3b 3e 10 c8 3b
       -0.23344931 -0.07844465 0.0058570653 0.006105452
0000c0 c6 aa cc bd 8f 08 46 3b 96 29 62 3b de d4 e7 ba
       -0.0999351 0.0030217504 0.003450965 -0.0017687341
0000d0 ef e4 67 bd 53 dc 1f 3b 2b f5 e7 3b 4b ba ce bd
       -0.056614812 0.0024392798 0.007078787 -0.10094126
0000e0 8c 0c 8b ba bd 61 bb bc 96 fd 76 bc 67 a6 33 bd
       -0.0010608598 -0.022873754 -0.015075108 -0.043859866
0000f0 d5 3a 7c bb a3 79 bb 3a 8b df 1f bc d4 81 ea bb
       -0.0038487215 0.0014303218 -0.009757887 -0.00715659

encoder.block1.convblock2.1.running_var f4 [64]
000000 e9 31 ec 3a b5 b0 39 3a 81 5c 98 3d 8b 21 00 3d
       0.0018020245 0.00070835213 0.07439519 0.03128199
000010 cb 16 a7 3a 96 f7 cf 3c 02 9d 31 3c fa 17 3f 39
       0.0012747882 0.025386613 0.010840656 0.00018224111
000020 ca 85 75 3d a0 a7 00 3c e7 26 9f 36 df d4 94 3a
       0.059942044 0.007852465 4.743098e-06 0.0011354944
000030 65 b8 50 3c 83 a6 46 3b c3 b3 57 3b cd a5 1b 3c
       0.012739276 0.003031165 0.0032913543 0.009499979
000040 54 36 31 38 12 24 83 3a 53 70 e6 3b 48 d0 b9 3a
       4.2250686e-05 0.0010005257 0.007032433 0.0014176453
000050 7f 0f 57 38 af 64 a2 37 b7 81 6d 37 7a 13 0a 3c
       5.1274426e-05 1.935879e-05 1.4156502e-05 0.008427495
000060 5a 92 24 3b 2e c6 55 3b e3 ec 58 39 ec 99 a5 3c
       0.0025111646 0.0032619345 0.00020687612 0.020214997
000070 b0 62 ff 3a 6b 6d 20 39 df ed 67 3c 52 5f ab 39
       0.0019484367 0.0001529955 0.014155834 0.0003268668
000080 f3 e0 0d 39 92 64 e8 37 88 c0 22 3c 5e 75 61 3d
       0.00013530608 2.7703387e-05 0.009933598 0.05504357
000090 df 0d 1f 3b 66 d4 2f 3d d4 5f 12 3d c0 04 09 3d
       0.0024269742 0.04292717 0.03573592 0.033451796
0000a0 5e f9 65 3d bf fe a8 3c 4c 66 2f 3a 5a 38 14 3a
       0.05614602 0.020629285 0.00066909636 0.0005654149
0000b0 3b b0 f6 3d 46 8d dd 3b 80 b6 c2 37 c7 92 95 38
       0.12045332 0.006761226 2.3211585e-05 7.132213e-05
0000c0 6d 07 7b 3d b3 47 16 3c 9c 7a 12 38 f3 22 66 3b
       0.06128638 0.009172368 3.49233e-05 0.0035116046
0000d0 59 5e 92 3c 5f 1a 8d 37 48 6c 4a 39 fb 8d 0f 3c
       0.017867254 1.682079e-05 0.00019304559 0.008761878
0000e0 47 a6 1f 39 6c 03 03 3b a7 f8 ff 3a 32 e4 0e 3c
       0.00015225365 0.0019991053 0.001952906 0.008721398
0000f0 00 a2 26 38 25 29 b0 36 05 60 53 38 dd 3c 81 38
       3.972836e-05 5.2499986e-06 5.0395745e-05 6.162536e-05

encoder.block1.convblock3.0.depthwise_conv.weight f4 [64, 1, 3]
000000 da 85 ed 3d c7 58 32 bd 1f 2b 48 3c 66 44 02 be
       0.11597796 -0.043541696 0.012217312 -0.12721404
000010 10 a9 f9 bd 0c 37 88 bd 26 6d 4d be 95 45 16 be
       -0.12190449 -0.06651124 -0.20061168 -0.14674981
000020 84 1b 25 be e0 25 82 be 1a b3 6c bd 39 39 b5 be
       -0.16123778 -0.2541952 -0.057787992 -0.3539522
000030 ad 46 b6 3c 1d 85 53 3d 11 d2 8d 3d 5a 30 dd bd
       0.022250498 0.05164062 0.069248326 -0.10800238
000040 b6 04 f5 bd 28 0e 1d be c7 79 ba bc 0b 88 e9 3d
       -0.11963789 -0.15337431 -0.022763146 0.11402901
000050 26 20 7b be de 82 d6 3c 52 22 df 3d b3 c8 0a 3e
       -0.24523982 0.02618545 0.10895218 0.13553123
000060 6a ba da 3d ee f1 25 3e 31 3a c9 3d 1a a6 c9 bc
       0.10680087 0.1620557 0.09825552 -0.024615336
000070 02 d3 29 bd b0 fb f3 bc 7d 9f c7 bc f3 38 d5 3b
       -0.041461 -0.0297831 -0.024368042 0.006507033
000080 90 f3 8a 3c 7e c5 2b 3d 6d 89 57 3d 8e a1 3c 3d
       0.016961843 0.04193639 0.052621294 0.046052508
000090 70 8f 56 bd 4e 4d 2d be 3f 89 5f be 2f 9a 0d bd
       -0.052382886 -0.1692402 -0.21829699 -0.03457087
0000a0 13 b4 37 bd 75 c3 a9 bd 97 b0 ba bd 37 bd bf bd
       -0.044849467 -0.082892336 -0.09115713 -0.09362262
0000b0 ce 04 f2 bd e3 ed 95 3d 59 1d 1e bc 3d 8e 3a 3e
       -0.11817323 0.07320764 -0.009650552 0.18218322
0000c0 0f 73 19 bd ef e4 7f bc fd 28 35 3c 7f bd 93 bc
       -0.037463244 -0.015618547 0.011057136 -0.018034695
0000d0 fd 57 e9 3d 68 49 9c 3e cd 85 89 bd 1d e0 11 be
       0.113937356 0.30524755 -0.067149736 -0.14245649
0000e0 de 1e 83 be 7e 45 56 be 6d 7b cc 3e d7 d4 27 be
       -0.25609487 -0.20924947 0.39937916 -0.16389786
0000f0 b6 fc 33 bc 23 c5 43 3d e0 d1 21 bd 0d e0 b2 bb
       -0.010985544 0.047795426 -0.039506793 -0.005458838
000100 34 c0 06 3c 3e 30 54 bd 36 71 2e 3d 3a 59 0d ba
       0.008224536 -0.05180382 0.042588435 -0.0005392019
000110 b0 29 a5 3b fb 0c 6c 3e 7b 62 19 3e 5a 2f 18 3e
       0.00504037 0.23051827 0.14978974 0.14861813
000120 e1 79 7a bc d2 f9 3c bb 38 69 0b 3c ce 73 cb be
       -0.015287847 -0.0028835428 0.008508973 -0.3973679
000130 ac 9f ab 3e 34 67 bc 3d cc c8 e0 bc fc 8c 1b bd
       0.33520257 0.09199372 -0.027439497 -0.03797625
000140 fd bf 89 3a 61 ff 06 bd 89 a1 dd bd b6 cb e1 bd
       0.0010509487 -0.032958392 -0.10821826 -0.11025183
000150 10 35 5a bd 84 47 9c bd 7d 86 b2 bd cb f0 36 3d
       -0.05327326 -0.07630828 -0.08717058 0.04466323
000160 78 80 6b 3d 72 4a 89 3d 64 8e 17 bf a4 9e c0 3d
       0.057495564 0.067036524 -0.59201646 0.09405258
000170 bf 6c 88 3d 1d 49 56 3d 21 8b 29 3d 10 a5 7b 3d
       0.06661367 0.05231582 0.04139245 0.061436713
000180 48 7a 98 3c a7 b8 8a bd a9 bf 88 bd e7 99 c9 bc
       0.018612996 -0.06773501 -0.06677181 -0.02460952
000190 e9 ae c1 3a 4d 58 8b 3c 2d 4f d6 3d 54 8e b7 3d
       0.0014776859 0.017009879 0.1046432 0.08962694
0001a0 ca d1 b3 3d 95 44 2b 3f 98 06 40 bf 1d d7 0e be
       0.087802485 0.6690152 -0.7501006 -0.13949247
0001b0 04 d1 d1 3d 3c bf 2b 3d b6 8c a2 3d 85 5b 79 bc
       0.10244945 0.041930422 0.07936995 -0.015219574
0001c0 7b d5 e8 bd 2e da 52 be 5e 15 40 3f 22 3b 6c be
       -0.11368843 -0.20591041 0.75032604 -0.23069432
0001d0 50 d5 e2 3b 56 a3 ab be 2f f3 8c be 90 61 26 3f
       0.0069224015 -0.33523053 -0.27529284 0.6499262
0001e0 db 61 aa be 84 0c 8a be b8 8c 91 be 5b 59 9f bd
       -0.33277783 -0.26962674 -0.28427672 -0.07780715
0001f0 01 d3 86 bd 84 90 f9 bd c6 12 16 3e 1e 66 d0 3d
       -0.065832146 -0.12185767 0.14655599 0.10175727
000200 3f a6 41 3e 7a e8 5d 3d e5 85 29 3d 37 ad a0 3d
       0.18911074 0.054176785 0.041387457 0.07845538
000210 de eb d6 3d b4 4a 1b 3e ec ac ae 3e 0d b1 f1 3d
       0.10494207 0.15165216 0.34116304 0.11801348
000220 5d cf 1f 3e 1a c3 ab 3d 52 0a 46 3d b7 42 95 3b
       0.15606447 0.08386822 0.048349686 0.004555072
000230 69 85 03 3c 5d 6e 26 3c a8 f4 bc bc 84 0f 03 bd
       0.008027413 0.010158149 -0.02306588 -0.03199722
000240 ce f0 d8 bd 11 8f fe bd 30 54 fd be 27 1d 68 be
       -0.10592805 -0.124296315 -0.49478292 -0.2266737
000250 d3 e4 7a be a2 7f 99 be 4c bc 3e 3c 44 bd 26 bc
       -0.24501352 -0.2998019 0.011641573 -0.01017696
000260 f4 26 e1 3c a5 ff b1 3d bb 11 d3 3d e7 80 dc 3d
       0.027484395 0.086913384 0.10306116 0.10766774
000270 09 64 94 3e 2a ac 2a 3e 9e c1 ff 3c 2a 36 27 bc
       0.2898257 0.16667238 0.031220254 -0.010205785
000280 a7 ea 60 3c 64 fc 32 3c a7 3a 1c bd cc 21 0c bb
       0.0137278205 0.010924432 -0.038141873 -0.002138245
000290 ed 89 67 3d d4 48 9b bd fb f3 14 be 83 d2 70 be
       0.05652802 -0.0758225 -0.14546196 -0.23517804
0002a0 cd 36 83 3c 46 ee 8f 3c 1e 65 df 3c 8f c8 94 3c
       0.016017342 0.017569672 0.027269896 0.01816204
0002b0 ea 9d 5c 3d 51 4c 96 3d 9a ad 57 bd b7 89 50 bd
       0.053861536 0.07338775 -0.052655794 -0.050912585
0002c0 8f 3c 1f bd e5 ca 4e 3d 0a 06 8f be 0b 2b 0f 3f
       -0.038876113 0.050486464 -0.27934295 0.55925053
0002d0 b3 e4 da 3c bc f4 33 3c c4 8a 0e bb 51 2b 30 3c
       0.02672038 0.010983642 -0.0021750191 0.010752515
0002e0 b3 0d ad bc c8 79 8f 3c 4d dd 39 bc fc 5d cb 3d
       -0.021124696 0.017514125 -0.011344266 0.099300355
0002f0 54 36 07 bc 88 c8 48 3c e1 26 dd 3c 1f 92 f7 3c
       -0.008252699 0.012254842 0.026996078 0.030221043

encoder.block1.convblock3.0.pointwise_conv.weight f4 [64, 64, 1]
000000 00 e9 ab bb 1d 79 56 3d 52 a3 9e be 3f 36 84 be
       -0.0052462816 0.052361596 -0.3098398 -0.25822636
000010 96 25 c5 bd b7 c1 1c bd 38 7d 3f 3c b3 ed a3 bc
       -0.096263096 -0.03827068 0.011687569 -0.020010805
000020 df 09 3a 3e 4d 49 c4 3a 2e e5 5b 3b 5d 3a 77 bc
       0.18167828 0.0014975459 0.003355335 -0.0150895985
000030 c2 0d 56 3e 27 dd bb bc ff f0 42 3c b4 ea f6 bc
       0.20903686 -0.022932602 0.011898278 -0.030141212
000040 13 ba e4 bb 1f f9 fd bd 26 bf 51 3e 6d 6d 47 bd
       -0.0069801896 -0.12401032 0.20483074 -0.04868834
000050 dd 09 97 bc 36 24 40 3b 21 17 24 ba 88 0d f3 bd
       -0.01843732 0.0029318458 -0.000625955 -0.11867815
000060 c5 29 35 bd d0 20 7c bd 9b a0 a2 bb d5 de af bb
       -0.044229288 -0.06155473 -0.0049629933 -0.00536714
000070 1f 92 b1 bc 14 4e 08 3c 17 f3 bc bd 8d 71 37 bd
       -0.021676121 0.0083193965 -0.09226053 -0.044786025
000080 62 c6 15 bc be 6c b2 bb 70 5f 7e bd 63 89 1b be
       -0.009141536 -0.005445092 -0.062102735 -0.15189128
000090 d8 d5 08 bd 23 5e 35 3e d4 6c 62 bd 8d 7f 8f 3e
       -0.033407062 0.17711692 -0.055279568 0.28027
0000a0 ff 68 79 3e 1f d2 e8 3d d1 63 7b bd ec 50 32 bd
       0.24356459 0.113682024 -0.06137449 -0.043534204
0000b0 0c f7 73 3d 08 60 eb 3c 3b 60 45 bb ca 63 25 3b
       0.059561774 0.028732315 -0.0030117172 0.002523648
0000c0 f0 c1 e6 3b c8 22 0a be 9f 0f 31 3b f6 09 4d bd
       0.007042162 -0.1348983 0.0027017368 -0.050058328
0000d0 3c f2 68 3c df b0 a2 bb 1e 51 68 3c a7 7b 8d 3e
       0.014217909 -0.0049649323 0.014179496 0.27633402
0000e0 61 36 93 3b 1a 8e 24 3d 59 88 17 3d b5 bb 39 bd
       0.0044925665 0.04017458 0.036995266 -0.045345027
0000f0 40 43 2b bb 36 cf f0 bb c6 99 be ba c6 e7 48 3b
       -0.0026132613 -0.00734892 -0.0014541678 0.0030655726
000100 5c 6c 5d bc 38 dc d4 3c 12 c0 64 3d 88 23 87 3d
       -0.013514604 0.025983915 0.055847235 0.06598574
000110 21 ca 82 bb ad 74 11 3d 79 1f 93 3b 02 06 3e bc
       -0.003991381 0.03551166 0.004489836 -0.011598112
000120 00 d6 38 bd 82 af 02 3c 15 0a a6 39 b8 dc b8 bc
       -0.04512596 0.007976415 0.000316695 -0.022566184
000130 33 16 e8 bc 9c 7e b3 3c 4c 29 b3 3c 88 2b a3 3b
       -0.028330898 0.021910958 0.021870278 0.0049795546
000140 35 8f 1c 3c b4 0e 93 3c 4d 5c f8 bc 0f 42 65 3e
       0.009555628 0.017951347 -0.03031745 0.2238848
000150 0e 01 0b 3c e3 8a 11 bb 06 f4 62 bc ff 59 a4 bd
       0.008484138 -0.0022208027 -0.013852125 -0.08024978
000160 86 60 44 3c 21 0f aa bd 60 b6 d9 3a 6e dd e4 3c
       0.011985904 -0.08303667 0.0016610138 0.027937617
000170 cc b9 b0 3c 5c 2e 07 bb ff f1 b6 bd 89 41 1b 3c
       0.02157297 -0.0020626998 -0.08932876 0.009476074
000180 08 e4 fb 3b fd 64 60 bb e4 18 4e 3c 86 b3 a6 be
       0.0076870956 -0.0034239881 0.012579177 -0.3255884
000190 1b c1 a1 bc 9c 90 f9 ba 7e e8 0a be d2 af 41 3e
       -0.0197454 -0.0019040289 -0.13565251 0.18914726
0001a0 a7 99 04 bd e0 fd 41 bd 47 f6 48 bd 0f 3a 39 3b
       -0.032373097 -0.047361255 -0.049062993 0.0028263365
0001b0 fc 06 da 3c 28 0d 0b bd 08 cc 80 bb d4 85 69 3a
       0.026614659 -0.033948094 -0.0039305724 0.00089081866
0001c0 50 89 23 bd c2 c7 8a 3d 1f b0 c2 3b 42 8e 54 3b
       -0.039925873 0.06776382 0.0059414054 0.0032433425
0001d0 f0 a0 2b 3d 60 e4 46 3b 81 ea 32 3c ef ec 58 bd
       0.04190153 0.0030348524 0.010920168 -0.052960332
0001e0 b8 2b e0 bb a6 a2 97 bc d2 ad 85 bb 88 07 8d bd
       -0.006841149 -0.018510174 -0.004079559 -0.06886202
0001f0 21 cf 65 bb 06 1a ea 3b af 77 6a bc 5d 87 3c b9
       -0.0035066085 0.0071442155 -0.014310761 -0.00017979504
000200 90 59 8a bb 16 aa 6d 3c b5 cd ad 3e f5 d5 4a 3e
       -0.0042221025 0.014505884 0.33946005 0.1980818
000210 9a 07 10 3c 85 29 4b 3e b7 50 18 3d 7c a1 c7 3b
       0.008790875 0.19840057 0.03718635 0.0060922485
000220 50 0b 16 be 44 92 08 3e 22 f4 ae 3a cd aa d6 bd
       -0.14652753 0.13337046 0.0013347904 -0.104817964
000230 fa c6 3a 3e 29 93 c7 3d 93 19 fa 3d a8 a4 ca 3d
       0.18239966 0.097448654 0.12211909 0.09894687
000240 3e 2f 13 3b 9b 3a 3c bb c1 92 1b be 85 c9 a3 bd
       0.0022458578 -0.0028721455 -0.15192701 -0.07997421
000250 64 b9 ba bb b4 b4 c7 3b 45 9f 36 b9 81 7e 42 bd
       -0.00569837 0.0060945395 -0.00017416205 -0.047483925
000260 23 c0 b0 bc a3 ef c2 bd b2 42 f9 3c ba 15 df 3d
       -0.021575993 -0.09518363 0.03042731 0.10892816
000270 d8 7b 2a 3e 3c ff 11 bd e8 5f 8e bd 17 f7 6e 3c
       0.16648805 -0.0356438 -0.069518864 0.014585278
000280 08 5b ab b9 10 47 4f 3a a7 c4 8a bd 33 3a f4 bb
       -0.00032683485 0.00079070125 -0.0677579 -0.007453227
000290 bc d5 3e bd db 5e 9b bd ef d4 85 3d 3e 03 0f 3c
       -0.04659055 -0.075864516 0.065347545 0.0087288
0002a0 49 28 3b be b7 90 37 3d 70 b9 26 be 46 2f ae 3a
       -0.18277086 0.044815745 -0.16281676 0.0013289235
0002b0 8f da af 3e 09 fb 48 be f6 36 68 bc 68 0d 28 3b
       0.34346434 -0.19627012 -0.01417326 0.0025642756
0002c0 d1 49 a9 bd 0c f6 9b 3e 75 c9 a2 bb 62 bb 79 bd
       -0.082660325 0.30461156 -0.004967863 -0.060969718
0002d0 ce 22 21 3e 3c d5 64 3b cd 7a e6 3b 57 18 f7 bd
       0.15735933 0.0034917137 0.007033682 -0.12065189
0002e0 3a 49 b1 bc 88 9b cd bd 78 b6 98 3c 54 c4 47 be
       -0.021641362 -0.10039431 0.018641695 -0.19508487
0002f0 96 38 61 bc 3d 97 94 bb 66 b8 a9 bc ef 09 bb bc
       -0.013746401 -0.0045346306 -0.02071781 -0.022831885
000300 df 4e da 3d 96 a1 db 3d ad da 94 3c 25 6e a8 bd
       0.10659575 0.107241794 0.018170679 -0.082241334
000310 0d 31 55 bd 12 3e 1f 3d 0e fa 62 3d 7d 21 96 bc
       -0.05204873 0.038877554 0.055414252 -0.018326515
000320 f1 8d 58 3d 1e 33 d8 3b e7 3c 7e 3b e7 12 c8 bc
       0.05286974 0.0065978905 0.0038793625 -0.024423076
000330 0a 8a 03 3e f4 53 c5 3c ac 7e c2 3b e5 3a 4b bd
       0.12845626 0.024087884 0.0059355106 -0.049616713
000340 50 0e 78 bc 0b 28 a0 bd e3 01 c4 3d bb 74 12 3e
       -0.015140131 -0.078201376 0.09570672 0.14302342
000350 c4 81 29 bb 82 d6 2c 3c fe 73 ba bb 11 7e 29 be
       -0.00258647 0.0105491895 -0.005690097 -0.16551997
000360 a7 0d 19 bd ae e1 06 3d d1 dd f6 bb 14 28 8c 3d
       -0.037366536 0.03293007 -0.007533767 0.06843582
000370 fa 16 81 3d 2a 19 9c bc bc 70 c3 3e 8f d7 25 bd
       0.063032106 -0.019054968 0.38171947 -0.040488776
000380 ae 48 f9 3c ea fe 0f bc b2 42 a5 bd 6b 4f 01 3e
       0.030430164 -0.008788804 -0.08069362 0.12627952
000390 5a cd 08 bd 9e a0 e0 3c 25 b5 1a 3f d5 f8 bf 3c
       -0.033398964 0.027420338 0.60432655 0.023434082
0003a0 5c 94 aa 3d c7 58 3e 3d 34 5a 74 bd 7b 47 5a bd
       0.083290786 0.046471383 -0.059656337 -0.053290825
0003b0 1c bf 5f 3d 4f b0 9d bd 09 5a 52 bc ca 57 a2 3a
       0.054625615 -0.07699644 -0.012838849 0.0012385782
0003c0 de 13 c8 3d 6f fe 86 3d e4 d7 bf ba 6d 5e 6b bc
       0.09769414 0.06591498 -0.0014636484 -0.014365775
0003d0 1f c6 1e 3d 5c 00 62 bb 19 00 35 bc 94 8b f9 3d
       0.03876316 -0.0034485077 -0.011047387 0.121848255
0003e0 de 8b aa bb d7 f4 95 bd f4 d0 07 3d 20 6e 57 bd
       -0.0052046617 -0.0732209 0.033158258 -0.052595258
0003f0 6a 29 80 3b 73 a7 34 3a 98 63 1c 3b b8 9b f5 3a
       0.003911187 0.0006891407 0.0023863073 0.0018738424

encoder.block1.convblock3.1.weight f4 [64]
000000 bb f5 24 3f c5 b6 d1 3e 40 22 55 3f e6 54 0a 3f
       0.64437455 0.40959755 0.83255386 0.54035795
000010 92 93 20 3e 9a 3b 48 3e f4 6d 93 3e 70 e1 a7 3e
       0.15681294 0.19553986 0.28794825 0.32789183
000020 8c a0 4d 3e 13 ed f3 3e 76 61 c5 3e e5 72 44 3d
       0.20080775 0.4764181 0.3855092 0.047961134
000030 24 12 c4 3e c1 80 21 3f 1e ad 9c 3e 22 d0 da 3e
       0.3829509 0.6308709 0.30600828 0.42736918
000040 74 40 11 3e 3f 4f 0d 3f 3d 36 39 3f cc d7 37 3e
       0.14184743 0.55199045 0.72348386 0.17953414
000050 70 22 7f 3e 78 ab 8b 3e 55 04 78 3e dd 0b c4 3e
       0.2491548 0.27279258 0.24220403 0.382903
000060 f0 27 38 3e 20 38 1a 3e 88 65 8d 3e e5 db d6 3e
       0.17983985 0.15060472 0.27616525 0.4196464
000070 e1 e1 00 3f 8f 31 bb 3e 17 b6 e7 3e cc 2b 04 3f
       0.50344664 0.36561248 0.4525611 0.5162933
000080 fc d6 c4 3e a7 b5 ae 3e f0 bc fa 3e 29 ff b1 3e
       0.3844527 0.34122965 0.48972273 0.34764984
000090 c1 4e b2 3e 4d a3 47 3e 4a 1b 11 3f 45 9a 24 3e
       0.3482571 0.19495888 0.56682265 0.16074474
0000a0 0c af 47 3e 6c d5 26 3e 09 6c 8f 3e 4e f3 47 3e
       0.19500369 0.16292351 0.28012112 0.19526407
0000b0 5e 2b 16 3f cc b6 c5 3e 79 30 2d 3f b2 e6 c3 3e
       0.58659923 0.38616025 0.6765209 0.38261944
0000c0 7b e1 c3 3e 49 48 06 3f e7 21 c2 3e f0 79 b4 3e
       0.38257965 0.5245405 0.3791649 0.3524928
0000d0 dd 3b be 3e 08 90 7b 3e 5f f1 60 3e a7 2d 1f 3f
       0.37155047 0.24566662 0.21967076 0.62179035
0000e0 a5 02 0a 3f 6b 5c e7 3e 54 74 0f 3f 94 7e 04 3e
       0.53910285 0.45187697 0.5603688 0.1293891
0000f0 aa f6 ba 3e a4 bd 9f 3e 80 48 64 3f cd 54 92 3e
       0.36516315 0.31199372 0.89173126 0.28580323

encoder.block1.convblock3.1.bias f4 [64]
000000 85 ea 4d be e6 29 46 be 91 13 be be f0 5f 0c be
       -0.20108993 -0.1935192 -0.37124303 -0.13708472
000010 fb 79 24 3b 8e 92 94 3c 75 b8 75 3d 74 76 2b 3c
       0.002509712 0.018136289 0.059990365 0.010465253
000020 3b 4a c9 38 f8 5b 8a be 04 a3 ab bd 28 cb c3 ba
       9.5982534e-05 -0.27023292 -0.08380702 -0.0014937865
000030 53 af 8e bc 2e 84 ac be fb 9c 40 bc 8e b1 24 bd
       -0.017417585 -0.33694595 -0.011756177 -0.04020839
000040 2e 25 6c 3c 56 62 37 be 6b 2b ae be 4d 1b 5c bc
       0.014413161 -0.17908606 -0.340175 -0.013434243
000050 35 e6 05 3d 96 46 31 be dd 8a 9e 3c 19 52 06 be
       0.032690246 -0.17312083 0.019353325 -0.13117255
000060 1a f7 d3 3c c2 4a 44 bd c0 28 4d be e5 94 a5 be
       0.025874663 -0.047922857 -0.20035076 -0.3234016
000070 25 ef 8f be c6 43 9c bc 21 f0 a5 bd 42 98 96 bd
       -0.2811214 -0.019075286 -0.081024416 -0.073532596
000080 f7 56 a9 ba 91 dc 5c bd 29 36 0a be cf 6d 18 bd
       -0.0012919594 -0.053921286 -0.13497223 -0.037214097
000090 b6 95 87 3c f9 e7 9d bd fb 3e ac bd 34 18 11 bd
       0.01655088 -0.07710261 -0.0841045 -0.035423473
0000a0 62 ae 07 bd 0e 4f 24 3d 25 e2 53 be 96 78 3d 3d
       -0.03312529 0.040114455 -0.20691736 0.046257578
0000b0 db e4 3c be 8b 17 95 bc 40 14 4d be f6 f7 e7 bd
       -0.18446676 -0.018199703 -0.20027256 -0.11326592
0000c0 44 e6 20 bd 40 02 b9 bd a5 f1 9e bc 14 ab 94 3b
       -0.0392821 -0.09033632 -0.019402334 0.0045369957
0000d0 85 8b 19 be f2 14 1d be c7 42 66 3d af 68 f0 bd
       -0.14994629 -0.15340021 0.056216028 -0.11738717
0000e0 62 6d ec bd 7a 30 95 bd 2a 73 b4 bd 52 12 86 3a
       -0.115443006 -0.07284637 -0.08811028 0.0010228849
0000f0 7c 49 30 bd 93 b3 a9 bc f7 9c b5 be 4a 2c ef bc
       -0.04303883 -0.02071551 -0.35471317 -0.029195923

encoder.block1.convblock3.1.running_mean f4 [64]
000000 3c cb 1a 3d 18 ca 8a 3b b2 43 79 3c ec a8 f7 3a
       0.037791476 0.0042355172 0.015213894 0.0018894947
000010 78 fb ac ba 24 d3 9e ba 1f c6 29 bc 5a c3 23 3c
       -0.0013197502 -0.0012117368 -0.010362177 0.009995306
000020 7c 8e e0 bb 3a ce e4 3b a8 a5 bc 3c 5b 94 95 ba
       -0.006852923 0.006982592 0.02302821 -0.0011412011
000030 58 34 11 3c 3d 26 29 3d d1 f1 1f bb d8 65 e1 3c
       0.008862577 0.041296232 -0.0024405608 0.027514383
000040 9c 7b a3 bc 8b e4 ba 3c 21 09 e1 3c 49 6c 34 39
       -0.019956402 0.022814056 0.027470173 0.00017206477
000050 34 00 10 bc af e8 09 3d c7 b7 93 3c fe 69 ff 3b
       -0.008789111 0.03366917 0.018031968 0.0077946177
000060 42 66 e5 3b 3e 4b 10 3c cc c2 7d 3c 59 3a df ba
       0.0070007155 0.008807002 0.015488338 -0.0017030939
000070 48 cd 81 3b 9b 3f ea 3c 0d 66 29 3c ec 7c f1 3c
       0.003961239 0.028594783 0.010339272 0.029478513
000080 d5 de 5f bc df 86 ca bb 00 39 5b 3b 1c d6 cd bb
       -0.013663967 -0.0061806287 0.0033450723 -0.0062816273
000090 07 4e 63 bc 40 a7 d9 3b d1 20 3e 3d dd 77 6a ba
       -0.013873584 0.006642252 0.046418015 -0.00089442526
0000a0 f5 62 3c bb 72 ab 63 3a 05 1a 1c 3c 9e 80 68 3c
       -0.0028745506 0.000868491 0.009527688 0.014190821
0000b0 8f a9 dd 3c 64 f9 10 3d 5b 63 d0 3c 6b 0c 96 bb
       0.02705839 0.035394087 0.025438001 -0.004579117
0000c0 6e bf f1 ba 30 02 e7 3c 6d 50 12 3b cf d0 07 3b
       -0.0018443891 0.028199285 0.002232577 0.0020723825
0000d0 0d 42 c4 bc 07 f4 1c 3b 94 b8 e3 bb 95 b5 df 3c
       -0.023957277 0.0023949163 -0.0069494937 0.027308265
0000e0 59 c8 e7 bb 45 88 93 3c f6 98 e2 3c 54 43 4f 3b
       -0.007073444 0.018009314 0.027660828 0.0031625824
0000f0 f1 98 66 3b 8b 84 9a 3c df 67 60 3d 77 fc 77 3b
       0.0035186375 0.01886203 0.05478656 0.003783969

encoder.block1.convblock3.1.running_var f4 [64]
000000 c0 ce af 3a 4d ff 93 39 6f 84 19 3b 26 0d c1 3a
       0.0013413057 0.0002822824 0.0023424884 0.001472865
000010 a4 6a 8f 39 53 18 c4 37 38 fd 52 39 a4 86 ac 3a
       0.0002735454 2.3376348e-05 0.00020121492 0.0013162685
000020 51 30 84 38 1c 25 88 39 31 19 18 3a 83 c6 27 35
       6.30325e-05 0.0002596759 0.00058020937 6.250122e-07
000030 a2 4a 32 3a 4b e3 76 3a e8 46 9d 39 ed 49 fa 3a
       0.0006801282 0.00094180246 0.00029998203 0.0019095518
000040 48 be d0 38 1a f2 45 3a 4b 85 84 3a 65 16 db 37
       9.9536555e-05 0.00075510296 0.0010110525 2.6117263e-05
000050 2d 90 64 38 f8 a9 c2 3a 83 fe b3 39 3d 56 4a 39
       5.449371e-05 0.001485168 0.00034331167 0.00019296347
000060 e4 55 80 39 57 7f 17 39 cf d3 ec 3a 05 46 d2 39
       0.00024478056 0.0001444792 0.0018068495 0.0004010649
000070 59 9c 00 3a 70 15 a8 3a b4 7c 7e 3a 8f 06 1d 3b
       0.000490611 0.0012823772 0.0009707913 0.0023960208
000080 86 d2 83 3a 4f 0d f8 39 1c 05 92 3a 72 7e bf 39
       0.0010057248 0.00047312162 0.0011140439 0.00036524568
000090 90 ea ef 39 2d 94 13 39 a8 dd 15 3b 9a 0e 49 37
       0.00045760395 0.00014074212 0.0022867713 1.1983933e-05
0000a0 de 44 20 38 8e 0b d0 37 16 93 15 3b 19 3a 0b 3a
       3.821111e-05 2.4800913e-05 0.0022823266 0.00053110864
0000b0 ff 3b 83 3a 7b 5b 02 3b 75 ce ca 3a 1c 3e f8 39
       0.0010012387 0.0019890952 0.0015472906 0.0004734852
0000c0 3f e2 05 3a fd eb 2e 3b 07 ab 3d 3a 5a a8 49 3a
       0.00051072607 0.0026690953 0.0007235263 0.0007692628
0000d0 04 d1 95 39 3a bf 5c 39 cb d9 a5 38 b0 ed 54 3b
       0.00028575223 0.00021052072 7.90838e-05 0.0032490306
0000e0 11 a0 c3 3a 66 6f 98 3a 5e 84 66 3b 31 00 66 37
       0.0014925023 0.0011629879 0.0035174112 1.3709113e-05
0000f0 f8 9d f0 39 7b 4d 07 3a 79 fb 17 3b 70 8f 2f 39
       0.00045894063 0.0005161387 0.002319066 0.00016742735
