ldpi/training/output/ResCNN/scripted_quantized_model.pth (torch, 269226 bytes, 61 tensors)

cpu f4 [64]
00000000: 0000 0000 0000 0000 0000 0000 0000 0000
00000010: 0000 0000 0000 0000 0000 0000 0000 0000
00000020: 0000 0000 0000 0000 0000 0000 0000 0000
00000030: 0000 0000 0000 0000 0000 0000 0000 0000
00000040: 0000 0000 0000 0000 0000 0000 0000 0000
00000050: 0000 0000 0000 0000 0000 0000 0000 0000
00000060: 0000 0000 0000 0000 0000 0000 0000 0000
00000070: 0000 0000 0000 0000 0000 0000 0000 0000
00000080: 0000 0000 0000 0000 0000 0000 0000 0000
00000090: 0000 0000 0000 0000 0000 0000 0000 0000
000000a0: 0000 0000 0000 0000 0000 0000 0000 0000
000000b0: 0000 0000 0000 0000 0000 0000 0000 0000
000000c0: 0000 0000 0000 0000 0000 0000 0000 0000
000000d0: 0000 0000 0000 0000 0000 0000 0000 0000
000000e0: 0000 0000 0000 0000 0000 0000 0000 0000
000000f0: 0000 0000 0000 0000 0000 0000 0000 0000
0.0 0.0 0.0 0.0 0.0 0.0 0.0 0.0
0.0 0.0 0.0 0.0 0.0 0.0 0.0 0.0
0.0 0.0 0.0 0.0 0.0 0.0 0.0 0.0
0.0 0.0 0.0 0.0 0.0 0.0 0.0 0.0
0.0 0.0 0.0 0.0 0.0 0.0 0.0 0.0
0.0 0.0 0.0 0.0 0.0 0.0 0.0 0.0
0.0 0.0 0.0 0.0 0.0 0.0 0.0 0.0
0.0 0.0 0.0 0.0 0.0 0.0 0.0 0.0

weight f4 [64]
00000000: 0623 b93d 5b5c 5e3d 2594 003f 1988 d03e
00000010: 07fb c03d d087 313f 61a7 f93e 09af 4b3d
00000020: 7a72 253e e523 2e3f 29b2 823d 199b 7d3e
00000030: 3620 9d3e 7d34 303e 147e b23e 9a23 a53e
00000040: f44d f93d 0002 003f d1eb 573e de54 483e
00000050: bb19 8a3d 4a59 143e f974 d63d 18de 7d3d
00000060: 0eea 193f 29c8 113e 5bf1 253f 217c ef3e
00000070: c9fd ec3e 616a 9a3d 1159 a03d f3a1 993d
00000080: 9e4c 393d 8ab5 dc3e 11f5 893d 97bb 193e
00000090: 7d49 d13e f1e0 703e e13b c93e f6db ca3e
000000a0: 61fb 0f3e 943e 103f 2924 103e 6f18 dd3e
000000b0: b6db 333e 9a90 e93e 1fb5 883e bcae a23e
000000c0: 8bd3 d43d cabd 303e 34e4 3b3d 6b64 c43e
000000d0: 2039 e83d a05d c43d 28aa d0bd cdf8 103e
000000e0: 8aff 673e 7a02 453e 1db3 1f3e b3dc 563e
000000f0: 3cb0 523e 6b1d 973d a088 ef3e 3e5f 953e
0.09039883 0.054287296 0.5022605 0.40728834 0.0942288 0.6934786 0.48760512 0.049727473
0.1615695 0.6802352 0.063816376 0.24766196 0.30688637 0.17207523 0.34861815 0.32253724
0.121730715 0.5000305 0.2108605 0.19563624 0.06743189 0.14487186 0.104715295 0.061979383
0.60122764 0.14236511 0.64821404 0.4677439 0.46287373 0.075398214 0.07829488 0.075015925
0.045239083 0.43107253 0.06736196 0.15012966 0.4087638 0.23523308 0.39303496 0.39620942
0.14060737 0.56345487 0.14076294 0.43182704 0.17564282 0.45618135 0.26700684 0.31773937
0.10391911 0.17259899 0.04587193 0.38357863 0.11339021 0.0958817 -0.10188705 0.1415741
0.22656074 0.19239226 0.1559567 0.20982628 0.2057504 0.07378658 0.46783924 0.29174227

bias f4 [64]
00000000: 1083 b8be 0cbb 52bc 3eb6 193f 74c7 67be
00000010: 7dff bbbc 677b 57be 9614 f33d e35c 2dbd
00000020: 109b e2bc 52df 343e d80a 6c3e 6228 99be
00000030: 09d8 04bf f68b 3fbd e3d1 123f 5cf8 cebd
00000040: 8afa 423e 56d4 b3bd 72d2 cbbb 2957 5cbe
00000050: 7794 3b3f 9684 e7bd 9d1c 12be 6ca1 9c3c
00000060: 9450 993c 4b36 253d 341e 2e3e 0396 473e
00000070: 9d90 dfbd ae70 c8bd 485f 2dbe 8f87 b5bc
00000080: 77c8 24bc abbb ee3e 6639 9cbd 02f7 85bd
00000090: f4b6 5d3e c8c0 c0bd ca39 99be 0f2a 443e
000000a0: fbb6 f23c 1d61 c9be ea73 a43c 2135 233e
000000b0: 12ef ff3c 1fcd 5fbe 1c25 6f3d c824 0d3f
000000c0: accb 773d 2394 1c3d 0566 36bc ca5f 46bc
000000d0: 57bf c4bd 858d d93d 77a0 d73e 2627 1bbe
000000e0: ebed 8cbd 0957 64bd 4287 8ebe 36a9 673d
000000f0: 2680 803d bf9b 9cbd 117c 3cbe 279f a4be
-0.36037493 -0.012861978 0.60043705 -0.22634679 -0.022948975 -0.21043168 0.11869161 -0.04232491
-0.02766183 0.17663315 0.23051012 -0.29913622 -0.51892143 -0.046764337 0.5735151 -0.101059645
0.19040886 -0.08780734 -0.0062201554 -0.21517624 0.73273414 -0.11304586 -0.14268728 0.01911994
0.01871518 0.04033498 0.17003709 0.19490819 -0.10916255 -0.09787117 -0.16930878 -0.022159366
-0.01005756 0.46627554 -0.076281354 -0.065412536 0.21651822 -0.0941177 -0.29926902 0.19156669
0.029628268 -0.39331904 0.020074803 0.15938236 0.031241927 -0.21855591 0.058385 0.5513425
0.06049697 0.03822721 -0.011132722 -0.012107799 -0.09606808 0.10622696 0.42114612 -0.15151653
-0.06881317 -0.055747066 -0.2783757 0.056557857 0.062744424 -0.07646894 -0.18406703 -0.32152674

running_mean f4 [64]
00000000: c753 aa3c 8340 9fbc 6850 c33c c3d1 9b3c
00000010: 6ead d6bb 1c0a f6bc 5acc cabc 510d 3dbc
00000020: 3bd7 3ab9 476a 00bd b5a7 403c b35f babc
00000030: 1ee9 babc 60f9 4a3c 3920 be3c 566a 963c
00000040: 1f93 a2bc fab3 d0bc d69e 97bc 2cc2 b1bc
00000050: 9b88 783c 43f5 863c 5bd6 833c d02f 6abc
00000060: 5fba c13c a250 863c 840d 07bd a8c2 ed3c
00000070: ab2c d5bc c4fd e43b 7daa fe3b f0e9 09bc
00000080: 7ed7 34bb 2bb4 d63c da26 883c 0e42 6d3c
00000090: ecb2 a4bc 36ae cdbc 75bf d03c 2c84 ae3c
000000a0: 0eee 3e3c cedd 98bc c1f7 4abc 5119 c8bc
000000b0: cb70 9e3c 8ebb bd3c cad9 863c 0afb a23c
000000c0: 09f7 a3bb ea9b 293c 174a 84bc 8e6b c3bc
000000d0: 05d1 543c bb72 af3c 6751 953c 9ef7 87bb
000000e0: 6932 40bc 929b 633c 956d db3a ec0e 013c
000000f0: eee3 55bc b5d4 67bc a64f 8e3c 8441 a2bb
0.020791901 -0.019439941 0.023842052 0.01902092 -0.006551436 -0.030034117 -0.024755646 -0.011538819
-0.00017818522 -0.031351354 0.0117587345 -0.022750711 -0.022816237 0.012388557 0.023208724 0.018361252
-0.019845543 -0.025476445 -0.018508356 -0.021699034 0.015169288 0.016474372 0.016093424 -0.014293626
0.023648439 0.01639587 -0.032971874 0.029023483 -0.026022276 0.006988259 0.0077717886 -0.008417591
-0.0027594264 0.026208958 0.016620088 0.014481081 -0.020104848 -0.025107484 0.025481919 0.021303259
0.011653436 -0.018660452 -0.012388171 -0.024426134 0.019340893 0.023160722 0.016461272 0.019895095
-0.005003814 0.010352114 -0.01614861 -0.023854997 0.012989287 0.021417012 0.018227292 -0.0041493913
-0.011730769 0.013892071 0.0016741032 0.007877093 -0.013054831 -0.014149834 0.017371964 -0.0049516577

running_var f4 [64]
00000000: a6be dd39 55d8 c139 c2c9 113a 2294 b939
00000010: b720 3038 ed58 673a c92c 1d3a f096 0839
00000020: bc69 0533 d115 7c3a 7cd8 0d39 3dbf 043a
00000030: 4683 053a 9b72 1d39 4e25 0a3a fbed ac39
00000040: b204 ca39 0476 263a 30b6 af39 0f84 f139
00000050: c20f 6c39 c336 8b39 9cd9 8439 2b98 5139
00000060: 106e 0f3a ece3 8939 cf68 8b3a 370a 583a
00000070: 95ab 2d3a d265 4838 c3da 7738 f060 9138
00000080: 83f7 f936 c52b 303a fdaf 8d39 bf20 5739
00000090: 0255 cf39 a4ac 213a 5788 263a 3ac9 e839
000000a0: 0b51 0b39 849c b239 1970 1d39 c404 193a
000000b0: efdf bf39 2893 093a 1bfe 8a39 4807 cb39
000000c0: 027d cd37 eae0 db38 46c3 8539 4df2 113a
000000d0: 6316 2d39 5b47 eb39 5e6a aa39 c14d 8d37
000000e0: f72b 0d39 c4fb 4539 5202 3836 da9d 7e38
000000f0: b0d6 2e39 0f66 4d39 08cc 9a39 163a c937
0.0004229445 0.00036973009 0.00055613753 0.00035396317 4.1992138e-05 0.00088252017 0.0005995748 0.000130262
3.106264e-08 0.0009616288 0.00013527455 0.0005063897 0.00050931086 0.0001501538 0.0005269841 0.00032983706
0.0003853194 0.0006349983 0.0003351434 0.00046065493 0.00022512584 0.00026552947 0.00025339134 0.0001998848
0.00054714177 0.0002630049 0.0010636094 0.0008241268 0.0006624994 4.7778543e-05 5.9093127e-05 6.932195e-05
7.4495924e-06 0.00067203894 0.00027024737 0.00020516197 0.00039545452 0.0006167388 0.00063527137 0.00044400414
0.00013286264 0.0003406742 0.00015014446 0.0005837197 0.00036597202 0.0005248063 0.00026510734 0.00038724602
2.4496116e-05 0.00010484627 0.00025513227 0.00055674167 0.00016506905 0.00044875857 0.00032504176 1.6844717e-05
0.00013463186 0.00018881174 2.7419487e-06 6.070533e-05 0.0001667391 0.00019588343 0.00029525184 2.3988116e-05

cpu f4 [64]
00000000: 0000 0000 0000 0000 0000 0000 0000 0000
00000010: 0000 0000 0000 0000 0000 0000 0000 0000
00000020: 0000 0000 0000 0000 0000 0000 0000 0000
00000030: 0000 0000 0000 0000 0000 0000 0000 0000
00000040: 0000 0000 0000 0000 0000 0000 0000 0000
00000050: 0000 0000 0000 0000 0000 0000 0000 0000
00000060: 0000 0000 0000 0000 0000 0000 0000 0000
00000070: 0000 0000 0000 0000 0000 0000 0000 0000
00000080: 0000 0000 0000 0000 0000 0000 0000 0000
00000090: 0000 0000 0000 0000 0000 0000 0000 0000
000000a0: 0000 0000 0000 0000 0000 0000 0000 0000
000000b0: 0000 0000 0000 0000 0000 0000 0000 0000
000000c0: 0000 0000 0000 0000 0000 0000 0000 0000
000000d0: 0000 0000 0000 0000 0000 0000 0000 0000
000000e0: 0000 0000 0000 0000 0000 0000 0000 0000
000000f0: 0000 0000 0000 0000 0000 0000 0000 0000
0.0 0.0 0.0 0.0 0.0 0.0 0.0 0.0
0.0 0.0 0.0 0.0 0.0 0.0 0.0 0.0
0.0 0.0 0.0 0.0 0.0 0.0 0.0 0.0
0.0 0.0 0.0 0.0 0.0 0.0 0.0 0.0
0.0 0.0 0.0 0.0 0.0 0.0 0.0 0.0
0.0 0.0 0.0 0.0 0.0 0.0 0.0 0.0
0.0 0.0 0.0 0.0 0.0 0.0 0.0 0.0
0.0 0.0 0.0 0.0 0.0 0.0 0.0 0.0

cpu f4 [64]
00000000: 0000 0000 0000 0000 0000 0000 0000 0000
00000010: 0000 0000 0000 0000 0000 0000 0000 0000
00000020: 0000 0000 0000 0000 0000 0000 0000 0000
00000030: 0000 0000 0000 0000 0000 0000 0000 0000
00000040: 0000 0000 0000 0000 0000 0000 0000 0000
00000050: 0000 0000 0000 0000 0000 0000 0000 0000
00000060: 0000 0000 0000 0000 0000 0000 0000 0000
00000070: 0000 0000 0000 0000 0000 0000 0000 0000
00000080: 0000 0000 0000 0000 0000 0000 0000 0000
00000090: 0000 0000 0000 0000 0000 0000 0000 0000
000000a0: 0000 0000 0000 0000 0000 0000 0000 0000
000000b0: 0000 0000 0000 0000 0000 0000 0000 0000
000000c0: 0000 0000 0000 0000 0000 0000 0000 0000
000000d0: 0000 0000 0000 0000 0000 0000 0000 0000
000000e0: 0000 0000 0000 0000 0000 0000 0000 0000
000000f0: 0000 0000 0000 0000 0000 0000 0000 0000
0.0 0.0 0.0 0.0 0.0 0.0 0.0 0.0
0.0 0.0 0.0 0.0 0.0 0.0 0.0 0.0
0.0 0.0 0.0 0.0 0.0 0.0 0.0 0.0
0.0 0.0 0.0 0.0 0.0 0.0 0.0 0.0
0.0 0.0 0.0 0.0 0.0 0.0 0.0 0.0
0.0 0.0 0.0 0.0 0.0 0.0 0.0 0.0
0.0 0.0 0.0 0.0 0.0 0.0 0.0 0.0
0.0 0.0 0.0 0.0 0.0 0.0 0.0 0.0

weight f4 [64]
00000000: 933d d83d 732a 6e3e 7ec0 233f ec39 143f
00000010: f058 903e c40c cd3e f514 1e3e 30a1 273e
00000020: 81f2 cc3e 2de0 a53d 3efa 143d c720 823d
00000030: 8a90 173f 0682 8a3d 3cce 263e 8254 1b3e
00000040: 1d0c 4d3d 5c2b b33e 516d 143f 7c83 b73e
00000050: 12f6 473d 1daf 3c3d 2897 543d 5e19 e13e
00000060: 37c3 943d 2182 ae3e f649 4b3d f22a 733e
00000070: 7556 3c3e 0fd7 ba3d 0478 da3e 12bd a53d
00000080: fa32 b13d 8ee4 233d 6fa3 573e 7f33 1c3f
00000090: 3003 043e 7c8e dc3e a925 213f b65f f83e
000000a0: 4e6e 273f 74ad b43e 9c1a 7e3e 4544 c93d
000000b0: 14a4 fd3e e0e1 6b3e 1b9f 383d d288 323d
000000c0: 756b 113f c913 0a3f 7ea4 1a3d aeb3 2b3e
000000d0: 7d9e 773e 2f55 2c3d 58d1 773d ca06 3f3f
000000e0: 8677 453d 59e3 463e e87d c73d 5629 ed3e
000000f0: 2ca4 163d 9eff 2c3d d052 973d cc2b 0f3d
0.10558619 0.2325838 0.63965595 0.5790088 0.28192854 0.40048802 0.15437682 0.16370082
0.40028766 0.08099399 0.036371462 0.06353908 0.59204924 0.06763081 0.1628961 0.15168956
0.05006038 0.34994018 0.57979304 0.35842502 0.048818655 0.04606544 0.051901966 0.43964666
0.07263797 0.34083655 0.04963108 0.23746851 0.18392356 0.091230504 0.4266969 0.08092703
0.08652301 0.04001289 0.21058439 0.61016077 0.12891841 0.43077457 0.6294809 0.48510522
0.65402687 0.35288584 0.24814838 0.098274745 0.49539244 0.23035383 0.04507361 0.043587513
0.5680459 0.5393644 0.03775453 0.16767761 0.24181552 0.042073425 0.06050238 0.74619734
0.04820969 0.19422664 0.097408116 0.463206 0.03677766 0.042235963 0.07388842 0.034953877

bias f4 [64]
00000000: 00d0 b2bd ea94 6abe 3c89 b33b 5430 1c3d
00000010: 1758 b2be ba9d 49be 9437 64be e302 a5bd
00000020: d4c5 a3be 3cdb 6ebe f22b f2bb e0e0 97bd
00000030: ded4 2fbf 21ac 90be 0095 193c 5d06 ecbd
00000040: 6e32 e13a 822b 40be b54a b5be 50f1 1f3e
00000050: fda5 9cbb 9cac 11bc 2b05 9cba 804e b5be
00000060: a893 0cbe c4da 833e efca 0fbd 04fa c9bd
00000070: 4e40 00be 83b7 eebc 0665 083e 4663 dbbd
00000080: 98c8 063c 3d90 81bc 74c5 0ebd 1700 31bd
00000090: 6117 20bc ed2a 8bbe dd9a 173d 2b20 63bd
000000a0: 109c edbd 056f 69be 46a0 01be 28fc 5dbe
000000b0: bd62 b03d 35e3 9fbb fdb5 273c b3d3 b2ba
000000c0: cf26 803d d1f1 cebe 38de 40bb 093f 1fbd
000000d0: 4f3f 743e 562e 333b 957a 373c 73a9 f8be
000000e0: b3e8 18bb b4b8 0bbe d13d a7bd fef4 653d
000000f0: 1087 fbbc 7d4d 8239 c25d 983c df8f 40bd
-0.08731079 -0.22908369 0.005479006 0.038132027 -0.34832832 -0.19689074 -0.22286826 -0.08057191
-0.31986868 -0.23325819 -0.0073904926 -0.074159384 -0.68684185 -0.28256324 0.009373903 -0.11524651
0.0017181167 -0.18766597 -0.3540856 0.15619397 -0.0047805295 -0.008891251 -0.0011903396 -0.35411453
-0.13728201 0.25752842 -0.035105642 -0.0986214 -0.1252453 -0.02914024 0.13319787 -0.10712294
0.008226536 -0.015815848 -0.034856275 -0.043212976 -0.009771199 -0.27181187 0.037012924 -0.0554506
-0.11602032 -0.22796257 -0.12658796 -0.21678221 0.08612583 -0.00487938 0.0102362605 -0.0013643414
0.06257402 -0.40418866 -0.0029429328 -0.038878474 0.23852275 0.002734085 0.011198659 -0.4856678
-0.002333206 -0.13644677 -0.081660874 0.056141846 -0.030704051 0.00024853265 0.018599395 -0.047012206

running_mean f4 [64]
00000000: 779a 78bc 7111 18bd e4e8 13be 8a83 02be
00000010: eb1a b6bc 90c7 bbbd 8dae 38bd d51b 43bc
00000020: db63 27be 0731 aebb d9c2 0d3a 870d 63bc
00000030: ec2a abbd daad 97bc 29b6 a23c 3ba6 03bd
00000040: 73ab 43ba 56e5 4cbd 3d7c 98bd 3508 623d
00000050: f983 263c 8ec9 b63a 1b48 b9bb dce0 eabd
00000060: 895c f7bb 9b25 3ebd b5b9 ecb9 6a1b b5bd
00000070: dfe8 d8bc 20b9 f0b8 e4d5 9fbc 9475 50bc
00000080: d946 8eba 71fc 39bb ab29 ff3c a7a6 c23d
00000090: 95aa db3b 1051 1fbe 0b3c 7fb8 dd5a a9bb
000000a0: e46d 1abe c948 8ebd 8a0b 9bbc 1c28 24bc
000000b0: 1c37 52be 9cc2 87bd 509d 793b 8926 6e3b
000000c0: e112 e0bd fbfa 36bd 43fd 853b e019 0f3c
000000d0: 4581 17bd 902a 5439 bd7b 0f3c 29ce 9cbd
000000e0: cbf8 04bb 3704 80bc e447 53bc 582f 583d
000000f0: 23b7 66bb f21f ba37 0df0 4fbc 09d4 b1bb
-0.015173546 -0.03712601 -0.1444431 -0.1274549 -0.022229632 -0.09168923 -0.04508834 -0.011908491
-0.16346686 -0.005315903 0.00054077577 -0.013858206 -0.08357796 -0.018515516 0.019862251 -0.03214095
-0.00074642076 -0.0500234 -0.074455716 0.055183608 0.010163301 0.0013945566 -0.0056543476 -0.1146867
-0.007548873 -0.046422582 -0.0004515179 -0.088431194 -0.02647823 -0.00011478574 -0.01951117 -0.012723345
-0.0010854854 -0.0028379227 0.031147799 0.09504443 0.0067036846 -0.15558267 -6.0852657e-05 -0.0051683025
-0.15080982 -0.069474764 -0.0189264 -0.010019328 -0.20528835 -0.06628916 0.003808815 0.0036338887
-0.10941101 -0.044672947 0.004089029 0.008734196 -0.036988515 0.00020233751 0.008757529 -0.076565094
-0.0020289894 -0.01562701 -0.012895558 0.052779526 -0.0035204373 2.2187804e-05 -0.01269151 -0.005426888

running_var f4 [64]
00000000: 88bc 0a3b f74f d83a 7bf0 283d 9600 0b3d
00000010: 5fad 1b3b c350 c53b 3327 3a3c a955 373b
00000020: 8e38 063c 4676 7e3a 5900 1036 e5b1 b839
00000030: b7f7 443c 0d21 ec39 ed33 423a dd3e d63b
00000040: e1c6 e837 1324 8a3b 172f 933b adab 443c
00000050: 67b9 2538 3965 7e37 4fe3 a737 85b4 ef3b
00000060: d7e4 e139 e468 0c3d 74b4 0538 9fa4 483b
00000070: acb7 173a 21bb cc38 f5f2 2a3d e456 db39
00000080: e709 563a 5d55 ce37 ebc6 aa3a 3466 9a3d
00000090: 68a0 043a a01c e23b c734 ee3d c207 803d
000000a0: 0345 403c 9a10 0e3b fcb1 643c 22ca 0e39
000000b0: aa04 5b3d 98cf 3a3b 5fff 2438 7eb8 0737
000000c0: 727e a33d 8ec9 513c 02d6 c537 d73b 3e3a
000000d0: 7cac c53b 91c9 ea37 ef63 353a 997e 863c
000000e0: b1ec c937 1344 b239 f8cf 4939 8e94 003d
000000f0: 5576 8136 8c0e 1437 4546 1e3a 0d3f 1138
0.0021169502 0.0016503324 0.041244965 0.033936106 0.002375446 0.0060215904 0.011361885 0.0027974641
0.008192195 0.0009706955 2.1457874e-06 0.00035227757 0.01202195 0.00045038052 0.000740825 0.0065382556
2.7749165e-05 0.004215726 0.0044916975 0.012003821 3.9511735e-05 1.51631475e-05 2.00138e-05 0.007315221
0.00043085843 0.03427972 3.187773e-05 0.00306157 0.0005787562 9.7623335e-05 0.041735608 0.00041835674
0.0008164928 2.4596864e-05 0.0013029253 0.07539025 0.0005059303 0.006900385 0.1163116 0.0625148
0.011735204 0.0021677376 0.01395845 0.00013617476 0.053471245 0.0028505083 3.933848e-05 8.0895825e-06
0.07983102 0.012804402 2.3583885e-05 0.00072568416 0.0060325246 2.7988835e-05 0.00069194933 0.016417788
2.4071285e-05 0.00034001525 0.00019246328 0.031391673 3.8582752e-06 8.824874e-06 0.00060376927 3.4629415e-05

cpu f4 [64]
00000000: 0000 0000 0000 0000 0000 0000 0000 0000
00000010: 0000 0000 0000 0000 0000 0000 0000 0000
00000020: 0000 0000 0000 0000 0000 0000 0000 0000
00000030: 0000 0000 0000 0000 0000 0000 0000 0000
00000040: 0000 0000 0000 0000 0000 0000 0000 0000
00000050: 0000 0000 0000 0000 0000 0000 0000 0000
00000060: 0000 0000 0000 0000 0000 0000 0000 0000
00000070: 0000 0000 0000 0000 0000 0000 0000 0000
00000080: 0000 0000 0000 0000 0000 0000 0000 0000
00000090: 0000 0000 0000 0000 0000 0000 0000 0000
000000a0: 0000 0000 0000 0000 0000 0000 0000 0000
000000b0: 0000 0000 0000 0000 0000 0000 0000 0000
000000c0: 0000 0000 0000 0000 0000 0000 0000 0000
000000d0: 0000 0000 0000 0000 0000 0000 0000 0000
000000e0: 0000 0000 0000 0000 0000 0000 0000 0000
000000f0: 0000 0000 0000 0000 0000 0000 0000 0000
0.0 0.0 0.0 0.0 0.0 0.0 0.0 0.0
0.0 0.0 0.0 0.0 0.0 0.0 0.0 0.0
0.0 0.0 0.0 0.0 0.0 0.0 0.0 0.0
0.0 0.0 0.0 0.0 0.0 0.0 0.0 0.0
0.0 0.0 0.0 0.0 0.0 0.0 0.0 0.0
0.0 0.0 0.0 0.0 0.0 0.0 0.0 0.0
0.0 0.0 0.0 0.0 0.0 0.0 0.0 0.0
0.0 0.0 0.0 0.0 0.0 0.0 0.0 0.0

cpu f4 [64]
00000000: 0000 0000 0000 0000 0000 0000 0000 0000
00000010: 0000 0000 0000 0000 0000 0000 0000 0000
00000020: 0000 0000 0000 0000 0000 0000 0000 0000
00000030: 0000 0000 0000 0000 0000 0000 0000 0000
00000040: 0000 0000 0000 0000 0000 0000 0000 0000
00000050: 0000 0000 0000 0000 0000 0000 0000 0000
00000060: 0000 0000 0000 0000 0000 0000 0000 0000
00000070: 0000 0000 0000 0000 0000 0000 0000 0000
00000080: 0000 0000 0000 0000 0000 0000 0000 0000
00000090: 0000 0000 0000 0000 0000 0000 0000 0000
000000a0: 0000 0000 0000 0000 0000 0000 0000 0000
000000b0: 0000 0000 0000 0000 0000 0000 0000 0000
000000c0: 0000 0000 0000 0000 0000 0000 0000 0000
000000d0: 0000 0000 0000 0000 0000 0000 0000 0000
000000e0: 0000 0000 0000 0000 0000 0000 0000 0000
000000f0: 0000 0000 0000 0000 0000 0000 0000 0000
0.0 0.0 0.0 0.0 0.0 0.0 0.0 0.0
0.0 0.0 0.0 0.0 0.0 0.0 0.0 0.0
0.0 0.0 0.0 0.0 0.0 0.0 0.0 0.0
0.0 0.0 0.0 0.0 0.0 0.0 0.0 0.0
0.0 0.0 0.0 0.0 0.0 0.0 0.0 0.0
0.0 0.0 0.0 0.0 0.0 0.0 0.0 0.0
0.0 0.0 0.0 0.0 0.0 0.0 0.0 0.0
0.0 0.0 0.0 0.0 0.0 0.0 0.0 0.0

weight f4 [64]
00000000: 06e5 003f 7ba7 c53e a291 2c3f 149f 003f
00000010: 053c 063e cbd0 3b3e 44f1 543e 1600 a23e
00000020: ee6b 3f3e 34c1 d53e 1aa1 9a3e 8d3d 253d
00000030: bb0e c43e 82eb e83e e242 733e 5ed6 c03e
00000040: 688a ea3d e048 d33e d300 d73e 0237 183e
00000050: 62dc 3f3e c041 6e3e f121 543e 0855 953e
00000060: 2459 3a3e c8cc f53d eb34 6d3e a8d6 c53e
00000070: ace1 cc3e 7a0f 9e3e 681e bd3e 7476 f93e
00000080: 233f a63e f78f 5b3e 3344 d43e f3d4 bb3e
00000090: b9fb a03e 2653 213e db8c eb3e f0ac 083e
000000a0: 0a81 1f3e 38db 133e a15c 803e f667 3b3e
000000b0: 0b5a 043f e290 a33e fbb3 083f 6a76 ae3e
000000c0: d403 b33e 0a54 c73e d9f1 c23e 71dd 903e
000000d0: 31d5 823e 00bc 603e 170b 483e 39a1 ef3e
000000e0: c216 fb3e d565 d03e 0225 ce3e cfbd eb3d
000000f0: b3a5 c33e 0716 a23e 2aaa 393f 5422 613e
0.5034946 0.3860434 0.6740972 0.50242734 0.13108833 0.18341367 0.2079516 0.3164069
0.18693516 0.41748965 0.30201036 0.040341903 0.38292488 0.45492178 0.23755983 0.3766355
0.1145218 0.41266537 0.41992816 0.14864734 0.18736413 0.23267269 0.20716073 0.29166436
0.18198067 0.120019495 0.23164718 0.38640332 0.40015924 0.30871183 0.3693726 0.48723185
0.32470044 0.21441637 0.41458282 0.36685905 0.3144205 0.15754375 0.46005902 0.1334722
0.15576568 0.14439094 0.2507067 0.18301377 0.51699895 0.31946474 0.5339963 0.34074718
0.34963858 0.38931304 0.3807514 0.28293946 0.25553277 0.21946716 0.1953548 0.4680269
0.490408 0.40702692 0.4026261 0.115108125 0.38212356 0.3165743 0.72525275 0.21985751

bias f4 [64]
00000000: d127 25be 79a5 d8bd 5e78 97be 8672 d1bc
00000010: 4320 0f3a f902 0b3d c1c3 ce3d 50b8 bbbc
00000020: bd2e cd3c e5e1 75be 65b4 a9bd 9143 99ba
00000030: 768f 193c b5fc a7be 9190 303d 0cfa 23bd
00000040: c7c0 903c ad92 23be d5e3 c1be d130 7ebc
00000050: d3bb ca3c 2416 13be 976a 0f3b 9d1c 15be
00000060: 4bc4 383d c4dc 50bd a737 31be cf8e 87be
00000070: 166c 81be 0d9a eebc f23f bd3c 1f9c 70bd
00000080: 1c44 49bc 4ddd 6dbc dbf4 0abe 7d6f c03c
00000090: d000 043d 6b52 9dbd 1169 78bd 79ff f5bc
000000a0: 5429 18bd bd90 183d 0d3c 2bbe 1ee3 8cbb
000000b0: e06a c7bd 3345 10bd 7f5c 43be 6424 06be
000000c0: 3bc1 79bd 0c72 1cbe 4417 fabc b1f5 d0bc
000000d0: 2981 28be d608 f5bd 60a6 503d b441 17be
000000e0: 6c44 ebbd ec60 eabc 7510 30be 9dee cd3b
000000f0: a53b e13b d856 af3c c65b 87be 228b dbbc
-0.1612847 -0.105784364 -0.2958402 -0.025567304 0.00054598245 0.03393838 0.10095931 -0.022915035
0.0250467 -0.24011953 -0.08286361 -0.001169311 0.009372583 -0.32809988 0.04310662 -0.040033385
0.017670048 -0.15973921 -0.37869135 -0.015514568 0.024747765 -0.14363915 0.00218836 -0.14561696
0.045109075 -0.05099179 -0.17306386 -0.26476142 -0.25277776 -0.029126192 0.02310178 -0.05874264
-0.012284305 -0.014518094 -0.13569967 0.023490662 0.032227337 -0.076817356 -0.060647074 -0.030029045
-0.03714879 0.03724741 -0.16722126 -0.0042995354 -0.09737182 -0.035222244 -0.19078253 -0.1309982
-0.060975295 -0.1527788 -0.030528672 -0.02550778 -0.1645552 -0.11964576 0.050939918 -0.14771158
-0.1148766 -0.02861067 -0.17193778 0.0062845484 0.0068735653 0.021403715 -0.26437205 -0.026799742

running_mean f4 [64]
00000000: cd9a 2a3d 3be3 563b c6af 643d 9edc 3d3d
00000010: e1fe 4c3c 3303 bdbb abe8 41bc f823 e6bb
00000020: 8248 96bc 561c 803d 1047 b8ba 262f 9eba
00000030: 0b45 8d3d 56e5 673d 1c3b 44bc 1c5f 083d
00000040: 522c cfbc a16e eb3c 2358 c93b 7a63 5c3c
00000050: 0079 c5bc 588c d93c 5203 b53b 7877 bb3c
00000060: 1b79 64bc 4318 9c3c c4b6 c9b9 1c41 d33c
00000070: 7070 243d fb62 c73c a4a7 1fbc 71b3 b93d
00000080: 81e2 3b3a 4814 16bb 6ac2 a23c dae0 2bbd
00000090: 95b1 bebc e8d9 8d3c 843c 1f3d 5165 d03a
000000a0: 9005 91ba b80e 6cbc 8125 093c a62e 333c
000000b0: f3f6 643d 5375 123d 833d 603d 0bd0 3fbd
000000c0: dd01 01ba 4bf4 c93c 7cd8 7cbc 832e 14bd
000000d0: a702 aabc beea 2bbc 9121 10bd 0299 ff3c
000000e0: 68cc c2bc ed37 65bd 9406 80bc 9d7e 38ba
000000f0: be72 503d 9d2f 43bc 9ad9 263d 2835 a23b
0.041651536 0.0032789249 0.055831693 0.046352975 0.01251194 -0.0057682036 -0.0118352575 -0.007023331
-0.018345121 0.06255405 -0.0014059264 -0.0012068495 0.068979345 0.056615196 -0.011976983 0.03329383
-0.025289688 0.028739275 0.00614454 0.013451451 -0.024105549 0.026556179 0.0055240775 0.022884116
-0.013944889 0.019054538 -0.00038473879 0.025787883 0.04014629 0.02433919 -0.0097445585 0.09067429
0.00071672356 -0.0022900272 0.019868094 -0.041962482 -0.023278037 0.01731582 0.03887607 0.0015899335
-0.001106428 -0.014407806 0.008370758 0.010936415 0.05589957 0.03575642 0.054746162 -0.046829265
-0.0004921237 0.02465262 -0.015432473 -0.03617717 -0.020753218 -0.010492979 -0.03518826 0.03120089
-0.02377911 -0.055961538 -0.015628137 -0.000703791 0.050890677 -0.011913207 0.040734865 0.0049501844

running_var f4 [64]
00000000: ec48 c23c 01fd 5e3c a0ac b23c 3f22 043d
00000010: e58e c439 4bac 4e3a 2997 093c d0c7 8c3b
00000020: 524f 133a 9844 283c 5989 2e3b 6450 7236
00000030: e61e 7a3c 9312 1e3c 7b6a ed3b bec5 413c
00000040: ce5d eb39 9cf7 ac3b 145c a03c 3618 553a
00000050: 6932 de3a b3c5 033b 0cec a43a c221 9e3b
00000060: 4131 e73a 0dcf 9939 5839 ca3a 1aef 543c
00000070: 131b ef3b 5331 e53b 6855 5c3c 7c70 a63c
00000080: a09a 9f3c cca6 4e3c 419e bb3c 85cf 313c
00000090: 4df0 943c 483e 903a a20a 7c3c 2851 0b3a
000000a0: ae93 d33a 3350 453a 3df0 193b 72f7 583a
000000b0: b6e8 ba3c 2c01 0b3c eb89 093c 0d2e bf3c
000000c0: c789 e43b c14f f63b 4b08 5f3c 3c40 a13b
000000d0: 2a95 a03b 84f6 753b 5e65 603b e512 ce3b
000000e0: 707d 2b3d a9fa 523c 35ba 573c a007 153a
000000f0: fab9 7e3c 6299 ad3b a35a 513d cbd7 c73b
0.023716412 0.0136101255 0.02181083 0.032259222 0.00037490498 0.000788395 0.008397856 0.0042962804
0.00056194246 0.01027026 0.0026632159 3.6107604e-06 0.015266156 0.009647983 0.0072453595 0.011826931
0.00044892583 0.005278541 0.019575156 0.0008128913 0.0016952279 0.0020106852 0.0012582554 0.0048258016
0.001763858 0.000293367 0.0015428467 0.012996459 0.0072969287 0.0069944053 0.013448097 0.020317309
0.01948291 0.01261301 0.02290261 0.010852699 0.01818099 0.0011004889 0.015383394 0.00053145224
0.0016142034 0.0007526904 0.002348914 0.00082766183 0.022816043 0.008484166 0.008394699 0.023337388
0.006974432 0.0075168316 0.013612817 0.0049209874 0.0049005942 0.0037530968 0.0034240107 0.0062888735
0.041867673 0.012877145 0.013166954 0.0005685035 0.01554727 0.0052978257 0.05111183 0.0060987226

cpu f4 [64]
00000000: 0000 0000 0000 0000 0000 0000 0000 0000
00000010: 0000 0000 0000 0000 0000 0000 0000 0000
00000020: 0000 0000 0000 0000 0000 0000 0000 0000
00000030: 0000 0000 0000 0000 0000 0000 0000 0000
00000040: 0000 0000 0000 0000 0000 0000 0000 0000
00000050: 0000 0000 0000 0000 0000 0000 0000 0000
00000060: 0000 0000 0000 0000 0000 0000 0000 0000
00000070: 0000 0000 0000 0000 0000 0000 0000 0000
00000080: 0000 0000 0000 0000 0000 0000 0000 0000
00000090: 0000 0000 0000 0000 0000 0000 0000 0000
000000a0: 0000 0000 0000 0000 0000 0000 0000 0000
000000b0: 0000 0000 0000 0000 0000 0000 0000 0000
000000c0: 0000 0000 0000 0000 0000 0000 0000 0000
000000d0: 0000 0000 0000 0000 0000 0000 0000 0000
000000e0: 0000 0000 0000 0000 0000 0000 0000 0000
000000f0: 0000 0000 0000 0000 0000 0000 0000 0000
0.0 0.0 0.0 0.0 0.0 0.0 0.0 0.0
0.0 0.0 0.0 0.0 0.0 0.0 0.0 0.0
0.0 0.0 0.0 0.0 0.0 0.0 0.0 0.0
0.0 0.0 0.0 0.0 0.0 0.0 0.0 0.0
0.0 0.0 0.0 0.0 0.0 0.0 0.0 0.0
0.0 0.0 0.0 0.0 0.0 0.0 0.0 0.0
0.0 0.0 0.0 0.0 0.0 0.0 0.0 0.0
0.0 0.0 0.0 0.0 0.0 0.0 0.0 0.0

weight f4 [64]
00000000: bb5a 163e db41 86bd db2d 8cbd 480e 973c
00000010: f294 a13c 82b8 243d 344c 033e 1d96 573d
00000020: 7271 ed3c 7e40 9b34 3aaf 913d 95ed 213d
00000030: 171a 58bc 93fc 873d fb3b 2d3e f391 d33d
00000040: 8f6b a73b 31b7 fabd 048b 13bf 3654 a73c
00000050: 1879 d83d ffd0 753d 665c 143d 7f6c 07bc
00000060: f76e 493d f68b 383c d463 79bd 5849 39bd
00000070: 0094 acbd 0694 3dbd 9e07 96be f883 86be
00000080: 61f3 193e 97fa 90bd 8210 3ebd 0fe9 053e
00000090: b413 063d 1cfc b93b 960f 9e3d d0a7 2c3d
000000a0: 5122 2c3d b728 863c 63b1 5d3d 4b2e 8a3d
000000b0: 5f9e 38be b565 963d 330b 1d3e 63bb 423d
000000c0: e941 f23d ba25 d83d 38e3 a8bd e8bc 033d
000000d0: dee2 aa3d 072c 623d 383b 6e3d 948a f7bd
000000e0: 8652 5ebd 4e91 36be 1e12 8ebd 7c3f 7b3d
000000f0: d48e 353e 0468 7c3c 436b c13d 678b afbc
0.14683048 -0.0655553 -0.06844684 0.018439427 0.019724343 0.040215023 0.12822038 0.052633394
0.028984759 2.8917924e-07 0.071135 0.039533217 -0.013189814 0.066399716 0.16917412 0.10330572
0.0051092575 -0.12241972 -0.57633996 0.020425897 0.10569972 0.060013767 0.03622093 -0.008265614
0.04917809 0.011263838 -0.06088622 -0.04523596 -0.08426666 -0.046283744 -0.29302686 -0.2627256
0.15034248 -0.07079046 -0.04640246 0.13077186 0.032733634 0.0056758057 0.077178165 0.042152226
0.042024914 0.016376836 0.054124247 0.06747111 -0.18029164 0.07343618 0.15336303 0.047541987
0.118289776 0.10554071 -0.082464635 0.032162577 0.08344053 0.05521777 0.058161944 -0.120869786
-0.05427792 -0.17828867 -0.06937049 0.06133984 0.17730266 0.015405659 0.09444287 -0.021428777

bias f4 [64]
00000000: d127 25be 79a5 d8bd 5e78 97be 8672 d1bc
00000010: 4320 0f3a f902 0b3d c1c3 ce3d 50b8 bbbc
00000020: bd2e cd3c e5e1 75be 65b4 a9bd 9143 99ba
00000030: 768f 193c b5fc a7be 9190 303d 0cfa 23bd
00000040: c7c0 903c ad92 23be d5e3 c1be d130 7ebc
00000050: d3bb ca3c 2416 13be 976a 0f3b 9d1c 15be
00000060: 4bc4 383d c4dc 50bd a737 31be cf8e 87be
00000070: 166c 81be 0d9a eebc f23f bd3c 1f9c 70bd
00000080: 1c44 49bc 4ddd 6dbc dbf4 0abe 7d6f c03c
00000090: d000 043d 6b52 9dbd 1169 78bd 79ff f5bc
000000a0: 5429 18bd bd90 183d 0d3c 2bbe 1ee3 8cbb
000000b0: e06a c7bd 3345 10bd 7f5c 43be 6424 06be
000000c0: 3bc1 79bd 0c72 1cbe 4417 fabc b1f5 d0bc
000000d0: 2981 28be d608 f5bd 60a6 503d b441 17be
000000e0: 6c44 ebbd ec60 eabc 7510 30be 9dee cd3b
000000f0: a53b e13b d856 af3c c65b 87be 228b dbbc
-0.1612847 -0.105784364 -0.2958402 -0.025567304 0.00054598245 0.03393838 0.10095931 -0.022915035
0.0250467 -0.24011953 -0.08286361 -0.001169311 0.009372583 -0.32809988 0.04310662 -0.040033385
0.017670048 -0.15973921 -0.37869135 -0.015514568 0.024747765 -0.14363915 0.00218836 -0.14561696
0.045109075 -0.05099179 -0.17306386 -0.26476142 -0.25277776 -0.029126192 0.02310178 -0.05874264
-0.012284305 -0.014518094 -0.13569967 0.023490662 0.032227337 -0.076817356 -0.060647074 -0.030029045
-0.03714879 0.03724741 -0.16722126 -0.0042995354 -0.09737182 -0.035222244 -0.19078253 -0.1309982
-0.060975295 -0.1527788 -0.030528672 -0.02550778 -0.1645552 -0.11964576 0.050939918 -0.14771158
-0.1148766 -0.02861067 -0.17193778 0.0062845484 0.0068735653 0.021403715 -0.26437205 -0.026799742

running_mean f4 [64]
00000000: 2f58 6e3c 032d 10bc 4e8e 0bbc eefa 7f3b
00000010: 16b3 98bb 6df8 29bc a826 373c fa37 24bc
00000020: 8777 a53b 8a8d a733 0579 373c 88e1 963b
00000030: 8bb9 4dbb e822 023c 0b7d 5b3c 729c 23bc
00000040: b614 35bc 6f3d 17bc 429a babc 164b 2c3c
00000050: 9cde 1bbc 92c1 f8bb c504 1ebc 0af1 083c
00000060: 17fe 2fbc ffaa c1bb 30dd d03b 5d89 fdbb
00000070: ef25 13bc 6347 ebbb aef9 863c a1b7 833c
00000080: e195 44bc 271e 063c fafa fb3b fd48 383c
00000090: cb42 023c a4f2 efbb b98d 18bc f61b a6bb
000000a0: 1c35 dcbb 45c4 973b 6790 2cbc 5a43 11bc
000000b0: 3203 523c 6fe0 103c 0b25 343c 15ad ddbb
000000c0: 552e 42bc 1eb2 fdbb 0e14 65bc 8d45 babb
000000d0: 3a90 063c 4ceb 16bc 59e7 2bbc c760 303c
000000e0: f6a2 f33b 9536 5b3c 7cea 043c 7f60 11bc
000000f0: 277b 5b3c cb1e 8dbb 017d 293c 14ad d5bb
0.014547392 -0.008799794 -0.008517815 0.0039059478 -0.0046600206 -0.010374171 0.01117865 -0.0100231115
0.005049649 7.802289e-08 0.011198287 0.004604522 -0.003139111 0.007942893 0.013396512 -0.00998603
-0.011052301 -0.0092309555 -0.022778634 0.010515949 -0.009513523 -0.0075914348 -0.009644692 0.008358249
-0.010741732 -0.005910277 0.006374024 -0.0077373222 -0.008981212 -0.007180141 0.016476478 0.016078772
-0.011998625 0.0081859 0.007689831 0.0112478705 0.007950495 -0.007322626 -0.009311133 -0.005069251
-0.0067201983 0.0046315514 -0.010532475 -0.0088661555 0.012818145 0.008842572 0.01099516 -0.0067650178
-0.011851867 -0.0077421805 -0.013981832 -0.0056845606 0.008213097 -0.009211373 -0.010492169 0.010765261
0.007435198 0.013379713 0.008112546 -0.008873104 0.013396061 -0.0043066493 0.010344745 -0.0065208767

running_var f4 [64]
00000000: d87a 8539 dd5d c338 f10b b738 b3f6 9937
00000010: 5626 db37 62c3 0739 b2a2 1d39 ec75 fd38
00000020: 09aa 0038 c0ed 0328 9b30 1e39 fdf5 d537
00000030: 59e3 4637 ab2b 9f38 0d64 6239 b496 fb38
00000040: 9e17 1a39 f9fa d638 09a2 233a d67f 0b39
00000050: e057 e438 7065 9138 e9ae ea38 b940 b038
00000060: d18d 1139 4742 3038 1201 4d38 c409 9738
00000070: 4e81 cb38 7911 8238 523a ab39 b90f a339
00000080: 009c 3539 1c0f a938 9430 9538 0298 1f39
00000090: b579 9f38 2048 8738 27bb da38 41aa 0138
000000a0: 62e0 6338 f57a d837 30f0 0b39 0b53 c638
000000b0: d043 4f39 5045 c538 c580 1839 1bed 6638
000000c0: a831 3139 583a 9738 229b 7639 9c0d 2338
000000d0: 2a2f aa38 b411 d638 84de 0a39 3e31 1239
000000e0: 1f79 8b38 cad2 6139 ef0a a638 a7a2 c638
000000f0: 2360 6239 682c bb37 80fe 0639 308f 5638
0.00025459263 9.315808e-05 8.728344e-05 1.83539e-05 2.6124686e-05 0.00012947389 0.00015033295 0.00012085945
3.0675936e-05 7.323515e-15 0.00015086161 2.5506126e-05 1.1854653e-05 7.5898446e-05 0.00021590311 0.00011996683
0.00014695383 0.000102510625 0.00062421017 0.00013303696 0.00010888255 6.933033e-05 0.00011190569 8.4043895e-05
0.00013881108 4.2023396e-05 4.8876806e-05 7.20206e-05 9.703879e-05 6.2021376e-05 0.00032659114 0.00031101497
0.0001731962 8.061362e-05 7.113922e-05 0.00015220049 7.6043805e-05 6.450736e-05 0.0001042991 3.0914558e-05
5.432999e-05 2.5806463e-05 0.0001334555 9.456844e-05 0.0001976632 9.4066025e-05 0.0001454382 5.5057095e-05
0.00016898534 7.2111085e-05 0.0002351818 3.8874903e-05 8.115017e-05 0.00010207613 0.00013243599 0.00013941989
6.650597e-05 0.00021536197 7.9175334e-05 9.471672e-05 0.00021588853 2.2312815e-05 0.00012874044 5.115493e-05

cpu f4 [64]
00000000: 0000 0000 0000 0000 0000 0000 0000 0000
00000010: 0000 0000 0000 0000 0000 0000 0000 0000
00000020: 0000 0000 0000 0000 0000 0000 0000 0000
00000030: 0000 0000 0000 0000 0000 0000 0000 0000
00000040: 0000 0000 0000 0000 0000 0000 0000 0000
00000050: 0000 0000 0000 0000 0000 0000 0000 0000
00000060: 0000 0000 0000 0000 0000 0000 0000 0000
00000070: 0000 0000 0000 0000 0000 0000 0000 0000
00000080: 0000 0000 0000 0000 0000 0000 0000 0000
00000090: 0000 0000 0000 0000 0000 0000 0000 0000
000000a0: 0000 0000 0000 0000 0000 0000 0000 0000
000000b0: 0000 0000 0000 0000 0000 0000 0000 0000
000000c0: 0000 0000 0000 0000 0000 0000 0000 0000
000000d0: 0000 0000 0000 0000 0000 0000 0000 0000
000000e0: 0000 0000 0000 0000 0000 0000 0000 0000
000000f0: 0000 0000 0000 0000 0000 0000 0000 0000
0.0 0.0 0.0 0.0 0.0 0.0 0.0 0.0
0.0 0.0 0.0 0.0 0.0 0.0 0.0 0.0
0.0 0.0 0.0 0.0 0.0 0.0 0.0 0.0
0.0 0.0 0.0 0.0 0.0 0.0 0.0 0.0
0.0 0.0 0.0 0.0 0.0 0.0 0.0 0.0
0.0 0.0 0.0 0.0 0.0 0.0 0.0 0.0
0.0 0.0 0.0 0.0 0.0 0.0 0.0 0.0
0.0 0.0 0.0 0.0 0.0 0.0 0.0 0.0

cpu f4 [128]
00000000: 0000 0000 0000 0000 0000 0000 0000 0000
00000010: 0000 0000 0000 0000 0000 0000 0000 0000
00000020: 0000 0000 0000 0000 0000 0000 0000 0000
00000030: 0000 0000 0000 0000 0000 0000 0000 0000
00000040: 0000 0000 0000 0000 0000 0000 0000 0000
00000050: 0000 0000 0000 0000 0000 0000 0000 0000
00000060: 0000 0000 0000 0000 0000 0000 0000 0000
00000070: 0000 0000 0000 0000 0000 0000 0000 0000
00000080: 0000 0000 0000 0000 0000 0000 0000 0000
00000090: 0000 0000 0000 0000 0000 0000 0000 0000
000000a0: 0000 0000 0000 0000 0000 0000 0000 0000
000000b0: 0000 0000 0000 0000 0000 0000 0000 0000
000000c0: 0000 0000 0000 0000 0000 0000 0000 0000
000000d0: 0000 0000 0000 0000 0000 0000 0000 0000
000000e0: 0000 0000 0000 0000 0000 0000 0000 0000
000000f0: 0000 0000 0000 0000 0000 0000 0000 0000
00000100: 0000 0000 0000 0000 0000 0000 0000 0000
00000110: 0000 0000 0000 0000 0000 0000 0000 0000
00000120: 0000 0000 0000 0000 0000 0000 0000 0000
00000130: 0000 0000 0000 0000 0000 0000 0000 0000
00000140: 0000 0000 0000 0000 0000 0000 0000 0000
00000150: 0000 0000 0000 0000 0000 0000 0000 0000
00000160: 0000 0000 0000 0000 0000 0000 0000 0000
00000170: 0000 0000 0000 0000 0000 0000 0000 0000
00000180: 0000 0000 0000 0000 0000 0000 0000 0000
00000190: 0000 0000 0000 0000 0000 0000 0000 0000
000001a0: 0000 0000 0000 0000 0000 0000 0000 0000
000001b0: 0000 0000 0000 0000 0000 0000 0000 0000
000001c0: 0000 0000 0000 0000 0000 0000 0000 0000
000001d0: 0000 0000 0000 0000 0000 0000 0000 0000
000001e0: 0000 0000 0000 0000 0000 0000 0000 0000
000001f0: 0000 0000 0000 0000 0000 0000 0000 0000
0.0 0.0 0.0 0.0 0.0 0.0 0.0 0.0
0.0 0.0 0.0 0.0 0.0 0.0 0.0 0.0
0.0 0.0 0.0 0.0 0.0 0.0 0.0 0.0
0.0 0.0 0.0 0.0 0.0 0.0 0.0 0.0
0.0 0.0 0.0 0.0 0.0 0.0 0.0 0.0
0.0 0.0 0.0 0.0 0.0 0.0 0.0 0.0
0.0 0.0 0.0 0.0 0.0 0.0 0.0 0.0
0.0 0.0 0.0 0.0 0.0 0.0 0.0 0.0
0.0 0.0 0.0 0.0 0.0 0.0 0.0 0.0
0.0 0.0 0.0 0.0 0.0 0.0 0.0 0.0
0.0 0.0 0.0 0.0 0.0 0.0 0.0 0.0
0.0 0.0 0.0 0.0 0.0 0.0 0.0 0.0
0.0 0.0 0.0 0.0 0.0 0.0 0.0 0.0
0.0 0.0 0.0 0.0 0.0 0.0 0.0 0.0
0.0 0.0 0.0 0.0 0.0 0.0 0.0 0.0
0.0 0.0 0.0 0.0 0.0 0.0 0.0 0.0

weight f4 [128]
00000000: b675 3c3e 0d28 573e b291 6a3e 5606 953e
00000010: 805f 153e 9418 723e 6342 6d3e 92aa 873e
00000020: 6cf7 603e ce31 4a3e 56bf 923e ead8 7f3e
00000030: 7eb2 483e 74ab 3c3e b988 163e 9a71 313e
00000040: a937 4f3e 0917 8b3e 99ff 8e3e 2fa3 1f3e
00000050: df12 993e e718 783e d228 993e ad68 223e
00000060: 9c12 923e 7f11 783e 210b f23d bf6c 803e
00000070: 73b4 3e3e d012 283e 2515 393e 5a91 793e
00000080: 3e7d 643e 2fc2 643e 05b0 8e3d eacc 963e
00000090: 0bb8 433e 9f7d 823e 2ba1 f93d 0db8 3d3e
000000a0: 434e 283e b41b 4e3e 4201 593e 65f9 263e
000000b0: d6ed 543e e694 da3d 33a0 5c3e cb10 103e
000000c0: 7fab 803e fe43 503e a5ac 983e 33c9 693e
000000d0: a650 0a3e 496c 703e d420 8c3e 7845 6c3e
000000e0: 78f9 443e 635c 613e f822 8e3e 56b3 5b3e
000000f0: 9588 9f3e fbfb 013e 479d 6b3e 2e25 5d3e
00000100: 78f5 553e 15cf 513e 3e64 523e aeea 8e3e
00000110: 19d6 953e 8be4 503e 5601 743e 5c88 8d3e
00000120: 762c 3c3e 3cae 933e 5020 393e e2d2 863e
00000130: fb87 2e3e 9871 693e cff2 423e 3c2a 323e
00000140: c0c9 583e bc5b 563e 3f3a c53d e3f1 8f3e
00000150: 3abf 883e a6c5 333e 649a 6e3e ec1e 3e3e
00000160: 804b 703e 5cba ac3e 1655 ac3e 8769 163e
00000170: f7f4 103e 9860 383e 9ff2 fd3d b8b5 7c3e
00000180: 1c44 633e fe48 503e 1d71 6d3e dd63 723e
00000190: 25b4 a73e 295b 6d3e 56e8 553e 2a85 8b3e
000001a0: a546 9a3e bd23 833e d2cd 7a3e 2447 6e3e
000001b0: 3f05 983e c6ee 5a3e b5d2 1e3e d416 813e
000001c0: 896a 4c3e cea2 633e 68ad 2f3e a2db 433e
000001d0: 3371 103e 04a8 873e 71c1 dd3d d0f6 023e
000001e0: f0f6 2d3e ac28 923e c30e f83d 2375 713e
000001f0: 2793 0c3e 54d1 523e 4d60 793e 218c 1d3e
0.18404278 0.21011372 0.22907141 0.29106396 0.14587212 0.23642188 0.23169856 0.26497322
0.21969384 0.19745561 0.28661603 0.2498509 0.1959934 0.18424779 0.14700593 0.17328492
0.20236076 0.27166012 0.2792938 0.15589593 0.2989721 0.2422825 0.29913956 0.15860243
0.28529823 0.24225424 0.11818529 0.25082967 0.18623523 0.16413426 0.18074472 0.24371853
0.22313401 0.223397 0.06967167 0.29453212 0.19113176 0.25486466 0.121889435 0.18527241
0.16436104 0.20127755 0.21191886 0.16306074 0.20793852 0.106729314 0.21545486 0.14068906
0.2513084 0.20338437 0.29819217 0.22830658 0.13507327 0.23478808 0.27368796 0.23073375
0.1923579 0.22007899 0.27761054 0.2145513 0.3115889 0.12693779 0.23009215 0.21596214
0.2089442 0.20489152 0.20546052 0.2791342 0.29264906 0.20399682 0.23828635 0.27643096
0.18376336 0.28843868 0.18078732 0.26332766 0.1704406 0.22797239 0.19037937 0.17398924
0.21170712 0.20933431 0.0963025 0.28114232 0.26708394 0.17555866 0.23301083 0.18566483
0.23466301 0.3373593 0.33658665 0.14688693 0.14155947 0.18005598 0.12399792 0.24678695
0.2219395 0.20340344 0.2318768 0.23670907 0.32754627 0.23179306 0.2088941 0.27250034
0.30132023 0.25613204 0.24492577 0.23269325 0.29691502 0.21380147 0.15510066 0.2521273
0.19962515 0.22230074 0.17155993 0.19126752 0.14105682 0.26495373 0.10827912 0.12789464
0.1698873 0.28546655 0.121121906 0.2357984 0.13728009 0.20587665 0.24353142 0.15385486

bias f4 [128]
00000000: 2554 4cbd 0922 83bd d244 1f3c d6a1 36bd
00000010: cf6a 19be 5a53 f3bc 5b0c d2bd 86d9 98bd
00000020: e21a a1be 7304 e7bd 51e4 4cbe 6abe 73bd
00000030: 7b83 a0bc 97e4 41be e5f9 4ebc cd50 ce3b
00000040: 1d69 7cbc 40d2 c3bd 4c81 05be 6500 0fbe
00000050: d081 81bd c7f9 f7bd 2c1d 99bd 9f83 9dbd
00000060: 013f 87bc 915e d0bd 1300 7fbd 090a c4bd
00000070: 6a70 51bc e940 46bd ef51 d1bd cb90 7a3d
00000080: a28b c4bd 6dcf c6bd 70cd 04be acfb 12be
00000090: 2365 98bc 6ce1 7a3b 9975 3dbe 2445 10bd
000000a0: 160c 753d 0af3 7abd 95c5 383d 81e9 b4bd
000000b0: b6b7 dbbd da11 603b e50e bdbd a09c 0ebe
000000c0: 9c35 54be aa54 e2bd 66ce 57bc 10f6 1e3d
000000d0: 8913 18bc e894 1abc 3d54 85bd 6b65 e7bd
000000e0: 2ffb 03be 1e77 84be b7b0 8dbe 3a5e 23bd
000000f0: 9a3e 53bd 4a88 c1ba 4a0c 403d 4a1c 82bd
00000100: a437 32be e1df 65be b3a9 66bd ebd9 14bd
00000110: 25b4 343d 2a56 50bd 6681 bd3d c05b f83c
00000120: 6949 efbd c67b 3ebd 1237 41be 1c88 75bd
00000130: 6e87 13be c49d 1bbe 8655 b6bd 560c a9be
00000140: 803a f2bd 7a13 d7bc 3e4a 003d 46ba 55bd
00000150: 8624 0cbd 8d95 3f3c feaf 11be ed9f 9f3d
00000160: 99b9 47be b42e f1bd b251 42be 5945 e1bc
00000170: 96f5 c7bd a423 143d d685 77be 7ad5 e4bd
00000180: 9756 bfbd f965 debd f3d0 71bd 3346 02be
00000190: a6a4 63be f14a 4abc b9d8 bdbd cb37 8cbd
000001a0: 6b14 b2bd 3b7e f93b 8c40 06bc ac55 7fbd
000001b0: 7198 a2bd f3c1 d1bd 3021 d9bd 1e6d 36be
000001c0: e25c c53b 1ab2 6ebe a153 6abb 597b 04be
000001d0: 9405 3fbc 9b61 5f3d 5bce 81be 940a 23be
000001e0: 5bc2 5dbd 7a1a 36be 5a80 86bd b19f 04be
000001f0: 51a4 a0bd b09e 16be 5e15 c8bd d3de 33be
-0.049884934 -0.06402976 0.009720998 -0.044587933 -0.1498215 -0.029702831 -0.10256263 -0.07463364
-0.31465822 -0.112801455 -0.20008971 -0.059507765 -0.019593945 -0.18934856 -0.012632822 0.0062962533
-0.01540592 -0.095615864 -0.13037604 -0.13964994 -0.06323588 -0.12108188 -0.07476267 -0.0769112
-0.016509535 -0.10174287 -0.06225593 -0.095722266 -0.012783149 -0.048401747 -0.10220706 0.06117324
-0.09596945 -0.09707532 -0.12968993 -0.14353818 -0.018602913 0.0038281335 -0.18501891 -0.035222188
0.05982598 -0.061266936 0.045110304 -0.088336 -0.107283995 0.0034190328 -0.092313565 -0.13926935
-0.20723575 -0.11051305 -0.013171768 0.038808882 -0.009282001 -0.009434916 -0.06510208 -0.11298641
-0.12888788 -0.2587213 -0.27673885 -0.039884783 -0.051573373 -0.0014765349 0.04688672 -0.06353052
-0.17404038 -0.22448684 -0.05631418 -0.036340635 0.04411711 -0.050863422 0.092531964 0.030317187
-0.11683924 -0.04650476 -0.18868664 -0.059944257 -0.14407131 -0.15196902 -0.08903031 -0.33017224
-0.11827564 -0.026254404 0.031320803 -0.052179597 -0.03421452 0.0116933705 -0.14227292 0.07794175
-0.19504394 -0.11776486 -0.18976477 -0.027498888 -0.09763639 0.036166802 -0.24172148 -0.1117353
-0.093426876 -0.108592935 -0.05903716 -0.12722091 -0.22230777 -0.012346969 -0.09269852 -0.06846579
-0.08695301 0.007613925 -0.0081941 -0.062337562 -0.07939232 -0.10242071 -0.10602033 -0.17815062
0.0060230354 -0.23310128 -0.0035755413 -0.12937678 -0.011659045 0.054536443 -0.2535275 -0.15922004
-0.05414043 -0.17783538 -0.0656745 -0.12951542 -0.07843841 -0.14708972 -0.097697005 -0.1756547

running_mean f4 [128]
00000000: eb82 8d3c 8385 4fbc 2148 303c 5d7a 1cbd
00000010: 5265 943c 4d68 20bb 2877 d2bc c2dd 83bb
00000020: 5d05 703c e48a 2b3c a142 a63c 1eda d2bb
00000030: ece1 18bb df48 17bc c229 153c f72e 47bd
00000040: 18c2 cebc 0a49 be3b 82ad af3c ec92 703b
00000050: daad 2abd 7fcc e139 92cd 653c 9e51 823c
00000060: b5ed 883b 3231 e7bb 7444 ab3b 3481 fabb
00000070: fd19 423c bd71 263c a31f 4cbc 4eed 99bc
00000080: b016 4e3a 70d9 303c cf61 e139 dcdc 6bba
00000090: 5e93 9ebc cc1d c13c 1a42 f53c 988b f8bc
000000a0: 89d3 b53c 00c4 abbb 0421 1cbb 0104 d4bb
000000b0: dbc2 003c f371 68bc 0f4e b43c d06b 533c
000000c0: 42f2 a2bc c091 cf3b 327f 31bc 0de6 00bc
000000d0: 360d bfbb 44dc 85bc 28e7 f3bb 44fb 033d
000000e0: f4a9 1b3c 854c 333c 30f5 dd3c b4b4 cbbb
000000f0: 1d90 a1bb e4b7 acbc 910a 0bbc d4dc e43b
00000100: 852b 573c c29f 363c be0b e63a 00fb 38bc
00000110: fd2a bb3c 87a1 9cbb f0d2 39bc 69d0 913b
00000120: 4d05 a4bb 9ea7 acbc 2d9e 4d3c 57c0 21bc
00000130: 8713 a3b9 bd15 b7bb a89a 443c f985 fe3c
00000140: 6179 c9bc f8cb 203b f7c6 35bc 91cb c4bc
00000150: 0939 90ba f0f4 adba d6c8 8b3a 5144 01bd
00000160: caff adba dfbf 703c 0440 dabc 9bbc 01bb
00000170: 336d 9fbb aa4b ffbc de5a 513c 1ceb d2bc
00000180: 783c 24bc c6cc 3e3c 8c31 5c3b 11b3 fdbc
00000190: 33ac 90bc 4790 4bbc d5e7 963b a3b2 31bc
000001a0: 80e0 5d3b e4a4 57bc 6b9f 47bc 3e04 8a39
000001b0: e674 f4bb b423 bbbc b661 c2ba 14c3 07bc
000001c0: d577 35bd 6d15 db3c 0f05 10bd 8f64 93bb
000001d0: eb9c e839 3e6d f8bc 47d6 27bc d13f f33b
000001e0: af67 23bc 8f04 8f3b 046e 983c 291d be3c
000001f0: 9b48 d13b 450b 833b b503 41bc f802 3b3c
0.01727434 -0.012666109 0.010759384 -0.038202632 0.01811472 -0.002447623 -0.025691584 -0.0040242383
0.014649716 0.010470126 0.020295443 -0.006434693 -0.002332802 -0.009233682 0.009104194 -0.048628774
-0.025239035 0.005807047 0.02144504 0.0036708666 -0.041669704 0.00043067706 0.014026063 0.015908059
0.0041787275 -0.007055425 0.005226666 -0.0076447967 0.011847016 0.010158953 -0.012458715 -0.018789914
0.0007861657 0.010794029 0.00042988217 -0.0008997449 -0.01935738 0.023573779 0.029938746 -0.030340001
0.022195594 -0.005241871 -0.002382339 -0.006470204 0.007858957 -0.014187324 0.022009877 0.0129041225
-0.019890908 0.0063345134 -0.010833548 -0.007867348 -0.0058304323 -0.016340382 -0.0074433275 0.032222047
0.009500969 0.010943537 0.027094454 -0.00621661 -0.0049305097 -0.02108378 -0.008486406 0.0069843326
0.013132934 0.011146488 0.0017551107 -0.011290312 0.022847647 -0.0047799977 -0.011341795 0.0044498933
-0.0050055147 -0.02107602 0.012549919 -0.009872518 -0.00031104332 -0.005587308 0.011999764 0.031069743
-0.02459401 0.0024535637 -0.0110948 -0.02402285 -0.0011003326 -0.001327185 0.0010664712 -0.031559292
-0.0013275084 0.014694183 -0.026641853 -0.0019796256 -0.0048653125 -0.03116401 0.012778012 -0.025746875
-0.0100241825 0.0116455015 0.0033598868 -0.030969175 -0.017660236 -0.012424535 0.0046052733 -0.010845813
0.0033855736 -0.013161872 -0.012184004 0.00026324572 -0.0074602244 -0.022844173 -0.0014830146 -0.008286256
-0.044303734 0.026743615 -0.035161074 -0.0044980715 0.000443674 -0.030325528 -0.010243959 0.007423379
-0.009973451 0.004364557 0.018607147 0.023207264 0.006386829 0.003999146 -0.011780669 0.011414282

running_var f4 [128]
00000000: 2ed3 913b 83ee fe3a 3736 713b ae3a df3b
00000010: da15 d43a 7c89 813a 2319 533b 37dc 023b
00000020: 7431 c53a b51c 973a 6246 353b dd27 723a
00000030: ab70 f839 498a 7c3b 88da 923a b4a3 e13a
00000040: 3471 0e3b 36f1 893b 5e77 b93a 2c16 123b
00000050: af9d 363b f36a 5c3a befc 2e3b af7c 993a
00000060: b80a b43a 1847 3b3a fe83 c83a 67dc f43a
00000070: 003a cc3a 3250 3d3a ca9b 5d3a 83db 9d3b
00000080: e8aa 9d3a 9568 aa39 c2c3 4e3a 879a 443b
00000090: 226a db3a 99db 893a c4af c33a c10a 543a
000000a0: 7691 d23a 2ba6 643a 1c7b 193a 85d0 523a
000000b0: 40de dc3a 5e78 4f39 e6a5 3b3b dd4a 883b
000000c0: 119e e33b c8ba 033b 80e7 ed3a c384 d73a
000000d0: 7130 153a 61d3 573a 26ad 463b 26a6 9a3b
000000e0: 4e9c ea39 b431 363b 6f20 8e3b 425f 933b
000000f0: 2ceb aa3a fc79 b93a f52c cf3a b9d3 663a
00000100: cf91 cb3a be3a e43b 848f 103a da20 e33a
00000110: 5230 cb3a 2b9a 733a 46bb 973a 70b2 c93a
00000120: b794 113b b114 373b 9a2c 203b f0e3 543b
00000130: aba6 f73a b137 383b 427d 1d3b c0af e23b
00000140: fa13 673b 8368 bb3a cf8b c139 ac3e 083b
00000150: 3c5a 0a3b aaa2 d13a 3f3f c43a 061f 883a
00000160: de94 143b 8e6e 0a3b a335 1b3b 0bb0 0f3b
00000170: 6557 da3a 5209 b73a cea1 b23a 1ad7 9a3a
00000180: 5159 a23a b28a b43a f20c e53a d100 143b
00000190: 01b7 863b d2c5 283a 7e93 d23a eb3b f83a
000001a0: 534a 603a be80 843a 636a a33a 33fe 583a
000001b0: 53f4 073b 0390 343a 07ea 613a be11 5d3b
000001c0: 5d1f 043b a16d 5e3b b9d2 f239 9594 b63a
000001d0: 592a 863a ff45 423b 8c7a cb3a 8921 013b
000001e0: 04c4 f93a 3e95 533b b5e7 c63a 14dd 433b
000001f0: d73e df3a 226e 093b fed4 243b 8dfd ff3a
0.0044502234 0.0019449744 0.0036805996 0.006812415 0.0016180829 0.0009882892 0.0032211028 0.0019967684
0.0015044645 0.0011528941 0.002766036 0.00092375075 0.0004738619 0.0038534573 0.0011204043 0.0017214925
0.0021734955 0.004209663 0.0014149954 0.0022291047 0.0027864983 0.00084082707 0.002670094 0.0011710132
0.0013736105 0.00071440777 0.0015298126 0.0018681408 0.001558125 0.0007221728 0.00084536953 0.0048174276
0.0012029083 0.00032502846 0.00078874466 0.0029999332 0.0016740004 0.0010517716 0.0014929702 0.00080887607
0.0016065079 0.0008722271 0.00058548315 0.0008041936 0.0016850904 0.00019785899 0.0028632819 0.004159315
0.006946333 0.0020100344 0.0018150657 0.0016442764 0.0005691117 0.0008233097 0.0030315607 0.0047195135
0.00044748414 0.0027800621 0.0043373625 0.0044974396 0.0013040057 0.0014150734 0.0015806245 0.0008805353
0.0015531125 0.0069650104 0.00055145496 0.0017328516 0.0015502071 0.0009292687 0.0011576198 0.0015388262
0.0022213885 0.0027935917 0.0024440647 0.0032484494 0.0018894275 0.0028109367 0.0024030958 0.0069179237
0.003525971 0.0014298115 0.00036915994 0.0020789308 0.0021110913 0.0015993912 0.0014972462 0.0010385222
0.002267174 0.0021123025 0.0023683093 0.0021924998 0.0016658126 0.001396457 0.0013628544 0.0011813373
0.0012386238 0.0013774245 0.0017475171 0.0022583494 0.0041111712 0.0006438169 0.0016065685 0.0018938755
0.0008555997 0.0010109169 0.0012467619 0.0008277625 0.0020744994 0.00068879145 0.00086179416 0.00337325
0.0020160296 0.0033939856 0.00046314838 0.0013929779 0.0010236009 0.0029643772 0.0015524193 0.0019703826
0.001905561 0.0032285 0.0015175255 0.0029886412 0.0017032278 0.0020970185 0.0025151367 0.001953052

cpu f4 [128]
00000000: 0000 0000 0000 0000 0000 0000 0000 0000
00000010: 0000 0000 0000 0000 0000 0000 0000 0000
00000020: 0000 0000 0000 0000 0000 0000 0000 0000
00000030: 0000 0000 0000 0000 0000 0000 0000 0000
00000040: 0000 0000 0000 0000 0000 0000 0000 0000
00000050: 0000 0000 0000 0000 0000 0000 0000 0000
00000060: 0000 0000 0000 0000 0000 0000 0000 0000
00000070: 0000 0000 0000 0000 0000 0000 0000 0000
00000080: 0000 0000 0000 0000 0000 0000 0000 0000
00000090: 0000 0000 0000 0000 0000 0000 0000 0000
000000a0: 0000 0000 0000 0000 0000 0000 0000 0000
000000b0: 0000 0000 0000 0000 0000 0000 0000 0000
000000c0: 0000 0000 0000 0000 0000 0000 0000 0000
000000d0: 0000 0000 0000 0000 0000 0000 0000 0000
000000e0: 0000 0000 0000 0000 0000 0000 0000 0000
000000f0: 0000 0000 0000 0000 0000 0000 0000 0000
00000100: 0000 0000 0000 0000 0000 0000 0000 0000
00000110: 0000 0000 0000 0000 0000 0000 0000 0000
00000120: 0000 0000 0000 0000 0000 0000 0000 0000
00000130: 0000 0000 0000 0000 0000 0000 0000 0000
00000140: 0000 0000 0000 0000 0000 0000 0000 0000
00000150: 0000 0000 0000 0000 0000 0000 0000 0000
00000160: 0000 0000 0000 0000 0000 0000 0000 0000
00000170: 0000 0000 0000 0000 0000 0000 0000 0000
00000180: 0000 0000 0000 0000 0000 0000 0000 0000
00000190: 0000 0000 0000 0000 0000 0000 0000 0000
000001a0: 0000 0000 0000 0000 0000 0000 0000 0000
000001b0: 0000 0000 0000 0000 0000 0000 0000 0000
000001c0: 0000 0000 0000 0000 0000 0000 0000 0000
000001d0: 0000 0000 0000 0000 0000 0000 0000 0000
000001e0: 0000 0000 0000 0000 0000 0000 0000 0000
000001f0: 0000 0000 0000 0000 0000 0000 0000 0000
0.0 0.0 0.0 0.0 0.0 0.0 0.0 0.0
0.0 0.0 0.0 0.0 0.0 0.0 0.0 0.0
0.0 0.0 0.0 0.0 0.0 0.0 0.0 0.0
0.0 0.0 0.0 0.0 0.0 0.0 0.0 0.0
0.0 0.0 0.0 0.0 0.0 0.0 0.0 0.0
0.0 0.0 0.0 0.0 0.0 0.0 0.0 0.0
0.0 0.0 0.0 0.0 0.0 0.0 0.0 0.0
0.0 0.0 0.0 0.0 0.0 0.0 0.0 0.0
0.0 0.0 0.0 0.0 0.0 0.0 0.0 0.0
0.0 0.0 0.0 0.0 0.0 0.0 0.0 0.0
0.0 0.0 0.0 0.0 0.0 0.0 0.0 0.0
0.0 0.0 0.0 0.0 0.0 0.0 0.0 0.0
0.0 0.0 0.0 0.0 0.0 0.0 0.0 0.0
0.0 0.0 0.0 0.0 0.0 0.0 0.0 0.0
0.0 0.0 0.0 0.0 0.0 0.0 0.0 0.0
0.0 0.0 0.0 0.0 0.0 0.0 0.0 0.0
