ldpi/training/output/ResCNN/scripted_quantized_model.pth (torch, 269162 bytes, 61 tensors)

cpu f4 [64]
00000000: 0000 0000 0000 0000 0000 0000 0000 0000
00000010: 0000 0000 0000 0000 0000 0000 0000 0000
00000020: 0000 0000 0000 0000 0000 0000 0000 0000
00000030: 0000 0000 0000 0000 0000 0000 0000 0000
00000040: 0000 0000 0000 0000 0000 0000 0000 0000
00000050: 0000 0000 0000 0000 0000 0000 0000 0000
00000060: 0000 0000 0000 0000 0000 0000 0000 0000
00000070: 0000 0000 0000 0000 0000 0000 0000 0000
00000080: 0000 0000 0000 0000 0000 0000 0000 0000
00000090: 0000 0000 0000 0000 0000 0000 0000 0000
000000a0: 0000 0000 0000 0000 0000 0000 0000 0000
000000b0: 0000 0000 0000 0000 0000 0000 0000 0000
000000c0: 0000 0000 0000 0000 0000 0000 0000 0000
000000d0: 0000 0000 0000 0000 0000 0000 0000 0000
000000e0: 0000 0000 0000 0000 0000 0000 0000 0000
000000f0: 0000 0000 0000 0000 0000 0000 0000 0000
0.0 0.0 0.0 0.0 0.0 0.0 0.0 0.0
0.0 0.0 0.0 0.0 0.0 0.0 0.0 0.0
0.0 0.0 0.0 0.0 0.0 0.0 0.0 0.0
0.0 0.0 0.0 0.0 0.0 0.0 0.0 0.0
0.0 0.0 0.0 0.0 0.0 0.0 0.0 0.0
0.0 0.0 0.0 0.0 0.0 0.0 0.0 0.0
0.0 0.0 0.0 0.0 0.0 0.0 0.0 0.0
0.0 0.0 0.0 0.0 0.0 0.0 0.0 0.0

weight f4 [64]
00000000: 62a3 2d3e 6c63 6c3d a652 4f3c 2486 a13e
00000010: 612b bc3e e570 453d e152 1c3e 6274 7f3e
00000020: d542 223e c9af 983d f516 453e 331d 913e
00000030: 6c75 e13e 304d 9e3e 2816 8f3e 6773 733d
00000040: a589 533e f5a6 033e 0b0e b73d 3b68 d33d
00000050: 4fa7 883e b244 903d 14f2 b83d 34eb 933d
00000060: 8230 c43e b29a 183e ff26 673d e01e 673e
00000070: 4994 9f3d 884a e43e 0a6d 033e 40d3 b63d
00000080: 9aaa 4d3e 16d5 fb3c 98ae e23e ebcc b63e
00000090: bdfc 323d ccc6 b33d 76cf 2b3e be4e 153e
000000a0: 720c 623f ea90 c2bc e486 4e3e a078 cc3e
000000b0: 6091 603e 4896 d73e 2cc9 8d3d f153 473d
000000c0: 9106 743e 3610 ab3e a8be 973e 4b2a b73e
000000d0: a241 8f3d b885 e63e 6975 063e 8f36 f93e
000000e0: f7db 113f a9ac d03d ba00 113d 449a 9a3e
000000f0: 555a 1a3f c509 883e b01c 463e 7747 533e
0.16956857 0.057712004 0.012653982 0.31547654 0.36751845 0.048203368 0.15265991 0.2494674
0.15845807 0.07455403 0.19247039 0.2834259 0.44034898 0.30918264 0.2794659 0.059436228
0.20657976 0.12856658 0.08938225 0.10322615 0.26690146 0.070443526 0.09030548 0.07222596
0.3831826 0.14902762 0.056433674 0.22570372 0.07791955 0.44588113 0.12834564 0.089270115
0.2008461 0.030741256 0.4427383 0.35703215 0.04369806 0.08778152 0.16778359 0.14580819
0.8830024 -0.023750741 0.20168644 0.3993578 0.21930456 0.42106843 0.06923136 0.048664037
0.2383063 0.33410805 0.29637647 0.35774454 0.0699494 0.45023894 0.13130726 0.48674437
0.56976265 0.10189182 0.035401084 0.3019582 0.60294086 0.26569954 0.19346881 0.2063273

bias f4 [64]
00000000: a3a1 67be a8d5 25bc afc0 333f 7058 c7bd
00000010: 4924 743e 9953 49bc 1c64 613d 5470 66bd
00000020: 209f 213e 385d 1c3c 033b 3f3d ac67 b3bd
00000030: afe5 57be ddae b8be a1f0 dcbd b38f 973d
00000040: fa09 8cbd 7e0b 0ebd af85 b83d 881c 01bd
00000050: c984 ffbd ff8f 623d 5398 e9bd 57b0 cfbd
00000060: 5a56 d4be 82d8 3b3e b9e7 12bd 581b 97bd
00000070: 0546 a13e 0f56 e43e fa04 32bd 1811 efbc
00000080: 588a 7a3e bfd2 22bd 9ed5 603e f20e aebd
00000090: c7fd 2cbc 0f9c c0bc a8f2 53be 70af 81bd
000000a0: 1f77 86be d497 723e ca70 183e 3d54 143f
000000b0: d8da 483d 8ef0 35be 8f72 bcbd d453 a1bc
000000c0: f835 c0bd 6e49 333d 58d9 c3be a28f ff3d
000000d0: a44c 8bbc 2f07 233f 9283 e03c 9d12 473e
000000e0: 0299 17be ca18 f4bd 4ac9 b7bc af96 05be
000000f0: 7e0d 1c3c 4b1f dabd 9ffa 93bd df39 4e3e
-0.22620253 -0.01012174 0.70215887 -0.09733665 0.23841967 -0.012287998 0.055027112 -0.05625947
0.15783358 0.009543709 0.046687137 -0.08760008 -0.21083711 -0.3607091 -0.10788084 0.07400455
-0.068378404 -0.03467893 0.09009873 -0.03152135 -0.12476499 0.055313107 -0.11406007 -0.10141056
-0.4147213 0.1834431 -0.03586552 -0.07378262 0.31498733 0.44596907 -0.043461777 -0.029182956
0.24466836 -0.039751764 0.21956488 -0.08498944 -0.010558552 -0.023511915 -0.20698035 -0.0633229
-0.26262757 0.2369073 0.14886776 0.5794104 0.04903683 -0.17767546 -0.09201538 -0.019693293
-0.09385294 0.0437712 -0.38251758 0.12478568 -0.017004319 0.63682836 0.027406488 0.19440694
-0.14804462 -0.11918791 -0.02243485 -0.13045762 0.009524701 -0.106505 -0.072255366 0.20139264

running_mean f4 [64]
00000000: 70a4 bdbc 0d74 b23b 6d66 f6bb de6d 523c
00000010: 7b8c babc 8457 a43c ccef 193c c675 af3c
00000020: e6a5 a93c 38ff a5bb 23d3 50bc 099a 9eb8
00000030: 4c78 2c3c 64cf 00bc aaf6 a6bc b5b3 873c
00000040: ab42 383c 8ec4 863c b90f a73c d09f 053c
00000050: 1a38 983c d218 dd3b 9b0a 97bc e0ef b2bc
00000060: 9696 b9ba 1daf 4e3c ba92 bfbb dd84 13bc
00000070: e565 1a3c 423f b43c 23a1 973c f9b7 0f3c
00000080: 6f1d 413c 4005 8dbc 56f1 293c fcdb 1939
00000090: bc2e d2bb d359 81bc 4bf2 b1bc 94ad 3d3c
000000a0: 2369 2bbd ce29 263c a177 4b3c d3b8 1b3d
000000b0: 9fcb 81bc 2266 85bc 5eef 95bc d92e 1d3b
000000c0: da4a 213c cfa0 a43c 91bc efba 956c b53c
000000d0: 01c7 913c e01d 1e3e 7250 09bc 41df 333c
000000e0: a7b0 c2bc c96b 64bc 69c2 a83c 65a8 a3b9
000000f0: 6fb8 01bd edce 233c 5208 0e3c 9bb3 b53c
-0.023149699 0.0054459632 -0.0075195343 0.012843577 -0.022772064 0.020061262 0.009395551 0.021418463
0.02070899 -0.005065825 -0.012745651 -7.5627184e-05 0.010526728 -0.007861946 -0.02038129 0.016565183
0.011246364 0.016451146 0.02039324 0.008155778 0.018581439 0.0067473436 -0.018437674 -0.021842897
-0.0014159258 0.012614992 -0.0058463486 -0.009003845 0.009423708 0.02200282 0.018509453 0.00877189
0.011786803 -0.017214417 0.01037248 0.00014673168 -0.0064142626 -0.015789902 -0.02172198 0.011577029
-0.041848313 0.010141803 0.0124186585 0.03801806 -0.015844164 -0.016284052 -0.018302616 0.0023984222
0.009844506 0.02009621 -0.001829045 0.022146503 0.017795088 0.15441084 -0.008380996 0.010978521
-0.023765875 -0.013941714 0.020600514 -0.00031215246 -0.03167003 0.009998065 0.008668976 0.02218037

running_var f4 [64]
00000000: cdd2 243a a2f2 1138 951f 8b38 c0ef 4a39
00000010: 657d 1f3a 808e f739 9033 d938 c217 0d3a
00000020: 7ee6 033a 6e91 fc37 8bda 4739 bb90 e631
00000030: 2753 0839 0a15 9838 9a84 ff39 a3ca a839
00000040: dc99 1b39 be79 a639 52d1 ff39 94a9 a338
00000050: b161 d439 b008 6038 9e1b d139 74bd 123a
00000060: 05da 1d36 f7c6 4339 5c32 2838 ec77 c738
00000070: 5481 da38 88e5 143a 40bd d239 ce52 bd38
00000080: 3dea 2a39 1448 b639 e75b 0439 abfb d832
00000090: 0d76 4a38 9c5c 9939 b21e 113a ade2 2439
000000a0: cfa7 063b 1513 fd38 0cbb 3d39 bf44 de3a
000000b0: e86a 9a39 6a1c a339 400e ce39 7a75 e236
000000c0: 6c74 ee38 846b f839 4ab3 8336 fdd8 163a
000000d0: 4bc9 c239 4928 e53c 80d3 ac38 1847 1439
000000e0: e2b6 2d3a 5c1f 6f39 af85 023a 0580 f533
000000f0: 443d 9a3a acf3 f538 3be8 b838 304f 173a
0.0006287515 3.4796663e-05 6.633919e-05 0.00019353535 0.0006084054 0.00047217682 0.000103569706 0.00053822633
0.00050315994 3.0108462e-05 0.00019059532 6.710335e-09 0.00013000947 7.2518436e-05 0.00048736186 0.00032194433
0.00014839269 0.00031752692 0.00048793346 7.804032e-05 0.00040508577 5.3413853e-05 0.00039884163 0.0005597689
2.3521727e-06 0.0001867077 4.0101222e-05 9.511397e-05 0.00010419139 0.0005679955 0.00040195324 9.027646e-05
0.00016299724 0.00034767448 0.00012622737 2.5260155e-08 4.8270496e-05 0.00029251433 0.0005535885 0.00015724702
0.00205468 0.000120675344 0.00018094125 0.0016957744 0.0002945282 0.00031110953 0.00039302 6.749001e-06
0.000113704096 0.00047382351 3.924976e-06 0.00057543797 0.00037152538 0.027973311 8.240994e-05 0.00014140864
0.0006626678 0.00022804498 0.0004979027 1.1431988e-07 0.0011767526 0.00011727898 8.81706e-05 0.0005771993

cpu f4 [64]
00000000: 0000 0000 0000 0000 0000 0000 0000 0000
00000010: 0000 0000 0000 0000 0000 0000 0000 0000
00000020: 0000 0000 0000 0000 0000 0000 0000 0000
00000030: 0000 0000 0000 0000 0000 0000 0000 0000
00000040: 0000 0000 0000 0000 0000 0000 0000 0000
00000050: 0000 0000 0000 0000 0000 0000 0000 0000
00000060: 0000 0000 0000 0000 0000 0000 0000 0000
00000070: 0000 0000 0000 0000 0000 0000 0000 0000
00000080: 0000 0000 0000 0000 0000 0000 0000 0000
00000090: 0000 0000 0000 0000 0000 0000 0000 0000
000000a0: 0000 0000 0000 0000 0000 0000 0000 0000
000000b0: 0000 0000 0000 0000 0000 0000 0000 0000
000000c0: 0000 0000 0000 0000 0000 0000 0000 0000
000000d0: 0000 0000 0000 0000 0000 0000 0000 0000
000000e0: 0000 0000 0000 0000 0000 0000 0000 0000
000000f0: 0000 0000 0000 0000 0000 0000 0000 0000
0.0 0.0 0.0 0.0 0.0 0.0 0.0 0.0
0.0 0.0 0.0 0.0 0.0 0.0 0.0 0.0
0.0 0.0 0.0 0.0 0.0 0.0 0.0 0.0
0.0 0.0 0.0 0.0 0.0 0.0 0.0 0.0
0.0 0.0 0.0 0.0 0.0 0.0 0.0 0.0
0.0 0.0 0.0 0.0 0.0 0.0 0.0 0.0
0.0 0.0 0.0 0.0 0.0 0.0 0.0 0.0
0.0 0.0 0.0 0.0 0.0 0.0 0.0 0.0

cpu f4 [64]
00000000: 0000 0000 0000 0000 0000 0000 0000 0000
00000010: 0000 0000 0000 0000 0000 0000 0000 0000
00000020: 0000 0000 0000 0000 0000 0000 0000 0000
00000030: 0000 0000 0000 0000 0000 0000 0000 0000
00000040: 0000 0000 0000 0000 0000 0000 0000 0000
00000050: 0000 0000 0000 0000 0000 0000 0000 0000
00000060: 0000 0000 0000 0000 0000 0000 0000 0000
00000070: 0000 0000 0000 0000 0000 0000 0000 0000
00000080: 0000 0000 0000 0000 0000 0000 0000 0000
00000090: 0000 0000 0000 0000 0000 0000 0000 0000
000000a0: 0000 0000 0000 0000 0000 0000 0000 0000
000000b0: 0000 0000 0000 0000 0000 0000 0000 0000
000000c0: 0000 0000 0000 0000 0000 0000 0000 0000
000000d0: 0000 0000 0000 0000 0000 0000 0000 0000
000000e0: 0000 0000 0000 0000 0000 0000 0000 0000
000000f0: 0000 0000 0000 0000 0000 0000 0000 0000
0.0 0.0 0.0 0.0 0.0 0.0 0.0 0.0
0.0 0.0 0.0 0.0 0.0 0.0 0.0 0.0
0.0 0.0 0.0 0.0 0.0 0.0 0.0 0.0
0.0 0.0 0.0 0.0 0.0 0.0 0.0 0.0
0.0 0.0 0.0 0.0 0.0 0.0 0.0 0.0
0.0 0.0 0.0 0.0 0.0 0.0 0.0 0.0
0.0 0.0 0.0 0.0 0.0 0.0 0.0 0.0
0.0 0.0 0.0 0.0 0.0 0.0 0.0 0.0

weight f4 [64]
00000000: 28f3 833e 1b2c 453e e2f7 343e 64ea c63d
00000010: 37e8 323e d3c7 be3e 0c76 cd3d 9928 ea3d
00000020: 412f 063d 70ad cc3d 75ab 103f f4b5 943e
00000030: 8b7c e83e f9a0 0c3d 152e aa3d eb1e 9f3e
00000040: 1228 593d 4ae6 f83e 94d4 bc3d d82e 2e3f
00000050: c099 983d 7d05 cf3e bde3 c23d 5a8d 2e3d
00000060: 7e7a 333f e746 0d3f 4b61 273e b36c 463e
00000070: 8cb6 ba3d d653 253d 8859 693e 56bc 163f
00000080: a58e 1d3d 4a65 143d 114d 3e3d ae52 8f3d
00000090: 16dd 153e 691c 9c3d 0e43 633f 8ab6 f13c
000000a0: a11b 9f3d 5c37 2f3e 6340 c03d 885d 473e
000000b0: 6a2f 603e 2c4a 1e3d c6b6 6c3e 0a51 8f3d
000000c0: d54e 453f e047 a93d 52cf 4c3e 2da4 973e
000000d0: 6248 4d3e 5505 fb3e 0a50 863e 24b7 183f
000000e0: 42d9 033d 6e3b aa3d eee3 023e a717 a43e
000000f0: 4d36 0e3e 693b 663e c271 213f 5a33 e33d
0.2577145 0.19255106 0.17672685 0.09712675 0.17471395 0.3726183 0.10032281 0.11433525
0.03275991 0.09994018 0.5651162 0.2904507 0.4540752 0.034333203 0.08309571 0.31078276
0.05301673 0.48613197 0.092202336 0.6804023 0.074512005 0.40433875 0.09516094 0.042615272
0.70108783 0.55186313 0.16345708 0.19377403 0.09116849 0.040363155 0.2278806 0.5888113
0.038466115 0.03622941 0.046460215 0.06998192 0.14635119 0.07622606 0.8877419 0.029505987
0.07768942 0.17110962 0.09387281 0.19469273 0.21893087 0.038644955 0.23116598 0.06997879
0.77073413 0.08265662 0.20000961 0.29617444 0.20047143 0.49027506 0.2623294 0.5965445
0.032189615 0.083121166 0.12782261 0.32049295 0.13887902 0.224836 0.63064206 0.11093779

bias f4 [64]
00000000: 5c9a b3be 78b9 dbbd 0fb6 ddbb 9204 b3bd
00000010: 0446 6fbd 1f50 1ebe def6 61bd 748b e23a
00000020: caa0 1ebc efe6 2ebe 467a e73b 9690 92be
00000030: fa60 60be 17b3 dfbb 95eb 56bd 2919 2bbe
00000040: cb87 5b3b c407 aebd 2a2a c33a 6bfd 073e
00000050: b06d 4d3c db80 303e 7f39 87be 9f97 9cb8
00000060: 1d0a f3bd e3ce 0fbd 9ad4 08bd 663a 40be
00000070: aac7 c73b 6208 de3b 7154 423d ac1e 973d
00000080: 6f0b 85bc ffe2 b4ba 0350 41bd 53e9 fd39
00000090: 1726 90be 3361 61bd 09de 22bf e81f edba
000000a0: 389b 16bc d21c 5abe d570 0a3a 51b2 02be
000000b0: c51d edbd cae5 37ba f7cf 9bbd 77b3 103c
000000c0: dc2a 92be da19 9c3c 7e4a 81be 3ef7 8abe
000000d0: 8a1e c4be 5d79 dbbd 1928 4bbd 03ed da3c
000000e0: 6d06 0bbd 7654 a6bc 1c0a d53c 58e2 20be
000000f0: 6832 9dbd a77d 18be bf28 413d e0c6 943b
-0.35078704 -0.10728735 -0.006766088 -0.08741106 -0.05841638 -0.15460251 -0.05516707 0.0017283992
-0.00968189 -0.17080282 0.0070641367 -0.28625935 -0.21911994 -0.006826769 -0.052470762 -0.16708817
0.0033497687 -0.08497575 0.0014889885 0.13280265 0.012538359 0.17236654 -0.26411054 -7.466901e-05
-0.11867163 -0.035109412 -0.033405878 -0.18772277 0.0060968 0.0067759017 0.04744381 0.07378897
-0.016240804 -0.001380056 -0.047195446 0.0004842976 -0.2815406 -0.055024337 -0.6362005 -0.0018091174
-0.0091922805 -0.21300057 0.00052810955 -0.12763335 -0.11577944 -0.0007015137 -0.076080255 0.00883185
-0.28548324 0.019055296 -0.25252146 -0.27141756 -0.3830455 -0.107165076 -0.049598787 0.026724344
-0.033941675 -0.020303946 0.026005797 -0.15711343 -0.0767563 -0.14891683 0.047158 0.0045403093

running_mean f4 [64]
00000000: 5161 3cbd d23d 51bd 8b6a f1bc 0943 3e3c
00000010: 60e9 cbbd 8628 1e3e 9e4a 0dbd 6b66 e33c
00000020: d6fb 0a39 9926 88bc 96b2 41be 4bb0 9dbd
00000030: 3908 2e3e 8659 473b 7152 1f3c ec87 e9bd
00000040: c3a4 3f3c 2d50 113e b925 a8bc 60b8 13bc
00000050: fc7f c4bc 179e 53bc f089 10bd 8388 f23b
00000060: a939 833d f5f3 413e 96bd 113d 18ed 153d
00000070: 767f 0dbd 93dc d13b 20d6 643d b440 cebd
00000080: 9ae4 0f39 8d97 cdb8 8295 1dbb 9b27 b83c
00000090: 49d8 9b3b c47a 4f3c fab7 5ebe 6f93 c8bb
000000a0: 72e0 b53b c874 89bd dcef 933c 34d0 d93a
000000b0: b86a a3bd 72bf cc39 dab5 cbbd 1b01 f1bb
000000c0: 7b86 4ebe a811 453c 1163 92bd c9fd aebd
000000d0: 505b 833c 1e86 003e 9bbb e63b dc15 f93c
000000e0: c9e5 abba 4d6f efbc e92f be3c 6e92 cfbd
000000f0: a2ca bf3c 359b 503d 0e9f 56bd e8d9 4cbd
-0.045991246 -0.051084347 -0.029469749 0.011612662 -0.09956622 0.15445146 -0.03449499 0.027758798
0.00013254522 -0.016619967 -0.18915781 -0.07699641 0.16995324 0.003041835 0.009724245 -0.11402878
0.011696997 0.14190741 -0.0205258 -0.009016126 -0.023986809 -0.0129161095 -0.035287797 0.0074015274
0.06407482 0.18940718 0.035581194 0.036603063 -0.034545384 0.0064044683 0.055868268 -0.10070935
0.00013722703 -9.80339e-05 -0.0024045412 0.022479823 0.004756008 0.012663547 -0.21749869 -0.006121091
0.0055504376 -0.067117274 0.01805871 0.0016617835 -0.07979339 0.0003905255 -0.09946795 -0.007354868
-0.20168488 0.012028135 -0.07147802 -0.085444994 0.016034752 0.12551162 0.0070414073 0.030405931
-0.0013114746 -0.029227877 0.023216205 -0.10135351 0.023412053 0.050929267 -0.05239778 -0.0500125

running_var f4 [64]
00000000: 063e 7c3a bd93 1d3a ed85 b93a f102 903a
00000010: 453f 8e3b ed1f 553c ec28 b339 b082 7e3a
00000020: 2551 1236 d8d9 3e39 4437 033d 820d 893b
00000030: c63a 6a3c 919e a938 3917 0d38 3406 973c
00000040: d7e3 b138 20b7 c53d f935 a03a 5a5b 6e3e
00000050: a995 b738 c950 a43b 6497 723a d6de 0438
00000060: 4e78 9f3d 7d19 b13d a806 d53a a727 3f3c
00000070: 7cb4 4539 4c93 8337 92be 993b e91e 143e
00000080: 1e5e 6037 4254 e436 400f 3039 2cc3 a639
00000090: c7c3 8a3b 6a81 1d39 42a3 823d 05ea cb36
000000a0: 7966 6438 f13d 813b 84b0 023b eab9 cb39
000000b0: 75bd a53a f658 6937 fb28 0d3c d8e7 9d38
000000c0: c033 043e 13d2 d138 b01b a33b f2b1 a83b
000000d0: 4453 693b ac22 9c3c 1e01 a13c a9e7 453d
000000e0: 9eec 5c37 4f76 2339 4510 e739 9382 1f3d
000000f0: 2953 b139 8f97 1e3b ae89 813d 1370 e039
0.00096222793 0.00060110894 0.0014154293 0.0010987205 0.0043410384 0.0130081 0.0003417203 0.0009708805
2.1802928e-06 0.00018200965 0.032035127 0.0041825185 0.014296239 8.088083e-05 3.3638647e-05 0.018435575
8.482456e-05 0.09654069 0.0012223116 0.23277035 8.7539964e-05 0.005014513 0.00092541263 3.1678785e-05
0.07786618 0.0864744 0.0016252594 0.011667169 0.0001885462 1.5685007e-05 0.004691907 0.14464916
1.3373354e-05 6.8047384e-06 0.00016790349 0.00031807402 0.0042347643 0.00015020897 0.06378795 6.077115e-06
5.445487e-05 0.0039441516 0.0019941637 0.00038857694 0.0012644964 1.3908595e-05 0.008615728 7.529528e-05
0.12910366 0.00010005026 0.004977666 0.005148166 0.0035602609 0.019059502 0.019653853 0.04831663
1.3168114e-05 0.00015588965 0.00044071875 0.038942885 0.0003382203 0.0024199223 0.063250884 0.0004280811

cpu f4 [64]
00000000: 0000 0000 0000 0000 0000 0000 0000 0000
00000010: 0000 0000 0000 0000 0000 0000 0000 0000
00000020: 0000 0000 0000 0000 0000 0000 0000 0000
00000030: 0000 0000 0000 0000 0000 0000 0000 0000
00000040: 0000 0000 0000 0000 0000 0000 0000 0000
00000050: 0000 0000 0000 0000 0000 0000 0000 0000
00000060: 0000 0000 0000 0000 0000 0000 0000 0000
00000070: 0000 0000 0000 0000 0000 0000 0000 0000
00000080: 0000 0000 0000 0000 0000 0000 0000 0000
00000090: 0000 0000 0000 0000 0000 0000 0000 0000
000000a0: 0000 0000 0000 0000 0000 0000 0000 0000
000000b0: 0000 0000 0000 0000 0000 0000 0000 0000
000000c0: 0000 0000 0000 0000 0000 0000 0000 0000
000000d0: 0000 0000 0000 0000 0000 0000 0000 0000
000000e0: 0000 0000 0000 0000 0000 0000 0000 0000
000000f0: 0000 0000 0000 0000 0000 0000 0000 0000
0.0 0.0 0.0 0.0 0.0 0.0 0.0 0.0
0.0 0.0 0.0 0.0 0.0 0.0 0.0 0.0
0.0 0.0 0.0 0.0 0.0 0.0 0.0 0.0
0.0 0.0 0.0 0.0 0.0 0.0 0.0 0.0
0.0 0.0 0.0 0.0 0.0 0.0 0.0 0.0
0.0 0.0 0.0 0.0 0.0 0.0 0.0 0.0
0.0 0.0 0.0 0.0 0.0 0.0 0.0 0.0
0.0 0.0 0.0 0.0 0.0 0.0 0.0 0.0

cpu f4 [64]
00000000: 0000 0000 0000 0000 0000 0000 0000 0000
00000010: 0000 0000 0000 0000 0000 0000 0000 0000
00000020: 0000 0000 0000 0000 0000 0000 0000 0000
00000030: 0000 0000 0000 0000 0000 0000 0000 0000
00000040: 0000 0000 0000 0000 0000 0000 0000 0000
00000050: 0000 0000 0000 0000 0000 0000 0000 0000
00000060: 0000 0000 0000 0000 0000 0000 0000 0000
00000070: 0000 0000 0000 0000 0000 0000 0000 0000
00000080: 0000 0000 0000 0000 0000 0000 0000 0000
00000090: 0000 0000 0000 0000 0000 0000 0000 0000
000000a0: 0000 0000 0000 0000 0000 0000 0000 0000
000000b0: 0000 0000 0000 0000 0000 0000 0000 0000
000000c0: 0000 0000 0000 0000 0000 0000 0000 0000
000000d0: 0000 0000 0000 0000 0000 0000 0000 0000
000000e0: 0000 0000 0000 0000 0000 0000 0000 0000
000000f0: 0000 0000 0000 0000 0000 0000 0000 0000
0.0 0.0 0.0 0.0 0.0 0.0 0.0 0.0
0.0 0.0 0.0 0.0 0.0 0.0 0.0 0.0
0.0 0.0 0.0 0.0 0.0 0.0 0.0 0.0
0.0 0.0 0.0 0.0 0.0 0.0 0.0 0.0
0.0 0.0 0.0 0.0 0.0 0.0 0.0 0.0
0.0 0.0 0.0 0.0 0.0 0.0 0.0 0.0
0.0 0.0 0.0 0.0 0.0 0.0 0.0 0.0
0.0 0.0 0.0 0.0 0.0 0.0 0.0 0.0

weight f4 [64]
00000000: 6270 fd3e 2a94 003e 3d0a 783e 3c2e a33e
00000010: aba6 c63d 3ce8 a13e 28a9 e53e 0c70 513e
00000020: 73c5 723e e934 8e3e 147c 903e a494 f03e
00000030: 1a63 9d3e dae7 8b3e e057 8d3e 16a0 0b3e
00000040: 3c1e 9a3d d1ff e83e 1b77 8f3d 2e6f e53e
00000050: 3b38 343e bbf6 993e 625b 893e 5ec6 c93e
00000060: 5a17 9e3e 4e1a d53e 0f31 843e c0b9 943e
00000070: 7a33 383e 790c 883e 662e bb3e 79a3 8a3e
00000080: 1ac7 a23d c5d1 ea3e b8f7 183e 0122 043e
00000090: fccf 863e d95b 653e 9d08 d63d 8a50 713e
000000a0: 9920 323e d3df ca3e baed d93e 3fb4 013f
000000b0: 9c18 023e 7751 a33e 1877 f23e 0a15 123f
000000c0: 6451 e73e 6bfb e73e 8134 e33e a12c 003e
000000d0: 505e 8e3d 0157 2c3f 0201 883e fef4 bf3e
000000e0: abaa c83e d2dd de3e 0344 d23e 2069 bf3e
000000f0: fc5e df3e 73f7 8e3e f628 2d3e d7ea 1b3f
0.49499804 0.1255652 0.24222656 0.31871212 0.09699758 0.31622493 0.44855618 0.20452899
0.23708133 0.27774742 0.28219664 0.46988404 0.3073967 0.27325326 0.27606106 0.13635287
0.07525298 0.45507672 0.070051394 0.44811386 0.17599575 0.30071053 0.26827532 0.39409155
0.3087719 0.4162163 0.2581868 0.29047966 0.17988387 0.26572016 0.36558837 0.27077845
0.07948132 0.45863166 0.14938247 0.12903596 0.26330554 0.22398318 0.104508616 0.2356588
0.17395248 0.3962389 0.42564183 0.5066566 0.127047 0.3189809 0.47356486 0.57063353
0.45179284 0.45309004 0.44375995 0.12517025 0.069515824 0.6732026 0.2656327 0.37491602
0.3919271 0.4352861 0.41067514 0.37384892 0.43627155 0.27923164 0.16910157 0.6090521

bias f4 [64]
00000000: f1fa 2c3d bb96 313c 7d5b 51bd 0c80 05be
00000010: 8be8 c5b9 466b 95bd c9b0 ea3c 65e4 773a
00000020: 61a8 e9bd 2aaa bbbd e342 013e 97d0 18be
00000030: 0ddf e7bd 1c6d 1a3d c5e6 b1bd 4731 d3bd
00000040: 2d89 4e37 6958 e1bd fd67 14ba 2258 06be
00000050: bf8f f8bc 3903 c8bd edd8 c8bc 3cfd fbbd
00000060: 4224 373c 3766 33be 2d43 6abd 4770 f3bd
00000070: 8f48 58be 2317 a5bb 6ff7 9a3c e9e7 01bd
00000080: cdc3 073c 738d 81be 83e9 bdbd abf6 7bbc
00000090: 4d39 8dbe db49 1abe bde8 5bbc 4ee5 1ebd
000000a0: 69f9 b7bd 1d52 02be 5c0f b33d 3193 85be
000000b0: f42c 2cbd c4c1 8ebd 7c3c a33d a275 b0be
000000c0: dcdf 82be e438 e8bd e33a 5fbe a5b2 383d
000000d0: 12d8 92ba 4b5a 42be d97c 653c efa6 8a3c
000000e0: 2327 f9bc 2748 1cbe d67a 1cbe 7591 39be
000000f0: f737 dc3b 0704 86bd 659f d03c f25a 78be
0.042231504 0.01083916 -0.05111264 -0.13037127 -0.00037748026 -0.072958514 0.02864875 0.00094563357
-0.11409069 -0.091633156 0.12623172 -0.1492332 -0.113218404 0.03770171 -0.08686594 -0.10312133
1.2310496e-05 -0.11003191 -0.00056612474 -0.13119557 -0.030341981 -0.0976624 -0.0245175 -0.1230416
0.011178078 -0.1751946 -0.05719297 -0.118866496 -0.21121429 -0.0050381585 0.018916814 -0.031715307
0.008286429 -0.2530323 -0.092730545 -0.015378634 -0.2758278 -0.15067236 -0.013422188 -0.0387929
-0.08983118 -0.12726636 0.08743164 -0.2608886 -0.04203506 -0.069705516 0.07970521 -0.34464747
-0.25561416 -0.11338976 -0.21799807 0.045092244 -0.001120331 -0.18979757 0.014006817 0.016925303
-0.03041417 -0.15261899 -0.15281233 -0.18121894 0.0067205387 -0.06543737 0.02546663 -0.24253443

running_mean f4 [64]
00000000: 2702 cebc d492 7f3b f7d7 df3c 15a0 1ebc
00000010: 4bd3 103c b891 9dbb ce98 43bd 8631 bbbc
00000020: 25d5 b7bb 6b2a a53c 8d31 a6bc 5e73 09bd
00000030: c8c9 d6bb dac3 a9bb 7340 1eba 6970 523c
00000040: 8b06 0fbb d6ef 24bc 0bf3 59bb 43ca 41bd
00000050: 4dea 0c3c cf7d a63d d475 14bd 7128 ea3a
00000060: 6a90 b0bc 85dc 1cbd 0f35 213b c440 0e3d
00000070: 3bc4 65ba 2e3d e4bc 621d 15bd 17ee 883b
00000080: c4a1 9cba 8de3 663c 1dbc b5bb 29bd b5bb
00000090: ea8b ab3d 673f 263c 85bd 9ebb fca1 813b
000000a0: 2836 ecba 0e3f 2bbc 041d a5bb f529 17bd
000000b0: 6c30 b5bc 0a77 af38 30ed 51bc 8114 003e
000000c0: d16e 023d fcf0 393d 06c3 b0bb 95a4 68bb
000000d0: bde3 5fbb 3989 683d 6d99 d6bb aa17 3fbd
000000e0: 1d3b a9bc d4db 78bd bb55 4d3c 37a4 9a3c
000000f0: 2f10 3cbd 3128 68bb cb93 30bc 99b2 2fbd
-0.02514751 0.0038997428 0.02732466 -0.009681721 0.008839439 -0.004808631 -0.047753148 -0.022850763
-0.0056101256 0.020161828 -0.0202873 -0.03355729 -0.006554816 -0.005180818 -0.00060368254 0.0128441835
-0.0021823968 -0.010066947 -0.0033256437 -0.047312032 0.008600784 0.08129465 -0.036245182 0.0017864836
-0.021553237 -0.03829624 0.0024598276 0.034729734 -0.00087648974 -0.027861204 -0.036404975 0.004178773
-0.0011950065 0.014092338 -0.0055461065 -0.0055462313 0.08376296 0.010146952 -0.00484437 0.0039560776
-0.0018021511 -0.010452045 -0.0050388593 -0.036905248 -0.022117816 8.366823e-05 -0.012812898 0.12507822
0.031843964 0.045395836 -0.0053943424 -0.003549849 -0.0034162842 0.05677149 -0.0065490515 -0.046653427
-0.02065807 -0.06075652 0.012532647 0.018877132 -0.04591387 -0.0035424347 -0.010777424 -0.042894933

running_var f4 [64]
00000000: c1a0 9d3c 0808 d939 e2f3 ff3b f816 173c
00000010: 57e0 3c39 d720 dc3b f322 b83c 3276 7c3b
00000020: 1bfe 383c 2dee d43c 90ff 893b 6157 6c3b
00000030: e075 443b 8907 3a3c 78dd 863b ca49 b339
00000040: 194d 6b39 888c 0b3c f614 5b38 4d99 423c
00000050: eba6 8e3a 45e7 023d ee85 1d3d 0e11 983c
00000060: f6f4 bd3b c165 0e3c 84a6 4e3b d661 853c
00000070: bef4 843b b00c 3d3d ded2 343d b873 223c
00000080: 3555 3839 b282 e73c 8cba 143a 74c4 c53a
00000090: cc68 f93c f624 a73c 3cef a238 5eb6 983a
000000a0: d56d b43a 4f3e fc3c 0d1b 1a3d 6330 fc3c
000000b0: 5206 013b f187 033c 54a5 ed3c 10c3 923d
000000c0: 368e b93c 1428 803b ddc8 f93b ed88 363a
000000d0: b031 4539 50b8 3d3d 5057 f23b 9dd4 053c
000000e0: b234 603c 1bf3 2f3d a02c 403c 93c3 4d3c
000000f0: 9808 353c 61aa 053c e94e 853c 904f 483c
0.019241692 0.0004139545 0.0078110555 0.009221785 0.0001801265 0.006717782 0.022477603 0.0038522598
0.011291052 0.025992477 0.0042113736 0.0036062824 0.0029977486 0.011354336 0.0041157566 0.00034196518
0.00022440068 0.008517392 5.223319e-05 0.01187737 0.0010883486 0.031958837 0.038457803 0.01856282
0.005797024 0.008691252 0.0031532357 0.016282003 0.004057496 0.046154678 0.04414641 0.009915285
0.0001757935 0.028260563 0.00056735496 0.0015088455 0.030445479 0.020403367 7.769323e-05 0.0011651029
0.0013765643 0.03079143 0.037623454 0.030784791 0.0019687605 0.008028016 0.029009499 0.071661115
0.02265082 0.0039110277 0.0076228217 0.00069631526 0.00018805894 0.046318352 0.0073956624 0.008168367
0.013684439 0.042956453 0.011729389 0.012558836 0.011049412 0.008158297 0.016272979 0.012226

cpu f4 [64]
00000000: 0000 0000 0000 0000 0000 0000 0000 0000
00000010: 0000 0000 0000 0000 0000 0000 0000 0000
00000020: 0000 0000 0000 0000 0000 0000 0000 0000
00000030: 0000 0000 0000 0000 0000 0000 0000 0000
00000040: 0000 0000 0000 0000 0000 0000 0000 0000
00000050: 0000 0000 0000 0000 0000 0000 0000 0000
00000060: 0000 0000 0000 0000 0000 0000 0000 0000
00000070: 0000 0000 0000 0000 0000 0000 0000 0000
00000080: 0000 0000 0000 0000 0000 0000 0000 0000
00000090: 0000 0000 0000 0000 0000 0000 0000 0000
000000a0: 0000 0000 0000 0000 0000 0000 0000 0000
000000b0: 0000 0000 0000 0000 0000 0000 0000 0000
000000c0: 0000 0000 0000 0000 0000 0000 0000 0000
000000d0: 0000 0000 0000 0000 0000 0000 0000 0000
000000e0: 0000 0000 0000 0000 0000 0000 0000 0000
000000f0: 0000 0000 0000 0000 0000 0000 0000 0000
0.0 0.0 0.0 0.0 0.0 0.0 0.0 0.0
0.0 0.0 0.0 0.0 0.0 0.0 0.0 0.0
0.0 0.0 0.0 0.0 0.0 0.0 0.0 0.0
0.0 0.0 0.0 0.0 0.0 0.0 0.0 0.0
0.0 0.0 0.0 0.0 0.0 0.0 0.0 0.0
0.0 0.0 0.0 0.0 0.0 0.0 0.0 0.0
0.0 0.0 0.0 0.0 0.0 0.0 0.0 0.0
0.0 0.0 0.0 0.0 0.0 0.0 0.0 0.0

weight f4 [64]
00000000: 7c31 0fbe 7d9c 3a3d af9a 753d 9982 67be
00000010: b90e 183d 119d 8f3a e87b a43a 9b3b 003d
00000020: 64fc b5bd 369f 94bd 8cac a6bd 38f9 d7bd
00000030: e7b9 5c3d cfa5 903c 0ebd 783d e749 58bd
00000040: 8183 0d3d 3151 483d cd58 163d 046e 00be
00000050: ab62 a33c 2250 e53d e32b 5b3e 975d 80bd
00000060: b4cd cf3d 9de5 4fbd 229c 6a38 cbd2 0a3d
00000070: 0b85 353b 0609 473d c60c bd3e 1578 583e
00000080: 6e3b 493d 92a6 27be bfd3 623d 14fd 553c
00000090: 1f73 89be b805 82bc 2d2c 2c39 be7a 9d3d
000000a0: 619e 6a3d 9040 30bb 1225 533f bbcf d5be
000000b0: 3834 b1ba 75a6 61bd 53ae 2e30 7ac2 f93d
000000c0: 0b6d 5abe e79c 853d 901b 41bd 4514 d73c
000000d0: 7901 1b3d de05 58be 2d72 11bd 22f9 e73d
000000e0: d7b8 9bbd 4a99 d23c aee2 a6be 20f9 5f3d
000000f0: 37ef 0e3e f707 b23a 3785 873c 74c8 8ebc
-0.1398372 0.045559395 0.05996197 -0.22608413 0.037123416 0.0010956844 0.0012549134 0.031306844
-0.0888603 -0.072569296 -0.081383795 -0.105455816 0.053888228 0.017657189 0.06072717 -0.052804854
0.03454924 0.048905555 0.03670578 -0.12541968 0.01994451 0.11196925 0.2140346 -0.06267851
0.10146657 -0.050756086 5.5935358e-05 0.033892434 0.0027697708 0.04859259 0.36923808 0.21139558
0.049128942 -0.16372135 0.055377718 0.013060827 -0.26845643 -0.015871868 0.00016419655 0.07689427
0.05727995 -0.002689395 0.8247844 -0.41760048 -0.0013519591 -0.055090386 6.354856e-10 0.121952966
-0.21330659 0.06524067 -0.047145426 0.026254782 0.0378432 -0.21095988 -0.035509277 0.11326815
-0.07603615 0.02570786 -0.32594818 0.054680943 0.1395844 0.0013582696 0.016543014 -0.017429568

bias f4 [64]
00000000: f1fa 2c3d bb96 313c 7d5b 51bd 0c80 05be
00000010: 8be8 c5b9 466b 95bd c9b0 ea3c 65e4 773a
00000020: 61a8 e9bd 2aaa bbbd e342 013e 97d0 18be
00000030: 0ddf e7bd 1c6d 1a3d c5e6 b1bd 4731 d3bd
00000040: 2d89 4e37 6958 e1bd fd67 14ba 2258 06be
00000050: bf8f f8bc 3903 c8bd edd8 c8bc 3cfd fbbd
00000060: 4224 373c 3766 33be 2d43 6abd 4770 f3bd
00000070: 8f48 58be 2317 a5bb 6ff7 9a3c e9e7 01bd
00000080: cdc3 073c 738d 81be 83e9 bdbd abf6 7bbc
00000090: 4d39 8dbe db49 1abe bde8 5bbc 4ee5 1ebd
000000a0: 69f9 b7bd 1d52 02be 5c0f b33d 3193 85be
000000b0: f42c 2cbd c4c1 8ebd 7c3c a33d a275 b0be
000000c0: dcdf 82be e438 e8bd e33a 5fbe a5b2 383d
000000d0: 12d8 92ba 4b5a 42be d97c 653c efa6 8a3c
000000e0: 2327 f9bc 2748 1cbe d67a 1cbe 7591 39be
000000f0: f737 dc3b 0704 86bd 659f d03c f25a 78be
0.042231504 0.01083916 -0.05111264 -0.13037127 -0.00037748026 -0.072958514 0.02864875 0.00094563357
-0.11409069 -0.091633156 0.12623172 -0.1492332 -0.113218404 0.03770171 -0.08686594 -0.10312133
1.2310496e-05 -0.11003191 -0.00056612474 -0.13119557 -0.030341981 -0.0976624 -0.0245175 -0.1230416
0.011178078 -0.1751946 -0.05719297 -0.118866496 -0.21121429 -0.0050381585 0.018916814 -0.031715307
0.008286429 -0.2530323 -0.092730545 -0.015378634 -0.2758278 -0.15067236 -0.013422188 -0.0387929
-0.08983118 -0.12726636 0.08743164 -0.2608886 -0.04203506 -0.069705516 0.07970521 -0.34464747
-0.25561416 -0.11338976 -0.21799807 0.045092244 -0.001120331 -0.18979757 0.014006817 0.016925303
-0.03041417 -0.15261899 -0.15281233 -0.18121894 0.0067205387 -0.06543737 0.02546663 -0.24253443

running_mean f4 [64]
00000000: f418 45bc c05c c63b 6f74 20bc 21e5 663c
00000010: 7555 893b e63f 02bc b776 b339 d17d c43b
00000020: cb63 18bc 6f25 0bbc 067c 16bc 129c 1f3c
00000030: 3023 ee3b 8078 9dbb 8705 233c 3129 04bc
00000040: 91ee 373b f02f fb3b 4ac4 c7ba 9e7d 213c
00000050: 23bd b7bb a017 403c ace1 7bbc 18b2 1abc
00000060: 8052 2dbc 46ca 263c 9f03 99b7 4047 263c
00000070: 2fd5 b3ba 547c debb 7e52 a43c ef1c 6dbc
00000080: 1441 d1bb fa0c 57bc e09c c6bb d16e 393b
00000090: 0cb1 69bc 1152 7a3b ba16 e63a d655 0fbc
000000a0: cb8d fcbb 98ae a9bc 4bd5 e3bc 634c a83c
000000b0: ae7b 39bb 7c9d f83b 02d0 3eaf 4bf4 2d3c
000000c0: f4a3 73bc 76b3 f2bb 39aa 0f3c 7ec0 13bc
000000d0: 81b9 0ebb e530 71bc a201 ab3b 0e47 273c
000000e0: a49b 0fbc f6a6 9fbb 81a0 96bc f2e3 fe3b
000000f0: 5bc5 4abc 618e 3d39 e921 80bb 95fe eebb
-0.012029875 0.006053537 -0.009793385 0.0140927145 0.0041910955 -0.007949805 0.0003422999 0.005996444
-0.009301136 -0.008492812 -0.009184843 0.0097418 0.0072673783 -0.0048056245 0.009950048 -0.008066461
0.002806578 0.0076656267 -0.0015240994 0.00985661 -0.0056072637 0.011724383 -0.015373629 -0.009441875
-0.010578752 0.010180062 -1.8240708e-05 0.010148823 -0.001372015 -0.0067897234 0.020058867 -0.01447223
-0.0063859317 -0.013125652 -0.0060611814 0.0028294811 -0.014263403 0.0038195888 0.001755438 -0.008748492
-0.0077073327 -0.020713136 -0.027811667 0.020544237 -0.0028302479 0.007587133 -1.7354299e-10 0.010617326
-0.014870632 -0.0074066473 0.008768612 -0.009018062 -0.002177805 -0.01472113 0.0052187005 0.010209812
-0.008765135 -0.004872198 -0.018387081 0.007778638 -0.012376155 0.00018077485 -0.0039102924 -0.007293532

running_var f4 [64]
00000000: 2232 3539 6787 3738 f02b f038 57aa 7839
00000010: 55f1 af37 5a42 9e38 5e39 1634 5815 3438
00000020: 7ea2 d838 ff9d b438 5840 d338 efa5 ed38
00000030: 3e41 8438 4752 e737 c4ea f738 1cf0 a238
00000040: 2ecc 1d37 9f25 9338 0e23 3a36 5b48 f338
00000050: 6977 1d38 251c 2c39 25f6 9339 803d df38
00000060: 491e 0c39 7fc1 0139 d669 da2f f4f5 0039
00000070: add7 1636 d0e1 6638 86e3 fb39 941e 8339
00000080: b13c 4c38 73b5 5739 24fe 3738 2e62 2037
00000090: b8b9 7e39 2122 9237 88ee 7636 f2a7 bf38
000000a0: a5c0 9438 5a4b 063a 351d 723a f71c 043a
000000b0: 6e78 2037 2126 9038 08d3 291f 5c24 0d39
000000c0: 1870 8a39 535f 8938 dd89 c038 2da6 cb38
000000d0: c406 be36 17ab 8739 1f66 0838 ec83 0239
000000e0: cb62 c038 59c6 ed37 d1a6 d339 8584 9738
000000f0: 06c7 3f39 6d98 2733 f927 9937 5d35 8538
0.00017280181 4.3756703e-05 0.00011452276 0.0002371458 2.0974005e-05 7.546386e-05 1.3990709e-07 4.2935222e-05
0.00010329949 8.612498e-05 0.00010073249 0.00011331948 6.306403e-05 2.757566e-05 0.00011821606 7.769486e-05
9.4054685e-06 7.016514e-05 2.7736564e-06 0.0001160062 3.7542926e-05 0.00016413683 0.00028221417 0.00010644924
0.00013362723 0.00012374482 3.972917e-10 0.00012298656 2.2477282e-06 5.5046577e-05 0.0004804397 0.0002500905
4.8693913e-05 0.00020571593 4.3867287e-05 9.559602e-06 0.00024292513 1.7420449e-05 3.67957e-06 9.138872e-05
7.093073e-05 0.00051229226 0.00092359196 0.00050397165 9.564783e-06 6.873557e-05 3.5961703e-20 0.00013460353
0.00026404927 6.5504246e-05 9.1809525e-05 9.710747e-05 5.663229e-06 0.00025876678 3.2520034e-05 0.00012446911
9.173675e-05 2.8344964e-05 0.00040369344 7.224925e-05 0.00018289321 3.9021348e-08 1.8257635e-05 6.351874e-05

cpu f4 [64]
00000000: 0000 0000 0000 0000 0000 0000 0000 0000
00000010: 0000 0000 0000 0000 0000 0000 0000 0000
00000020: 0000 0000 0000 0000 0000 0000 0000 0000
00000030: 0000 0000 0000 0000 0000 0000 0000 0000
00000040: 0000 0000 0000 0000 0000 0000 0000 0000
00000050: 0000 0000 0000 0000 0000 0000 0000 0000
00000060: 0000 0000 0000 0000 0000 0000 0000 0000
00000070: 0000 0000 0000 0000 0000 0000 0000 0000
00000080: 0000 0000 0000 0000 0000 0000 0000 0000
00000090: 0000 0000 0000 0000 0000 0000 0000 0000
000000a0: 0000 0000 0000 0000 0000 0000 0000 0000
000000b0: 0000 0000 0000 0000 0000 0000 0000 0000
000000c0: 0000 0000 0000 0000 0000 0000 0000 0000
000000d0: 0000 0000 0000 0000 0000 0000 0000 0000
000000e0: 0000 0000 0000 0000 0000 0000 0000 0000
000000f0: 0000 0000 0000 0000 0000 0000 0000 0000
0.0 0.0 0.0 0.0 0.0 0.0 0.0 0.0
0.0 0.0 0.0 0.0 0.0 0.0 0.0 0.0
0.0 0.0 0.0 0.0 0.0 0.0 0.0 0.0
0.0 0.0 0.0 0.0 0.0 0.0 0.0 0.0
0.0 0.0 0.0 0.0 0.0 0.0 0.0 0.0
0.0 0.0 0.0 0.0 0.0 0.0 0.0 0.0
0.0 0.0 0.0 0.0 0.0 0.0 0.0 0.0
0.0 0.0 0.0 0.0 0.0 0.0 0.0 0.0

cpu f4 [128]
00000000: 0000 0000 0000 0000 0000 0000 0000 0000
00000010: 0000 0000 0000 0000 0000 0000 0000 0000
00000020: 0000 0000 0000 0000 0000 0000 0000 0000
00000030: 0000 0000 0000 0000 0000 0000 0000 0000
00000040: 0000 0000 0000 0000 0000 0000 0000 0000
00000050: 0000 0000 0000 0000 0000 0000 0000 0000
00000060: 0000 0000 0000 0000 0000 0000 0000 0000
00000070: 0000 0000 0000 0000 0000 0000 0000 0000
00000080: 0000 0000 0000 0000 0000 0000 0000 0000
00000090: 0000 0000 0000 0000 0000 0000 0000 0000
000000a0: 0000 0000 0000 0000 0000 0000 0000 0000
000000b0: 0000 0000 0000 0000 0000 0000 0000 0000
000000c0: 0000 0000 0000 0000 0000 0000 0000 0000
000000d0: 0000 0000 0000 0000 0000 0000 0000 0000
000000e0: 0000 0000 0000 0000 0000 0000 0000 0000
000000f0: 0000 0000 0000 0000 0000 0000 0000 0000
00000100: 0000 0000 0000 0000 0000 0000 0000 0000
00000110: 0000 0000 0000 0000 0000 0000 0000 0000
00000120: 0000 0000 0000 0000 0000 0000 0000 0000
00000130: 0000 0000 0000 0000 0000 0000 0000 0000
00000140: 0000 0000 0000 0000 0000 0000 0000 0000
00000150: 0000 0000 0000 0000 0000 0000 0000 0000
00000160: 0000 0000 0000 0000 0000 0000 0000 0000
00000170: 0000 0000 0000 0000 0000 0000 0000 0000
00000180: 0000 0000 0000 0000 0000 0000 0000 0000
00000190: 0000 0000 0000 0000 0000 0000 0000 0000
000001a0: 0000 0000 0000 0000 0000 0000 0000 0000
000001b0: 0000 0000 0000 0000 0000 0000 0000 0000
000001c0: 0000 0000 0000 0000 0000 0000 0000 0000
000001d0: 0000 0000 0000 0000 0000 0000 0000 0000
000001e0: 0000 0000 0000 0000 0000 0000 0000 0000
000001f0: 0000 0000 0000 0000 0000 0000 0000 0000
0.0 0.0 0.0 0.0 0.0 0.0 0.0 0.0
0.0 0.0 0.0 0.0 0.0 0.0 0.0 0.0
0.0 0.0 0.0 0.0 0.0 0.0 0.0 0.0
0.0 0.0 0.0 0.0 0.0 0.0 0.0 0.0
0.0 0.0 0.0 0.0 0.0 0.0 0.0 0.0
0.0 0.0 0.0 0.0 0.0 0.0 0.0 0.0
0.0 0.0 0.0 0.0 0.0 0.0 0.0 0.0
0.0 0.0 0.0 0.0 0.0 0.0 0.0 0.0
0.0 0.0 0.0 0.0 0.0 0.0 0.0 0.0
0.0 0.0 0.0 0.0 0.0 0.0 0.0 0.0
0.0 0.0 0.0 0.0 0.0 0.0 0.0 0.0
0.0 0.0 0.0 0.0 0.0 0.0 0.0 0.0
0.0 0.0 0.0 0.0 0.0 0.0 0.0 0.0
0.0 0.0 0.0 0.0 0.0 0.0 0.0 0.0
0.0 0.0 0.0 0.0 0.0 0.0 0.0 0.0
0.0 0.0 0.0 0.0 0.0 0.0 0.0 0.0

weight f4 [128]
00000000: 12eb 6c3e 552c 9d3e 0370 653e 8edd 9b3e
00000010: c250 aa3e 940c 693e fa0c 433e c2ab 643e
00000020: cec5 ea3d 37b6 333d 1824 ee3e 8abe 7e3e
00000030: a825 883e 6df1 4c3e 0f76 113e a4d7 943e
00000040: 40b7 7e3e d6a6 0c3e a3aa a13d cc6d 083e
00000050: 2729 9d3e d046 9b3e 0df7 373e 2428 073e
00000060: 661b 203e 7f99 ae3e 9110 433e 91a2 7b3e
00000070: ab50 353e 83f9 1d3e 559b b53d 47c2 803e
00000080: da75 1d3e 5dc6 b73e 7726 063e 1c8f a33e
00000090: 676c 423e 0dd4 453e 851d 8a3d b444 6b3e
000000a0: e1f9 e03d bf89 a63d 6efb 593e 7212 913e
000000b0: 0d62 583e be15 383e ed25 523e 4bff 7e3e
000000c0: 986a 1b3e 92aa 6c3e 768d 7d3e b754 b93e
000000d0: a3ff 693e eeb4 2a3e 8b0b 623e 4b11 323e
000000e0: a318 9a3d c71f 043e 71fe 493e eca3 263e
000000f0: fa8c 993e 1d1f 963e 883d ff3d 5f1a 693e
00000100: 921c 373e 43fe 313e 5dbf ad3e 3f3d 2f3e
00000110: 95e2 043e 16c8 e63d 8ef2 693e 9951 043e
00000120: 8ba2 7b3e c100 9f3e e197 893e 19a9 e93d
00000130: 784f 303e bfbb 323e b751 4c3e 9205 673e
00000140: 1dbe a73e abc5 e93d dc23 5e3e 5666 033e
00000150: d58f 5b3e fd28 553e c823 3f3e 09dc 383e
00000160: b481 db3d 4be5 763e ffda 363e 11ea 0d3e
00000170: 7f65 4d3e a24e 553e c896 723e 1f9b 403e
00000180: a09e 3e3e 9e7c aa3e 5dba 0e3e da81 193e
00000190: c13a a93e 4670 4a3e 3775 f23d 4830 8c3e
000001a0: 2083 183e fc89 453e c3d9 3a3e 48a4 ee3d
000001b0: 2f1f 203e 4488 813e 0648 7f3e 1dad 4f3e
000001c0: f665 203e 6d5d b73e 9a5f 823d f6b3 883d
000001d0: 5d03 9b3e ab36 e63d b22d 4d3e 3cb5 713e
000001e0: 754e 6a3e 4123 8d3e faee 093e e25a ab3e
000001f0: e9c4 873e 4427 2f3e f97c 8a3e 42f7 1a3e
0.23136547 0.30697885 0.2240601 0.3044247 0.33264738 0.22758704 0.19047919 0.22331145
0.114635095 0.043874945 0.46511912 0.24877372 0.2659123 0.20013972 0.14205192 0.2907077
0.24874592 0.13735518 0.078938745 0.13323134 0.3069546 0.30327463 0.17965336 0.13198906
0.15635452 0.34101483 0.19049288 0.24573733 0.17706554 0.15427212 0.08867518 0.25148222
0.15376988 0.35893527 0.1310061 0.3194512 0.18986665 0.19319172 0.06743912 0.22975427
0.109851606 0.08131742 0.21287319 0.28334385 0.21131153 0.17977044 0.2052228 0.24902074
0.15177381 0.23111942 0.24760994 0.36197445 0.22851424 0.16670582 0.22074716 0.17389409
0.0752423 0.12902747 0.19725968 0.16273469 0.2999037 0.29320613 0.12462908 0.22763966
0.17881992 0.1738215 0.3393506 0.17113207 0.12977059 0.11268632 0.22846434 0.12921752
0.24573724 0.31055263 0.26873687 0.11409206 0.17217815 0.17454432 0.19953047 0.22560719
0.32762232 0.11414655 0.21693367 0.12832007 0.21441586 0.20816417 0.18665993 0.18052687
0.10718098 0.24110906 0.17856978 0.1385882 0.20058249 0.20830777 0.23690331 0.18809174
0.18615198 0.332982 0.1393828 0.1499094 0.33052638 0.19769391 0.11838763 0.27380586
0.1489377 0.19290918 0.18247132 0.11652428 0.15636896 0.25299275 0.24929819 0.20280881
0.15663895 0.35813466 0.06365891 0.0667495 0.30276003 0.11240896 0.20036963 0.23604292
0.22881491 0.2756596 0.13470069 0.33467776 0.26517418 0.17104822 0.27048472 0.15133384

bias f4 [128]
00000000: e640 1fbe 400d 9b3b ede6 30be 3c2f a3bd
00000010: e9f2 97bd 60f2 e3bd 55dd 14be 68bd 323c
00000020: 98b8 8cbe 3994 57be af29 81bd 139c 01be
00000030: a5e7 e3ba 98fb 44be ba65 12bd 9481 703d
00000040: f656 29be 0e90 acbc 92fd abbd 189f 76bd
00000050: 7d14 fcbd 03d4 1fbe 0039 66bc b2d0 3cbd
00000060: 3c52 b5bd f8d7 cabb ecec c7bd 46cc d1bc
00000070: bd15 15be 27d6 5f3d 0f44 6fbe 804a f9bd
00000080: 6f7c d63b 76bf 1bbd 7d09 46be 3ed3 51bd
00000090: 85a2 efbd a85c 0bbe 27e5 43be a21a 24be
000000a0: 45ed f73c b678 68bd 5150 fbbd 7419 55be
000000b0: 7364 91be 2660 0bbd db9a 97bd caf1 09be
000000c0: 890b 1abe 3c71 22be 11f9 c8bd 9827 1d3d
000000d0: c82a 56be 0c96 8cbd 373d 84bd ecb6 ae3b
000000e0: 43bf 423d 3b75 f8bc 5fa9 58be e471 743c
000000f0: 75ca a9bc efbf a5bd 05d0 5c3d 3349 22be
00000100: bdb3 02be 6fe5 9ebc 7873 88bc 211c a1bd
00000110: de37 a33c f794 d6bd 6cf9 28be 2552 b7be
00000120: 0df1 71bd 2727 05be 7f24 03be 28de 9b3b
00000130: 3073 f9bd 5bd0 feba 7344 b0bd 7ede eebd
00000140: 5724 1bbe 69b1 9fbd 0390 1f3d c066 96bd
00000150: 2362 20be a20d efbd 24c9 e7bd 6776 b3bc
00000160: a612 cfbd 0b66 2bbd 2e20 47be 0520 59be
00000170: 0c85 4f3d 34f7 87bd cd0a 94bd 5783 94bd
00000180: 4138 c7bd 48c7 b8bd 4228 433d 0acb 6d39
00000190: 2e4c f4bd 50c5 43be b33d f6bd 0f1e bdbd
000001a0: de2b 9abb 719e d1bd 0170 bbbd 5f8e 22be
000001b0: 1095 c1bd 18a8 33bd 2d93 1bbe 74a4 12be
000001c0: a9e4 5e3c bd81 123c c60e d0bd 35db 06be
000001d0: b6a8 ccbd c1c0 81be 7c0d 87be 243f d5bc
000001e0: b503 34be e47c f0bd 4546 66be 5f1b 84bd
000001f0: b58f 16be 07e0 1ebe f494 14bd ae0e 9abd
-0.155521 0.004731804 -0.17275591 -0.079679936 -0.07419378 -0.11130214 -0.14537556 0.010909416
-0.27484584 -0.21052636 -0.06306779 -0.12657194 -0.0017387761 -0.192366 -0.035741545 0.058717325
-0.16537079 -0.021064784 -0.08397974 -0.060210317 -0.12308595 -0.1560822 -0.014051676 -0.046097465
-0.088535756 -0.0061902963 -0.09761986 -0.0256101 -0.14559074 0.05464759 -0.23365806 -0.12172413
0.0065455954 -0.03802439 -0.19339557 -0.051226847 -0.1170092 -0.13609564 -0.19130383 -0.16025785
0.030264506 -0.056755744 -0.122711785 -0.20810491 -0.2839695 -0.03402724 -0.07402583 -0.13471141
-0.15043463 -0.15863508 -0.09813131 0.038367838 -0.20914757 -0.06864557 -0.06456988 0.0053318646
0.047545683 -0.030329337 -0.2115836 0.014919732 -0.020726422 -0.08093249 0.05390932 -0.15848236
-0.12763877 -0.019396512 -0.016656622 -0.07866693 0.0199241 -0.104776315 -0.16501397 -0.3580486
-0.059067775 -0.13003217 -0.12806891 0.0047567077 -0.121801734 -0.0019440757 -0.08606806 -0.11663531
-0.15150581 -0.0779751 0.0389557 -0.07343817 -0.15662436 -0.11672522 -0.113176614 -0.021907045
-0.10110979 -0.041845363 -0.1944587 -0.2120362 0.050663993 -0.06638947 -0.072286226 -0.072516136
-0.097275265 -0.09022385 0.047645815 0.00022677719 -0.119285926 -0.19118237 -0.12023487 -0.09234249
-0.0047049364 -0.102352984 -0.091522224 -0.15874623 -0.094522595 -0.04386148 -0.15192862 -0.14320546
0.0136043215 0.008942065 -0.10159068 -0.13169558 -0.099931166 -0.25342372 -0.26377475 -0.026031084
-0.17579539 -0.11742571 -0.22487743 -0.06450533 -0.14703257 -0.15515147 -0.036274865 -0.07522331

running_mean f4 [128]
00000000: 7b31 cebc 7b71 143d af35 1a3d f661 9bbd
00000010: 30be 6e3c dca4 aebc 65e9 c23c cfdf 263d
00000020: 2f84 113c 9202 e53c 887f 16be e928 83bd
00000030: bec8 ef3c 93e3 743c 4e32 803c df90 343d
00000040: 8fbf 0dbd 2e3c 653c c044 bd3c a957 c83c
00000050: 6a6d 29bd cdf5 003d 565a ef3b a240 c6bc
00000060: be11 f2bc 818a 2e3d 3649 d33c 430e 9bbc
00000070: d061 a0bc 8967 efbc 9fa7 42bd 5807 49bc
00000080: 19d5 173d 74c0 b6bd e46c a7bb 6a40 45bd
00000090: eec8 ed3c cc89 b73c 8e80 d9bc adb1 0cbd
000000a0: db7f 63bd 8461 07bd a70f c33c d9b6 103d
000000b0: 8d22 d0bc c775 763c 7232 f33c e62f 44bd
000000c0: 27da 3e3c 0000 d43b 16ae ce3a 3ca6 d93c
000000d0: c00f d1bb 0445 fabc eb33 febc 3c58 87bb
000000e0: 60bb 75bd bb70 c83c e9e5 babc 4abc 09bd
000000f0: 4611 7ebc 5037 8e3d 9244 853b 21b0 50bd
00000100: e374 53bd 9a36 3cbd 568a c83c fa91 3b3c
00000110: 3e5e b93c dd16 69bc 8c62 16bd 862d c93c
00000120: 668c 363d 92a4 dcbd 33b4 86bc 596e 1ebd
00000130: aa57 9cbd d9d7 4abd 8138 c6bc 24c8 b7bb
00000140: 6ec8 9abc ee1e d6bc 7633 7f3d 83c4 26bd
00000150: fb66 ea3c b8bb 1dbd ecad 83bd 105e 923d
00000160: 141c ecb9 68be 86bd 6283 2a3d ed78 84bd
00000170: de36 3dbd dac6 e9bc ca2d 7fbd d3d1 363d
00000180: 54ba e73c 2961 83bd 2e0c 15bb 4b27 513d
00000190: b510 5e3c b3ef 82bc 723d 9bbc 0b7e 26bd
000001a0: acb7 b1bc 78d2 14bd b121 b23c a2fa c5bb
000001b0: 4ea0 86bc 2623 41bd 10f1 89bd c14a a93c
000001c0: cc3b ccbc 1bf4 9b3c 7fed 913d a5b9 6bbd
000001d0: c1a6 a83b 49bc 9ebd 36ba 9e3c e349 df3c
000001e0: 0910 3abd 3ac7 273d 958b b2bc d45d 573d
000001f0: 3bbd 79bc 7822 fd3c b93f 363d 4380 db3c
-0.025170079 0.036241036 0.037648853 -0.07587044 0.014571711 -0.021318845 0.023792932 0.040740784
0.008881613 0.027955327 -0.14697087 -0.06404287 0.029270526 0.014946836 0.015648987 0.044083472
-0.034606513 0.013991399 0.023104072 0.024455862 -0.04136411 0.031484414 0.00730447 -0.024200741
-0.029549476 0.042612556 0.025791746 -0.018927699 -0.01957789 -0.029224174 -0.047523137 -0.012269817
0.03706846 -0.08923426 -0.0051094163 -0.048157133 0.029026475 0.022404574 -0.026550557 -0.034349132
-0.055541854 -0.033051983 0.023811175 0.035330627 -0.0254071 0.015042729 0.02968714 -0.047897242
0.011648691 0.0064697266 0.0015768434 0.026568525 -0.0063800514 -0.030550487 -0.031030616 -0.0041303914
-0.059993148 0.024467817 -0.022814708 -0.033626832 -0.015507048 0.06944144 0.004067012 -0.05094922
-0.051625144 -0.04595051 0.024480026 0.011448378 0.022627946 -0.014226642 -0.036715075 0.02455784
0.044567488 -0.10773577 -0.016443348 -0.038679454 -0.07633908 -0.049522255 -0.024196865 -0.0056085754
-0.0188944 -0.026137795 0.062304936 -0.040714752 0.028613558 -0.0385091 -0.06429657 0.07146847
-0.00045034348 -0.06579286 0.041629203 -0.06468377 -0.046194904 -0.028537203 -0.062299527 0.044633698
0.02828709 -0.06415016 -0.0022742855 0.051062863 0.013553788 -0.015983438 -0.018950198 -0.040647548
-0.021694027 -0.03633353 0.021744581 -0.0060418407 -0.016433861 -0.04715266 -0.06735432 0.020665528
-0.024930857 0.019037297 0.07125377 -0.05755009 0.0051468317 -0.07750756 0.019375902 0.027256912
-0.04542545 0.04096148 -0.021795074 0.052579716 -0.01524287 0.030900225 0.044494364 0.026794558

running_var f4 [128]
00000000: 07bc 2f3b ec30 2b3b 4e31 f83a c691 963b
00000010: 65cd 183b 5412 913a 171f 053b 7eac 233b
00000020: ca45 c63a f257 3b3b b006 c93c 7cba 203b
00000030: 5bc8 d23a 7a83 d83a 3bc6 0f3b e3d3 a53b
00000040: c929 103b 1b86 4b3a 68db 233a 8c78 2e3b
00000050: 4be2 5d3b 71c7 173b eaa9 833a a381 3b3b
00000060: 51fe 993a 0cde aa3b 74a5 fa3a c185 0a3b
00000070: 9a9c 613b 6727 0b3b 5310 3f3b 76cb c43a
00000080: 79f5 a13a 34c8 883b ee67 613b 6deb da3a
00000090: 2709 a13a 5c2c 003a 9451 fa3a dda5 323b
000000a0: 8128 8c3a e53c 853a 549a 443b 8822 e73a
000000b0: 7c6a 773b dd89 013b a730 363b 61cc 7a3b
000000c0: f7cb 723b dba7 643a b88f 243b 25ff 373b
000000d0: 7622 7c3b 428b 093b aae9 6d3b e01d 0d3b
000000e0: 80ba ac3a f15c 533a cb4f 093b ff82 cc3a
000000f0: 0327 d53a db7e 713b 2708 213b c38d b63b
00000100: f927 053b 6978 833b 28e5 933b 77fd 573a
00000110: 8487 073a 84af 5e3b 5a81 a43b 5373 dd3a
00000120: d2f7 833b 7d43 0c3c 1832 863b 07b0 043b
00000130: a4e3 f53a 04ce cc3a 1a05 3d3b 78fe 2e3b
00000140: 19da e13a 52b5 5d3a d152 583b d1e5 9e3a
00000150: 63ae 483b c7c1 2d3b f034 083c 6437 323b
00000160: 5056 113b 0978 3c3b afe7 8a3b 9c23 063b
00000170: 5c99 983a 019a 2e3b dfb9 0f3b fe45 a53a
00000180: e4e8 a93a d6c2 dc3b 9114 093b e26f 313b
00000190: 302f d33a 8e15 9f3b 06cb 3e3a 6380 823b
000001a0: d40c 5b3a 29cd 823a 22b3 963a 1e62 a03b
000001b0: 6bf5 d43a 3811 b33b e9fe 9d3b 5943 1b3b
000001c0: 1cd4 ca39 bc49 593b 1a7a 1f3b 6ef4 a73a
000001d0: 37a5 333b eadc 993b 2dd6 163b 4aed 743b
000001e0: 8873 7e3b 03ba a63b f6eb c63b 0e60 a93b
000001f0: b8a2 613b 8de8 cb3a 7b22 b63a 479a c63a
0.0026814954 0.002612169 0.0018935592 0.0045950143 0.0023315784 0.0011068084 0.002031272 0.002497464
0.0015127 0.0028586355 0.024539322 0.0024525216 0.0016081439 0.0016518675 0.0021938223 0.0050606593
0.0021997562 0.0007763819 0.00062506506 0.0026622145 0.0033856805 0.0023159648 0.0010045145 0.0028611205
0.0011748766 0.0052144583 0.0019122795 0.0021136852 0.0034425617 0.0021233202 0.0029154017 0.0015014249
0.0012356482 0.0041742567 0.0034394222 0.0016702242 0.0012286053 0.00048894226 0.0019097799 0.0027259507
0.0010693223 0.0010165243 0.0029999213 0.0017634192 0.0037752679 0.001976601 0.0027799995 0.0038268792
0.0037047842 0.0008722522 0.0025110077 0.0028075662 0.0038472689 0.0020987545 0.0036302605 0.00215327
0.001317814 0.00080628606 0.0020952101 0.0015603005 0.0016262237 0.0036849293 0.002457151 0.0055710985
0.0020318015 0.0040121567 0.0045134015 0.00082393683 0.0005170035 0.0033979127 0.0050203027 0.0016895331
0.004027345 0.008561012 0.004095327 0.0020246522 0.0018759859 0.0015625362 0.0028842152 0.0026701968
0.0017231136 0.00084575 0.0033008347 0.0012122934 0.003062152 0.0026513205 0.0083134025 0.002719366
0.002217669 0.002875807 0.0042390446 0.0020468002 0.0011642384 0.0026642086 0.0021930856 0.001260936
0.0012963084 0.0067370934 0.00209168 0.0027074744 0.0016112085 0.0048548644 0.00072781777 0.00398259
0.00083560986 0.0009979355 0.0011497478 0.004894509 0.0016247457 0.005464699 0.0048216474 0.0023691265
0.00038686476 0.0033155521 0.0024334253 0.0012813935 0.0027411708 0.0046955245 0.0023015842 0.003737288
0.0038826186 0.0050880923 0.006070609 0.0051689213 0.0034429263 0.0015556976 0.0013895774 0.0015152179

cpu f4 [128]
00000000: 0000 0000 0000 0000 0000 0000 0000 0000
00000010: 0000 0000 0000 0000 0000 0000 0000 0000
00000020: 0000 0000 0000 0000 0000 0000 0000 0000
00000030: 0000 0000 0000 0000 0000 0000 0000 0000
00000040: 0000 0000 0000 0000 0000 0000 0000 0000
00000050: 0000 0000 0000 0000 0000 0000 0000 0000
00000060: 0000 0000 0000 0000 0000 0000 0000 0000
00000070: 0000 0000 0000 0000 0000 0000 0000 0000
00000080: 0000 0000 0000 0000 0000 0000 0000 0000
00000090: 0000 0000 0000 0000 0000 0000 0000 0000
000000a0: 0000 0000 0000 0000 0000 0000 0000 0000
000000b0: 0000 0000 0000 0000 0000 0000 0000 0000
000000c0: 0000 0000 0000 0000 0000 0000 0000 0000
000000d0: 0000 0000 0000 0000 0000 0000 0000 0000
000000e0: 0000 0000 0000 0000 0000 0000 0000 0000
000000f0: 0000 0000 0000 0000 0000 0000 0000 0000
00000100: 0000 0000 0000 0000 0000 0000 0000 0000
00000110: 0000 0000 0000 0000 0000 0000 0000 0000
00000120: 0000 0000 0000 0000 0000 0000 0000 0000
00000130: 0000 0000 0000 0000 0000 0000 0000 0000
00000140: 0000 0000 0000 0000 0000 0000 0000 0000
00000150: 0000 0000 0000 0000 0000 0000 0000 0000
00000160: 0000 0000 0000 0000 0000 0000 0000 0000
00000170: 0000 0000 0000 0000 0000 0000 0000 0000
00000180: 0000 0000 0000 0000 0000 0000 0000 0000
00000190: 0000 0000 0000 0000 0000 0000 0000 0000
000001a0: 0000 0000 0000 0000 0000 0000 0000 0000
000001b0: 0000 0000 0000 0000 0000 0000 0000 0000
000001c0: 0000 0000 0000 0000 0000 0000 0000 0000
000001d0: 0000 0000 0000 0000 0000 0000 0000 0000
000001e0: 0000 0000 0000 0000 0000 0000 0000 0000
000001f0: 0000 0000 0000 0000 0000 0000 0000 0000
0.0 0.0 0.0 0.0 0.0 0.0 0.0 0.0
0.0 0.0 0.0 0.0 0.0 0.0 0.0 0.0
0.0 0.0 0.0 0.0 0.0 0.0 0.0 0.0
0.0 0.0 0.0 0.0 0.0 0.0 0.0 0.0
0.0 0.0 0.0 0.0 0.0 0.0 0.0 0.0
0.0 0.0 0.0 0.0 0.0 0.0 0.0 0.0
0.0 0.0 0.0 0.0 0.0 0.0 0.0 0.0
0.0 0.0 0.0 0.0 0.0 0.0 0.0 0.0
0.0 0.0 0.0 0.0 0.0 0.0 0.0 0.0
0.0 0.0 0.0 0.0 0.0 0.0 0.0 0.0
0.0 0.0 0.0 0.0 0.0 0.0 0.0 0.0
0.0 0.0 0.0 0.0 0.0 0.0 0.0 0.0
0.0 0.0 0.0 0.0 0.0 0.0 0.0 0.0
0.0 0.0 0.0 0.0 0.0 0.0 0.0 0.0
0.0 0.0 0.0 0.0 0.0 0.0 0.0 0.0
0.0 0.0 0.0 0.0 0.0 0.0 0.0 0.0
