ldpi/training/output/ResCNN/scripted_quantized_model.pth (torch, 270232 bytes, 61 tensors)

cpu f4 [64]
00000000: 0000 0000 0000 0000 0000 0000 0000 0000
00000010: 0000 0000 0000 0000 0000 0000 0000 0000
00000020: 0000 0000 0000 0000 0000 0000 0000 0000
00000030: 0000 0000 0000 0000 0000 0000 0000 0000
00000040: 0000 0000 0000 0000 0000 0000 0000 0000
00000050: 0000 0000 0000 0000 0000 0000 0000 0000
00000060: 0000 0000 0000 0000 0000 0000 0000 0000
00000070: 0000 0000 0000 0000 0000 0000 0000 0000
00000080: 0000 0000 0000 0000 0000 0000 0000 0000
00000090: 0000 0000 0000 0000 0000 0000 0000 0000
000000a0: 0000 0000 0000 0000 0000 0000 0000 0000
000000b0: 0000 0000 0000 0000 0000 0000 0000 0000
000000c0: 0000 0000 0000 0000 0000 0000 0000 0000
000000d0: 0000 0000 0000 0000 0000 0000 0000 0000
000000e0: 0000 0000 0000 0000 0000 0000 0000 0000
000000f0: 0000 0000 0000 0000 0000 0000 0000 0000
0.0 0.0 0.0 0.0 0.0 0.0 0.0 0.0
0.0 0.0 0.0 0.0 0.0 0.0 0.0 0.0
0.0 0.0 0.0 0.0 0.0 0.0 0.0 0.0
0.0 0.0 0.0 0.0 0.0 0.0 0.0 0.0
0.0 0.0 0.0 0.0 0.0 0.0 0.0 0.0
0.0 0.0 0.0 0.0 0.0 0.0 0.0 0.0
0.0 0.0 0.0 0.0 0.0 0.0 0.0 0.0
0.0 0.0 0.0 0.0 0.0 0.0 0.0 0.0

weight f4 [64]
00000000: e2b1 f73c 9cfd 1c3f 1e76 d33d d1fa 273f
00000010: 24d7 473e b5ac 9c3e 959b 033f 68d2 b53e
00000020: 1932 f63c e85d 1c3e c602 313e 4051 973e
00000030: 9a48 ab3e 38e4 853e 0c83 dc3d ed09 d43e
00000040: ab66 743e 8fd5 7e3e 6455 e43e a798 d83d
00000050: 7be8 f13d 2ce6 243f 6ba8 943d 66a1 393e
00000060: 7f3b 863e ab38 dd3c fa53 d63e 2aa9 d83d
00000070: d927 cb3e 2db0 5a3d 54af f13d 8ef6 393e
00000080: 03e9 813e 1403 f13e 0baf 173d 4347 2e3e
00000090: a6d0 cb3d 6f5d 1a3e 3d58 163e f753 283d
000000a0: 3f7d 323e 616c 3f3e c486 b73e 9441 3e3d
000000b0: e1d1 b63e c664 f73e d21f 773e 7042 343e
000000c0: c82c ee3d 32cd ba3d b422 833d 0971 013e
000000d0: a25c 063e e562 f83c fa7f a33e 5bc3 a93d
000000e0: a331 ef3d b51e d83e 998d 8d3e 8c84 d13c
000000f0: 0a74 c33e 6bc5 793e 647e fc3e 1f97 cc3e
0.030236188 0.6132448 0.103252634 0.6561709 0.19515663 0.30600515 0.51409274 0.3551209
0.030053185 0.15270197 0.17286214 0.29554176 0.33453828 0.2615068 0.10767183 0.41413823
0.2386729 0.24886154 0.44596398 0.10575991 0.1181192 0.64413714 0.07258686 0.18127975
0.26217267 0.02700456 0.41860944 0.105791405 0.3967884 0.05339067 0.11801019 0.1816046
0.25373086 0.4707266 0.03703217 0.17019372 0.09951906 0.15074705 0.14682098 0.0410957
0.1743059 0.18693687 0.35845006 0.04644926 0.35707 0.48319072 0.24133232 0.17603469
0.11629635 0.09121169 0.064031035 0.12640776 0.13121274 0.030320594 0.31933576 0.08289214
0.11679389 0.42210928 0.27647093 0.025575899 0.38174468 0.24391715 0.49315178 0.39959046

bias f4 [64]
00000000: 089e 24be 4dc9 bc3d 59c2 b1bd 11bc f43d
00000010: d004 15bd 0929 e6be 37eb 723e eb6b 97be
00000020: e0ed 653e 0e55 2ebd c9af 273d 06a0 c1bd
00000030: aa23 0bbe 4e60 da3d ce4a ff3c cd5c 133f
00000040: 5ba6 853d 989d 81bd d3c9 263e 1ec3 f5bc
00000050: 773d 40be bb71 983d 8333 b93d 8050 8fbd
00000060: 5287 f0bd 88f7 3f3d 63ff 6dbe 72fb ce3c
00000070: eead 3f3e 0216 1d3d 6d6f e73c 2a7e e43d
00000080: 90c8 b5be 709a 41bd 617f 853e aafd 473d
00000090: c1ca e23d cdf0 1f3d 2357 623d c6dc 57bd
000000a0: 745b 0f3d ce16 9f3e 56d4 f23d 57b9 a5bd
000000b0: 96ba b83e 58ca 123f 5e95 813d 499d cabc
000000c0: fd8e bbbe a86a 5b3d 0142 9abc 222c 19bd
000000d0: c76f d3bd 911b 693d fd31 8bbe a21b bcbc
000000e0: c285 00bd 23df 8cbe 2fd2 64bd 9ebe 133d
000000f0: 4fba 05bf 31ce c6bd 5872 1b3e bda1 1cbf
-0.16075909 0.092180826 -0.08679647 0.11949933 -0.036381543 -0.44953182 0.2372254 -0.29574522
0.22454023 -0.042561583 0.040939126 -0.0945435 -0.13587824 0.106629 0.0311636 0.5756348
0.065258704 -0.06328887 0.16287927 -0.030000266 -0.18773447 0.07443567 0.09043028 -0.06997776
-0.1174456 0.046866924 -0.23241954 0.025266383 0.18718693 0.038351066 0.028251374 0.111568764
-0.3550458 -0.047266424 0.26073745 0.048825897 0.110738285 0.039048005 0.05525888 -0.05270078
0.034999326 0.31072086 0.11856906 -0.080919914 0.36079854 0.5734 0.06327318 -0.024733203
-0.3663253 0.053568512 -0.018830301 -0.037395604 -0.10324054 0.056911055 -0.27186576 -0.022962395
-0.03137756 -0.2751399 -0.05586451 0.03607046 -0.5223741 -0.09707297 0.15180337 -0.61184293

running_mean f4 [64]
00000000: 5a70 c23c 6e70 14bd cc99 53bc b7d7 1cbd
00000010: 1a49 563c d79e 34bc bc54 ccbc 2ab9 f8ba
00000020: b9c1 d1bc e017 4a3c d710 463c 6a82 9f3c
00000030: 0761 ecbc 7ee0 b3bc 926c 363c 5cc9 f33c
00000040: d06e cabc 7c1c a63c 7543 10bd 41ad cc3c
00000050: dae6 953c 5867 16bd c073 92bc a3e4 583c
00000060: f5e6 59ba ffc8 ed3c a308 88ba d7b1 d3bc
00000070: f3c3 9a3c e19c ce3c b33f 54bc 548e 0a3c
00000080: b1ea 9d3a cc56 303d f2f4 eabb f031 bcbc
00000090: a509 1fbc 73e4 7bbc 29a4 d8bc 2be9 c53c
000000a0: 2629 83bc 4e84 5a3c feac d7bc 4c01 80bb
000000b0: 2db4 573d 2eb0 de3c 8176 9e3c d119 9cbc
000000c0: db8a 553c b5ba fc3b 4d2c cfbc ad4a fcb9
000000d0: bb9a 9bbc 368f ef3c 970b 7a39 4710 cd3b
000000e0: d57e c4bc 3c75 983c be5e b0bc c922 82bb
000000f0: 46e2 973a b58f 9b3c 8468 f8bc 36b2 a5bc
0.023735214 -0.036240034 -0.012915086 -0.03829166 0.013078952 -0.0110241985 -0.024942748 -0.0018976082
-0.02560507 0.012334794 0.012088976 0.019471366 -0.02885486 -0.021957632 0.011134284 0.029759102
-0.024711043 0.020277254 -0.035220582 0.024984958 0.018298555 -0.03671965 -0.01787746 0.013238105
-0.00083123083 0.029026506 -0.001037855 -0.025841637 0.018892264 0.02522129 -0.01295464 0.008456785
0.0012048093 0.043051526 -0.007170313 -0.02297303 -0.009706889 -0.015374291 -0.026445465 0.024159035
-0.016010832 0.013337208 -0.026327606 -0.0039064046 0.052662063 0.027183618 0.019343616 -0.019055279
0.013033594 0.007712687 -0.025289679 -0.00048120823 -0.01899468 0.029243093 0.00023846175 0.006258044
-0.02398626 0.01861059 -0.021529552 -0.003971432 0.001158782 0.018989423 -0.030323274 -0.02022658

running_var f4 [64]
00000000: 0f9f f139 13d2 8c3a 0814 0f39 5c37 9d3a
00000010: 64bb 1239 9f7f d038 796a 053a 28af 4536
00000020: 6898 0c3a 7a82 0239 2db8 fa38 a39b a239
00000030: 7f8c 323a 10c9 ce39 f2ae d438 2aea 3d3a
00000040: dbf2 023a c258 b039 6102 853a 28de 053a
00000050: fd9b 8f39 9892 903a 6213 8939 2553 1639
00000060: 0eba 1735 e9ad 343a 8a88 6c35 8c34 0f3a
00000070: 5a14 9939 8e69 083a baf4 0f39 c862 7538
00000080: 8060 9f35 31bb c63a 2068 3038 475a e239
00000090: c7a5 a138 ffc0 4a39 d4f9 153a c453 fa39
000000a0: ffe3 5b39 7b95 1839 5ea4 143a df6f 5137
000000b0: 45ae 143b 0e77 1e3a 327b a039 8cbb 9b39
000000c0: 4cb7 1139 7a1a 4c38 3027 093a ae65 4b34
000000d0: 65be 9a39 bf62 373a 8eca 4733 d25f 0638
000000e0: 76c2 f639 7f8c 9439 1acd c639 bd77 5837
000000f0: a96e 9335 77a8 9a39 0c2f 453a 6377 af39
0.0004608561 0.0010743759 0.00013645005 0.0011994648 0.00013993453 9.941984e-05 0.0005089413 2.9457242e-06
0.00053632865 0.00012446372 0.000119552344 0.00031015006 0.00068110967 0.00039441185 0.00010141534 0.0007244671
0.0004995295 0.00033635466 0.0010147804 0.0005106651 0.00027391306 0.0011030016 0.00026145118 0.00014336088
5.652263e-07 0.000689237 8.811554e-07 0.0005462847 0.00029197597 0.0005203717 0.0001372871 5.850455e-05
1.1874508e-06 0.0015161989 4.2058644e-05 0.0004317334 7.707957e-05 0.00019336118 0.0005721126 0.00047746126
0.00020970403 0.00014551535 0.00056702446 1.2483418e-05 0.002268688 0.0006044962 0.00030609366 0.00029703637
0.00013896561 4.866205e-05 0.00052319746 1.8942839e-07 0.00029515024 0.00069956103 4.651752e-08 3.203733e-05
0.0004706566 0.00028333438 0.00037918316 1.2902482e-05 1.098456e-06 0.00029498685 0.0007521964 0.0003346755

cpu f4 [64]
00000000: 0000 0000 0000 0000 0000 0000 0000 0000
00000010: 0000 0000 0000 0000 0000 0000 0000 0000
00000020: 0000 0000 0000 0000 0000 0000 0000 0000
00000030: 0000 0000 0000 0000 0000 0000 0000 0000
00000040: 0000 0000 0000 0000 0000 0000 0000 0000
00000050: 0000 0000 0000 0000 0000 0000 0000 0000
00000060: 0000 0000 0000 0000 0000 0000 0000 0000
00000070: 0000 0000 0000 0000 0000 0000 0000 0000
00000080: 0000 0000 0000 0000 0000 0000 0000 0000
00000090: 0000 0000 0000 0000 0000 0000 0000 0000
000000a0: 0000 0000 0000 0000 0000 0000 0000 0000
000000b0: 0000 0000 0000 0000 0000 0000 0000 0000
000000c0: 0000 0000 0000 0000 0000 0000 0000 0000
000000d0: 0000 0000 0000 0000 0000 0000 0000 0000
000000e0: 0000 0000 0000 0000 0000 0000 0000 0000
000000f0: 0000 0000 0000 0000 0000 0000 0000 0000
0.0 0.0 0.0 0.0 0.0 0.0 0.0 0.0
0.0 0.0 0.0 0.0 0.0 0.0 0.0 0.0
0.0 0.0 0.0 0.0 0.0 0.0 0.0 0.0
0.0 0.0 0.0 0.0 0.0 0.0 0.0 0.0
0.0 0.0 0.0 0.0 0.0 0.0 0.0 0.0
0.0 0.0 0.0 0.0 0.0 0.0 0.0 0.0
0.0 0.0 0.0 0.0 0.0 0.0 0.0 0.0
0.0 0.0 0.0 0.0 0.0 0.0 0.0 0.0

cpu f4 [64]
00000000: 0000 0000 0000 0000 0000 0000 0000 0000
00000010: 0000 0000 0000 0000 0000 0000 0000 0000
00000020: 0000 0000 0000 0000 0000 0000 0000 0000
00000030: 0000 0000 0000 0000 0000 0000 0000 0000
00000040: 0000 0000 0000 0000 0000 0000 0000 0000
00000050: 0000 0000 0000 0000 0000 0000 0000 0000
00000060: 0000 0000 0000 0000 0000 0000 0000 0000
00000070: 0000 0000 0000 0000 0000 0000 0000 0000
00000080: 0000 0000 0000 0000 0000 0000 0000 0000
00000090: 0000 0000 0000 0000 0000 0000 0000 0000
000000a0: 0000 0000 0000 0000 0000 0000 0000 0000
000000b0: 0000 0000 0000 0000 0000 0000 0000 0000
000000c0: 0000 0000 0000 0000 0000 0000 0000 0000
000000d0: 0000 0000 0000 0000 0000 0000 0000 0000
000000e0: 0000 0000 0000 0000 0000 0000 0000 0000
000000f0: 0000 0000 0000 0000 0000 0000 0000 0000
0.0 0.0 0.0 0.0 0.0 0.0 0.0 0.0
0.0 0.0 0.0 0.0 0.0 0.0 0.0 0.0
0.0 0.0 0.0 0.0 0.0 0.0 0.0 0.0
0.0 0.0 0.0 0.0 0.0 0.0 0.0 0.0
0.0 0.0 0.0 0.0 0.0 0.0 0.0 0.0
0.0 0.0 0.0 0.0 0.0 0.0 0.0 0.0
0.0 0.0 0.0 0.0 0.0 0.0 0.0 0.0
0.0 0.0 0.0 0.0 0.0 0.0 0.0 0.0

weight f4 [64]
00000000: 7592 0b3d 8160 a83e b9e7 833d b111 253e
00000010: 66f6 463e 1452 003f fef8 253f ab2a 163d
00000020: f9d9 4f3d f920 e63d 9693 343e e59f 0e3f
00000030: 5d34 6f3f 9c13 203d b17e 493e 5577 113f
00000040: 7ab3 213d f93e 2d3d dbdc c03e 05a3 323d
00000050: 5b61 2c3f 19e8 a73d 9ba8 1b3d c762 343f
00000060: 1a50 243f 6b3e 913e 2eb5 9c3e 1f81 eb3d
00000070: cc50 1b3d 18ac 2f3e eceb 9c3e b074 253d
00000080: 68a1 223d b137 823f ca20 6e3e 81cf a03d
00000090: 2b2b 213d f9d9 2e3e 80f7 343e 4a45 4d3e
000000a0: 3ba5 d23d b38e 893e 6ee3 253d 57aa a43d
000000b0: 43c9 1c3f 4c49 c53d f05a 713d 01ff c33d
000000c0: 38d8 ed3d 48a2 2e3e 6485 ba3e 28e6 b63d
000000d0: b61e 0b3e 84d8 f23d 5f24 0b3e 2b88 233e
000000e0: 8db0 bc3d 3646 2e3d 9f12 9c3d 759d 5b3e
000000f0: d1ab 2d3d bf31 ad3d 7382 bf3d 571a 7f3d
0.03407522 0.32886127 0.06440682 0.1612003 0.19429931 0.5012524 0.64833057 0.036661785
0.050744984 0.11236758 0.17634425 0.5571273 0.93439275 0.0390812 0.19677235 0.5682271
0.039477803 0.042296384 0.376685 0.0436125 0.6733605 0.08198566 0.03800259 0.7046322
0.64184725 0.28367934 0.3060698 0.11499237 0.03791885 0.17155492 0.30648744 0.040394485
0.03970471 1.0173246 0.23254696 0.07852078 0.03934781 0.17075337 0.17672539 0.20045963
0.102854215 0.26866683 0.040500097 0.08040302 0.612446 0.09633121 0.058924615 0.095701225
0.11613506 0.17054093 0.36429894 0.089306176 0.13585934 0.11857703 0.13588093 0.15969913
0.09213362 0.042547427 0.07620739 0.21446784 0.042400185 0.08456754 0.09351053 0.06228098

bias f4 [64]
00000000: 6b0c cbbc de3f 68be ed30 71bc 0bec e8bd
00000010: f79d 7fbe 89c2 73be 9719 75bc 1dd2 aeba
00000020: a44f c03b afe2 98bd d7cd eebd 8890 37be
00000030: 7991 20bf 733b f1bc c18d 233d 3386 2fbe
00000040: 0c72 c1bb 64d0 2fbd 9999 933d 9774 3cba
00000050: a6fb d33b 9c77 863c fc50 e4bc c100 393e
00000060: 752a 42be a418 eebe 3d6e 26be f53f 59be
00000070: d005 a2bb 2093 57be 5a72 fcbd 6c80 b63b
00000080: f4a4 bbba 4b05 8dbd 1607 533d c25f 8f3b
00000090: f30b 8ab9 db5f 1d3d 9c87 cabc 0054 3ebc
000000a0: 7196 50bc 2593 8cbe 3ef6 eeba 4a93 9d3a
000000b0: b087 01be 42c5 923b b55a 32bd daca 5dbd
000000c0: 4dd5 aabd 5ddc dfbd 6e43 1dbf 4a94 3cbc
000000d0: 7da1 e5bd 801e 30be 0af6 79bd 042f 89bc
000000e0: e7cf 233d 4f50 07bd e9c8 adbb b0bc 8c3d
000000f0: 9f72 a83b 60c9 9bbd 771e 2d3c 9f8b de3b
-0.024786195 -0.22680613 -0.0147211375 -0.113731466 -0.24962603 -0.23804678 -0.014959714 -0.0013337765
0.005868869 -0.074651115 -0.116603546 -0.17926228 -0.62721974 -0.029447293 0.03993011 -0.17141037
-0.005903488 -0.042923346 0.07207031 -0.0007189004 0.006469208 0.016414456 -0.027870648 0.18066694
-0.18961509 -0.46503174 -0.1625299 -0.21215804 -0.0049445406 -0.21052217 -0.12326498 0.0055695083
-0.0014316128 -0.06885775 0.05152043 0.004375429 -0.00026330314 0.038421493 -0.024722867 -0.011616707
-0.0127311805 -0.27456012 -0.0018231345 0.0012022045 -0.12649417 0.0044790814 -0.043543536 -0.054148532
-0.08341465 -0.10930703 -0.61431015 -0.011509964 -0.11212442 -0.17199135 -0.061025657 -0.016746052
0.039993193 -0.033035573 -0.0053034914 0.06871927 0.005140617 -0.076067686 0.010566345 0.0067915465

running_mean f4 [64]
00000000: f196 73bb 0f24 cebc 01be 99bb 236e 2cbd
00000010: d509 a5bc 0507 47be e309 453d 1243 aa3a
00000020: ddee 5abc 6b29 87bc f225 9dbd 51bf e1bd
00000030: 9e7d 803d 9afc c0bb 7827 363d c7d1 00be
00000040: 05bb 163c e478 81ba ee59 e73d a3c1 f13a
00000050: 793e cf3d 624d 8c3a 80a5 52bc cc5f abbe
00000060: ada9 e03d ddb4 7dbe 8814 bcbd 16f0 80bd
00000070: 7df8 fdbb 72f1 b8bb 373f 06be 6bc8 a9ba
00000080: ad96 253c d5b7 d5be 8682 4cbc 8fe1 863c
00000090: 072b 053b db40 18bc 867c 5abd d595 003d
000000a0: 4282 1dbd 8081 66bd 66fb 7eba 0af6 0bbd
000000b0: 67da eebe e3d3 87bc 278c c2bb 4e9b 483c
000000c0: 9160 09bd 5d63 f0bd 5e6a 54be b695 b03c
000000d0: 3b38 a93b 5f69 ee3c f410 423c bfd4 813b
000000e0: 94ef c0bc 72bd 073c 4ffe 75bc 92d2 863d
000000f0: ce33 863a ee5c e73c 6c40 17bc c72a 053c
-0.0037168826 -0.025163678 -0.0046918397 -0.042097222 -0.02014629 -0.19436271 0.04810513 0.0012989959
-0.0133626135 -0.016499242 -0.07673253 -0.11022819 0.062739596 -0.0058894875 0.044471234 -0.12580024
0.009199862 -0.0009877947 0.112964496 0.0018444549 0.101193376 0.0010704214 -0.012856841 -0.33471525
0.10969863 -0.24776025 -0.091836035 -0.06295793 -0.0077505694 -0.005644017 -0.13110052 -0.0012953406
0.010106725 -0.41741815 -0.012482291 0.016464977 0.0020319836 -0.0092928065 -0.05334141 0.03139289
-0.0384543 -0.056275845 -0.00097267923 -0.034170188 -0.46651003 -0.016580528 -0.0059371176 0.012244059
-0.03353936 -0.11737702 -0.20743701 0.021555763 0.005164174 0.02910298 0.011844862 0.003962129
-0.02355174 0.008284913 -0.015014245 0.06583132 0.0010238828 0.028242555 -0.009231668 0.008127875

running_var f4 [64]
00000000: 717d 1337 0141 4b3b 5c38 6f39 b1ed 003c
00000010: 00f1 4c3a e714 823c e947 033e 6d27 b936
00000020: 7d3f 7d38 1dd4 943b d036 e93b bbf3 953d
00000030: 6e8a a23d 7f85 1438 cf12 123d 5e93 6f3d
00000040: 6148 1538 6c99 2538 740a 673d 2d81 ce37
00000050: 7225 2a3e 2b90 bd39 713c 1338 5bba 023e
00000060: 63ed 8d3d 17eb aa3d 5586 0c3c 528d 9c3b
00000070: 3fb6 c038 e121 f13a 5ed8 ac3c dca9 b136
00000080: b967 2938 0f49 f53d 57ad 313b 2300 4b3a
00000090: f2af e037 6fe2 1e3c 6332 423b 3590 843c
000000a0: c830 4539 5947 913c e31a ba37 bcf5 073a
000000b0: d8bd ca3d cd34 0f3a cab3 2239 6119 6839
000000c0: 3d29 863b 2d8c b83b fa5f b63d dc97 1a3b
000000d0: 7de6 0b3b 83e5 ec39 b04d 593c 0f05 543b
000000e0: bb57 4d3a cf7b 0b39 bd88 273a 4f64 ff3c
000000f0: 0984 4138 5a3e e639 7b0f a83a 21c9 b138
8.791089e-06 0.0031014087 0.00022813812 0.00786917 0.0007817894 0.015879108 0.128204 5.5180194e-06
6.037903e-05 0.0045418874 0.00711713 0.073218785 0.079365596 3.5410278e-05 0.03566247 0.05849015
3.5591776e-05 3.948195e-05 0.056406453 2.4617266e-05 0.16615847 0.00036156303 3.510382e-05 0.12766401
0.069300435 0.08345621 0.008576949 0.004777589 9.1892194e-05 0.0018396938 0.021099266 5.2947853e-06
4.038934e-05 0.119768254 0.0027111375 0.0007743856 2.6784812e-05 0.009697541 0.0029632084 0.016182045
0.00018805556 0.017734217 2.2185448e-05 0.00051864586 0.09899491 0.0005462885 0.000155165 0.00022134699
0.0040942715 0.0056319446 0.08905025 0.002358905 0.0021347099 0.00045184427 0.013263151 0.0032351648
0.0007833202 0.00013302195 0.000639092 0.03117576 4.6137753e-05 0.00043915474 0.0012821996 8.477481e-05

cpu f4 [64]
00000000: 0000 0000 0000 0000 0000 0000 0000 0000
00000010: 0000 0000 0000 0000 0000 0000 0000 0000
00000020: 0000 0000 0000 0000 0000 0000 0000 0000
00000030: 0000 0000 0000 0000 0000 0000 0000 0000
00000040: 0000 0000 0000 0000 0000 0000 0000 0000
00000050: 0000 0000 0000 0000 0000 0000 0000 0000
00000060: 0000 0000 0000 0000 0000 0000 0000 0000
00000070: 0000 0000 0000 0000 0000 0000 0000 0000
00000080: 0000 0000 0000 0000 0000 0000 0000 0000
00000090: 0000 0000 0000 0000 0000 0000 0000 0000
000000a0: 0000 0000 0000 0000 0000 0000 0000 0000
000000b0: 0000 0000 0000 0000 0000 0000 0000 0000
000000c0: 0000 0000 0000 0000 0000 0000 0000 0000
000000d0: 0000 0000 0000 0000 0000 0000 0000 0000
000000e0: 0000 0000 0000 0000 0000 0000 0000 0000
000000f0: 0000 0000 0000 0000 0000 0000 0000 0000
0.0 0.0 0.0 0.0 0.0 0.0 0.0 0.0
0.0 0.0 0.0 0.0 0.0 0.0 0.0 0.0
0.0 0.0 0.0 0.0 0.0 0.0 0.0 0.0
0.0 0.0 0.0 0.0 0.0 0.0 0.0 0.0
0.0 0.0 0.0 0.0 0.0 0.0 0.0 0.0
0.0 0.0 0.0 0.0 0.0 0.0 0.0 0.0
0.0 0.0 0.0 0.0 0.0 0.0 0.0 0.0
0.0 0.0 0.0 0.0 0.0 0.0 0.0 0.0

cpu f4 [64]
00000000: 0000 0000 0000 0000 0000 0000 0000 0000
00000010: 0000 0000 0000 0000 0000 0000 0000 0000
00000020: 0000 0000 0000 0000 0000 0000 0000 0000
00000030: 0000 0000 0000 0000 0000 0000 0000 0000
00000040: 0000 0000 0000 0000 0000 0000 0000 0000
00000050: 0000 0000 0000 0000 0000 0000 0000 0000
00000060: 0000 0000 0000 0000 0000 0000 0000 0000
00000070: 0000 0000 0000 0000 0000 0000 0000 0000
00000080: 0000 0000 0000 0000 0000 0000 0000 0000
00000090: 0000 0000 0000 0000 0000 0000 0000 0000
000000a0: 0000 0000 0000 0000 0000 0000 0000 0000
000000b0: 0000 0000 0000 0000 0000 0000 0000 0000
000000c0: 0000 0000 0000 0000 0000 0000 0000 0000
000000d0: 0000 0000 0000 0000 0000 0000 0000 0000
000000e0: 0000 0000 0000 0000 0000 0000 0000 0000
000000f0: 0000 0000 0000 0000 0000 0000 0000 0000
0.0 0.0 0.0 0.0 0.0 0.0 0.0 0.0
0.0 0.0 0.0 0.0 0.0 0.0 0.0 0.0
0.0 0.0 0.0 0.0 0.0 0.0 0.0 0.0
0.0 0.0 0.0 0.0 0.0 0.0 0.0 0.0
0.0 0.0 0.0 0.0 0.0 0.0 0.0 0.0
0.0 0.0 0.0 0.0 0.0 0.0 0.0 0.0
0.0 0.0 0.0 0.0 0.0 0.0 0.0 0.0
0.0 0.0 0.0 0.0 0.0 0.0 0.0 0.0

weight f4 [64]
00000000: cf99 133d cdf4 d73e 543d 9a3e 6213 e13e
00000010: 8281 cf3e 2901 993e 726d ca3e 87b5 153e
00000020: 14f2 7d3e cc0e ee3e f2b2 123e 9c42 7b3e
00000030: 908c b13e 319b 043f 7de4 153f 76ed 403e
00000040: 8bc8 a13e 6bae 093f d86b bf3e f099 4f3e
00000050: 0d64 543e 9f1e 5d3e 9131 bf3e a8b8 943e
00000060: ba37 fa3e 1b00 433e 48a0 0a3f 8b73 263e
00000070: 7eb7 093f 0d59 b23e 8852 833e 71fe a23e
00000080: 813f b73e 90d7 193e 766b 183e 3200 473f
00000090: 62a2 073f 0f8e b73e 5d3c bc3e 0a5d dc3e
000000a0: b50d d63e 1205 493e 7e19 cb3e 3fb8 a33e
000000b0: 174d ad3e 467c 313e 4aa8 a23e 79ea 3c3e
000000c0: 4ca8 693e 15e3 8b3e a00e be3e 7350 873e
000000d0: 7b91 9f3e b535 c93e 2af8 0a3e 2a9a 513e
000000e0: f6c4 983e 608f 2e3e 8455 1a3f 726c e83e
000000f0: a20e 673d b809 4a3d 7492 683e 11dc 043e
0.036035355 0.42178956 0.30124915 0.439601 0.40528494 0.29883698 0.39536625 0.14620028
0.24799377 0.46495664 0.14326075 0.24537128 0.34677553 0.51799303 0.5855177 0.18840584
0.31598315 0.53781766 0.37386966 0.20273566 0.20741291 0.21593712 0.37342504 0.29047132
0.4887064 0.19043009 0.5415082 0.16255014 0.5379561 0.34833565 0.25648904 0.31834748
0.35790637 0.15023637 0.14884743 0.77734673 0.5298215 0.3585057 0.36764804 0.43039733
0.41807333 0.1963084 0.39667886 0.31976506 0.33847877 0.17332563 0.3176902 0.18448819
0.22818106 0.27321687 0.37120533 0.26428565 0.3116568 0.39298788 0.1357123 0.20468965
0.2983777 0.1704688 0.60286736 0.45395237 0.05641044 0.049325675 0.22712117 0.12974574

bias f4 [64]
00000000: 38d8 ddbe 4404 3cbe 1d89 3539 73c0 f0bd
00000010: b5e1 27bd 4cd4 8cbd 5ad5 5cbe 9ee6 07ba
00000020: b224 093d 8331 24bd add5 86bd b46a 92bd
00000030: 55c9 c63c 701d 12bc 92e4 aebe 17b1 39be
00000040: 8383 56be d645 e7be 0017 f03d 991b 2b3c
00000050: 5233 6f3e 9333 e6bb 8281 70bc 1958 b0bb
00000060: ac0a ef3d 01b3 553d 39a5 97be 2843 ba3d
00000070: 28c2 0ebd f449 c6bd bcc1 41be 22d1 ddbd
00000080: a0c4 ecbb 8ab1 253d 4507 11bd 40dc 34be
00000090: ce21 1bbe 26fd edbc 180d 1cbd 0986 af3d
000000a0: b203 90bc 7cf3 fc3d 681e 3fbe b3fe 66be
000000b0: ed11 02be 081c b43b ead2 a3be 1e3a 95bd
000000c0: 73e4 01be 9af3 1abe 311e a4bd 1427 5e3c
000000d0: 484c c13b 0512 0fbe e26d a03c 47ff d2bd
000000e0: 0e51 f03c ce09 f8bd a9a3 abbd 35b7 a0bd
000000f0: b751 1fbd c4a8 0cbd c41b 1abd c199 88bd
-0.43329024 -0.18361002 0.00017312584 -0.11755457 -0.040986735 -0.0687643 -0.21565762 -0.0005184206
0.03348226 -0.04008628 -0.06583724 -0.07149258 0.024265924 -0.008918151 -0.3415876 -0.1813396
-0.20948605 -0.45170468 0.11723137 0.0104435915 0.23359421 -0.007025191 -0.014679315 -0.005381596
0.116719574 0.052172665 -0.29618242 0.0909484 -0.03485313 -0.09682074 -0.1892156 -0.108309045
-0.007225588 0.040452518 -0.035407323 -0.17662144 -0.15149614 -0.029051375 -0.038098425 0.08570487
-0.017579887 0.123511285 -0.18663943 -0.22558098 -0.1270215 0.0054965056 -0.31996852 -0.072864756
-0.12684803 -0.15131989 -0.08013571 0.013559122 0.005898986 -0.13971718 0.019583646 -0.103025965
0.029335525 -0.12111245 -0.08380825 -0.07847444 -0.03889629 -0.034340635 -0.037624136 -0.06669951

running_mean f4 [64]
00000000: 1c83 a4bc 96b6 9dbd 8e37 9f3d c417 04bd
00000010: 8376 9bbd 0208 7bbd d17c c13c 3309 bb3c
00000020: 1523 71bd cfae 303c 92b9 db3c c0a2 823c
00000030: 9b08 413d 089a d8bd 2176 323d 253a 873d
00000040: f2a7 c2bd e792 dbbc d287 ad3d 16aa 00bb
00000050: 03cd 17be 70ba a7bd c93c a4bd 7555 8cbd
00000060: 2061 1fbe b641 80bd d92d 97bd 1ef1 023c
00000070: 94de 94bc a024 a63c a57d dcbd 6e99 5ebc
00000080: f9d5 aabd 943d 48bd 3ad0 033d 6a81 33be
00000090: 11b3 9fb7 ecad 8abd e65f 15be d5de 81bb
000000a0: 8303 98bd b59c 9b3c 010a 63bd a463 5ebd
000000b0: d4a8 a6bd b467 67bc d96d 9abd 89fe 453c
000000c0: 0c02 17bc decf 8c3c e090 283d 0589 c2bc
000000d0: 3a9e d43c 2fc5 03bd 94c7 0ebc 2c3a db3a
000000e0: 46db 9d3d 7a69 ef3c 880a 37bc 1cb8 a63d
000000f0: 9dd9 9abb 1387 65bb c3e6 023c cbd2 d93c
-0.02008205 -0.07700841 0.07774268 -0.032249227 -0.07590964 -0.061286934 0.023619087 0.022831535
-0.058871347 0.010783865 0.026821885 0.015946746 0.047127347 -0.10576254 0.043569688 0.06602887
-0.09504689 -0.026803447 0.08473171 -0.001963263 -0.148243 -0.08189857 -0.08019406 -0.06852237
-0.15564394 -0.06262533 -0.073817916 0.007992057 -0.01817254 0.020281136 -0.10766152 -0.013586385
-0.08341593 -0.04888685 0.032181002 -0.17529836 -1.9037661e-05 -0.06771454 -0.14587364 -0.003963331
-0.07422545 0.018995622 -0.055429462 -0.054294243 -0.0813767 -0.014123846 -0.07540483 0.012084612
-0.009216797 0.017188963 0.04115379 -0.023746977 0.025954355 -0.03217047 -0.008714575 0.0016725711
0.07707839 0.0292251 -0.011171944 0.08140585 -0.0047256486 -0.0035023137 0.007989588 0.026589772

running_var f4 [64]
00000000: 2dd9 813d 4448 e03c 8137 5d3c 72dc af3c
00000010: 1673 243d 6ed9 563c 6a63 2e3c 1907 433a
00000020: a99f b03b 25af e13c 8697 2d3a bfd2 8e3c
00000030: 3597 ce3c fd28 213d 60ac 103d e821 603d
00000040: 0b30 253b 5e2a 173e f886 653c 7232 733b
00000050: 2ed1 0d3c a8b8 ae3c 4f70 9c3b ed48 993c
00000060: 09bb 283d 1a2b 123d 46ff 8f3d c9a9 7d3b
00000070: 472e 3d3d 5da2 6e3c 48e6 333c 75fe 263c
00000080: b225 903b ddc0 e23b cccd d73a a46b 103e
00000090: 1c67 0a3d d9f1 723c d5cf 9f3c 72cd 6f3d
000000a0: 029a e53b 98cc 163d 4475 d83c ee47 c83c
000000b0: 523f 9c3c 1cb3 b43b 1500 ea3c 5ed8 643b
000000c0: cb8d b33b f612 3e3c da79 873b e338 5c3c
000000d0: a8cc a83c aa39 c63c c031 613a f1b2 143b
000000e0: 6377 2f3c 5c7b d73c 19e0 aa3c 114a e43b
000000f0: ae57 9937 c971 d738 4238 703b 4851 113b
0.06340251 0.027378209 0.013502003 0.021467421 0.040148817 0.013113363 0.010643819 0.00074397173
0.0053901267 0.027549336 0.0006622005 0.017434476 0.025218586 0.03934573 0.03532064 0.054719836
0.0025205638 0.14762256 0.01400923 0.0037108925 0.008655829 0.021328285 0.0047741304 0.018711532
0.041193996 0.035685636 0.070311114 0.0038705936 0.04618671 0.014565078 0.010980196 0.010192503
0.004399025 0.0069199638 0.001646453 0.14103562 0.03378974 0.014828169 0.019508282 0.058545537
0.0070068846 0.03681621 0.026423104 0.024448361 0.019073162 0.0055145156 0.028564492 0.0034919004
0.0054795495 0.0116012 0.004134399 0.013441297 0.0206054 0.024197418 0.0008590482 0.0022689665
0.010709616 0.02630394 0.020858811 0.006966837 1.827985e-05 0.00010273193 0.0036654626 0.0022173692

cpu f4 [64]
00000000: 0000 0000 0000 0000 0000 0000 0000 0000
00000010: 0000 0000 0000 0000 0000 0000 0000 0000
00000020: 0000 0000 0000 0000 0000 0000 0000 0000
00000030: 0000 0000 0000 0000 0000 0000 0000 0000
00000040: 0000 0000 0000 0000 0000 0000 0000 0000
00000050: 0000 0000 0000 0000 0000 0000 0000 0000
00000060: 0000 0000 0000 0000 0000 0000 0000 0000
00000070: 0000 0000 0000 0000 0000 0000 0000 0000
00000080: 0000 0000 0000 0000 0000 0000 0000 0000
00000090: 0000 0000 0000 0000 0000 0000 0000 0000
000000a0: 0000 0000 0000 0000 0000 0000 0000 0000
000000b0: 0000 0000 0000 0000 0000 0000 0000 0000
000000c0: 0000 0000 0000 0000 0000 0000 0000 0000
000000d0: 0000 0000 0000 0000 0000 0000 0000 0000
000000e0: 0000 0000 0000 0000 0000 0000 0000 0000
000000f0: 0000 0000 0000 0000 0000 0000 0000 0000
0.0 0.0 0.0 0.0 0.0 0.0 0.0 0.0
0.0 0.0 0.0 0.0 0.0 0.0 0.0 0.0
0.0 0.0 0.0 0.0 0.0 0.0 0.0 0.0
0.0 0.0 0.0 0.0 0.0 0.0 0.0 0.0
0.0 0.0 0.0 0.0 0.0 0.0 0.0 0.0
0.0 0.0 0.0 0.0 0.0 0.0 0.0 0.0
0.0 0.0 0.0 0.0 0.0 0.0 0.0 0.0
0.0 0.0 0.0 0.0 0.0 0.0 0.0 0.0

weight f4 [64]
00000000: 0d18 01bf dc10 683b 5ce5 fb3c e936 1dbd
00000010: 2abd 043e 1ce9 163d f337 cf3d 434e 1c3d
00000020: 429c a13d b2f1 a5bd eebd af3c e7a7 01bd
00000030: 03d9 d53c 4bc8 173e 8dae b73d 9fd1 b93d
00000040: d18c 8ebd 397d 88be 4f28 b9bd 5f3b 993c
00000050: 8df0 ab3d 9cdf 643d bbd5 093e 94e8 8ab7
00000060: 20fe ae37 8a3f 65bd 60ce 333e 0b71 c9ba
00000070: a455 4f3e f943 15b9 808d 99bd 2668 5d3c
00000080: 5ace 08bd 5ab5 99bc 944e a3bc 2c43 5c3e
00000090: 3a55 103c 9a92 093c bce1 ec3d 6fca 29be
000000a0: 6157 cab7 c2e4 73bd 0058 2f3d cc3e a43d
000000b0: e213 cc3b d31d 4d3c 3969 e13c a924 85ba
000000c0: b1b7 983b 90d9 8ebd 9187 0f3d fdee 16b6
000000d0: 2a19 68bd c111 6f3d aa5c 6a3d a3b2 81b9
000000e0: 11df 8ebd a61a 80bd 2814 413e a397 263e
000000f0: 8442 743c f532 d33c 9438 c83d b633 5f3d
-0.50427324 0.003541044 0.030749016 -0.038382445 0.12962785 0.036843404 0.10118093 0.038160574
0.07891132 -0.0810274 0.02145287 -0.031654265 0.026104456 0.148225 0.0896884 0.09073185
-0.06960452 -0.26658037 -0.090408914 0.018705068 0.08395491 0.055877313 0.13460438 -1.6559185e-05
2.0860753e-05 -0.0559688 0.17559195 -0.0015368772 0.20247513 -0.00014235069 -0.07497692 0.0135136
-0.033399917 -0.018763233 -0.01993493 0.21509999 0.008809382 0.008396769 0.11566493 -0.16581129
-2.4120965e-05 -0.059544332 0.042808533 0.0801979 0.006227956 0.012519318 0.027515994 -0.001015802
0.0046605696 -0.069750905 0.035041396 -2.2490851e-06 -0.056664623 0.05836654 0.057217278 -0.00024737892
-0.0697614 -0.06255083 0.18855345 0.16268782 0.014908437 0.025781134 0.097764164 0.054492675

bias f4 [64]
00000000: 38d8 ddbe 4404 3cbe 1d89 3539 73c0 f0bd
00000010: b5e1 27bd 4cd4 8cbd 5ad5 5cbe 9ee6 07ba
00000020: b224 093d 8331 24bd add5 86bd b46a 92bd
00000030: 55c9 c63c 701d 12bc 92e4 aebe 17b1 39be
00000040: 8383 56be d645 e7be 0017 f03d 991b 2b3c
00000050: 5233 6f3e 9333 e6bb 8281 70bc 1958 b0bb
00000060: ac0a ef3d 01b3 553d 39a5 97be 2843 ba3d
00000070: 28c2 0ebd f449 c6bd bcc1 41be 22d1 ddbd
00000080: a0c4 ecbb 8ab1 253d 4507 11bd 40dc 34be
00000090: ce21 1bbe 26fd edbc 180d 1cbd 0986 af3d
000000a0: b203 90bc 7cf3 fc3d 681e 3fbe b3fe 66be
000000b0: ed11 02be 081c b43b ead2 a3be 1e3a 95bd
000000c0: 73e4 01be 9af3 1abe 311e a4bd 1427 5e3c
000000d0: 484c c13b 0512 0fbe e26d a03c 47ff d2bd
000000e0: 0e51 f03c ce09 f8bd a9a3 abbd 35b7 a0bd
000000f0: b751 1fbd c4a8 0cbd c41b 1abd c199 88bd
-0.43329024 -0.18361002 0.00017312584 -0.11755457 -0.040986735 -0.0687643 -0.21565762 -0.0005184206
0.03348226 -0.04008628 -0.06583724 -0.07149258 0.024265924 -0.008918151 -0.3415876 -0.1813396
-0.20948605 -0.45170468 0.11723137 0.0104435915 0.23359421 -0.007025191 -0.014679315 -0.005381596
0.116719574 0.052172665 -0.29618242 0.0909484 -0.03485313 -0.09682074 -0.1892156 -0.108309045
-0.007225588 0.040452518 -0.035407323 -0.17662144 -0.15149614 -0.029051375 -0.038098425 0.08570487
-0.017579887 0.123511285 -0.18663943 -0.22558098 -0.1270215 0.0054965056 -0.31996852 -0.072864756
-0.12684803 -0.15131989 -0.08013571 0.013559122 0.005898986 -0.13971718 0.019583646 -0.103025965
0.029335525 -0.12111245 -0.08380825 -0.07847444 -0.03889629 -0.034340635 -0.037624136 -0.06669951

running_mean f4 [64]
00000000: a2ef b6bc 01f6 783a a7c8 a83b bdca dd3b
00000010: 194a 373c c7cf c9bb 9cab 443c f2de 3cbc
00000020: 1f5a 16bc 531e 18bc c00c 303b 9431 bdbb
00000030: 1c23 a63b 6103 553c 9f2b 453c 9601 103c
00000040: e6b4 b33b 5a0c 2ebc ccaa 253c 16bd 2e3c
00000050: db3a 253c dedb 2ebc 014d 433c fd4f dbb6
00000060: d444 bfb6 bff8 f13b 4569 623c e59a 923a
00000070: 8064 2ebc d8a2 ffb7 a559 e8bb 4db6 b93b
00000080: 9e14 13bc e626 403b f8c2 bb3b 25b3 433d
00000090: 3aa5 7d3b 8837 0bbc b8d8 253c a4bc 573c
000000a0: d53d e135 670f febb 2f4a 14bc 63f7 0cbc
000000b0: 68f7 673b 6dca 4cbb 9bb4 c33b f3f6 fa3b
000000c0: 4e60 733a fd2c 063c cb05 77bb da78 7db5
000000d0: 439c efbb 2303 ebbb a4c8 24bc b328 bd3a
000000e0: 4682 00bc 8354 3dbc a873 49bc 1fa0 3cbc
000000f0: 3247 11bb 027b 93bb 6f7e 20bc fbdd e7bb
-0.022331063 0.00094971067 0.0051508727 0.006768553 0.0111871 -0.006158802 0.0120038055 -0.011527764
-0.00917676 -0.009284574 0.0026863068 -0.0057737324 0.0050701033 0.013001294 0.012034326 0.008789441
0.0054842113 -0.010623062 0.010111522 0.010665199 0.010084833 -0.010672538 0.011920215 -6.5360205e-06
-5.700256e-06 0.007384389 0.0138190435 0.0011185078 -0.010644078 -3.0474199e-05 -0.0070907646 0.005667484
-0.0089770835 0.002932006 0.005730029 0.047778267 0.003870322 -0.008497126 0.010122471 0.013167534
1.6781802e-06 -0.007753301 -0.00905089 -0.008603903 0.0035395268 -0.0031248585 0.0059724576 0.007658833
0.0009284065 0.008189437 -0.0037692662 -9.4425707e-07 -0.007312329 -0.007172005 -0.010057602 0.0014431685
-0.00784356 -0.011555794 -0.012295641 -0.011512785 -0.002216768 -0.0045007477 -0.009795769 -0.0070760227

running_var f4 [64]
00000000: 1773 1e3a 65bb 9235 c9e1 0638 62e8 6838
00000010: f50f 1f39 a3d5 4038 7122 3739 aee5 2839
00000020: 0e10 d638 451f db38 bfbe 1237 9879 2938
00000030: 5faf 0238 d0d5 5639 2411 3839 d65f c438
00000040: 97e7 1838 626d 0f39 5df2 0139 3d91 1039
00000050: fb42 0139 2ec4 1039 c197 3439 b5ba 632e
00000060: 9436 2d2e e69b 8a38 d7b5 7239 b486 cb35
00000070: cdfe 0f39 b6b4 9a30 3f9c 7f38 844b 2338
00000080: 38d9 cc38 fdd0 2e37 47eb 2638 da54 353b
00000090: 484e 9837 9f87 b738 733a 0239 405d 5c39
000000a0: 8235 702c e5cd 9838 133b d038 d82b bc38
000000b0: 46c4 7e37 d991 4637 8c57 3538 781a 9538
000000c0: 0b39 8c35 937a aa38 c274 9037 0319 982b
000000d0: bfea 8738 23c0 8238 8690 0039 b069 2936
000000e0: f961 9c38 37b8 2939 be25 4039 6575 2839
000000f0: c7db c736 d5f6 cd37 5eea f338 718c 7e38
0.00060443714 1.0932387e-06 3.215837e-05 5.5529534e-05 0.00015169366 4.5975332e-05 0.0001746507 0.00016107291
0.000102073056 0.00010448558 8.74669e-06 4.0405983e-05 3.1157742e-05 0.00020488282 0.00017553993 9.363859e-05
3.645531e-05 0.00013678291 0.00012392686 0.00013787016 0.00012327351 0.00013805993 0.0001722267 5.1779653e-11
3.938412e-11 6.609391e-05 0.00023146659 1.5163882e-06 0.00013732463 1.1256336e-09 6.0942253e-05 3.8932558e-05
9.767938e-05 1.0419867e-05 3.9796603e-05 0.0027668984 1.8156265e-05 8.7513814e-05 0.0001241954 0.00021015573
3.4135754e-12 7.286276e-05 9.929216e-05 8.972705e-05 1.5185278e-05 1.18356775e-05 4.3235297e-05 7.109804e-05
1.0447415e-06 8.129063e-05 1.7220507e-05 1.0807192e-12 6.4810265e-05 6.234671e-05 0.0001226087 2.524448e-06
7.4569085e-05 0.00016185721 0.00018324607 0.00016065461 5.9562476e-06 2.4552844e-05 0.00011630797 6.0689115e-05

cpu f4 [64]
00000000: 0000 0000 0000 0000 0000 0000 0000 0000
00000010: 0000 0000 0000 0000 0000 0000 0000 0000
00000020: 0000 0000 0000 0000 0000 0000 0000 0000
00000030: 0000 0000 0000 0000 0000 0000 0000 0000
00000040: 0000 0000 0000 0000 0000 0000 0000 0000
00000050: 0000 0000 0000 0000 0000 0000 0000 0000
00000060: 0000 0000 0000 0000 0000 0000 0000 0000
00000070: 0000 0000 0000 0000 0000 0000 0000 0000
00000080: 0000 0000 0000 0000 0000 0000 0000 0000
00000090: 0000 0000 0000 0000 0000 0000 0000 0000
000000a0: 0000 0000 0000 0000 0000 0000 0000 0000
000000b0: 0000 0000 0000 0000 0000 0000 0000 0000
000000c0: 0000 0000 0000 0000 0000 0000 0000 0000
000000d0: 0000 0000 0000 0000 0000 0000 0000 0000
000000e0: 0000 0000 0000 0000 0000 0000 0000 0000
000000f0: 0000 0000 0000 0000 0000 0000 0000 0000
0.0 0.0 0.0 0.0 0.0 0.0 0.0 0.0
0.0 0.0 0.0 0.0 0.0 0.0 0.0 0.0
0.0 0.0 0.0 0.0 0.0 0.0 0.0 0.0
0.0 0.0 0.0 0.0 0.0 0.0 0.0 0.0
0.0 0.0 0.0 0.0 0.0 0.0 0.0 0.0
0.0 0.0 0.0 0.0 0.0 0.0 0.0 0.0
0.0 0.0 0.0 0.0 0.0 0.0 0.0 0.0
0.0 0.0 0.0 0.0 0.0 0.0 0.0 0.0

cpu f4 [128]
00000000: 0000 0000 0000 0000 0000 0000 0000 0000
00000010: 0000 0000 0000 0000 0000 0000 0000 0000
00000020: 0000 0000 0000 0000 0000 0000 0000 0000
00000030: 0000 0000 0000 0000 0000 0000 0000 0000
00000040: 0000 0000 0000 0000 0000 0000 0000 0000
00000050: 0000 0000 0000 0000 0000 0000 0000 0000
00000060: 0000 0000 0000 0000 0000 0000 0000 0000
00000070: 0000 0000 0000 0000 0000 0000 0000 0000
00000080: 0000 0000 0000 0000 0000 0000 0000 0000
00000090: 0000 0000 0000 0000 0000 0000 0000 0000
000000a0: 0000 0000 0000 0000 0000 0000 0000 0000
000000b0: 0000 0000 0000 0000 0000 0000 0000 0000
000000c0: 0000 0000 0000 0000 0000 0000 0000 0000
000000d0: 0000 0000 0000 0000 0000 0000 0000 0000
000000e0: 0000 0000 0000 0000 0000 0000 0000 0000
000000f0: 0000 0000 0000 0000 0000 0000 0000 0000
00000100: 0000 0000 0000 0000 0000 0000 0000 0000
00000110: 0000 0000 0000 0000 0000 0000 0000 0000
00000120: 0000 0000 0000 0000 0000 0000 0000 0000
00000130: 0000 0000 0000 0000 0000 0000 0000 0000
00000140: 0000 0000 0000 0000 0000 0000 0000 0000
00000150: 0000 0000 0000 0000 0000 0000 0000 0000
00000160: 0000 0000 0000 0000 0000 0000 0000 0000
00000170: 0000 0000 0000 0000 0000 0000 0000 0000
00000180: 0000 0000 0000 0000 0000 0000 0000 0000
00000190: 0000 0000 0000 0000 0000 0000 0000 0000
000001a0: 0000 0000 0000 0000 0000 0000 0000 0000
000001b0: 0000 0000 0000 0000 0000 0000 0000 0000
000001c0: 0000 0000 0000 0000 0000 0000 0000 0000
000001d0: 0000 0000 0000 0000 0000 0000 0000 0000
000001e0: 0000 0000 0000 0000 0000 0000 0000 0000
000001f0: 0000 0000 0000 0000 0000 0000 0000 0000
0.0 0.0 0.0 0.0 0.0 0.0 0.0 0.0
0.0 0.0 0.0 0.0 0.0 0.0 0.0 0.0
0.0 0.0 0.0 0.0 0.0 0.0 0.0 0.0
0.0 0.0 0.0 0.0 0.0 0.0 0.0 0.0
0.0 0.0 0.0 0.0 0.0 0.0 0.0 0.0
0.0 0.0 0.0 0.0 0.0 0.0 0.0 0.0
0.0 0.0 0.0 0.0 0.0 0.0 0.0 0.0
0.0 0.0 0.0 0.0 0.0 0.0 0.0 0.0
0.0 0.0 0.0 0.0 0.0 0.0 0.0 0.0
0.0 0.0 0.0 0.0 0.0 0.0 0.0 0.0
0.0 0.0 0.0 0.0 0.0 0.0 0.0 0.0
0.0 0.0 0.0 0.0 0.0 0.0 0.0 0.0
0.0 0.0 0.0 0.0 0.0 0.0 0.0 0.0
0.0 0.0 0.0 0.0 0.0 0.0 0.0 0.0
0.0 0.0 0.0 0.0 0.0 0.0 0.0 0.0
0.0 0.0 0.0 0.0 0.0 0.0 0.0 0.0

weight f4 [128]
00000000: 4aff 833e 3479 763e 5ebc 953e a121 153e
00000010: e590 233e 2050 163e ef97 3e3e 9f3d 703e
00000020: 72a1 a53e 5a31 e33d 4991 4e3e dae9 c83d
00000030: faa8 173e 4f53 643e 0e0b 313e 00eb 763e
00000040: 5456 7b3e 943f 693e ef02 853e ff60 2d3e
00000050: 2fc3 383e 807b 383e 58dc ba3d 86ce 7c3e
00000060: fb07 393e fd0a 2d3e cfb4 5a3e 5c69 413e
00000070: 9359 9d3e 64b0 2d3e aa2b 843e 95f6 373e
00000080: 5c56 8d3e 1ef7 883e ea50 323e 4f38 f53d
00000090: 00dd 3b3e 35f2 583e cc26 863e 1169 b63d
000000a0: c30e 203e b4b3 233e aadc 6e3e a77e 943d
000000b0: 3bde 6c3e bd55 b33e 4b8c b63d 6faa 793e
000000c0: 0dcb 803e c379 7a3e 7f41 b13d 8f3d 6d3e
000000d0: 1933 0a3e a036 553e 1b32 b83e 633c 0d3e
000000e0: 9662 363e b5ff 913e 6716 203e 9573 243e
000000f0: 110e 9b3e a5a2 473e eb17 433e 0149 4d3e
00000100: d5e0 bd3d 7a4d 233e e721 853e ed41 2d3e
00000110: 48ca 863e 3899 563e 4297 483e 9b64 0a3e
00000120: 6f9f 183e 7cba 1b3e 632d 253e 9e9d 023e
00000130: 4d44 433e 3efa 2d3e 1588 f53d 7182 7d3e
00000140: ad70 9a3e c8db 963e 1ed5 503e 7ef2 563e
00000150: 89c9 813d c1e2 8c3e b127 9c3e 8b97 693e
00000160: 2cab 903e 63f4 3b3e 60a6 1f3e 7505 113e
00000170: 470e 4d3e 3bbc 623e 432a 6e3e c333 233e
00000180: 1432 953e 3746 133e 17ee c83e 8a3f f63d
00000190: c46c 4f3e 702a c53e c205 8e3e 1a2c 953e
000001a0: a09c 463e c2dd 823e 9144 993e a6b2 653e
000001b0: 19ab 843e 7514 4d3e 16ee f33d 8b05 893e
000001c0: 253d cf3e 02fc 693e 0554 753e e944 2b3e
000001d0: 0ee4 2c3e 3802 fe3d 1cce 293e 9274 093e
000001e0: c225 173e 2771 523e 4191 133e 10d0 283e
000001f0: a65c 6f3e 8097 a23d 7017 4a3e 3570 913e
0.25780708 0.24069673 0.29245275 0.1456361 0.15973242 0.14679003 0.18612646 0.23461007
0.32349735 0.110933974 0.2017261 0.09810229 0.14810553 0.22297405 0.17289373 0.24113083
0.2454465 0.2277816 0.259788 0.16931532 0.18043207 0.18015862 0.091240585 0.24688157
0.1806945 0.16898723 0.21358036 0.18887848 0.30732402 0.16961819 0.25814563 0.17965157
0.2760495 0.26751035 0.17413679 0.11973631 0.18346024 0.21186145 0.26201475 0.089067586
0.15630631 0.1598652 0.23326364 0.072507195 0.23131649 0.3502635 0.089134775 0.24381422
0.25154915 0.24460511 0.086550705 0.23168014 0.13496055 0.20821619 0.35975727 0.13792567
0.17811045 0.285154 0.15633546 0.16059716 0.3028417 0.19495638 0.19052093 0.2004738
0.09271399 0.15947524 0.26002428 0.1691968 0.26326203 0.20956886 0.1958895 0.1351494
0.14904569 0.15207857 0.16130595 0.12755439 0.19069023 0.16989991 0.11988846 0.2475679
0.3016409 0.29464555 0.20393798 0.20990941 0.06337268 0.2751675 0.30499032 0.22811715
0.28255594 0.18354945 0.15590811 0.14162238 0.20024978 0.22142117 0.23258309 0.15937714
0.2913977 0.14382254 0.39244148 0.12023838 0.20256335 0.3850894 0.27738768 0.2913521
0.19395685 0.25559813 0.29935125 0.2243143 0.25911787 0.20027335 0.11910646 0.2676204
0.40476337 0.2285004 0.23957832 0.16725506 0.16883871 0.12402767 0.1658253 0.13423374
0.14760497 0.20550977 0.14410879 0.1648562 0.23375186 0.079390526 0.19735503 0.2840592

bias f4 [128]
00000000: 2934 69bd 3dd2 8b3c 91e4 2ebc df0c 13be
00000010: 3c37 cebc e903 8abd 1904 50bd 67af 21be
00000020: c186 51be fb39 1cbe 6e28 e03b 7cce 06bd
00000030: 2a30 89be 83bd edbd ed46 d0bd 4d72 0fbe
00000040: 78cb 35bd d95d 16be 0fca 83be 29ba 993d
00000050: 38ed 61be 6f39 173c b6a9 39be da62 a3bd
00000060: 0f36 57be 6378 3cbe c5eb 3cbe e4d7 b0bc
00000070: 564b 2cbd dd9a adbd a642 1fbe 81fa 59be
00000080: a4d6 58bd f3c6 54be fc01 16be 6cc7 82bc
00000090: 14b6 5a3a 9b41 10bc b250 8ebe b5b3 32be
000000a0: 9bd2 dc3c 5e49 c1bd 2fa0 91be 03b7 54be
000000b0: 5891 ffbd a179 a4bc 10a2 1bbe 1c9c e5bd
000000c0: a0a3 803a 2c96 3d3d e17c bbbd abff 2abd
000000d0: 4860 17bd ad64 c2bd 467e 2abe 239c 30bd
000000e0: 7281 94ba fb59 94bd 1975 08be 03a8 e13c
000000f0: 56fd 17bc 1b70 fc3c 037b 68bd cdc9 dabd
00000100: ec56 ab3d 9ad3 8bbd e264 753b 6dac 94bd
00000110: 4336 873d 8d98 1abe 3121 68be 5a98 46be
00000120: 3ea5 bfbd 544f 7ebd 316d bfbd 2e09 e4bd
00000130: f44a b4bd c668 64be c80a 35be 4b3d 01bd
00000140: 9d9d 98bd 5050 ee3b 887d 7bbe f00e 3fbe
00000150: 8afd 843a 2ecd c6bd a7a8 51bd 96a8 7ebe
00000160: f91d 25be 4def abbe 8406 ebbd c656 f2bc
00000170: 6081 19bd ea3e 57bb 692b 00be 3a77 fd3a
00000180: 552a d4bd 99d2 b7bd aa0f 313d ba13 86bd
00000190: 24b3 1ebe 1f5a 303d 3af0 e5bd a616 6ebd
000001a0: 7d16 173d 31b9 dabd fbf1 39be f124 f2bc
000001b0: 153c 9abd 43f0 38bd c353 9cbc 288b 923a
000001c0: eedb c33d 6772 b8bd 543c 513d ce88 08be
000001d0: 3796 87bc eb35 abbd 55d2 ecbc aaff ebbd
000001e0: 59d3 73bd 7d6f f5bd 0c34 62bd 4d32 69be
000001f0: 07fa c63c 75d9 3abe ef7f afbe d394 12be
-0.05693451 0.017068023 -0.010674612 -0.14360379 -0.025172822 -0.06739027 -0.050785158 -0.15789567
-0.20461561 -0.15256493 0.006840757 -0.032911763 -0.2679456 -0.11608412 -0.10169778 -0.14008446
-0.044383496 -0.14684238 -0.25740096 0.0750621 -0.22063148 0.009230002 -0.18131146 -0.07977839
-0.21016715 -0.18405299 -0.18449314 -0.02158732 -0.042064033 -0.084768035 -0.15552768 -0.21286966
-0.052939072 -0.20779018 -0.14649194 -0.015964232 0.0008343172 -0.008804704 -0.2779594 -0.17451365
0.026955893 -0.09437822 -0.28442523 -0.20772938 -0.12478894 -0.020077528 -0.1519854 -0.11211416
0.0009814389 0.046285793 -0.09154678 -0.04174773 -0.036957055 -0.09491859 -0.16649732 -0.043117654
-0.0011330082 -0.07243725 -0.13325919 0.027545935 -0.009276709 0.030815175 -0.056757938 -0.10683022
0.083661884 -0.06827469 0.0037444164 -0.0725945 0.066021465 -0.15097256 -0.22668912 -0.19394055
-0.09357689 -0.062087372 -0.093469985 -0.111345634 -0.08803359 -0.22305593 -0.17679894 -0.031552594
-0.07451937 0.0072727576 -0.24559605 -0.18658042 0.0010146361 -0.09707104 -0.05118623 -0.24868998
-0.16124715 -0.3358101 -0.11475852 -0.029582392 -0.037476897 -0.0032843896 -0.1251656 0.00193379
-0.10359637 -0.08975715 0.04322783 -0.06546731 -0.15498024 0.043054696 -0.1122746 -0.058127068
0.03688668 -0.10679854 -0.18158714 -0.02955863 -0.07530991 -0.045151006 -0.01908291 0.0011180388
0.09563433 -0.090061955 0.051082924 -0.13333437 -0.01655112 -0.083598934 -0.028908888 -0.115233734
-0.05952773 -0.11984155 -0.055225417 -0.22773094 0.024289144 -0.18247016 -0.34277293 -0.14314584

running_mean f4 [128]
00000000: 7983 273d 2624 01bd b38f 663c 2f1c b2bb
00000010: 32e2 f43c c509 013c 8720 b2bc 4244 a7bc
00000020: aeb0 c7bc 72ea 833c 094b 84bb 3ad8 0ebb
00000030: 6334 293b faf5 aebc b96b 13bd 1a9f b6ba
00000040: da13 543c 9892 86bc 002c 823c c358 dbbc
00000050: cb52 913d 409f a53b 1946 a33c a5c4 b33c
00000060: bb69 51bc 14ea cb3b 6ee2 f7bc d4cd 69bb
00000070: 865a 52bc 1e75 803b 1a9e 693c 907a 06bd
00000080: d654 e23b e230 d0bc 312c 263c 82cf 0d3c
00000090: 0c2f 893c 36de dcbc dc6b 79bb f17b 68bc
000000a0: 43f3 1abd 004f 203c ac0f fbbc 5978 763c
000000b0: ec88 87bb 82fa cabd 04ca 083d 646e fe3c
000000c0: 5813 7cbc a7bb a7bc d813 44bc e046 ea3c
000000d0: c957 41bc dd13 553c b355 063e 6e67 863c
000000e0: eab6 f13c 7e91 253c ced3 d8bb 21a3 0abc
000000f0: bd17 9e3c d3e3 0cba 38bc 50bc 1601 333d
00000100: 93c2 213d 48f9 3dbd 8cb1 03bd c996 ac3b
00000110: 195c 613d 23c1 893b 3b4f e6bc 7554 c33b
00000120: ee12 bc3b c6e9 dc3b 02f2 093c aaec d0bb
00000130: add1 ef3c b26c 873a 1a01 f0bb 7a75 723c
00000140: 812c e23b 8a21 8d3c c769 473b aac3 28bc
00000150: f0eb 653c 094a e53c d01c 54bb 7396 dbba
00000160: 27f8 acbc abdf ab3a 8457 21bd f1ff 19bd
00000170: eb52 633c 3564 f73c b85c 14bd cd97 f6bc
00000180: 3f00 b0bb 7d67 65bc a2a4 5a3c eed7 9dbc
00000190: d2ff 853c 3c65 8a3b 927c 333d 9f51 25ba
000001a0: d875 bd3a eb52 b33c e471 cf3c 820f 573d
000001b0: 5b45 323d 98f3 8e3a e757 9d3c a6c9 a939
000001c0: 2600 f13c 9ed7 cb3c 9fd3 3a3d d737 a6bc
000001d0: 24d3 1a3b def0 0e3d 7a20 74bc 46c0 7dbc
000001e0: 9283 11bd c8c8 1fbb 2342 72bc f881 1f3b
000001f0: 122e cabb 7377 e4b9 8e2e 553c 640b 82bc
0.040896866 -0.031528614 0.0140723465 -0.0054354887 0.029893015 0.007875864 -0.021744026 -0.02041829
-0.02437624 0.016103003 -0.004037265 -0.0021796362 0.0025818578 -0.021357525 -0.035991404 -0.0013932914
0.012944186 -0.016427323 0.015890121 -0.026775723 0.0709587 0.0050543845 0.019930886 0.021944353
-0.012781556 0.0062229726 -0.030259337 -0.0035675662 -0.012838965 0.0039202115 0.014258886 -0.03283173
0.006907086 -0.025413934 0.010142372 0.008655431 0.016746067 -0.026961427 -0.0038058674 -0.014189706
-0.03782965 0.00978446 -0.030647121 0.015043342 -0.0041361954 -0.09911062 0.033395782 0.031058498
-0.015385471 -0.020475222 -0.011967622 0.028598249 -0.011800715 0.013005224 0.13118629 0.016406741
0.029506166 0.010105489 -0.006617046 -0.0084617445 0.019298429 -0.00053745246 -0.012740187 0.043702208
0.0394922 -0.04638031 -0.032151744 0.0052669984 0.05501947 0.004203932 -0.028113952 0.005960996
0.0057395613 0.006741735 0.008419516 -0.006375869 0.029274786 0.0010332076 -0.00732435 0.014798516
0.006902278 0.017227907 0.0030428038 -0.010300556 0.014033303 0.027989404 -0.0032365806 -0.0016753211
-0.021114422 0.0013112923 -0.039390102 -0.0375976 0.01387475 0.03019915 -0.036221236 -0.030101681
-0.005371123 -0.014001724 0.013344916 -0.019268002 0.016357336 0.004223494 0.04381997 -0.0006306413
0.0014454676 0.021890124 0.025322862 0.052505024 0.043523174 0.0010906337 0.019206954 0.00032384432
0.029419016 0.024883088 0.045611974 -0.020290298 0.0023624385 0.034897678 -0.014900321 -0.015487736
-0.035525866 -0.002438115 -0.014786276 0.0024338942 -0.006170043 -0.00043576545 0.013011588 -0.015874572

running_var f4 [128]
00000000: 465e 123b a873 1c3b dab0 fe3a c59b 493b
00000010: d18d c83a b52c 1a3a ae20 7a39 031a 473b
00000020: a6f6 023b ceef b03a dac0 c739 ac21 bd39
00000030: 59ad 143b 597b 633b 3082 543a f477 3d3b
00000040: 2382 dd3a e046 923a 47cb 9f3c 6477 ab3a
00000050: 1e58 a03c bdc0 c43a 9713 363a 8cf2 bd3a
00000060: 73ac a63a 09d5 e13b 8053 443b edc6 eb3a
00000070: 61dc 1e3a a24d 573a 2493 803b 9a65 ab3b
00000080: 24ec e03b 350b ba3a 53a0 9f3b 5a90 8e3a
00000090: d929 063b 3187 8c39 94f1 5d3c 524e 373a
000000a0: 77c8 903b 99be 953a 28cc de3b ec1a dc3a
000000b0: 6a4d ae3a 7bde 273b 1da2 803b 4f59 bb3a
000000c0: b3ac 9e3a 3074 e93a af5f 893a 243e 673a
000000d0: d1e2 4739 78b6 273b fb44 8b3c 2e53 9239
000000e0: d4c0 213a a93e 513a 5fc1 293a a3db 133a
000000f0: 63ef bc3a a8ab c13b 9226 923a 47fb 0a3b
00000100: e4e0 e13a a9f8 2e3a 4a0a 223a 40f5 1e3a
00000110: e67e 343b 09c4 923a a3df 1a3b 514e 073b
00000120: 07c9 0e3a a829 523b 1b60 773b 46fa 183c
00000130: bd2b 693b 4aa7 043b 0b2a 9d3b 177f b23b
00000140: abd1 c73b 7b17 e23a 7c24 683b b5d7 423b
00000150: 21e1 453a eafb b33a 8a6a 3a3a 32db e93b
00000160: 295e 993a cedf bf3b 510a bf3a 8dcd 123a
00000170: 4ab7 563a befc 2e3b 6224 a03a eb79 4c3a
00000180: c31a bd3a 41fd 8d3a bef2 933b d1ed d339
00000190: 5531 a33b 21b7 8c3b dc5b a13b ee8a 4e3a
000001a0: 9aa0 0b3a 399e e13b 9c61 ab3b ee44 f13b
000001b0: 6302 c13b 574f 0a3a 4c27 2a39 872a 403b
000001c0: 3ab0 d63b f04c e83a e140 8d3b 71a3 b13b
000001d0: 3aa4 2c39 1003 003b 593f 383a f3f1 613a
000001e0: 2645 fc3a 4429 8a3b d755 183b b66a 5d3b
000001f0: 7407 4b3a 346d a43b 3f74 8f3c ab06 c43a
0.0022334023 0.0023872647 0.0019431368 0.0030763012 0.0015301054 0.00058812957 0.00023854032 0.0030380494
0.001998344 0.0013499202 0.00038099923 0.00036073977 0.002268633 0.0034710972 0.00081065577 0.002891061
0.0016899746 0.0011160038 0.01950611 0.0013081846 0.019573268 0.0015011054 0.0006945668 0.001449184
0.0012716189 0.006891851 0.0029956996 0.0017988362 0.00060600607 0.00082131673 0.0039237905 0.0052306177
0.0068640877 0.0014194014 0.004871407 0.001087676 0.002047172 0.00026803606 0.013546366 0.00069925666
0.0044184285 0.00114246 0.0067992397 0.0016792691 0.0013298218 0.0025614786 0.0039255754 0.0014293584
0.0012105912 0.0017811116 0.0010480786 0.00088212104 0.00019062615 0.0025590938 0.017000666 0.00027909264
0.0006170396 0.00079820544 0.0006475653 0.00056403334 0.0014414605 0.0059103556 0.0011150411 0.0021206902
0.001723316 0.00066746265 0.0006181343 0.0006063767 0.0027541458 0.0011197339 0.0023631833 0.0020646045
0.00054468255 0.0032068286 0.0037746492 0.009337014 0.0035579049 0.0020241314 0.0047962717 0.005447279
0.0060979924 0.0017249429 0.0035422137 0.0029730622 0.00075485004 0.0013731692 0.00071112125 0.007136726
0.0011701036 0.005855537 0.0014575218 0.00056000875 0.00081907643 0.002670094 0.0012217874 0.00078001496
0.0014427531 0.0010832922 0.004515021 0.00040422243 0.004980246 0.0042942916 0.0049242806 0.00078789785
0.00053263607 0.0068853167 0.005230142 0.0073629534 0.005890177 0.0005276105 0.00016227103 0.0029322223
0.0065517696 0.0017723124 0.0043107127 0.005421095 0.00016464377 0.0019533075 0.00070284825 0.0008619122
0.0019246682 0.004216345 0.0023244524 0.0033785529 0.0007744946 0.005017901 0.017511485 0.00149556

cpu f4 [128]
00000000: 0000 0000 0000 0000 0000 0000 0000 0000
00000010: 0000 0000 0000 0000 0000 0000 0000 0000
00000020: 0000 0000 0000 0000 0000 0000 0000 0000
00000030: 0000 0000 0000 0000 0000 0000 0000 0000
00000040: 0000 0000 0000 0000 0000 0000 0000 0000
00000050: 0000 0000 0000 0000 0000 0000 0000 0000
00000060: 0000 0000 0000 0000 0000 0000 0000 0000
00000070: 0000 0000 0000 0000 0000 0000 0000 0000
00000080: 0000 0000 0000 0000 0000 0000 0000 0000
00000090: 0000 0000 0000 0000 0000 0000 0000 0000
000000a0: 0000 0000 0000 0000 0000 0000 0000 0000
000000b0: 0000 0000 0000 0000 0000 0000 0000 0000
000000c0: 0000 0000 0000 0000 0000 0000 0000 0000
000000d0: 0000 0000 0000 0000 0000 0000 0000 0000
000000e0: 0000 0000 0000 0000 0000 0000 0000 0000
000000f0: 0000 0000 0000 0000 0000 0000 0000 0000
00000100: 0000 0000 0000 0000 0000 0000 0000 0000
00000110: 0000 0000 0000 0000 0000 0000 0000 0000
00000120: 0000 0000 0000 0000 0000 0000 0000 0000
00000130: 0000 0000 0000 0000 0000 0000 0000 0000
00000140: 0000 0000 0000 0000 0000 0000 0000 0000
00000150: 0000 0000 0000 0000 0000 0000 0000 0000
00000160: 0000 0000 0000 0000 0000 0000 0000 0000
00000170: 0000 0000 0000 0000 0000 0000 0000 0000
00000180: 0000 0000 0000 0000 0000 0000 0000 0000
00000190: 0000 0000 0000 0000 0000 0000 0000 0000
000001a0: 0000 0000 0000 0000 0000 0000 0000 0000
000001b0: 0000 0000 0000 0000 0000 0000 0000 0000
000001c0: 0000 0000 0000 0000 0000 0000 0000 0000
000001d0: 0000 0000 0000 0000 0000 0000 0000 0000
000001e0: 0000 0000 0000 0000 0000 0000 0000 0000
000001f0: 0000 0000 0000 0000 0000 0000 0000 0000
0.0 0.0 0.0 0.0 0.0 0.0 0.0 0.0
0.0 0.0 0.0 0.0 0.0 0.0 0.0 0.0
0.0 0.0 0.0 0.0 0.0 0.0 0.0 0.0
0.0 0.0 0.0 0.0 0.0 0.0 0.0 0.0
0.0 0.0 0.0 0.0 0.0 0.0 0.0 0.0
0.0 0.0 0.0 0.0 0.0 0.0 0.0 0.0
0.0 0.0 0.0 0.0 0.0 0.0 0.0 0.0
0.0 0.0 0.0 0.0 0.0 0.0 0.0 0.0
0.0 0.0 0.0 0.0 0.0 0.0 0.0 0.0
0.0 0.0 0.0 0.0 0.0 0.0 0.0 0.0
0.0 0.0 0.0 0.0 0.0 0.0 0.0 0.0
0.0 0.0 0.0 0.0 0.0 0.0 0.0 0.0
0.0 0.0 0.0 0.0 0.0 0.0 0.0 0.0
0.0 0.0 0.0 0.0 0.0 0.0 0.0 0.0
0.0 0.0 0.0 0.0 0.0 0.0 0.0 0.0
0.0 0.0 0.0 0.0 0.0 0.0 0.0 0.0
