ldpi/training/output/ResCNN/traced_model.pth (torch, 777470 bytes, 63 tensors)

weight f4 [1, 1, 7]
00000000: 600a 1fbe 6a17 f5bf 6d80 4dbe dd56 c9be
00000010: 9a74 ddbd 5501 083c 5da8 643d
-0.15531301 -1.914777 -0.20068522 -0.39324084 -0.108132556 0.008301099 0.055824626

weight f4 [64, 1, 1]
00000000: 2c6b 04bd d82e 4a3d 3d1b 903c 05a1 553d
00000010: 50ef 91bc 0a04 763c cd27 0b3d 5063 293b
00000020: bed9 0e3d aaa1 89bc 80e3 86bc e542 d9bc
00000030: 2bfb 203d c500 f53c f378 78bc a006 26bd
00000040: dfdc 093d e040 e2bc d57e 443d 1564 0bbd
00000050: d42c ccbc d8db 4c3d fc79 c73c ecb5 93bc
00000060: d965 943a 51f0 21bd 3949 b93a 9d2b 103d
00000070: b9cc d2bc 9fb5 0cbd 398c 903c b1b8 3cbc
00000080: 8d17 d7ba 2b2f 70bd 3703 203c 9b2a 003d
00000090: 679e 583c d38b ab3c 048a 133d 7bc8 06bd
000000a0: 10a6 b23c 01d1 94bc afe1 123d ba59 ae3b
000000b0: 94e6 92bd 43a8 17bd fbd5 d7bc 5d9e d43c
000000c0: bf6d 91bc bc1d 2cbc 4b17 0d3d 70d1 2b3a
000000d0: 46f1 d33c a625 23bd cb49 aab9 85a7 0bbc
000000e0: b9d1 053d 23a8 cfbc fd39 f03c b640 b13b
000000f0: f7df ceba 41e2 d3bc 642c 293d 1eb0 e13c
-0.03232877 0.04936108 0.017591113 0.052155513 -0.017814308 0.015015611 0.033973504 0.0025846548
0.034875624 -0.01680072 -0.016465902 -0.026521156 0.039302032 0.029907594 -0.015165555 -0.04053366
0.033657905 -0.027618825 0.04797252 -0.034030993 -0.02492372 0.050014347 0.024350159 -0.018031083
0.0011321857 -0.039535824 0.0014136202 0.035197843 -0.025732385 -0.034352895 0.017644988 -0.011518643
-0.0016410217 -0.058638733 0.0097663915 0.03129063 0.01322136 0.020940697 0.036020294 -0.032906037
0.0218077 -0.018166067 0.03585976 0.005320755 -0.071728855 -0.0370257 -0.026347151 0.02595442
-0.017752526 -0.010505136 0.034446042 0.0006554341 0.025871884 -0.039830826 -0.00032479907 -0.0085238265
0.03267071 -0.025348729 0.029324526 0.0054093255 -0.00157833 -0.025864722 0.0413021 0.0275498

weight f4 [64]
00000000: e2b1 f73c 9cfd 1c3f 1e76 d33d d1fa 273f
00000010: 24d7 473e b5ac 9c3e 959b 033f 68d2 b53e
00000020: 1932 f63c e85d 1c3e c602 313e 4051 973e
00000030: 9a48 ab3e 38e4 853e 0c83 dc3d ed09 d43e
00000040: ab66 743e 8fd5 7e3e 6455 e43e a798 d83d
00000050: 7be8 f13d 2ce6 243f 6ba8 943d 66a1 393e
00000060: 7f3b 863e ab38 dd3c fa53 d63e 2aa9 d83d
00000070: d927 cb3e 2db0 5a3d 54af f13d 8ef6 393e
00000080: 03e9 813e 1403 f13e 0baf 173d 4347 2e3e
00000090: a6d0 cb3d 6f5d 1a3e 3d58 163e f753 283d
000000a0: 3f7d 323e 616c 3f3e c486 b73e 9441 3e3d
000000b0: e1d1 b63e c664 f73e d21f 773e 7042 343e
000000c0: c82c ee3d 32cd ba3d b422 833d 0971 013e
000000d0: a25c 063e e562 f83c fa7f a33e 5bc3 a93d
000000e0: a331 ef3d b51e d83e 998d 8d3e 8c84 d13c
000000f0: 0a74 c33e 6bc5 793e 647e fc3e 1f97 cc3e
0.030236188 0.6132448 0.103252634 0.6561709 0.19515663 0.30600515 0.51409274 0.3551209
0.030053185 0.15270197 0.17286214 0.29554176 0.33453828 0.2615068 0.10767183 0.41413823
0.2386729 0.24886154 0.44596398 0.10575991 0.1181192 0.64413714 0.07258686 0.18127975
0.26217267 0.02700456 0.41860944 0.105791405 0.3967884 0.05339067 0.11801019 0.1816046
0.25373086 0.4707266 0.03703217 0.17019372 0.09951906 0.15074705 0.14682098 0.0410957
0.1743059 0.18693687 0.35845006 0.04644926 0.35707 0.48319072 0.24133232 0.17603469
0.11629635 0.09121169 0.064031035 0.12640776 0.13121274 0.030320594 0.31933576 0.08289214
0.11679389 0.42210928 0.27647093 0.025575899 0.38174468 0.24391715 0.49315178 0.39959046

bias f4 [64]
00000000: 089e 24be 4dc9 bc3d 59c2 b1bd 11bc f43d
00000010: d004 15bd 0929 e6be 37eb 723e eb6b 97be
00000020: e0ed 653e 0e55 2ebd c9af 273d 06a0 c1bd
00000030: aa23 0bbe 4e60 da3d ce4a ff3c cd5c 133f
00000040: 5ba6 853d 989d 81bd d3c9 263e 1ec3 f5bc
00000050: 773d 40be bb71 983d 8333 b93d 8050 8fbd
00000060: 5287 f0bd 88f7 3f3d 63ff 6dbe 72fb ce3c
00000070: eead 3f3e 0216 1d3d 6d6f e73c 2a7e e43d
00000080: 90c8 b5be 709a 41bd 617f 853e aafd 473d
00000090: c1ca e23d cdf0 1f3d 2357 623d c6dc 57bd
000000a0: 745b 0f3d ce16 9f3e 56d4 f23d 57b9 a5bd
000000b0: 96ba b83e 58ca 123f 5e95 813d 499d cabc
000000c0: fd8e bbbe a86a 5b3d 0142 9abc 222c 19bd
000000d0: c76f d3bd 911b 693d fd31 8bbe a21b bcbc
000000e0: c285 00bd 23df 8cbe 2fd2 64bd 9ebe 133d
000000f0: 4fba 05bf 31ce c6bd 5872 1b3e bda1 1cbf
-0.16075909 0.092180826 -0.08679647 0.11949933 -0.036381543 -0.44953182 0.2372254 -0.29574522
0.22454023 -0.042561583 0.040939126 -0.0945435 -0.13587824 0.106629 0.0311636 0.5756348
0.065258704 -0.06328887 0.16287927 -0.030000266 -0.18773447 0.07443567 0.09043028 -0.06997776
-0.1174456 0.046866924 -0.23241954 0.025266383 0.18718693 0.038351066 0.028251374 0.111568764
-0.3550458 -0.047266424 0.26073745 0.048825897 0.110738285 0.039048005 0.05525888 -0.05270078
0.034999326 0.31072086 0.11856906 -0.080919914 0.36079854 0.5734 0.06327318 -0.024733203
-0.3663253 0.053568512 -0.018830301 -0.037395604 -0.10324054 0.056911055 -0.27186576 -0.022962395
-0.03137756 -0.2751399 -0.05586451 0.03607046 -0.5223741 -0.09707297 0.15180337 -0.61184293

running_mean f4 [64]
00000000: 5a70 c23c 6e70 14bd cc99 53bc b7d7 1cbd
00000010: 1a49 563c d79e 34bc bc54 ccbc 2ab9 f8ba
00000020: b9c1 d1bc e017 4a3c d710 463c 6a82 9f3c
00000030: 0761 ecbc 7ee0 b3bc 926c 363c 5cc9 f33c
00000040: d06e cabc 7c1c a63c 7543 10bd 41ad cc3c
00000050: dae6 953c 5867 16bd c073 92bc a3e4 583c
00000060: f5e6 59ba ffc8 ed3c a308 88ba d7b1 d3bc
00000070: f3c3 9a3c e19c ce3c b33f 54bc 548e 0a3c
00000080: b1ea 9d3a cc56 303d f2f4 eabb f031 bcbc
00000090: a509 1fbc 73e4 7bbc 29a4 d8bc 2be9 c53c
000000a0: 2629 83bc 4e84 5a3c feac d7bc 4c01 80bb
000000b0: 2db4 573d 2eb0 de3c 8176 9e3c d119 9cbc
000000c0: db8a 553c b5ba fc3b 4d2c cfbc ad4a fcb9
000000d0: bb9a 9bbc 368f ef3c 970b 7a39 4710 cd3b
000000e0: d57e c4bc 3c75 983c be5e b0bc c922 82bb
000000f0: 46e2 973a b58f 9b3c 8468 f8bc 36b2 a5bc
0.023735214 -0.036240034 -0.012915086 -0.03829166 0.013078952 -0.0110241985 -0.024942748 -0.0018976082
-0.02560507 0.012334794 0.012088976 0.019471366 -0.02885486 -0.021957632 0.011134284 0.029759102
-0.024711043 0.020277254 -0.035220582 0.024984958 0.018298555 -0.03671965 -0.01787746 0.013238105
-0.00083123083 0.029026506 -0.001037855 -0.025841637 0.018892264 0.02522129 -0.01295464 0.008456785
0.0012048093 0.043051526 -0.007170313 -0.02297303 -0.009706889 -0.015374291 -0.026445465 0.024159035
-0.016010832 0.013337208 -0.026327606 -0.0039064046 0.052662063 0.027183618 0.019343616 -0.019055279
0.013033594 0.007712687 -0.025289679 -0.00048120823 -0.01899468 0.029243093 0.00023846175 0.006258044
-0.02398626 0.01861059 -0.021529552 -0.003971432 0.001158782 0.018989423 -0.030323274 -0.02022658

running_var f4 [64]
00000000: 0f9f f139 13d2 8c3a 0814 0f39 5c37 9d3a
00000010: 64bb 1239 9f7f d038 796a 053a 28af 4536
00000020: 6898 0c3a 7a82 0239 2db8 fa38 a39b a239
00000030: 7f8c 323a 10c9 ce39 f2ae d438 2aea 3d3a
00000040: dbf2 023a c258 b039 6102 853a 28de 053a
00000050: fd9b 8f39 9892 903a 6213 8939 2553 1639
00000060: 0eba 1735 e9ad 343a 8a88 6c35 8c34 0f3a
00000070: 5a14 9939 8e69 083a baf4 0f39 c862 7538
00000080: 8060 9f35 31bb c63a 2068 3038 475a e239
00000090: c7a5 a138 ffc0 4a39 d4f9 153a c453 fa39
000000a0: ffe3 5b39 7b95 1839 5ea4 143a df6f 5137
000000b0: 45ae 143b 0e77 1e3a 327b a039 8cbb 9b39
000000c0: 4cb7 1139 7a1a 4c38 3027 093a ae65 4b34
000000d0: 65be 9a39 bf62 373a 8eca 4733 d25f 0638
000000e0: 76c2 f639 7f8c 9439 1acd c639 bd77 5837
000000f0: a96e 9335 77a8 9a39 0c2f 453a 6377 af39
0.0004608561 0.0010743759 0.00013645005 0.0011994648 0.00013993453 9.941984e-05 0.0005089413 2.9457242e-06
0.00053632865 0.00012446372 0.000119552344 0.00031015006 0.00068110967 0.00039441185 0.00010141534 0.0007244671
0.0004995295 0.00033635466 0.0010147804 0.0005106651 0.00027391306 0.0011030016 0.00026145118 0.00014336088
5.652263e-07 0.000689237 8.811554e-07 0.0005462847 0.00029197597 0.0005203717 0.0001372871 5.850455e-05
1.1874508e-06 0.0015161989 4.2058644e-05 0.0004317334 7.707957e-05 0.00019336118 0.0005721126 0.00047746126
0.00020970403 0.00014551535 0.00056702446 1.2483418e-05 0.002268688 0.0006044962 0.00030609366 0.00029703637
0.00013896561 4.866205e-05 0.00052319746 1.8942839e-07 0.00029515024 0.00069956103 4.651752e-08 3.203733e-05
0.0004706566 0.00028333438 0.00037918316 1.2902482e-05 1.098456e-06 0.00029498685 0.0007521964 0.0003346755

weight f4 [64, 1, 5]
00000000: 8e17 bebc 8e8d d3bc 27d4 4dbc 48d9 5eba
00000010: 7b8a d0bc 85c9 cc3e 83a5 ccbe 9144 6dbd
00000020: 27f1 8abe fffd ddbb 7fa0 52bb 0a16 a5bc
00000030: b919 9ebc a8fa a8bc 6e1d 20bd da13 cd3e
00000040: b2d1 f5be 9d43 83bd d136 47be 85c8 6cbe
00000050: 38d4 003e 7344 c23d 43ba 943d 24e0 80bc
00000060: 06b6 a6bb ef50 993d 7772 453d 9481 a73c
00000070: c115 e63d 0d97 f73d 74f0 c23e 6a72 fb3e
00000080: 5b1b 58be 4b2d 093e 1e66 5e3e 04d9 603d
00000090: ea69 7cbc 7414 9bbc b800 2c3d 6a2a a43d
000000a0: 6ffc 2b3d 4df4 8c3d 7230 b93c 15d7 09bc
000000b0: 6c74 723c 36fe 3bbd fca1 7fbd 4a5e 95bd
000000c0: 684c 76bd 659d 0ebd 7cea 683d a7d5 d03d
000000d0: 202a 863c dbdc 713d 7204 9b3d 68f5 0fbe
000000e0: 56a0 43bd 6f36 2cbd 9a5f 17bd 8822 dcbd
000000f0: fb7d b83d 15c9 b33d 0325 9b3d b489 733d
00000100: 6295 c43d 301b b8bd 7920 31be 6a45 cfbd
00000110: ae53 80bd 1ff1 97bd 8d1d 8b3c 5202 edbc
00000120: b470 c7bd 6d93 8a3c 0e60 f0bc 84e4 a9be
00000130: 3560 9a3d b29b 403f d21d 65be 5406 0cbf
00000140: bc39 f7bd daa5 a8bd 5f66 d0bd d5c4 a0bd
00000150: 83dc 72bd 6507 b8bd db41 f5bc 45e1 a93d
00000160: 9e2c e8bd fe43 2cbe 8e39 80bd 05ba 71be
00000170: 3e97 38be 6705 d4bc ee9e 983c f12b 673d
00000180: 74b0 103c 975b 23bc 8d56 7b3c 79e6 b03d
00000190: 1026 c83d 550e a33d 283f 493d 167b a83c
000001a0: 2fc0 c8bb e9ae 35bf beae 90be 5148 9f3d
000001b0: 47bd f5bd 3426 05be 06c1 c63c 6681 a83c
000001c0: fa90 e1bc 8309 56bc eecd 12bd c203 25bd
000001d0: 830a 2bbd c598 313d 7f6d 78bd faba c6bd
000001e0: 8eb0 a8bc 7f26 4abd 9711 f3bd 7451 b2bd
000001f0: a255 d6bd 9983 39b9 6c9f ca3b a5f6 1f3b
00000200: dca3 073c 7156 163c 7e51 b13c 969b 7d3d
00000210: 912a b13d 0c1e 223c 16a4 5bbc 6673 2dbd
00000220: 5f73 2fbc 8c62 7fbd a978 febb 41c3 4abd
00000230: 84eb 0c3d c934 e8bd 76fc 4cbe 0fdd 26be
00000240: a1bd 00bd ae6f ff3c fb9f 193d 4eb5 adbc
00000250: 806d 86bc 2be7 8f3b b39b 1b3d d775 b63d
00000260: 191d cf3c 0c78 5e3c f05c 173d eb9d 853c
00000270: 9d1a 32be 9432 cabb fd55 9abc bb25 2d3e
00000280: 0ae6 23bd 7377 39bd 182c 97bd ae4f 13bd
00000290: 6ed6 43bd e562 8d3e 2e0f eb3e d10f 53bf
000002a0: f827 1a3e f150 9dbe 5795 f6bd 835f 1bbd
000002b0: 4c8f 683c ebf4 253d 15c7 39bc a2a0 18be
000002c0: a59b 4dbd 2ff2 383d 47a0 893d 8350 ba3d
000002d0: fee6 863c 82b2 793d b348 1cbd 79c5 afbd
000002e0: 98ee ecbb 4918 20bd 1d48 bcbd 1165 78bd
000002f0: 1c41 70bd c661 8fbc cc02 15bd 8c89 c4bc
00000300: f1c3 16bd c799 02bd b430 3ebd dc15 97bb
00000310: 7740 083d b4b3 91bb 40d6 0d3b 2ed2 8b3c
00000320: 53a6 12be cede abbd da97 f3bc 7676 803c
00000330: 94ef 45bd 02cc f93c 1b2b f9bd 13e9 9abc
00000340: 9d70 1cbd 67df adbb e29c 1cbe 3eaf fbbd
00000350: 5596 41be a19c c8bd ac61 d5bd 36c5 e0bc
00000360: 62d9 d6bb 21f3 b5bc 9eeb 05bc be9f 8cbc
00000370: 4e14 8ebe 3de9 5ebe 9b1f cfbe 1968 543d
00000380: 9f3e 0f3f 4e56 5d3e 625c 3ebe d1c5 593f
00000390: 0eb0 b4be 4715 963e fd00 ea3d b67a 233e
000003a0: 4dfb af3c 10d9 3b3d a174 6f3d e0f3 d63c
000003b0: 189a c53b 085b 953d ba8c b93d 3f76 b43d
000003c0: 93a3 453d 147a ef3c 7e1c f83b 471a d7bb
000003d0: 3ba4 e7bc d999 383d 6676 fe3b 5ed8 aa3b
000003e0: c203 6c3d e802 d43c bbcc 9a3c 4899 99bc
000003f0: 2967 be3c 9083 863c d1e3 f439 d693 1f3d
-0.023204591 -0.025824334 -0.012562788 -0.00085010054 -0.025456658 0.39997497 -0.39970025 -0.05792672
-0.2713711 -0.0067746635 -0.003213912 -0.02015211 -0.019299375 -0.020627335 -0.039090566 0.40054208
-0.48011547 -0.064093806 -0.19454505 -0.23123367 0.12580955 0.09485712 0.07262089 -0.015731879
-0.005087617 0.0748614 0.048204865 0.02044753 0.11234618 0.120893575 0.38074076 0.49110729
-0.21104185 0.13396184 0.21718642 0.054894462 -0.015406111 -0.018930651 0.041992873 0.08015902
0.041988786 0.06882534 0.022606108 -0.008413096 0.014798265 -0.04589673 -0.06241034 -0.07293375
-0.06013146 -0.034818072 0.056864247 0.10197001 0.016377509 0.059048515 0.07569207 -0.14058459
-0.04776033 -0.0420441 -0.036956407 -0.10748774 0.09008404 0.08778588 0.07575419 0.059457496
0.09598805 -0.089895606 -0.17297544 -0.101206616 -0.06265961 -0.07419037 0.016981864 -0.02893177
-0.09738293 0.016916001 -0.029342677 -0.33182156 0.07537881 0.7523757 -0.22374657 -0.54697156
-0.12071559 -0.08234759 -0.10175776 -0.07850043 -0.059292328 -0.089857854 -0.029938629 0.0829492
-0.11336635 -0.16822812 -0.06260978 -0.23606117 -0.18026444 -0.025881482 0.018630471 0.05643839
0.008831132 -0.009970567 0.0153404595 0.08637709 0.09772885 0.07961718 0.049132496 0.020566504
-0.0061264257 -0.70970017 -0.28258318 0.07777465 -0.119989924 -0.13002855 0.024261963 0.020569514
-0.02753495 -0.013063791 -0.03584092 -0.040286787 -0.04175807 0.043358583 -0.0606513 -0.09703632
-0.020592 -0.04935312 -0.11868589 -0.08706942 -0.10465552 -0.00017691999 0.0061835553 0.0024408486
0.008278813 0.009175883 0.021645304 0.061915956 0.08650697 0.009894859 -0.01340582 -0.04234638
-0.010708659 -0.06234984 -0.0077658487 -0.049502615 0.034404293 -0.11338193 -0.20018181 -0.16295265
-0.031430844 0.031181183 0.037506085 -0.021204617 -0.016409636 0.004391571 0.037990283 0.08909195
0.02528243 0.013578426 0.036953866 0.016310653 -0.17392965 -0.00617058 -0.01883983 0.16908924
-0.040014304 -0.04527993 -0.07381457 -0.03596466 -0.047811918 0.27614513 0.4591002 -0.8244601
0.1505431 -0.30725816 -0.12040203 -0.037932884 0.014194321 0.040516775 -0.011338969 -0.14905027
-0.050197262 0.04515284 0.067200236 0.09097388 0.016467568 0.060961254 -0.03815527 -0.08582587
-0.007230591 -0.03908566 -0.09193442 -0.06064326 -0.058655843 -0.017502677 -0.03637962 -0.023991369
-0.036807958 -0.031884935 -0.046433166 -0.00461076 0.033264603 -0.004446471 0.0021642596 0.017067995
-0.1432126 -0.08392106 -0.029735494 0.015681487 -0.048324183 0.030492786 -0.12166425 -0.018909967
-0.038193334 -0.0053061727 -0.15294221 -0.12289284 -0.18905003 -0.097954996 -0.1041902 -0.027437788
-0.006556676 -0.02221066 -0.008173851 -0.017166015 -0.27749866 -0.21768661 -0.404538 0.051857088
0.5595493 0.21614954 -0.18589929 0.8506747 -0.3529057 0.29313108 0.1142597 0.1596478
0.021482134 0.045861304 0.058460835 0.026239336 0.0060303323 0.072927535 0.090600446 0.08811616
0.0482517 0.029233016 0.007571756 -0.006564412 -0.028276553 0.045068596 0.007765579 0.0052137813
0.05762077 0.025880292 0.018896451 -0.018749848 0.02324255 0.016420156 0.00046709043 0.038959347

weight f4 [64, 64, 1]
00000000: b80c 5fba fe38 f73a f86b 84bb c003 8b3b
00000010: 4677 123b 62e4 ea3b 5912 78bb e600 b5bb
00000020: ad41 993b 4979 6139 7293 ad3b 1b26 80b9
00000030: 8754 383b f86a cfba 4d12 203b 882f 57ba
00000040: 5750 a4bb 37ff 9eba c0ca 133b 90a6 fd3b
00000050: b5f7 9abb 73b9 3c3b b410 3ebb c4ff dabb
00000060: c602 9b3b 58df 39b8 0179 7a3a 02a4 17bb
00000070: 1cce 4c3b 060e ebba d49a 773b f54f e93b
00000080: 0456 5c3a a6f6 d43b f6be 863b 870c 673b
00000090: d7a0 803a 352f 08bb 9b29 68bb e679 b83b
000000a0: 7e07 3fba 3d22 f3bb 043a f03a 1ee9 c4bb
000000b0: f17d 0f3b 1a05 aaba 086b 93bb 4589 b83b
000000c0: d4b8 013c 8b57 c83b 0384 8cba 74ff 0c3a
000000d0: 84e6 4e3a 6b8d a5ba 8d9d c9bb 18b6 6bbb
000000e0: 129c a0ba 766c 81bb 407f 95ba 48fb 373b
000000f0: b051 2abb 41dc f33a f26a 79bb b50d 703b
00000100: 0e4e bb3c 7780 22bd 6697 5bbb 1551 92bd
00000110: 1905 30bd cb42 a73c 5789 50bc 5c5b 33be
00000120: c59f 41bd b7d9 b63c 1c1f a53c e0e8 ee3d
00000130: 1e3a b4bd 9133 823c 73f4 b3bc e0c1 143d
00000140: a426 26bd a625 89bc e725 f03d 71a5 7f39
00000150: 9501 713d 72d9 5cbc 13f1 8abd d735 06bd
00000160: eab0 d8bc bba2 2bbc d69c 8cbb 3cae 083d
00000170: c963 a83c d657 963c 3c8e 96ba efb3 5d3c
00000180: 6025 fa3d 41a5 d03c 5d23 773d cec6 693d
00000190: 1744 52bd 4c44 b33c a241 1d3d 2d65 1f3c
000001a0: 0d27 a33c 32b3 8dbd cb08 503d 489f e1bb
000001b0: abb4 ddbd 0859 cdbc f097 f538 7d30 de3b
000001c0: 2beb b83d b7b2 09bd 28e5 34bd 0be0 20bd
000001d0: e1fa 973c 73fe aebb 4925 803d f9b1 ad3c
000001e0: bb7d 953d 26d6 9ebd fac0 293e 5ed5 1fbc
000001f0: 232f 54be 6933 28bd b691 d03d 39bf 2fb9
00000200: 2805 5f3a 50c1 153c 8112 b7b9 aca9 3e3c
00000210: 34f9 85bb f962 06bd 3210 363b 6bfe 90bb
00000220: 402e 43bc 4f6a 25bb 0a94 35ba b8cd b9b7
00000230: 3eb7 0fbc 91d1 efbb dfc5 963a 126a a13b
00000240: 99d6 493c e915 453b 738b 3bbb 1725 e03a
00000250: 1f86 693b 1159 f93b 48e9 f9bb c50a 1abb
00000260: 7220 84bb 6074 a63b 220d f03b 4900 a63a
00000270: ecbc 5ebb 41e5 5f3b 28a9 40bb 3389 9b3b
00000280: 6e6c a53b 61d6 0dbd adf7 493a 1ec2 97bb
00000290: e498 de3b 96dd 59bb 35f2 763c 57db 38bb
000002a0: 75b5 5dba 7fed 4f3b 4a7e 743b fad1 94bb
000002b0: 8b63 ce3c b938 cc3b dbd1 0cbc f326 0e3c
000002c0: 2ee1 103b 3dfc 143b 8543 b5bb b737 99bb
000002d0: 48e1 b73c 70f4 bebb 8add 433c 0538 643b
000002e0: ed98 2ebb ca38 2fbc 8223 a7bb 1eb2 7b3b
000002f0: 5bba 01bc 997a 4a3c dd04 0cbb aa30 2dbc
00000300: 1554 afbb 490b 3fbd 4276 8d3b b8cd 54bd
00000310: d552 79ba 3d6d 643c 6bc9 32ba 6bc1 023d
00000320: eaec e7b9 ea37 06ba 75d0 85bc 6f3b b6bc
00000330: aea0 103d b0f5 e3bc f232 173c fc07 893d
00000340: 586d 90bc 2cb1 dfbc 1e33 37bd d252 033c
00000350: 74ea babc 0edb 32bc 9faa 993b 247c 80bc
00000360: e9c5 043c 3f82 b8ba ef51 a7bc 561b c2bb
00000370: 69f1 863d 9aa9 1dbb e1a1 203b 922b 84bc
00000380: 7803 01bd 6d81 da3d 347a 06bb 1c4e 273b
00000390: 4857 313c 8188 55bc 4b61 41bb f1af 4c3b
000003a0: ae32 a1bb dc2c dc3c 9a6d d0bc 0e8c 9dbb
000003b0: b45d 0a3c dba8 d6bd 050c 96bc 9029 7d3b
000003c0: b970 bcbc f276 973b 27ae 9fbb 3313 da3b
000003d0: b210 4f3c dc17 e53b 2cbf 5fbd 9e05 aeba
000003e0: 48b4 46bc 3d7f a43c f0a4 71bb 5faa 0cbb
000003f0: 9540 d83c 1b3c d8ba bf10 c43b d00a d83b
-0.000850867 0.001886159 -0.004041191 0.0042423904 0.0022348925 0.0071683386 -0.0037852733 -0.0055237887
0.0046770186 0.00021502854 0.005297118 -0.00024442453 0.0028126554 -0.0015824726 0.002442497 -0.0008208682
-0.00501446 -0.0012130503 0.0022551268 0.007740803 -0.004729236 0.002879706 -0.0029001655 -0.0066833217
0.004730555 -4.4315442e-05 0.0009554774 -0.0023138528 0.003125078 -0.0017933256 0.0037781494 0.0071201273
0.00084051513 0.0064991293 0.00411212 0.003525527 0.0009813559 -0.002078009 -0.003542519 0.005629766
-0.0007287188 -0.007419853 0.0018327837 -0.006009235 0.0021895135 -0.0012971491 -0.004498843 0.005631598
0.007917602 0.0061139516 -0.0010720495 0.00053786417 0.0007892626 -0.0012630647 -0.0061528147 -0.003596669
-0.0012253544 -0.003949697 -0.0011405721 0.002807336 -0.002598863 0.001860507 -0.003805813 0.0036629264
0.022864368 -0.039673295 -0.0033506989 -0.071443714 -0.04297361 0.020417592 -0.012728057 -0.1751532
-0.04727151 0.022320611 0.020156436 0.11665511 -0.088001475 0.01589373 -0.021967148 0.036317706
-0.040564194 -0.016741585 0.11725979 0.00024380327 0.0588394 -0.013479577 -0.067842625 -0.03276619
-0.026451547 -0.01047581 -0.0042911572 0.033369288 0.020555394 0.01835243 -0.0011486481 0.013531669
0.1221416 0.025469424 0.06033646 0.05707436 -0.051334467 0.021883152 0.03839267 0.009728712
0.019916082 -0.069189444 0.050789636 -0.006885443 -0.10825475 -0.025066867 0.00011710811 0.0067806826
0.0902923 -0.0336177 -0.044163853 -0.039276164 0.018552246 -0.0053403913 0.062571116 0.021203028
0.07299372 -0.07755689 0.16577521 -0.009755461 -0.20721106 -0.041064654 0.10184042 -0.00016760537
0.0008507543 0.009140328 -0.00034918266 0.011637133 -0.004088545 -0.03280923 0.002778065 -0.0044248602
-0.011912882 -0.0025240367 -0.00069266616 -2.2149514e-05 -0.008771716 -0.0073186834 0.0011503062 0.0049259746
0.0123192305 0.0030072874 -0.0028617054 0.0017100897 0.003563292 0.0076094945 -0.0076266862 -0.0023504954
-0.004032188 0.005079791 0.0073257843 0.001266488 -0.0033987118 0.0034163746 -0.00293977 0.00474658
0.005048326 -0.034628276 0.0007704448 -0.004631295 0.0067931283 -0.0033243648 0.015072395 -0.0028206909
-0.000845752 0.0031727252 0.003730672 -0.0045416327 0.02519395 0.006232348 -0.008594955 0.008676278
0.0022106874 0.0022733354 -0.0055317306 -0.004675831 0.02244629 -0.005827479 0.0119546745 0.003482343
-0.0026641444 -0.010694692 -0.0051006684 0.0038405727 -0.007917966 0.012358331 -0.0021365203 -0.010570684
-0.0053505995 -0.04664162 0.004317076 -0.051954 -0.0009510939 0.01394206 -0.0006820175 0.03192274
-0.00044236268 -0.0005120026 -0.016334752 -0.022245137 0.035309486 -0.027827114 0.009228455 0.06690976
-0.017630264 -0.027306162 -0.044726484 0.008015351 -0.022816874 -0.0109164845 0.004689529 -0.015684195
0.008103826 -0.0014076902 -0.020424811 -0.005923669 0.06589014 -0.002405739 0.002451055 -0.016134057
-0.03149745 0.10669217 -0.0020519616 0.0025528735 0.010824032 -0.013033033 -0.0029507454 0.00312328
-0.0049193716 0.02687686 -0.025442887 -0.0048079556 0.008445192 -0.104814254 -0.018316278 0.003862951
-0.02300297 0.0046223337 -0.0048730555 0.0066551208 0.012638258 0.0069913696 -0.054625675 -0.001327682
-0.012127943 0.020080203 -0.0036871992 -0.0021463854 0.026397983 -0.0016497405 0.0059834416 0.006593086

weight f4 [64]
00000000: 7592 0b3d 8160 a83e b9e7 833d b111 253e
00000010: 66f6 463e 1452 003f fef8 253f ab2a 163d
00000020: f9d9 4f3d f920 e63d 9693 343e e59f 0e3f
00000030: 5d34 6f3f 9c13 203d b17e 493e 5577 113f
00000040: 7ab3 213d f93e 2d3d dbdc c03e 05a3 323d
00000050: 5b61 2c3f 19e8 a73d 9ba8 1b3d c762 343f
00000060: 1a50 243f 6b3e 913e 2eb5 9c3e 1f81 eb3d
00000070: cc50 1b3d 18ac 2f3e eceb 9c3e b074 253d
00000080: 68a1 223d b137 823f ca20 6e3e 81cf a03d
00000090: 2b2b 213d f9d9 2e3e 80f7 343e 4a45 4d3e
000000a0: 3ba5 d23d b38e 893e 6ee3 253d 57aa a43d
000000b0: 43c9 1c3f 4c49 c53d f05a 713d 01ff c33d
000000c0: 38d8 ed3d 48a2 2e3e 6485 ba3e 28e6 b63d
000000d0: b61e 0b3e 84d8 f23d 5f24 0b3e 2b88 233e
000000e0: 8db0 bc3d 3646 2e3d 9f12 9c3d 759d 5b3e
000000f0: d1ab 2d3d bf31 ad3d 7382 bf3d 571a 7f3d
0.03407522 0.32886127 0.06440682 0.1612003 0.19429931 0.5012524 0.64833057 0.036661785
0.050744984 0.11236758 0.17634425 0.5571273 0.93439275 0.0390812 0.19677235 0.5682271
0.039477803 0.042296384 0.376685 0.0436125 0.6733605 0.08198566 0.03800259 0.7046322
0.64184725 0.28367934 0.3060698 0.11499237 0.03791885 0.17155492 0.30648744 0.040394485
0.03970471 1.0173246 0.23254696 0.07852078 0.03934781 0.17075337 0.17672539 0.20045963
0.102854215 0.26866683 0.040500097 0.08040302 0.612446 0.09633121 0.058924615 0.095701225
0.11613506 0.17054093 0.36429894 0.089306176 0.13585934 0.11857703 0.13588093 0.15969913
0.09213362 0.042547427 0.07620739 0.21446784 0.042400185 0.08456754 0.09351053 0.06228098

bias f4 [64]
00000000: 6b0c cbbc de3f 68be ed30 71bc 0bec e8bd
00000010: f79d 7fbe 89c2 73be 9719 75bc 1dd2 aeba
00000020: a44f c03b afe2 98bd d7cd eebd 8890 37be
00000030: 7991 20bf 733b f1bc c18d 233d 3386 2fbe
00000040: 0c72 c1bb 64d0 2fbd 9999 933d 9774 3cba
00000050: a6fb d33b 9c77 863c fc50 e4bc c100 393e
00000060: 752a 42be a418 eebe 3d6e 26be f53f 59be
00000070: d005 a2bb 2093 57be 5a72 fcbd 6c80 b63b
00000080: f4a4 bbba 4b05 8dbd 1607 533d c25f 8f3b
00000090: f30b 8ab9 db5f 1d3d 9c87 cabc 0054 3ebc
000000a0: 7196 50bc 2593 8cbe 3ef6 eeba 4a93 9d3a
000000b0: b087 01be 42c5 923b b55a 32bd daca 5dbd
000000c0: 4dd5 aabd 5ddc dfbd 6e43 1dbf 4a94 3cbc
000000d0: 7da1 e5bd 801e 30be 0af6 79bd 042f 89bc
000000e0: e7cf 233d 4f50 07bd e9c8 adbb b0bc 8c3d
000000f0: 9f72 a83b 60c9 9bbd 771e 2d3c 9f8b de3b
-0.024786195 -0.22680613 -0.0147211375 -0.113731466 -0.24962603 -0.23804678 -0.014959714 -0.0013337765
0.005868869 -0.074651115 -0.116603546 -0.17926228 -0.62721974 -0.029447293 0.03993011 -0.17141037
-0.005903488 -0.042923346 0.07207031 -0.0007189004 0.006469208 0.016414456 -0.027870648 0.18066694
-0.18961509 -0.46503174 -0.1625299 -0.21215804 -0.0049445406 -0.21052217 -0.12326498 0.0055695083
-0.0014316128 -0.06885775 0.05152043 0.004375429 -0.00026330314 0.038421493 -0.024722867 -0.011616707
-0.0127311805 -0.27456012 -0.0018231345 0.0012022045 -0.12649417 0.0044790814 -0.043543536 -0.054148532
-0.08341465 -0.10930703 -0.61431015 -0.011509964 -0.11212442 -0.17199135 -0.061025657 -0.016746052
0.039993193 -0.033035573 -0.0053034914 0.06871927 0.005140617 -0.076067686 0.010566345 0.0067915465

running_mean f4 [64]
00000000: f196 73bb 0f24 cebc 01be 99bb 236e 2cbd
00000010: d509 a5bc 0507 47be e309 453d 1243 aa3a
00000020: ddee 5abc 6b29 87bc f225 9dbd 51bf e1bd
00000030: 9e7d 803d 9afc c0bb 7827 363d c7d1 00be
00000040: 05bb 163c e478 81ba ee59 e73d a3c1 f13a
00000050: 793e cf3d 624d 8c3a 80a5 52bc cc5f abbe
00000060: ada9 e03d ddb4 7dbe 8814 bcbd 16f0 80bd
00000070: 7df8 fdbb 72f1 b8bb 373f 06be 6bc8 a9ba
00000080: ad96 253c d5b7 d5be 8682 4cbc 8fe1 863c
00000090: 072b 053b db40 18bc 867c 5abd d595 003d
000000a0: 4282 1dbd 8081 66bd 66fb 7eba 0af6 0bbd
000000b0: 67da eebe e3d3 87bc 278c c2bb 4e9b 483c
000000c0: 9160 09bd 5d63 f0bd 5e6a 54be b695 b03c
000000d0: 3b38 a93b 5f69 ee3c f410 423c bfd4 813b
000000e0: 94ef c0bc 72bd 073c 4ffe 75bc 92d2 863d
000000f0: ce33 863a ee5c e73c 6c40 17bc c72a 053c
-0.0037168826 -0.025163678 -0.0046918397 -0.042097222 -0.02014629 -0.19436271 0.04810513 0.0012989959
-0.0133626135 -0.016499242 -0.07673253 -0.11022819 0.062739596 -0.0058894875 0.044471234 -0.12580024
0.009199862 -0.0009877947 0.112964496 0.0018444549 0.101193376 0.0010704214 -0.012856841 -0.33471525
0.10969863 -0.24776025 -0.091836035 -0.06295793 -0.0077505694 -0.005644017 -0.13110052 -0.0012953406
0.010106725 -0.41741815 -0.012482291 0.016464977 0.0020319836 -0.0092928065 -0.05334141 0.03139289
-0.0384543 -0.056275845 -0.00097267923 -0.034170188 -0.46651003 -0.016580528 -0.0059371176 0.012244059
-0.03353936 -0.11737702 -0.20743701 0.021555763 0.005164174 0.02910298 0.011844862 0.003962129
-0.02355174 0.008284913 -0.015014245 0.06583132 0.0010238828 0.028242555 -0.009231668 0.008127875

running_var f4 [64]
00000000: 717d 1337 0141 4b3b 5c38 6f39 b1ed 003c
00000010: 00f1 4c3a e714 823c e947 033e 6d27 b936
00000020: 7d3f 7d38 1dd4 943b d036 e93b bbf3 953d
00000030: 6e8a a23d 7f85 1438 cf12 123d 5e93 6f3d
00000040: 6148 1538 6c99 2538 740a 673d 2d81 ce37
00000050: 7225 2a3e 2b90 bd39 713c 1338 5bba 023e
00000060: 63ed 8d3d 17eb aa3d 5586 0c3c 528d 9c3b
00000070: 3fb6 c038 e121 f13a 5ed8 ac3c dca9 b136
00000080: b967 2938 0f49 f53d 57ad 313b 2300 4b3a
00000090: f2af e037 6fe2 1e3c 6332 423b 3590 843c
000000a0: c830 4539 5947 913c e31a ba37 bcf5 073a
000000b0: d8bd ca3d cd34 0f3a cab3 2239 6119 6839
000000c0: 3d29 863b 2d8c b83b fa5f b63d dc97 1a3b
000000d0: 7de6 0b3b 83e5 ec39 b04d 593c 0f05 543b
000000e0: bb57 4d3a cf7b 0b39 bd88 273a 4f64 ff3c
000000f0: 0984 4138 5a3e e639 7b0f a83a 21c9 b138
8.791089e-06 0.0031014087 0.00022813812 0.00786917 0.0007817894 0.015879108 0.128204 5.5180194e-06
6.037903e-05 0.0045418874 0.00711713 0.073218785 0.079365596 3.5410278e-05 0.03566247 0.05849015
3.5591776e-05 3.948195e-05 0.056406453 2.4617266e-05 0.16615847 0.00036156303 3.510382e-05 0.12766401
0.069300435 0.08345621 0.008576949 0.004777589 9.1892194e-05 0.0018396938 0.021099266 5.2947853e-06
4.038934e-05 0.119768254 0.0027111375 0.0007743856 2.6784812e-05 0.009697541 0.0029632084 0.016182045
0.00018805556 0.017734217 2.2185448e-05 0.00051864586 0.09899491 0.0005462885 0.000155165 0.00022134699
0.0040942715 0.0056319446 0.08905025 0.002358905 0.0021347099 0.00045184427 0.013263151 0.0032351648
0.0007833202 0.00013302195 0.000639092 0.03117576 4.6137753e-05 0.00043915474 0.0012821996 8.477481e-05

weight f4 [64, 1, 3]
00000000: ba14 c33c eb2a 563c 245f 82bb ead5 973d
00000010: 5802 eb3c e3b5 4e3e 743c 8c3b d521 4b3d
00000020: 56ef b83c 2d66 e63c 3587 c03d 7cd5 f53d
00000030: 477d 96bc 9066 7abd 0a18 5ebd 654d 1dbe
00000040: 05ac 60be c1c4 89be ac3b 153e c282 a33e
00000050: b349 413e bba1 d5bc 8be7 27bb 5f17 6d3c
00000060: 65a2 2dbd db2d 85bc ac23 e93b 10d7 07be
00000070: 16f2 a03d 3d7a 913c 024a afbc db23 07bc
00000080: 6d69 18be a0c2 dcbc 36cf 103e 829b 0d3f
00000090: 96b2 e93d e7a3 9f3e 8cc5 933e 78e7 f53c
000000a0: 9686 8ebc 9cdd dfbb 3c6f d1bd a0a4 efbd
000000b0: e9f6 2abd 4486 a3bc 2072 553e 628d b73e
000000c0: 5368 2ebc d40b b0bc 1bfd 133c 974c 693b
000000d0: 1ecc 32bc 8301 d4bc ceb3 56be e36b 9fbe
000000e0: ec5d 343e 6ab4 583c fc6f a2bc c7f7 213c
000000f0: f96a bcbe 44e3 5cbe 06f2 f9bd e8df 573d
00000100: 3f52 f23c 2f72 2f3d d3cd 97bc edd3 3fbb
00000110: 5ae3 8cbc 3250 a33d 6e01 e53e b5eb 53bf
00000120: 1135 323f 7581 a63d d6b6 093e ab60 193e
00000130: d66f 223e 07eb ce3d d860 80bd f929 d8bd
00000140: addc e1bd 6a9f 9d3d a7e3 653d 1c0e cd3d
00000150: 8e57 a23c 6acf 8dbc ec57 9dbb 9c0c fa3c
00000160: 914b 753d cf5f 973d cc6a 873d 6bfb a93d
00000170: 878b bc3d 1672 f7bc b135 303c 6501 4dbc
00000180: 1761 52bc 52f6 943c 62b2 0fbb e97b e4be
00000190: 274e 75be 16e1 e5be 46b3 29be de2e 353e
000001a0: 3dd5 9abc e7ef 69bd 6da5 f8bc bb0a 0cbd
000001b0: cde5 0a3c c49d c0bc ec6f 35bc d6d2 b6bd
000001c0: c6a6 3bbd 4eda 86bd 18ef d13c 537e e73d
000001d0: 4d1f aa3d 6037 ab3d 965f e13d 2265 b73d
000001e0: 8268 c23d c917 13bc 83b1 fdbc 274d b13c
000001f0: 1b09 483d 6a5c 5ebe c3c9 54bc c0b3 703c
00000200: 1325 073b 7222 533c 8dcd 47bc 5db3 b0bd
00000210: 0f0d 143f 4950 ffbe 37ed 873c 26f5 aabd
00000220: 7a66 103d 6d20 7dbd 812f 03bd 368a 4f3c
00000230: 405d 0cbd dc95 28bd 310a 4dbd 98d7 3ebd
00000240: 7b30 e5bd 5b3c 0a3e 12aa 213d 00d3 00be
00000250: 35ee 313e 8e2c 75bd b394 0ebe 218c 35be
00000260: 7b68 5ebe 64fe 6b3d 7f12 0d3d e23d 493d
00000270: 4723 16be 5219 883a 6a7e 4f3c 5768 c43c
00000280: 1fe3 003d 1ea9 403d e185 17bd a5e8 53bd
00000290: e2fe 95bd d7bc 783d 580d a93d 78ce db3d
000002a0: 1689 dbbc 8d64 60bd ea75 8fbd ded1 08bd
000002b0: 341d 71bc ad8b 943c 2826 65bd 6467 b0bc
000002c0: c5c9 e2bc 45d4 e83d addd 063e 2c14 c23d
000002d0: 306f cf3c 10a5 7bbb 33a3 5b3c 5336 dd3a
000002e0: 1bc3 3cbd 8a37 f0bc 05f4 823d 0ca4 683d
000002f0: e4e0 353c 2534 363d 9354 0f3d 7e4a 753c
0.023813594 0.013071756 -0.003978627 0.07413848 0.028687641 0.20186572 0.0042796675 0.04959281
0.022575062 0.028124893 0.09400789 0.120036095 -0.018370284 -0.061132967 -0.054222144 -0.15361555
-0.2194062 -0.26907924 0.14573544 0.31935698 0.1887577 -0.026078096 -0.0025620188 0.014470904
-0.0423912 -0.016257217 0.007114848 -0.13265634 0.07858674 0.017758483 -0.021397594 -0.008248295
-0.14883967 -0.026948273 0.14141545 0.5531541 0.11411016 0.31179735 0.28861654 0.0300176
-0.01739816 -0.006831838 -0.102262944 -0.117013216 -0.041739378 -0.019961484 0.20844316 0.35850054
-0.01064499 -0.021490015 0.009032513 0.003559863 -0.010912923 -0.025879627 -0.20967028 -0.31137
0.17613953 0.013226608 -0.019828789 0.009885735 -0.36800364 -0.2157107 -0.122043654 0.052703768
0.029580234 0.042833503 -0.018530762 -0.0029270605 -0.017198253 0.079742804 0.44727653 -0.82781535
0.6961222 0.08130161 0.13448653 0.14978282 0.15862975 0.10103422 -0.062684715 -0.10554881
-0.11028419 0.076964214 0.05612531 0.10012457 0.01981714 -0.017310817 -0.004801741 0.03052359
0.05988652 0.07391321 0.06612167 0.08299907 0.092063 -0.030205768 0.0107549885 -0.0125125395
-0.012840531 0.01818386 -0.0021926393 -0.44625786 -0.23955594 -0.4489829 -0.16572294 0.1769366
-0.018900508 -0.057113554 -0.030352319 -0.03418992 0.00847764 -0.023512729 -0.011074048 -0.089269325
-0.045813344 -0.06584607 0.025626704 0.11303391 0.083067514 0.08360171 0.1100456 0.089548364
0.094925895 -0.008977839 -0.030968433 0.021643234 0.04883681 -0.2171494 -0.012987557 0.014691293
0.0020621463 0.01288663 -0.012195003 -0.08627961 0.57832426 -0.4986594 0.016592605 -0.083475396
0.03525398 -0.0617985 -0.032027725 0.012667229 -0.034268618 -0.041158542 -0.050058547 -0.046592325
-0.111908875 0.13499586 0.039468832 -0.1258049 0.17376025 -0.059856944 -0.13923912 -0.17729236
-0.21719544 0.057615653 0.034441467 0.04913128 -0.14661895 0.0010383523 0.012664417 0.023975534
0.0314666 0.047036283 -0.03699291 -0.05173554 -0.07324006 0.060726967 0.08254498 0.1073274
-0.026798766 -0.054783393 -0.07004912 -0.03340327 -0.014716435 0.018133009 -0.05594459 -0.021533675
-0.027684102 0.11368612 0.131705 0.09476504 0.025321573 -0.0038397945 0.013405609 0.0016877152
-0.046084505 -0.029323358 0.06394199 0.056797072 0.011100981 0.044483323 0.034992766 0.014971374

weight f4 [64, 64, 1]
00000000: 3ea2 053b ecb3 3a3d cce1 ccba 76a9 cd3b
00000010: 91cb 833b 34a6 40bc 887c c73d 03f9 603b
00000020: 2a9d a63a 1d07 d5bb 9765 e7bc bdd9 dcbe
00000030: 561e 3ebe 076d 19bb 26c1 4ebc 688e eb3d
00000040: cb0a 44ba 2155 ee3b 533f 86be cddb 6cba
00000050: 2fe4 c6bd 69b8 e5bc 1870 5a3b 8814 eabe
00000060: 2b2e ad3d 4484 debc 024c 67bc 918a 503c
00000070: da45 5abb fd9e 53bc b715 21bd 79cb 093c
00000080: b74e 053c 388e 473e d7d6 ba3c 03e5 3a3c
00000090: 666e af3b adb9 da3d 9c60 30bd f14f 82bb
000000a0: 2f6e bfbb 2081 fd3d 3086 1e39 b090 293b
000000b0: 0210 023f 859e cc3c f42b 343b ea92 cb3c
000000c0: 1f87 e9bc 1bae 8abc a5af 78bd 46ed 82bc
000000d0: ae2b dd3c 85e2 bebc c223 513d 2d0b d5bc
000000e0: f531 1c3d 1b00 5ebb 3435 563b 578a 1f3d
000000f0: 2a62 e3ba 924a 4f3c 1030 98bc fbd2 4abc
00000100: f713 47bb 93a0 6bbd 0576 67bc b933 0bbd
00000110: 6cd6 e53c 8e74 d03d b505 203e 0154 c73a
00000120: 5145 b43b fc6d 63bd cc3f 003d 2ffc b83d
00000130: b408 61be fef4 aabb 440d 573c 8d28 cfbd
00000140: 528f 82bb 0772 d1bb 4524 00be 10d9 dfbb
00000150: ff9a 61be e7bd 89bc 882d 5b3b c7c0 a83d
00000160: 2d0b aabd 6df7 153e d11b 85bd 0462 573c
00000170: c1aa 9c3b 93ae efbc ee83 72bd e23a 73ba
00000180: 529c 7d3b c863 663e f4e1 3c3d daad 043c
00000190: 3559 323b cfb0 7e3d 0e64 48bd 9b85 293d
000001a0: 7edf 583b 94ef 87bc 693b f7bb 8ae4 663c
000001b0: 5227 7b3e c4e8 1b3c 0f3d bbbb 59b2 503c
000001c0: 8486 b4bb 1b4b d4bc 5a17 d7bd 945d 83bc
000001d0: 2169 b6bc 3cdc 1ebd 8974 92bc 8473 04bd
000001e0: c529 943c a982 a0bb ff87 d13a 7fe8 853c
000001f0: c779 9dba 261e 1a3d 3bfe 86bc f788 23bc
00000200: 865e 523b 1daf a63c ca96 1bbc bb78 29bd
00000210: 844f 0a3c fad3 ec3d ff58 47bc 083b be3b
00000220: 69ff c13b 42ab 70ba 8551 8f3d e142 883e
00000230: f1e2 f8bb 34e0 7bbb 6cd7 ae3c 568a efbd
00000240: 0094 0bba 49d8 a23c 9028 14be 72a7 4c3a
00000250: cc53 75bb a3ab e03b 7f79 bebb 87e5 2bbe
00000260: 4380 883d 3962 f3bc 4375 893d e685 5dbd
00000270: a83e 57bc 7613 cebb 69db 8ebd f7c5 6b3b
00000280: e730 74bb c6a7 99bd 0baa ebba 0a09 c03b
00000290: 594f 463b a514 523c f894 18bc 3a8e b6bc
000002a0: 2180 dbb9 ddb7 8bbd 6af1 26bb 166b d7b9
000002b0: 98b9 ff3c 815c d0bb 6fa3 803c 970e 873a
000002c0: 9bbc 603d bd2c 9e3a 5265 9f3d c12b efbb
000002d0: cd68 80bd 612d debb bda2 063d ca88 c1bc
000002e0: e729 4939 6612 abbc 3a15 b33c 7572 08bd
000002f0: c064 9abb b2e6 27bc fc8c a8bc 1f28 cbbb
00000300: 4223 b7ba 8dbc 673d 4226 26bb 7131 04bd
00000310: 3b5c 15bd 08e5 a93d f131 dcbd f62e ba3a
00000320: 0ee3 443a 8762 b2bc d15f 403d 5519 873d
00000330: 370f 013e 2b1c c13b c3f8 413d 8a5b 7c3c
00000340: 84cf feb9 a791 9c3b 92e7 96bd 5c40 5ab9
00000350: 02da f23d 0009 08bc 4e8d 9abb 83a0 95be
00000360: 7d39 2bbd 8f98 f3bd 9d8a 3e3d 1208 fcbc
00000370: 0f70 59ba 6ca5 8a3c a9d0 973c cafa a83a
00000380: ca1f b9ba 6546 7a3d 113b 6b3c e749 553c
00000390: 4675 093c b02f 7cbc f79e f9bc 85e0 70bd
000003a0: 2c0c 16bb 4e4a 063b 53c0 e03a c343 a93c
000003b0: f892 6f3d 973b 24bc afd4 de3b 9394 d23b
000003c0: 2bd4 28bd e7ab 56bc c133 af3d ebfd a0bc
000003d0: df8c a83b 9896 993c 9080 1e3d 4b16 8ebc
000003e0: 00f8 3fba 4957 b4bb ed40 2a3c d5de 71bd
000003f0: 9159 a8bb ec16 35bc 91fd 22bc 506b 3ebb
0.0020390893 0.045581743 -0.0015631258 0.006276305 0.0040220697 -0.011758376 0.09740549 0.003432811
0.0012711633 -0.006501092 -0.028246684 -0.4313487 -0.1856626 -0.0023410933 -0.012619292 0.11501771
-0.0007478415 0.0072733318 -0.26220188 -0.00090354384 -0.09711491 -0.028042035 0.0033330973 -0.4571879
0.084560715 -0.027162679 -0.014117243 0.012728349 -0.0033305795 -0.012916324 -0.03932735 0.008410328
0.008136443 0.19487846 0.022807522 0.01140714 0.0053537367 0.10679946 -0.043060884 -0.003976815
-0.0058419923 0.12378144 0.00015118043 0.0025873594 0.50805676 0.024977932 0.0027492018 0.024850328
-0.028506814 -0.016928723 -0.060714383 -0.015982281 0.026998367 -0.023301372 0.051059492 -0.026006306
0.03813358 -0.0033874575 0.003268552 0.03895029 -0.0017347981 0.012652056 -0.018577605 -0.012379403
-0.003037689 -0.057526182 -0.014127259 -0.033984873 0.028056346 0.10178481 0.15627177 0.001520753
0.005501427 -0.05552481 0.03131084 0.09032475 -0.21975976 -0.0052171936 0.013125721 -0.10115156
-0.0039843703 -0.006391767 -0.12513836 -0.006831296 -0.22031783 -0.016814185 0.0033443887 0.08239894
-0.08302913 0.14645167 -0.06499446 0.013145927 0.0047810976 -0.029258048 -0.05920785 -0.00092784886
0.003869791 0.22499001 0.046113923 0.00809809 0.0027213816 0.062180337 -0.048923545 0.04138718
0.0033092196 -0.016593732 -0.007544924 0.014092574 0.24526718 0.009515945 -0.005714066 0.012737834
-0.0055091996 -0.02591472 -0.10502501 -0.016035832 -0.022266926 -0.03878425 -0.017877834 -0.032336727
0.018086324 -0.0048983884 0.0015985965 0.016346214 -0.0012014442 0.037626408 -0.016478648 -0.009981385
0.0032099797 0.020347172 -0.0094964 -0.041374903 0.00844181 0.11563869 -0.012167214 0.005805377
0.00592034 -0.0009180793 0.069979705 0.26613525 -0.007595413 -0.0038433196 0.021342956 -0.11696307
-0.0005324483 0.019878523 -0.14468598 0.0007806934 -0.003743398 0.006856398 -0.0058128233 -0.16786776
0.06665089 -0.029709922 0.06711819 -0.054082774 -0.013137497 -0.006288941 -0.06975443 0.003597615
-0.0037260593 -0.07502703 -0.0017979754 0.0058604525 0.0030259697 0.012822305 -0.009312861 -0.022284616
-0.00041866399 -0.068221785 -0.0025473484 -0.0004108778 0.031216428 -0.0063586836 0.015702931 0.0010304031
0.05486737 0.0012067776 0.07782997 -0.007298917 -0.06269989 -0.006780312 0.032870043 -0.023624796
0.00019184464 -0.020882796 0.021860708 -0.03331228 -0.0047117174 -0.010247873 -0.02057504 -0.006199851
-0.00139723 0.0565763 -0.0025352393 -0.032273713 -0.03646491 0.08295637 -0.10751713 0.0014204669
0.00075106404 -0.021775497 0.046966378 0.065966286 0.1260346 0.0058932505 0.04735638 0.015402684
-0.00048601266 0.0047781053 -0.07368387 -0.00020814076 0.11857988 -0.008302927 -0.004716552 -0.29224023
-0.041802872 -0.118943326 0.04651891 -0.030765567 -0.0008294591 0.016924582 0.018532114 0.0012892124
-0.0014123854 0.06110229 0.014357344 0.013018108 0.008389777 -0.015392229 -0.030471308 -0.05880787
-0.0022895439 0.0020491066 0.0017147161 0.020662194 0.05848977 -0.010023973 0.006800256 0.006426403
-0.041217964 -0.013102508 0.08554793 -0.019652328 0.0051437463 0.018748567 0.038696826 -0.017344614
-0.00073230267 -0.0055035693 0.010391456 -0.0590504 -0.0051376303 -0.011052828 -0.00994815 -0.0029055662

weight f4 [64]
00000000: cf99 133d cdf4 d73e 543d 9a3e 6213 e13e
00000010: 8281 cf3e 2901 993e 726d ca3e 87b5 153e
00000020: 14f2 7d3e cc0e ee3e f2b2 123e 9c42 7b3e
00000030: 908c b13e 319b 043f 7de4 153f 76ed 403e
00000040: 8bc8 a13e 6bae 093f d86b bf3e f099 4f3e
00000050: 0d64 543e 9f1e 5d3e 9131 bf3e a8b8 943e
00000060: ba37 fa3e 1b00 433e 48a0 0a3f 8b73 263e
00000070: 7eb7 093f 0d59 b23e 8852 833e 71fe a23e
00000080: 813f b73e 90d7 193e 766b 183e 3200 473f
00000090: 62a2 073f 0f8e b73e 5d3c bc3e 0a5d dc3e
000000a0: b50d d63e 1205 493e 7e19 cb3e 3fb8 a33e
000000b0: 174d ad3e 467c 313e 4aa8 a23e 79ea 3c3e
000000c0: 4ca8 693e 15e3 8b3e a00e be3e 7350 873e
000000d0: 7b91 9f3e b535 c93e 2af8 0a3e 2a9a 513e
000000e0: f6c4 983e 608f 2e3e 8455 1a3f 726c e83e
000000f0: a20e 673d b809 4a3d 7492 683e 11dc 043e
0.036035355 0.42178956 0.30124915 0.439601 0.40528494 0.29883698 0.39536625 0.14620028
0.24799377 0.46495664 0.14326075 0.24537128 0.34677553 0.51799303 0.5855177 0.18840584
0.31598315 0.53781766 0.37386966 0.20273566 0.20741291 0.21593712 0.37342504 0.29047132
0.4887064 0.19043009 0.5415082 0.16255014 0.5379561 0.34833565 0.25648904 0.31834748
0.35790637 0.15023637 0.14884743 0.77734673 0.5298215 0.3585057 0.36764804 0.43039733
0.41807333 0.1963084 0.39667886 0.31976506 0.33847877 0.17332563 0.3176902 0.18448819
0.22818106 0.27321687 0.37120533 0.26428565 0.3116568 0.39298788 0.1357123 0.20468965
0.2983777 0.1704688 0.60286736 0.45395237 0.05641044 0.049325675 0.22712117 0.12974574

bias f4 [64]
00000000: 38d8 ddbe 4404 3cbe 1d89 3539 73c0 f0bd
00000010: b5e1 27bd 4cd4 8cbd 5ad5 5cbe 9ee6 07ba
00000020: b224 093d 8331 24bd add5 86bd b46a 92bd
00000030: 55c9 c63c 701d 12bc 92e4 aebe 17b1 39be
00000040: 8383 56be d645 e7be 0017 f03d 991b 2b3c
00000050: 5233 6f3e 9333 e6bb 8281 70bc 1958 b0bb
00000060: ac0a ef3d 01b3 553d 39a5 97be 2843 ba3d
00000070: 28c2 0ebd f449 c6bd bcc1 41be 22d1 ddbd
00000080: a0c4 ecbb 8ab1 253d 4507 11bd 40dc 34be
00000090: ce21 1bbe 26fd edbc 180d 1cbd 0986 af3d
000000a0: b203 90bc 7cf3 fc3d 681e 3fbe b3fe 66be
000000b0: ed11 02be 081c b43b ead2 a3be 1e3a 95bd
000000c0: 73e4 01be 9af3 1abe 311e a4bd 1427 5e3c
000000d0: 484c c13b 0512 0fbe e26d a03c 47ff d2bd
000000e0: 0e51 f03c ce09 f8bd a9a3 abbd 35b7 a0bd
000000f0: b751 1fbd c4a8 0cbd c41b 1abd c199 88bd
-0.43329024 -0.18361002 0.00017312584 -0.11755457 -0.040986735 -0.0687643 -0.21565762 -0.0005184206
0.03348226 -0.04008628 -0.06583724 -0.07149258 0.024265924 -0.008918151 -0.3415876 -0.1813396
-0.20948605 -0.45170468 0.11723137 0.0104435915 0.23359421 -0.007025191 -0.014679315 -0.005381596
0.116719574 0.052172665 -0.29618242 0.0909484 -0.03485313 -0.09682074 -0.1892156 -0.108309045
-0.007225588 0.040452518 -0.035407323 -0.17662144 -0.15149614 -0.029051375 -0.038098425 0.08570487
-0.017579887 0.123511285 -0.18663943 -0.22558098 -0.1270215 0.0054965056 -0.31996852 -0.072864756
-0.12684803 -0.15131989 -0.08013571 0.013559122 0.005898986 -0.13971718 0.019583646 -0.103025965
0.029335525 -0.12111245 -0.08380825 -0.07847444 -0.03889629 -0.034340635 -0.037624136 -0.06669951

running_mean f4 [64]
00000000: 1c83 a4bc 96b6 9dbd 8e37 9f3d c417 04bd
00000010: 8376 9bbd 0208 7bbd d17c c13c 3309 bb3c
00000020: 1523 71bd cfae 303c 92b9 db3c c0a2 823c
00000030: 9b08 413d 089a d8bd 2176 323d 253a 873d
00000040: f2a7 c2bd e792 dbbc d287 ad3d 16aa 00bb
00000050: 03cd 17be 70ba a7bd c93c a4bd 7555 8cbd
00000060: 2061 1fbe b641 80bd d92d 97bd 1ef1 023c
00000070: 94de 94bc a024 a63c a57d dcbd 6e99 5ebc
00000080: f9d5 aabd 943d 48bd 3ad0 033d 6a81 33be
00000090: 11b3 9fb7 ecad 8abd e65f 15be d5de 81bb
000000a0: 8303 98bd b59c 9b3c 010a 63bd a463 5ebd
000000b0: d4a8 a6bd b467 67bc d96d 9abd 89fe 453c
000000c0: 0c02 17bc decf 8c3c e090 283d 0589 c2bc
000000d0: 3a9e d43c 2fc5 03bd 94c7 0ebc 2c3a db3a
000000e0: 46db 9d3d 7a69 ef3c 880a 37bc 1cb8 a63d
000000f0: 9dd9 9abb 1387 65bb c3e6 023c cbd2 d93c
-0.02008205 -0.07700841 0.07774268 -0.032249227 -0.07590964 -0.061286934 0.023619087 0.022831535
-0.058871347 0.010783865 0.026821885 0.015946746 0.047127347 -0.10576254 0.043569688 0.06602887
-0.09504689 -0.026803447 0.08473171 -0.001963263 -0.148243 -0.08189857 -0.08019406 -0.06852237
-0.15564394 -0.06262533 -0.073817916 0.007992057 -0.01817254 0.020281136 -0.10766152 -0.013586385
-0.08341593 -0.04888685 0.032181002 -0.17529836 -1.9037661e-05 -0.06771454 -0.14587364 -0.003963331
-0.07422545 0.018995622 -0.055429462 -0.054294243 -0.0813767 -0.014123846 -0.07540483 0.012084612
-0.009216797 0.017188963 0.04115379 -0.023746977 0.025954355 -0.03217047 -0.008714575 0.0016725711
0.07707839 0.0292251 -0.011171944 0.08140585 -0.0047256486 -0.0035023137 0.007989588 0.026589772

running_var f4 [64]
00000000: 2dd9 813d 4448 e03c 8137 5d3c 72dc af3c
00000010: 1673 243d 6ed9 563c 6a63 2e3c 1907 433a
00000020: a99f b03b 25af e13c 8697 2d3a bfd2 8e3c
00000030: 3597 ce3c fd28 213d 60ac 103d e821 603d
00000040: 0b30 253b 5e2a 173e f886 653c 7232 733b
00000050: 2ed1 0d3c a8b8 ae3c 4f70 9c3b ed48 993c
00000060: 09bb 283d 1a2b 123d 46ff 8f3d c9a9 7d3b
00000070: 472e 3d3d 5da2 6e3c 48e6 333c 75fe 263c
00000080: b225 903b ddc0 e23b cccd d73a a46b 103e
00000090: 1c67 0a3d d9f1 723c d5cf 9f3c 72cd 6f3d
000000a0: 029a e53b 98cc 163d 4475 d83c ee47 c83c
000000b0: 523f 9c3c 1cb3 b43b 1500 ea3c 5ed8 643b
000000c0: cb8d b33b f612 3e3c da79 873b e338 5c3c
000000d0: a8cc a83c aa39 c63c c031 613a f1b2 143b
000000e0: 6377 2f3c 5c7b d73c 19e0 aa3c 114a e43b
000000f0: ae57 9937 c971 d738 4238 703b 4851 113b
0.06340251 0.027378209 0.013502003 0.021467421 0.040148817 0.013113363 0.010643819 0.00074397173
0.0053901267 0.027549336 0.0006622005 0.017434476 0.025218586 0.03934573 0.03532064 0.054719836
0.0025205638 0.14762256 0.01400923 0.0037108925 0.008655829 0.021328285 0.0047741304 0.018711532
0.041193996 0.035685636 0.070311114 0.0038705936 0.04618671 0.014565078 0.010980196 0.010192503
0.004399025 0.0069199638 0.001646453 0.14103562 0.03378974 0.014828169 0.019508282 0.058545537
0.0070068846 0.03681621 0.026423104 0.024448361 0.019073162 0.0055145156 0.028564492 0.0034919004
0.0054795495 0.0116012 0.004134399 0.013441297 0.0206054 0.024197418 0.0008590482 0.0022689665
0.010709616 0.02630394 0.020858811 0.006966837 1.827985e-05 0.00010273193 0.0036654626 0.0022173692

weight f4 [64, 1, 1]
00000000: 30c6 a7bd ad53 643b 7ccb 9a3c de68 cb3c
00000010: 2819 283d d715 b9bc c35e 343d 9437 2dbd
00000020: 07e4 09bd c182 0bbd 6b75 213c 5c83 adbc
00000030: 185e 983c c65b 433d 29d4 343d 2312 043d
00000040: facf a43c 7c9f 1fbd c1ef 173d 9241 203d
00000050: 1789 173d cc5d 20bd 351d 333d ba22 c9b7
00000060: 956a afb7 b6ea dd3c 64a5 4f3d 4d74 863b
00000070: 53f0 1fbd e472 eab8 c117 d5bc f451 aa3c
00000080: f0e3 06bd eb39 303c 2333 ac3c e37a 333e
00000090: 819f 683c 675b ffbc df19 183d 3edb 453d
000000a0: c492 ce36 e100 e9bc d9ff 07bd 6e48 01bd
000000b0: a8bd 543c 48d1 3bbc 397c b33c 1c2a e63c
000000c0: 7a34 5f3b 3b1c f63c 968c 62bc cf76 68b6
000000d0: 54c0 dbbc c588 d7bc 5820 17bd 387b ad3b
000000e0: 47b7 ebbc 68a3 2dbd 5ac1 38bd f6fd 2cbd
000000f0: c13c 05bc d841 87bc 2831 13bd 58a6 d4bc
-0.08192098 0.0034839914 0.018895857 0.024830278 0.041039616 -0.022593422 0.044035684 -0.04228933
-0.03366473 -0.034060244 0.009854655 -0.021180801 0.018599555 0.047694944 0.044147644 0.03224386
0.020118702 -0.038970456 0.03709388 0.039125033 0.036995973 -0.03915195 0.043729026 -2.3977238e-05
-2.0911257e-05 0.027089458 0.05069484 0.0041032196 -0.03904755 -0.000111793895 -0.026012303 0.020791031
-0.032932222 0.010755996 0.021020478 0.17527346 0.014198185 -0.031171514 0.037134048 0.04830479
6.156364e-06 -0.028442802 -0.03320298 -0.031563215 0.012984671 -0.011463471 0.02190982 0.028096251
0.0034058378 0.030042758 -0.013827464 -3.463985e-06 -0.026825108 -0.026310334 -0.03689608 0.00529423
-0.028773917 -0.042392164 -0.04510627 -0.042234384 -0.008132161 -0.016510889 -0.03593555 -0.025958225

weight f4 [64]
00000000: 0d18 01bf dc10 683b 5ce5 fb3c e936 1dbd
00000010: 2abd 043e 1ce9 163d f337 cf3d 434e 1c3d
00000020: 429c a13d b2f1 a5bd eebd af3c e7a7 01bd
00000030: 03d9 d53c 4bc8 173e 8dae b73d 9fd1 b93d
00000040: d18c 8ebd 397d 88be 4f28 b9bd 5f3b 993c
00000050: 8df0 ab3d 9cdf 643d bbd5 093e 94e8 8ab7
00000060: 20fe ae37 8a3f 65bd 60ce 333e 0b71 c9ba
00000070: a455 4f3e f943 15b9 808d 99bd 2668 5d3c
00000080: 5ace 08bd 5ab5 99bc 944e a3bc 2c43 5c3e
00000090: 3a55 103c 9a92 093c bce1 ec3d 6fca 29be
000000a0: 6157 cab7 c2e4 73bd 0058 2f3d cc3e a43d
000000b0: e213 cc3b d31d 4d3c 3969 e13c a924 85ba
000000c0: b1b7 983b 90d9 8ebd 9187 0f3d fdee 16b6
000000d0: 2a19 68bd c111 6f3d aa5c 6a3d a3b2 81b9
000000e0: 11df 8ebd a61a 80bd 2814 413e a397 263e
000000f0: 8442 743c f532 d33c 9438 c83d b633 5f3d
-0.50427324 0.003541044 0.030749016 -0.038382445 0.12962785 0.036843404 0.10118093 0.038160574
0.07891132 -0.0810274 0.02145287 -0.031654265 0.026104456 0.148225 0.0896884 0.09073185
-0.06960452 -0.26658037 -0.090408914 0.018705068 0.08395491 0.055877313 0.13460438 -1.6559185e-05
2.0860753e-05 -0.0559688 0.17559195 -0.0015368772 0.20247513 -0.00014235069 -0.07497692 0.0135136
-0.033399917 -0.018763233 -0.01993493 0.21509999 0.008809382 0.008396769 0.11566493 -0.16581129
-2.4120965e-05 -0.059544332 0.042808533 0.0801979 0.006227956 0.012519318 0.027515994 -0.001015802
0.0046605696 -0.069750905 0.035041396 -2.2490851e-06 -0.056664623 0.05836654 0.057217278 -0.00024737892
-0.0697614 -0.06255083 0.18855345 0.16268782 0.014908437 0.025781134 0.097764164 0.054492675

bias f4 [64]
00000000: 38d8 ddbe 4404 3cbe 1d89 3539 73c0 f0bd
00000010: b5e1 27bd 4cd4 8cbd 5ad5 5cbe 9ee6 07ba
00000020: b224 093d 8331 24bd add5 86bd b46a 92bd
00000030: 55c9 c63c 701d 12bc 92e4 aebe 17b1 39be
00000040: 8383 56be d645 e7be 0017 f03d 991b 2b3c
00000050: 5233 6f3e 9333 e6bb 8281 70bc 1958 b0bb
00000060: ac0a ef3d 01b3 553d 39a5 97be 2843 ba3d
00000070: 28c2 0ebd f449 c6bd bcc1 41be 22d1 ddbd
00000080: a0c4 ecbb 8ab1 253d 4507 11bd 40dc 34be
00000090: ce21 1bbe 26fd edbc 180d 1cbd 0986 af3d
000000a0: b203 90bc 7cf3 fc3d 681e 3fbe b3fe 66be
000000b0: ed11 02be 081c b43b ead2 a3be 1e3a 95bd
000000c0: 73e4 01be 9af3 1abe 311e a4bd 1427 5e3c
000000d0: 484c c13b 0512 0fbe e26d a03c 47ff d2bd
000000e0: 0e51 f03c ce09 f8bd a9a3 abbd 35b7 a0bd
000000f0: b751 1fbd c4a8 0cbd c41b 1abd c199 88bd
-0.43329024 -0.18361002 0.00017312584 -0.11755457 -0.040986735 -0.0687643 -0.21565762 -0.0005184206
0.03348226 -0.04008628 -0.06583724 -0.07149258 0.024265924 -0.008918151 -0.3415876 -0.1813396
-0.20948605 -0.45170468 0.11723137 0.0104435915 0.23359421 -0.007025191 -0.014679315 -0.005381596
0.116719574 0.052172665 -0.29618242 0.0909484 -0.03485313 -0.09682074 -0.1892156 -0.108309045
-0.007225588 0.040452518 -0.035407323 -0.17662144 -0.15149614 -0.029051375 -0.038098425 0.08570487
-0.017579887 0.123511285 -0.18663943 -0.22558098 -0.1270215 0.0054965056 -0.31996852 -0.072864756
-0.12684803 -0.15131989 -0.08013571 0.013559122 0.005898986 -0.13971718 0.019583646 -0.103025965
0.029335525 -0.12111245 -0.08380825 -0.07847444 -0.03889629 -0.034340635 -0.037624136 -0.06669951
