ldpi/training/output/ResCNN/traced_model.pth (torch, 775804 bytes, 63 tensors)

weight f4 [1, 1, 7]
0	0x3e60a11b	0.21936457
1	0x3ff650eb	1.9243444
2	0x3cf42416	0.029802363
3	0x3e0e20de	0.13879725
4	0xbb927f0a	-0.0044707106
5	0x3c3a6f0c	0.011379015
6	0xbc7bba42	-0.015364232

weight f4 [64, 1, 1]
0	0x3d09ed9e	0.033673875
1	0xbd00f5aa	-0.031484284
2	0x3d1e2981	0.0386138
3	0x3cfc5c24	0.030805655
4	0xbc2dd79e	-0.010610489
5	0xbd473d1b	-0.04864226
6	0xbd243900	-0.040093422
7	0xbc991759	-0.01868789
8	0xb9974cf1	-0.0002885829
9	0xbd4ffa16	-0.05077561
10	0x3c9c0248	0.019044057
11	0xbd16ec24	-0.036846295
12	0xbd175b6c	-0.03695242
13	0x3ca45d76	0.020064097
14	0x3d19f5f6	0.037588082
15	0x3cf39b95	0.029737273
16	0xbd03a679	-0.032141183
17	0xbd290117	-0.041260805
18	0xbcf58f3a	-0.029975522
19	0xbd0ff225	-0.035143036
20	0x3cc94227	0.024567677
21	0x3cda92d8	0.026681349
22	0x3cd584f4	0.026064374
23	0xbcbda3fc	-0.023149483
24	0x3d1ce0b3	0.038300227
25	0x3cd98835	0.026554206
26	0xbd5aba1f	-0.053400155
27	0x3d4088d0	0.047005475
28	0xbd2ca00b	-0.042144816
29	0x3c396eef	0.011317953
30	0x3c4e396c	0.012586933
31	0xbc5f5c56	-0.013632854
32	0xbb927152	-0.0044690752
33	0x3d2ddd12	0.042447157
34	0x3cdc81c2	0.026917342
35	0x3cc020ab	0.023453077
36	0xbd055ed6	-0.032561146
37	0xbd268e81	-0.040663246
38	0x3d290a64	0.041269675
39	0x3d0d5206	0.03450205
40	0x3c9a9ca3	0.018873518
41	0xbcf793d0	-0.03022185
42	0xbca45c26	-0.020063471
43	0xbd220969	-0.039559755
44	0x3d004d74	0.031323865
45	0x3d19a470	0.037510335
46	0x3cda665a	0.026660133
47	0x3d03faa0	0.032221437
48	0xbc04c6b0	-0.008104011
49	0x3c8958ba	0.016765941
50	0xbcd64068	-0.026153758
51	0xbd1e3f7d	-0.038634766
52	0x3cac55d5	0.021037022
53	0x3d0e1335	0.034686286
54	0x3cf1d497	0.029520316
55	0xbbdc3544	-0.006720217
56	0xbc9ba34c	-0.018998764
57	0x3cb8501e	0.02249914
58	0x3b31b06f	0.002711322
59	0x3c5104be	0.012757478
60	0xbcad3472	-0.021143172
61	0xbcbbbb9a	-0.022916604
62	0x3ce67b7b	0.028135052
63	0xbc036464	-0.00801954

weight f4 [64]
0	0x3db92306	0.09039883
1	0x3d5e5c5b	0.054287296
2	0x3f009425	0.5022605
3	0x3ed08819	0.40728834
4	0x3dc0fb07	0.0942288
5	0x3f3187d0	0.6934786
6	0x3ef9a761	0.48760512
7	0x3d4baf09	0.049727473
8	0x3e25727a	0.1615695
9	0x3f2e23e5	0.6802352
10	0x3d82b229	0.063816376
11	0x3e7d9b19	0.24766196
12	0x3e9d2036	0.30688637
13	0x3e30347d	0.17207523
14	0x3eb27e14	0.34861815
15	0x3ea5239a	0.32253724
16	0x3df94df4	0.121730715
17	0x3f000200	0.5000305
18	0x3e57ebd1	0.2108605
19	0x3e4854de	0.19563624
20	0x3d8a19bb	0.06743189
21	0x3e14594a	0.14487186
22	0x3dd674f9	0.104715295
23	0x3d7dde18	0.061979383
24	0x3f19ea0e	0.60122764
25	0x3e11c829	0.14236511
26	0x3f25f15b	0.64821404
27	0x3eef7c21	0.4677439
28	0x3eecfdc9	0.46287373
29	0x3d9a6a61	0.075398214
30	0x3da05911	0.07829488
31	0x3d99a1f3	0.075015925
32	0x3d394c9e	0.045239083
33	0x3edcb58a	0.43107253
34	0x3d89f511	0.06736196
35	0x3e19bb97	0.15012966
36	0x3ed1497d	0.4087638
37	0x3e70e0f1	0.23523308
38	0x3ec93be1	0.39303496
39	0x3ecadbf6	0.39620942
40	0x3e0ffb61	0.14060737
41	0x3f103e94	0.56345487
42	0x3e102429	0.14076294
43	0x3edd186f	0.43182704
44	0x3e33dbb6	0.17564282
45	0x3ee9909a	0.45618135
46	0x3e88b51f	0.26700684
47	0x3ea2aebc	0.31773937
48	0x3dd4d38b	0.10391911
49	0x3e30bdca	0.17259899
50	0x3d3be434	0.04587193
51	0x3ec4646b	0.38357863
52	0x3de83920	0.11339021
53	0x3dc45da0	0.0958817
54	0xbdd0aa28	-0.10188705
55	0x3e10f8cd	0.1415741
56	0x3e67ff8a	0.22656074
57	0x3e45027a	0.19239226
58	0x3e1fb31d	0.1559567
59	0x3e56dcb3	0.20982628
60	0x3e52b03c	0.2057504
61	0x3d971d6b	0.07378658
62	0x3eef88a0	0.46783924
63	0x3e955f3e	0.29174227

bias f4 [64]
0	0xbeb88310	-0.36037493
1	0xbc52bb0c	-0.012861978
2	0x3f19b63e	0.60043705
3	0xbe67c774	-0.22634679
4	0xbcbbff7d	-0.022948975
5	0xbe577b67	-0.21043168
6	0x3df31496	0.11869161
7	0xbd2d5ce3	-0.04232491
8	0xbce29b10	-0.02766183
9	0x3e34df52	0.17663315
10	0x3e6c0ad8	0.23051012
11	0xbe992862	-0.29913622
12	0xbf04d809	-0.51892143
13	0xbd3f8bf6	-0.046764337
14	0x3f12d1e3	0.5735151
15	0xbdcef85c	-0.101059645
16	0x3e42fa8a	0.19040886
17	0xbdb3d456	-0.08780734
18	0xbbcbd272	-0.0062201554
19	0xbe5c5729	-0.21517624
20	0x3f3b9477	0.73273414
21	0xbde78496	-0.11304586
22	0xbe121c9d	-0.14268728
23	0x3c9ca16c	0.01911994
24	0x3c995094	0.01871518
25	0x3d25364b	0.04033498
26	0x3e2e1e34	0.17003709
27	0x3e479603	0.19490819
28	0xbddf909d	-0.10916255
29	0xbdc870ae	-0.09787117
30	0xbe2d5f48	-0.16930878
31	0xbcb5878f	-0.022159366
32	0xbc24c877	-0.01005756
33	0x3eeebbab	0.46627554
34	0xbd9c3966	-0.076281354
35	0xbd85f702	-0.065412536
36	0x3e5db6f4	0.21651822
37	0xbdc0c0c8	-0.0941177
38	0xbe9939ca	-0.29926902
39	0x3e442a0f	0.19156669
40	0x3cf2b6fb	0.029628268
41	0xbec9611d	-0.39331904
42	0x3ca473ea	0.020074803
43	0x3e233521	0.15938236
44	0x3cffef12	0.031241927
45	0xbe5fcd1f	-0.21855591
46	0x3d6f251c	0.058385
47	0x3f0d24c8	0.5513425
48	0x3d77cbac	0.06049697
49	0x3d1c9423	0.03822721
50	0xbc366605	-0.011132722
51	0xbc465fca	-0.012107799
52	0xbdc4bf57	-0.09606808
53	0x3dd98d85	0.10622696
54	0x3ed7a077	0.42114612
55	0xbe1b2726	-0.15151653
56	0xbd8cedeb	-0.06881317
57	0xbd645709	-0.055747066
58	0xbe8e8742	-0.2783757
59	0x3d67a936	0.056557857
60	0x3d808026	0.062744424
61	0xbd9c9bbf	-0.07646894
62	0xbe3c7c11	-0.18406703
63	0xbea49f27	-0.32152674

running_mean f4 [64]
0	0x3caa53c7	0.020791901
1	0xbc9f4083	-0.019439941
2	0x3cc35068	0.023842052
3	0x3c9bd1c3	0.01902092
4	0xbbd6ad6e	-0.006551436
5	0xbcf60a1c	-0.030034117
6	0xbccacc5a	-0.024755646
7	0xbc3d0d51	-0.011538819
8	0xb93ad73b	-0.00017818522
9	0xbd006a47	-0.031351354
10	0x3c40a7b5	0.0117587345
11	0xbcba5fb3	-0.022750711
12	0xbcbae91e	-0.022816237
13	0x3c4af960	0.012388557
14	0x3cbe2039	0.023208724
15	0x3c966a56	0.018361252
16	0xbca2931f	-0.019845543
17	0xbcd0b3fa	-0.025476445
18	0xbc979ed6	-0.018508356
19	0xbcb1c22c	-0.021699034
20	0x3c78889b	0.015169288
21	0x3c86f543	0.016474372
22	0x3c83d65b	0.016093424
23	0xbc6a2fd0	-0.014293626
24	0x3cc1ba5f	0.023648439
25	0x3c8650a2	0.01639587
26	0xbd070d84	-0.032971874
27	0x3cedc2a8	0.029023483
28	0xbcd52cab	-0.026022276
29	0x3be4fdc4	0.006988259
30	0x3bfeaa7d	0.0077717886
31	0xbc09e9f0	-0.008417591
32	0xbb34d77e	-0.0027594264
33	0x3cd6b42b	0.026208958
34	0x3c8826da	0.016620088
35	0x3c6d420e	0.014481081
36	0xbca4b2ec	-0.020104848
37	0xbccdae36	-0.025107484
38	0x3cd0bf75	0.025481919
39	0x3cae842c	0.021303259
40	0x3c3eee0e	0.011653436
41	0xbc98ddce	-0.018660452
42	0xbc4af7c1	-0.012388171
43	0xbcc81951	-0.024426134
44	0x3c9e70cb	0.019340893
45	0x3cbdbb8e	0.023160722
46	0x3c86d9ca	0.016461272
47	0x3ca2fb0a	0.019895095
48	0xbba3f709	-0.005003814
49	0x3c299bea	0.010352114
50	0xbc844a17	-0.01614861
51	0xbcc36b8e	-0.023854997
52	0x3c54d105	0.012989287
53	0x3caf72bb	0.021417012
54	0x3c955167	0.018227292
55	0xbb87f79e	-0.0041493913
56	0xbc403269	-0.011730769
57	0x3c639b92	0.013892071
58	0x3adb6d95	0.0016741032
59	0x3c010eec	0.007877093
60	0xbc55e3ee	-0.013054831
61	0xbc67d4b5	-0.014149834
62	0x3c8e4fa6	0.017371964
63	0xbba24184	-0.0049516577

running_var f4 [64]
0	0x39ddbea6	0.0004229445
1	0x39c1d855	0.00036973009
2	0x3a11c9c2	0.00055613753
3	0x39b99422	0.00035396317
4	0x383020b7	4.1992138e-05
5	0x3a6758ed	0.00088252017
6	0x3a1d2cc9	0.0005995748
7	0x390896f0	0.000130262
8	0x330569bc	3.106264e-08
9	0x3a7c15d1	0.0009616288
10	0x390dd87c	0.00013527455
11	0x3a04bf3d	0.0005063897
12	0x3a058346	0.00050931086
13	0x391d729b	0.0001501538
14	0x3a0a254e	0.0005269841
15	0x39acedfb	0.00032983706
16	0x39ca04b2	0.0003853194
17	0x3a267604	0.0006349983
18	0x39afb630	0.0003351434
19	0x39f1840f	0.00046065493
20	0x396c0fc2	0.00022512584
21	0x398b36c3	0.00026552947
22	0x3984d99c	0.00025339134
23	0x3951982b	0.0001998848
24	0x3a0f6e10	0.00054714177
25	0x3989e3ec	0.0002630049
26	0x3a8b68cf	0.0010636094
27	0x3a580a37	0.0008241268
28	0x3a2dab95	0.0006624994
29	0x384865d2	4.7778543e-05
30	0x3877dac3	5.9093127e-05
31	0x389160f0	6.932195e-05
32	0x36f9f783	7.4495924e-06
33	0x3a302bc5	0.00067203894
34	0x398daffd	0.00027024737
35	0x395720bf	0.00020516197
36	0x39cf5502	0.00039545452
37	0x3a21aca4	0.0006167388
38	0x3a268857	0.00063527137
39	0x39e8c93a	0.00044400414
40	0x390b510b	0.00013286264
41	0x39b29c84	0.0003406742
42	0x391d7019	0.00015014446
43	0x3a1904c4	0.0005837197
44	0x39bfdfef	0.00036597202
45	0x3a099328	0.0005248063
46	0x398afe1b	0.00026510734
47	0x39cb0748	0.00038724602
48	0x37cd7d02	2.4496116e-05
49	0x38dbe0ea	0.00010484627
50	0x3985c346	0.00025513227
51	0x3a11f24d	0.00055674167
52	0x392d1663	0.00016506905
53	0x39eb475b	0.00044875857
54	0x39aa6a5e	0.00032504176
55	0x378d4dc1	1.6844717e-05
56	0x390d2bf7	0.00013463186
57	0x3945fbc4	0.00018881174
58	0x36380252	2.7419487e-06
59	0x387e9dda	6.070533e-05
60	0x392ed6b0	0.0001667391
61	0x394d660f	0.00019588343
62	0x399acc08	0.00029525184
63	0x37c93a16	2.3988116e-05

weight f4 [64, 1, 5]
0	0xbc6de43e	-0.014519749
1	0xbb7d591e	-0.0038657854
2	0x3b649a5a	0.003488204
3	0x3cfd5685	0.030925045
4	0x3d6a7f3c	0.057250246
5	0x3ce04aa7	0.027379347
6	0x3b3d4001	0.002887726
7	0x3ce845fc	0.028353684
8	0x3bafa573	0.0053602993
9	0xbc89a587	-0.016802562
10	0x3ea43151	0.32068875
11	0x3edf5436	0.43618935
12	0xbf09328a	-0.5359274
13	0xbe8d7b77	-0.2763326
14	0x3b9652d3	0.00458751
15	0x3dda8d13	0.10671439
16	0x3dfe2c2b	0.12410768
17	0x3df8e6f4	0.12153426
18	0x3e2cc024	0.16870171
19	0x3da3f796	0.08006208
20	0x3d074917	0.03302869
21	0x3d42564e	0.047445588
22	0x3c81f8c6	0.015865695
23	0x3cf196e6	0.0294909
24	0x3d4cbeb7	0.049986567
25	0xbd17d10d	-0.0370646
26	0x3e0ec044	0.13940531
27	0x3e0ffb57	0.14060722
28	0x3d343de2	0.04400433
29	0x3e6e7912	0.23288372
30	0x3ebb9d0d	0.36643258
31	0x3eec3162	0.46131426
32	0xbeaceb37	-0.33773205
33	0xbc89d0dd	-0.016823227
34	0xbe0ae356	-0.13563284
35	0xbbcf1b3a	-0.0063203843
36	0x3c7c47aa	0.015397945
37	0xbc44c2b5	-0.012009312
38	0xbaff827f	-0.0019493847
39	0xbbc9e95a	-0.006161851
40	0xbd8e0011	-0.069336064
41	0xbc873e10	-0.016509086
42	0xbdc9295a	-0.0982234
43	0x3c6f5ac0	0.014609039
44	0x3c8399d1	0.016064556
45	0x3dbfc8ae	0.093644485
46	0x3f272ada	0.6529976
47	0xbf1e2b6e	-0.6178502
48	0x3d3a7dbc	0.045530066
49	0xbe771b96	-0.24131617
50	0xbbce2596	-0.0062911017
51	0xbceececb	-0.029151341
52	0xbbd4f7d1	-0.0064992686
53	0x3d10e81f	0.035377618
54	0x3d2e97f2	0.042625375
55	0xbe11676c	-0.14199609
56	0xbdea2901	-0.11433602
57	0xbdc56f05	-0.09640316
58	0xbdbc0a3a	-0.09181638
59	0xbd8e8443	-0.06958821
60	0x3d9659fd	0.07341383
61	0x3da39f7e	0.07989405
62	0x3dcd9728	0.100385964
63	0x3d887860	0.06663585
64	0x3de2af7b	0.110686265
65	0xbcf80fad	-0.030280912
66	0x3d9b6fb3	0.07589664
67	0xbdfd159a	-0.12357636
68	0xbd96d835	-0.07365457
69	0xbd7bb2ad	-0.061449695
70	0xbdde7c54	-0.108635575
71	0xbdeb48dd	-0.11488507
72	0x3d1885b6	0.03723689
73	0x3d6b41cb	0.057435792
74	0xbd03c7fc	-0.03217314
75	0x3decc997	0.11561888
76	0x3e4e13d1	0.20124747
77	0xbe22b575	-0.15889533
78	0xbd169208	-0.03676036
79	0x3d38f5f5	0.045156438
80	0xbd12f6c4	-0.035879865
81	0x3d8e603a	0.069519475
82	0xbd32e5ee	-0.04367631
83	0x3d21b999	0.03948364
84	0xbd9f1c36	-0.07769053
85	0xbbced0a1	-0.0063114916
86	0xbe1a98a6	-0.15097293
87	0xbe11c209	-0.14234175
88	0xbdb03a96	-0.086049244
89	0xbe4459eb	-0.19174926
90	0xbcd7c664	-0.026339717
91	0x3b81a1fc	0.0039560776
92	0xbdda2840	-0.10652208
93	0xbcb07923	-0.021542137
94	0xbc7c2115	-0.015388747
95	0xbe1b61d5	-0.15174039
96	0xbded1335	-0.11575929
97	0xbe13080b	-0.14358537
98	0xbd9ede54	-0.077572495
99	0xbd63a542	-0.055577524
100	0xbc863c62	-0.016386215
101	0xbd0c5048	-0.03425625
102	0xbdb2e50f	-0.08735096
103	0xbd1cb560	-0.03825891
104	0xbd8fe02f	-0.070251815
105	0x3d963635	0.07334558
106	0x3dab5f51	0.083677895
107	0x3d172ded	0.036909033
108	0x3d092cb4	0.033489898
109	0x3d1d2f92	0.038375445
110	0xbcdcfc8e	-0.026975896
111	0xbd006ef2	-0.031355806
112	0xbd1f060b	-0.038824122
113	0xbd266dec	-0.040632173
114	0xbd183cf0	-0.03716749
115	0xbc2a76f6	-0.010404339
116	0x3d25c9ba	0.040475585
117	0xbce3dc54	-0.027815022
118	0xbc830d35	-0.015997509
119	0x3cc98589	0.024599807
120	0xbe27e0c0	-0.16394329
121	0xbe8dc0d5	-0.27686182
122	0xbcdbcd0b	-0.02683117
123	0x3d30dde6	0.04318037
124	0xbe49806b	-0.19677894
125	0xbd62efb6	-0.055404387
126	0x3d9650e8	0.073396504
127	0xbd54ce52	-0.051954575
128	0xbd08d439	-0.033405516
129	0xbd0ac18c	-0.033875987
130	0x3f7c575e	0.9857081
131	0x3ea7200c	0.32641637
132	0xbe9bfdec	-0.30467165
133	0xbe916491	-0.2839704
134	0xbe47c086	-0.19507036
135	0x3e75d4d7	0.24006973
136	0xbec0d524	-0.37662613
137	0x3f3a6308	0.7280736
138	0xbebdd157	-0.37073776
139	0xbeaf9781	-0.34295276
140	0xbd500e8d	-0.050795127
141	0xbe142833	-0.1446846
142	0xbe1ddf96	-0.15417323
143	0xbdc6fa5c	-0.09715721
144	0xbe2f20d9	-0.17102374
145	0xbcca93e2	-0.02472872
146	0xbd12f0f5	-0.035874326
147	0xbd39ffff	-0.045410153
148	0xbc905375	-0.01761792
149	0x3b3e4f65	0.0029039022
150	0x3c931d2f	0.017958252
151	0x3b366eb6	0.0027836985
152	0x3ca9901c	0.0206986
153	0xb91b6ebb	-0.00014823202
154	0x3ae8a30a	0.0017748785
155	0x3d32da76	0.04366537
156	0x3bb771c6	0.0055982796
157	0x3cfce667	0.030871583
158	0x3d29ef6f	0.041488107
159	0x3c4488a1	0.0119954655
160	0x3c2cbdb6	0.0105432775
161	0x3c57f59a	0.013181115
162	0x3cdfce62	0.02732009
163	0x3a4c91a3	0.0007803684
164	0xbca2a346	-0.019853245
165	0x3f289406	0.65850866
166	0xbe05b8c4	-0.13058764
167	0x3d0374bf	0.03209376
168	0xbda3d8fd	-0.080003716
169	0xbdb23c1b	-0.087028705
170	0x3bef2c3f	0.0072989757
171	0x3c999d74	0.018751837
172	0x3caa5c3f	0.02079594
173	0x3d0de103	0.034638416
174	0x3ce92cc4	0.028463729
175	0x3d53adee	0.051679544
176	0x3da7c0a7	0.081910424
177	0xbd2fbb68	-0.042903334
178	0xbd45cd8b	-0.048291724
179	0xbc983033	-0.01857767
180	0xbe762583	-0.24037747
181	0xbd698ff1	-0.05702204
182	0xbe792478	-0.24330318
183	0xbe10c470	-0.14137435
184	0xbd3aeabb	-0.045634013
185	0xbd007151	-0.031358067
186	0x3d2f56cd	0.04280739
187	0xbd8de260	-0.06927943
188	0xbd70139e	-0.05861246
189	0xbdccdf8c	-0.10003576
190	0x3d9c4fa7	0.0763238
191	0x3e0d7ba4	0.13816696
192	0x3decc33f	0.11560678
193	0x3e227919	0.15866508
194	0x3d691213	0.056902003
195	0x3e969ece	0.29418033
196	0x3bd83688	0.0065982975
197	0x3e295152	0.16534927
198	0x3c54672b	0.01296405
199	0xbd8f535a	-0.0699832
200	0xbd52b292	-0.05143983
201	0xbd29691f	-0.041360017
202	0xbcd9355a	-0.026514698
203	0xbd69f1ee	-0.057115488
204	0xbdb73e84	-0.08947471
205	0xbd46fbfb	-0.04858015
206	0x3bfa8db7	0.0076462883
207	0x3d744556	0.059636436
208	0x3bcba681	0.006214917
209	0x3d9cb3d1	0.07651485
210	0xbd7a43ee	-0.06109994
211	0x3d36b164	0.044602767
212	0x3d3e8e8d	0.046522666
213	0x3dc52dde	0.09627889
214	0x3cdc1cc3	0.026869183
215	0xbe4ea4a1	-0.20179988
216	0x3dfe5384	0.12418273
217	0x3c9ff585	0.019526253
218	0x3e7b43ec	0.24537629
219	0x3edd4447	0.43216154
220	0x3ba95047	0.0051670405
221	0x3dc1f53d	0.094706036
222	0x3cc7742c	0.024347387
223	0x3d1a759b	0.037709814
224	0x3d59a3b6	0.053134643
225	0x3d620c5b	0.055187564
226	0x3dc9ee68	0.098599255
227	0x3db57427	0.08860045
228	0x3e4b65ef	0.19863103
229	0x3d3c8ad6	0.04603084
230	0xbd9acd20	-0.07558656
231	0xbdafff31	-0.08593596
232	0xbe0c026b	-0.13672797
233	0xbdd1a197	-0.10235899
234	0xbdcd892b	-0.10035928
235	0xbd6a9dab	-0.05727927
236	0xbe6ca0b6	-0.23108181
237	0x3da56e22	0.08077647
238	0x3d4a882a	0.049446262
239	0xbd0f8440	-0.035038233
240	0x3d18c97f	0.037301537
241	0x3bf976b1	0.007613026
242	0xbc897707	-0.01678039
243	0x3b88e396	0.004177521
244	0x3d133c20	0.03594601
245	0x3d804634	0.0626339
246	0x3dbbc003	0.09167483
247	0x3d714566	0.058904074
248	0x3d4f96fb	0.050681096
249	0x3d859196	0.06521909
250	0xbaf89fed	-0.001896856
251	0x3bfd27c3	0.007725687
252	0xbc2c1e84	-0.010505322
253	0x3c45b78b	0.012067686
254	0x3cdefd0e	0.027220275
255	0xbd8cb759	-0.06870908

weight f4 [64, 64, 1]
0	0x3c463527	0.012097633
1	0x3b24bcc4	0.0025136927
2	0xbd10ccde	-0.035351627
3	0x3b519ba8	0.0031983647
4	0xbb346cf5	-0.0027530764
5	0xbcb858e7	-0.02250333
6	0x3c9f639d	0.019456679
7	0x3c2e4ea0	0.010638863
8	0xb9158f8f	-0.00014263227
9	0x3c4a5b07	0.012350804
10	0x3cb11970	0.021618575
11	0xbcd1c2b5	-0.025605539
12	0xbcd59cc4	-0.026075728
13	0xbd16963f	-0.03676438
14	0xbb8d805b	-0.0043182797
15	0xbcbbf123	-0.022942131
16	0x3c1f6dd0	0.009730771
17	0x3ce4c91a	0.027927924
18	0x3c8a8fa3	0.016914194
19	0xbbb3741e	-0.0054764887
20	0x3c48889a	0.0122396
21	0x3a0f4287	0.00054649304
22	0xbc4a5794	-0.012349982
23	0xbbd38405	-0.006454947
24	0x3c6b0596	0.0143445935
25	0xbae6e9a2	-0.0017617235
26	0x3d7b89a4	0.06141056
27	0x3bf06619	0.0073363897
28	0x3d108668	0.03528443
29	0x3bd6f51a	0.00655998
30	0xbc42ccff	-0.011889695
31	0x3b29e411	0.0025923292
32	0xbae9abd6	-0.00178277
33	0xbc895279	-0.016762959
34	0x3bfd45ef	0.007729284
35	0xbd12257d	-0.035680283
36	0x3bb0c78e	0.0053948825
37	0xbc9588a0	-0.018253624
38	0xbc8d29fc	-0.017231934
39	0xbd1b8e3b	-0.03797744
40	0xbb21cb15	-0.0024687697
41	0xbd375a44	-0.04476382
42	0xbc7ccc36	-0.015429547
43	0xbd0e8ed3	-0.034804177
44	0xbc841ca8	-0.016126946
45	0xbbeb5bfa	-0.0071825953
46	0x3c2c412e	0.010513587
47	0x3c226658	0.009912096
48	0x3ccec1a7	0.025238825
49	0x3adb5c44	0.0016735871
50	0xbb94fc4b	-0.004546677
51	0x3c8f497f	0.0174911
52	0x3ab254f4	0.001360564
53	0x3b9e1ba4	0.0048250724
54	0xbc84c0b8	-0.016205177
55	0x3c351214	0.011051673
56	0x3c86e86d	0.016468251
57	0x3c5cb848	0.01347167
58	0xbcb05923	-0.021526879
59	0x3cf52359	0.029924082
60	0xbc8d0e4a	-0.017218728
61	0x3ccdd041	0.025123717
62	0xbcdc85fe	-0.026919361
63	0xbd08cbdf	-0.03339755
64	0x3d2d1ba3	0.042262685
65	0x3b896414	0.0041928384
66	0xbe01d452	-0.1267865
67	0x3c82e7d3	0.015979683
68	0xbbdefedf	-0.0068052853
69	0xbca8b9dd	-0.020596439
70	0xbcb422a8	-0.021989182
71	0x3badff74	0.0053099934
72	0xbd39e19c	-0.045381173
73	0xbcfa5a77	-0.030560715
74	0x3d732dd5	0.05936988
75	0xbd76568f	-0.060141142
76	0xbd225a19	-0.039636705
77	0xbd02e3fa	-0.031955697
78	0x3c6647de	0.01405522
79	0xbd651273	-0.055925798
80	0xbd93b6d3	-0.07212605
81	0x3cdd367e	0.027003523
82	0xbc94373e	-0.018092748
83	0xbd4117d3	-0.04714186
84	0x3d322f01	0.043501858
85	0xbce4aeb5	-0.027915338
86	0xbc8b76f7	-0.0170245
87	0x3c32175f	0.01086983
88	0x3c32883b	0.010896738
89	0xbbd28151	-0.006424107
90	0xbe0673ab	-0.13130061
91	0x3c16da0f	0.009207263
92	0x3d0de53f	0.034642454
93	0xbc0ee8e0	-0.008722514
94	0x3c4d5787	0.012533075
95	0xbbd505e8	-0.006500948
96	0xbb05d3c9	-0.0020420423
97	0x3c66485a	0.014055336
98	0x3c78e7d3	0.01519199
99	0xbd8c37f1	-0.068466075
100	0xbc68a3e9	-0.0141992355
101	0x3d16bfd8	0.03680405
102	0x3c938034	0.018005468
103	0xbd98b8fb	-0.07457157
104	0x3bd22ca4	0.006414013
105	0xbc53255a	-0.012887323
106	0x3cba03fd	0.02270698
107	0x3d5f270e	0.054480605
108	0xbdb42d6c	-0.08797726
109	0x3c1c29b6	0.009531429
110	0x3c4a3616	0.012341997
111	0x3c6ff5f3	0.014646041
112	0x3d01c091	0.031677786
113	0xbc47b10f	-0.01218821
114	0xbbc7a0c6	-0.0060921637
115	0xbc5a03bc	-0.013306554
116	0x3d00bc5c	0.031429633
117	0x3c81724e	0.015801575
118	0x3ca75a2d	0.020428741
119	0xbc483879	-0.012220495
120	0x3c007031	0.0078392485
121	0x3d85353f	0.065042965
122	0xbc917e39	-0.017760383
123	0x3d564572	0.052312322
124	0x3b922d85	0.0044609928
125	0xbc8a916f	-0.016915051
126	0x3b404ace	0.0029341462
127	0xbd63f5ac	-0.055654213
128	0x3da4ac3f	0.08040666
129	0xbbd2e674	-0.0064361636
130	0xbdba6ab3	-0.091023825
131	0x3e106982	0.14102748
132	0xbd3fcc76	-0.04682585
133	0xbeb67492	-0.3563581
134	0x3dce08b1	0.100602515
135	0x3b9ceee3	0.0047892197
136	0x3cfd8307	0.030946268
137	0x3b6fe86c	0.003660704
138	0x3d815a0a	0.06316002
139	0xbe210e2a	-0.1572806
140	0xbe177062	-0.14788964
141	0xbd42f8c6	-0.04760053
142	0x3ec65376	0.3873555
143	0xbda7a8a2	-0.08186461
144	0xbd4c82a6	-0.049929284
145	0x3e5637a1	0.20919658
146	0x3c2708e4	0.010194991
147	0x3bc5f14f	0.006040729
148	0x3e0a639e	0.13514563
149	0xbdef6bbe	-0.11690472
150	0xbcc97364	-0.024591155
151	0x39fa75c4	0.00047771458
152	0x3ed2d1c6	0.4117567
153	0x3d0b60f3	0.034028005
154	0x3e163852	0.14669922
155	0x3dfa086a	0.12208636
156	0x3e70ddf2	0.23522165
157	0xba3f884f	-0.00073063833
158	0x3b81f90d	0.0039664567
159	0xbd010a30	-0.031503856
160	0xbbc0ba16	-0.005881558
161	0xbc941687	-0.018077148
162	0x3b8bd9cd	0.0042679072
163	0xbd89dd45	-0.06731657
164	0xbe193b17	-0.14963947
165	0x3d46a1c0	0.0484941
166	0x3db252a1	0.087071665
167	0xbe6d6dcc	-0.23186415
168	0x3d8386d2	0.06422199
169	0xbe9ae77c	-0.30254734
170	0x3cde3716	0.027125876
171	0x3dd61c1b	0.104545794
172	0xbdbace7d	-0.09121416
173	0x3dd63953	0.104601525
174	0x3e38cf4b	0.18047826
175	0x3ea36f2f	0.31920764
176	0x3da8a24a	0.08234079
177	0xbdb76c56	-0.0895621
178	0xbc562a1e	-0.013071565
179	0x3d37e458	0.0448955
180	0x3d85e58e	0.06537925
181	0x3c4aa93a	0.012369448
182	0xbe166ec3	-0.1469069
183	0x3ca93882	0.020656828
184	0x3de76e58	0.11300343
185	0x3de06ee7	0.10958653
186	0xbd2657ad	-0.040610958
187	0x3d981767	0.07426339
188	0x3d422fa8	0.04740873
189	0x3c6ba652	0.014382916
190	0x3c8f3372	0.017480586
191	0xbe38a10f	-0.18030189
192	0x3d157988	0.036492854
193	0xbb76e6f2	-0.0037674275
194	0xbd92dfed	-0.07171617
195	0x3dc54f0e	0.09634219
196	0xbd0a19eb	-0.033716124
197	0xbeb9957b	-0.36246857
198	0x3d9384d6	0.07203071
199	0x3c187c4f	0.009306981
200	0x3d3626f4	0.044470742
201	0xbd4e951d	-0.050435174
202	0x3ceda5c5	0.02900971
203	0xbdb40586	-0.08790116
204	0xbde3ee6b	-0.11129459
205	0xbd48ea0e	-0.049051337
206	0x3e42f2dc	0.19037956
207	0xbdbac6b8	-0.09119934
208	0xbd40d9d3	-0.047082733
209	0x3e5ceb49	0.21574129
210	0x3cbcecf1	0.023062201
211	0x3c3ae9f1	0.011408315
212	0x3dd2f972	0.10301484
213	0xbd9904b0	-0.07471597
214	0xbcd4d080	-0.025978327
215	0xbc03071c	-0.0079973005
216	0x3e5a44f1	0.21315362
217	0x3cdd332d	0.027001942
218	0x3e6a87fd	0.22903438
219	0x3e758fa4	0.23980576
220	0x3e4c6445	0.19960125
221	0xbc17a05b	-0.00925454
222	0x39ab4b70	0.00032671867
223	0xbce00051	-0.0273439
224	0xbbeb8f5f	-0.007188722
225	0xbdd393d6	-0.10330932
226	0x3b611992	0.0034347516
227	0xbd2149f5	-0.03937717
228	0xbdc68772	-0.09693803
229	0x3d629a41	0.05532289
230	0x3da21e16	0.07915895
231	0xbe3d9bc5	-0.18516453
232	0x3d3e3eca	0.0464466
233	0xbe95dbc7	-0.2926924
234	0xbb266ffe	-0.0025396342
235	0xbd892ba8	-0.0669778
236	0xbd1964ec	-0.037449762
237	0x3dc87845	0.097885646
238	0x3df51b07	0.11968046
239	0x3e2da8d1	0.1695893
240	0x3c859ff2	0.01631162
241	0xbd914080	-0.070923805
242	0xbb4146cc	-0.002949166
243	0x3d9e4ef5	0.077299036
244	0x3d738de4	0.05946149
245	0x3ce7926d	0.028268063
246	0xbdc6454d	-0.09681187
247	0x3c10102c	0.008792918
248	0x3db16333	0.08661499
249	0x3d9ea7c7	0.07746845
250	0xbd149c20	-0.036281705
251	0x3d4477f2	0.04796595
252	0xbc5bbae7	-0.01341126
253	0x3c27491f	0.0102103045
254	0x3c724698	0.014787339
255	0xbe041ead	-0.12902327

weight f4 [64]
0	0x3dd83d93	0.10558619
1	0x3e6e2a73	0.2325838
2	0x3f23c07e	0.63965595
3	0x3f1439ec	0.5790088
4	0x3e9058f0	0.28192854
5	0x3ecd0cc4	0.40048802
6	0x3e1e14f5	0.15437682
7	0x3e27a130	0.16370082
8	0x3eccf281	0.40028766
9	0x3da5e02d	0.08099399
10	0x3d14fa3e	0.036371462
11	0x3d8220c7	0.06353908
12	0x3f17908a	0.59204924
13	0x3d8a8206	0.06763081
14	0x3e26ce3c	0.1628961
15	0x3e1b5482	0.15168956
16	0x3d4d0c1d	0.05006038
17	0x3eb32b5c	0.34994018
18	0x3f146d51	0.57979304
19	0x3eb7837c	0.35842502
20	0x3d47f612	0.048818655
21	0x3d3caf1d	0.04606544
22	0x3d549728	0.051901966
23	0x3ee1195e	0.43964666
24	0x3d94c337	0.07263797
25	0x3eae8221	0.34083655
26	0x3d4b49f6	0.04963108
27	0x3e732af2	0.23746851
28	0x3e3c5675	0.18392356
29	0x3dbad70f	0.091230504
30	0x3eda7804	0.4266969
31	0x3da5bd12	0.08092703
32	0x3db132fa	0.08652301
33	0x3d23e48e	0.04001289
34	0x3e57a36f	0.21058439
35	0x3f1c337f	0.61016077
36	0x3e040330	0.12891841
37	0x3edc8e7c	0.43077457
38	0x3f2125a9	0.6294809
39	0x3ef85fb6	0.48510522
40	0x3f276e4e	0.65402687
41	0x3eb4ad74	0.35288584
42	0x3e7e1a9c	0.24814838
43	0x3dc94445	0.098274745
44	0x3efda414	0.49539244
45	0x3e6be1e0	0.23035383
46	0x3d389f1b	0.04507361
47	0x3d3288d2	0.043587513
48	0x3f116b75	0.5680459
49	0x3f0a13c9	0.5393644
50	0x3d1aa47e	0.03775453
51	0x3e2bb3ae	0.16767761
52	0x3e779e7d	0.24181552
53	0x3d2c552f	0.042073425
54	0x3d77d158	0.06050238
55	0x3f3f06ca	0.74619734
56	0x3d457786	0.04820969
57	0x3e46e359	0.19422664
58	0x3dc77de8	0.097408116
59	0x3eed2956	0.463206
60	0x3d16a42c	0.03677766
61	0x3d2cff9e	0.042235963
62	0x3d9752d0	0.07388842
63	0x3d0f2bcc	0.034953877

bias f4 [64]
0	0xbdb2d000	-0.08731079
1	0xbe6a94ea	-0.22908369
2	0x3bb3893c	0.005479006
3	0x3d1c3054	0.038132027
4	0xbeb25817	-0.34832832
5	0xbe499dba	-0.19689074
6	0xbe643794	-0.22286826
7	0xbda502e3	-0.08057191
8	0xbea3c5d4	-0.31986868
9	0xbe6edb3c	-0.23325819
10	0xbbf22bf2	-0.0073904926
11	0xbd97e0e0	-0.074159384
12	0xbf2fd4de	-0.68684185
13	0xbe90ac21	-0.28256324
14	0x3c199500	0.009373903
15	0xbdec065d	-0.11524651
16	0x3ae1326e	0.0017181167
17	0xbe402b82	-0.18766597
18	0xbeb54ab5	-0.3540856
19	0x3e1ff150	0.15619397
20	0xbb9ca5fd	-0.0047805295
21	0xbc11ac9c	-0.008891251
22	0xba9c052b	-0.0011903396
23	0xbeb54e80	-0.35411453
24	0xbe0c93a8	-0.13728201
25	0x3e83dac4	0.25752842
26	0xbd0fcaef	-0.035105642
27	0xbdc9fa04	-0.0986214
28	0xbe00404e	-0.1252453
29	0xbceeb783	-0.02914024
30	0x3e086506	0.13319787
31	0xbddb6346	-0.10712294
32	0x3c06c898	0.008226536
33	0xbc81903d	-0.015815848
34	0xbd0ec574	-0.034856275
35	0xbd310017	-0.043212976
36	0xbc201761	-0.009771199
37	0xbe8b2aed	-0.27181187
38	0x3d179add	0.037012924
39	0xbd63202b	-0.0554506
40	0xbded9c10	-0.11602032
41	0xbe696f05	-0.22796257
42	0xbe01a046	-0.12658796
43	0xbe5dfc28	-0.21678221
44	0x3db062bd	0.08612583
45	0xbb9fe335	-0.00487938
46	0x3c27b5fd	0.0102362605
47	0xbab2d3b3	-0.0013643414
48	0x3d8026cf	0.06257402
49	0xbecef1d1	-0.40418866
50	0xbb40de38	-0.0029429328
51	0xbd1f3f09	-0.038878474
52	0x3e743f4f	0.23852275
53	0x3b332e56	0.002734085
54	0x3c377a95	0.011198659
55	0xbef8a973	-0.4856678
56	0xbb18e8b3	-0.002333206
57	0xbe0bb8b4	-0.13644677
58	0xbda73dd1	-0.081660874
59	0x3d65f4fe	0.056141846
60	0xbcfb8710	-0.030704051
61	0x39824d7d	0.00024853265
62	0x3c985dc2	0.018599395
63	0xbd408fdf	-0.047012206

running_mean f4 [64]
0	0xbc789a77	-0.015173546
1	0xbd181171	-0.03712601
2	0xbe13e8e4	-0.1444431
3	0xbe02838a	-0.1274549
4	0xbcb61aeb	-0.022229632
5	0xbdbbc790	-0.09168923
6	0xbd38ae8d	-0.04508834
7	0xbc431bd5	-0.011908491
8	0xbe2763db	-0.16346686
9	0xbbae3107	-0.005315903
10	0x3a0dc2d9	0.00054077577
11	0xbc630d87	-0.013858206
12	0xbdab2aec	-0.08357796
13	0xbc97adda	-0.018515516
14	0x3ca2b629	0.019862251
15	0xbd03a63b	-0.03214095
16	0xba43ab73	-0.00074642076
17	0xbd4ce556	-0.0500234
18	0xbd987c3d	-0.074455716
19	0x3d620835	0.055183608
20	0x3c2683f9	0.010163301
21	0x3ab6c98e	0.0013945566
22	0xbbb9481b	-0.0056543476
23	0xbdeae0dc	-0.1146867
24	0xbbf75c89	-0.007548873
25	0xbd3e259b	-0.046422582
26	0xb9ecb9b5	-0.0004515179
27	0xbdb51b6a	-0.088431194
28	0xbcd8e8df	-0.02647823
29	0xb8f0b920	-0.00011478574
30	0xbc9fd5e4	-0.01951117
31	0xbc507594	-0.012723345
32	0xba8e46d9	-0.0010854854
33	0xbb39fc71	-0.0028379227
34	0x3cff29ab	0.031147799
35	0x3dc2a6a7	0.09504443
36	0x3bdbaa95	0.0067036846
37	0xbe1f5110	-0.15558267
38	0xb87f3c0b	-6.0852657e-05
39	0xbba95add	-0.0051683025
40	0xbe1a6de4	-0.15080982
41	0xbd8e48c9	-0.069474764
42	0xbc9b0b8a	-0.0189264
43	0xbc24281c	-0.010019328
44	0xbe52371c	-0.20528835
45	0xbd87c29c	-0.06628916
46	0x3b799d50	0.003808815
47	0x3b6e2689	0.0036338887
48	0xbde012e1	-0.10941101
49	0xbd36fafb	-0.044672947
50	0x3b85fd43	0.004089029
51	0x3c0f19e0	0.008734196
52	0xbd178145	-0.036988515
53	0x39542a90	0.00020233751
54	0x3c0f7bbd	0.008757529
55	0xbd9cce29	-0.076565094
56	0xbb04f8cb	-0.0020289894
57	0xbc800437	-0.01562701
58	0xbc5347e4	-0.012895558
59	0x3d582f58	0.052779526
60	0xbb66b723	-0.0035204373
61	0x37ba1ff2	2.2187804e-05
62	0xbc4ff00d	-0.01269151
63	0xbbb1d409	-0.005426888

running_var f4 [64]
0	0x3b0abc88	0.0021169502
1	0x3ad84ff7	0.0016503324
2	0x3d28f07b	0.041244965
3	0x3d0b0096	0.033936106
4	0x3b1bad5f	0.002375446
5	0x3bc550c3	0.0060215904
6	0x3c3a2733	0.011361885
7	0x3b3755a9	0.0027974641
8	0x3c06388e	0.008192195
9	0x3a7e7646	0.0009706955
10	0x36100059	2.1457874e-06
11	0x39b8b1e5	0.00035227757
12	0x3c44f7b7	0.01202195
13	0x39ec210d	0.00045038052
14	0x3a4233ed	0.000740825
15	0x3bd63edd	0.0065382556
16	0x37e8c6e1	2.7749165e-05
17	0x3b8a2413	0.004215726
18	0x3b932f17	0.0044916975
19	0x3c44abad	0.012003821
20	0x3825b967	3.9511735e-05
21	0x377e6539	1.51631475e-05
22	0x37a7e34f	2.00138e-05
23	0x3befb485	0.007315221
24	0x39e1e4d7	0.00043085843
25	0x3d0c68e4	0.03427972
26	0x3805b474	3.187773e-05
27	0x3b48a49f	0.00306157
28	0x3a17b7ac	0.0005787562
29	0x38ccbb21	9.7623335e-05
30	0x3d2af2f5	0.041735608
31	0x39db56e4	0.00041835674
32	0x3a5609e7	0.0008164928
33	0x37ce555d	2.4596864e-05
34	0x3aaac6eb	0.0013029253
35	0x3d9a6634	0.07539025
36	0x3a04a068	0.0005059303
37	0x3be21ca0	0.006900385
38	0x3dee34c7	0.1163116
39	0x3d8007c2	0.0625148
40	0x3c404503	0.011735204
41	0x3b0e109a	0.0021677376
42	0x3c64b1fc	0.01395845
43	0x390eca22	0.00013617476
44	0x3d5b04aa	0.053471245
45	0x3b3acf98	0.0028505083
46	0x3824ff5f	3.933848e-05
47	0x3707b87e	8.0895825e-06
48	0x3da37e72	0.07983102
49	0x3c51c98e	0.012804402
50	0x37c5d602	2.3583885e-05
51	0x3a3e3bd7	0.00072568416
52	0x3bc5ac7c	0.0060325246
53	0x37eac991	2.7988835e-05
54	0x3a3563ef	0.00069194933
55	0x3c867e99	0.016417788
56	0x37c9ecb1	2.4071285e-05
57	0x39b24413	0.00034001525
58	0x3949cff8	0.00019246328
59	0x3d00948e	0.031391673
60	0x36817655	3.8582752e-06
61	0x37140e8c	8.824874e-06
62	0x3a1e4645	0.00060376927
63	0x38113f0d	3.4629415e-05

weight f4 [64, 1, 3]
0	0x3dc7a90c	0.0974904
1	0xbd1ba468	-0.037998587
2	0x3c22910a	0.009922275
3	0xbded5244	-0.115879565
4	0xbde714fb	-0.112832986
5	0xbd7c57dc	-0.061607227
6	0xbe368c3e	-0.17826936
7	0xbe1306a0	-0.14357996
8	0xbd3fd1c2	-0.0468309
9	0xbe666e74	-0.22503072
10	0xbdf182f8	-0.117925584
11	0xbeb49fb8	-0.35278106
12	0x3c8b73f1	0.017023059
13	0x3ccd59db	0.02506726
14	0x3d917ec8	0.0710426
15	0xbdc0a3ea	-0.09406264
16	0xbe09e6b5	-0.13466914
17	0xbdf85d8f	-0.1212722
18	0x3b6e5642	0.0036367332
19	0x3dca93d2	0.09891476
20	0xbe45f823	-0.19332938
21	0x3cd06768	0.025439933
22	0x3dc3fe50	0.09569991
23	0x3de16268	0.11005098
24	0x3d8e2cdf	0.06942152
25	0x3e10c1da	0.14136449
26	0x3d22e422	0.039768346
27	0xbca98522	-0.020693365
28	0xbd0f0de2	-0.03492535
29	0xbccd3a53	-0.025052225
30	0xbcaa34b0	-0.020777076
31	0x3bb21bb0	0.0054354295
32	0x3c6ac3a7	0.014328874
33	0x3d12cbfa	0.03583906
34	0x3d36d065	0.044632334
35	0x3d1c0b0c	0.038096473
36	0xbccf786d	-0.025325978
37	0xbc776c32	-0.015101479
38	0xbe8441b7	-0.25831386
39	0xbcee36d2	-0.029078875
40	0xbd1a8011	-0.03771979
41	0xbd8efe55	-0.06982104
42	0xbdaca1e6	-0.08429317
43	0xbda2f942	-0.079576984
44	0xbdcec811	-0.100967534
45	0x3d3bc282	0.045839794
46	0xbbb6f8d5	-0.0055838623
47	0x3e1890e2	0.14899018
48	0xbd0254d6	-0.031819187
49	0xbc600e80	-0.013675332
50	0x3c17d3d3	0.009266811
51	0xbcabcb8b	-0.02097108
52	0x3defb22c	0.117039055
53	0x3e8d6cc6	0.2762205
54	0xbced8344	-0.028993256
55	0xbcce5163	-0.025185293
56	0xbe8cdee8	-0.27513814
57	0xbe882852	-0.26593262
58	0x3eb0817e	0.34473795
59	0xbe1de9ed	-0.15421267
60	0xbc15524b	-0.009113858
61	0x3d2630c2	0.040573843
62	0xbd08d594	-0.03340681
63	0xbb940602	-0.0045173177
64	0x3bdd9273	0.006761843
65	0xbd324ad9	-0.04352841
66	0x3d154b17	0.036448564
67	0xba4a6a3a	-0.00077215175
68	0x3bb146b7	0.005410041
69	0x3e613fb0	0.21996951
70	0x3e14c7be	0.1452932
71	0x3e06c872	0.13162401
72	0xbc49bec0	-0.012313545
73	0xbb0b2572	-0.0021232036
74	0x3bf21e43	0.0073888614
75	0xbed1c303	-0.40969095
76	0x3e986258	0.2976253
77	0x3dcd74f1	0.100320704
78	0xbcbc2118	-0.022965
79	0xbd02d543	-0.031941663
80	0x3abe325e	0.001451086
81	0xbd03c334	-0.032168582
82	0xbdc44007	-0.09582525
83	0xbdbc6930	-0.091997504
84	0xbd4a0f5a	-0.049331047
85	0xbd772260	-0.060335517
86	0xbd9e188f	-0.07719528
87	0x3d1e59c3	0.038659822
88	0x3d46564a	0.048422135
89	0x3d761f7d	0.060088623
90	0xbefc8355	-0.49318948
91	0x3db9a439	0.09064526
92	0xbd3a859e	-0.045537584
93	0x3d37e9a4	0.04490055
94	0x3d0fc97c	0.03510426
95	0x3d50d659	0.050985668
96	0x3c89843f	0.016786693
97	0xbd6c478a	-0.057685412
98	0xbd5cdefd	-0.053923596
99	0xbca7cf32	-0.02048454
100	0x3abc20b0	0.0014353003
101	0x3c6e25f7	0.014535419
102	0x3dc508d9	0.09620828
103	0x3dbb3394	0.09140697
104	0x3dcb6f31	0.099333175
105	0x3ee2dbc7	0.44308302
106	0xbf294894	-0.6612637
107	0xbe54c3f8	-0.20777881
108	0x3dc79935	0.09746019
109	0x3d118b29	0.035533104
110	0x3d86804c	0.065674394
111	0xbd7f17d0	-0.06227857
112	0xbdb09892	-0.086228505
113	0xbe6314fc	-0.22175974
114	0x3f394654	0.7237294
115	0xbe31dc26	-0.17369136
116	0x3e46216d	0.19348688
117	0xbe9e118b	-0.3087276
118	0xbe35df7d	-0.17761035
119	0x3ef70030	0.4824233
120	0xbea84fc3	-0.32873353
121	0xbe73379b	-0.2375168
122	0xbe3f5b9d	-0.18687291
123	0xbdaf9202	-0.08572771
124	0xbd21c1cb	-0.039491456
125	0xbe08f9a6	-0.13376483
126	0x3dfbdc25	0.122978486
127	0x3da1024e	0.07861768
128	0x3e1d19af	0.15341829
129	0x3d37fc2f	0.044918235
130	0x3d0cbbc2	0.034358747
131	0x3d880c67	0.066429906
132	0x3db9873a	0.090589955
133	0x3e4dd46b	0.20100562
134	0x3ec85f3b	0.39135155
135	0x3dc6155c	0.09672043
136	0x3def55db	0.116862975
137	0x3d543bda	0.05181489
138	0x3d25c81c	0.040474042
139	0x3b6b52c5	0.0035907489
140	0x3bc243b7	0.0059284824
141	0x3c061548	0.008183785
142	0xbca01a04	-0.019543655
143	0xbcdbfa21	-0.02685267
144	0x3d537e6f	0.05163425
145	0xbe0db1b0	-0.13837314
146	0xbed9166d	-0.42399922
147	0xbe4c6d7c	-0.1996364
148	0xbe81fbb9	-0.25387362
149	0xbe39005e	-0.18066546
150	0x3c1f8560	0.009736389
151	0xbc0d4291	-0.008621828
152	0x3cbda5e2	0.023150388
153	0x3d8abc3b	0.06774183
154	0x3db1b6fa	0.08677478
155	0x3dc589a8	0.096453965
156	0x3e6b1781	0.22958185
157	0x3dfc723e	0.123264775
158	0x3c82d640	0.015971303
159	0xbc106810	-0.008813873
160	0x3c39aee1	0.011333198
161	0x3c150b73	0.009096968
162	0xbd06efc8	-0.032943517
163	0xbaf41e4d	-0.0018624753
164	0x3d44a48f	0.048008498
165	0xbc98a362	-0.018632594
166	0x3d53bafd	0.051691998
167	0xbe599de2	-0.21251634
168	0x3c5d0044	0.013488833
169	0x3c79e74a	0.0152528975
170	0x3cbca85f	0.023029504
171	0x3c9147ad	0.017734373
172	0x3d48e4fc	0.0490465
173	0x3d84be2d	0.06481586
174	0xbd3d3c3a	-0.046200015
175	0xbd321349	-0.043475423
176	0xbd0da295	-0.03457888
177	0xbd8c42fa	-0.06848712
178	0xbd361c65	-0.044460673
179	0x3f0ea67d	0.5572279
180	0x3cb82d2a	0.022482473
181	0x3c1723cb	0.009224842
182	0xbaf11064	-0.0018391726
183	0x3c1c6ee4	0.009547923
184	0xbc8ef9bf	-0.017453073
185	0x3c785c9f	0.015158801
186	0xbc35cafa	-0.011095757
187	0x3da9e6be	0.08295964
188	0xbc022c17	-0.007945082
189	0x3c291ec5	0.010322277
190	0x3cb9a552	0.022661839
191	0x3ccfda6c	0.025372706

weight f4 [64, 64, 1]
0	0xbb86a564	-0.0041090716
1	0x3d4b3bf7	0.049617734
2	0xbe615c75	-0.22007926
3	0xbe8b2311	-0.2717519
4	0xbdaad0cf	-0.08340608
5	0xbd0998aa	-0.033592857
6	0x3c1b879a	0.009492779
7	0xbc9569ca	-0.01823892
8	0x3e1b5afd	0.15171428
9	0x3aa52a9c	0.00126012
10	0x3b43487b	0.002979784
11	0xbc425ce9	-0.011862972
12	0x3e387940	0.18015003
13	0xbc9e11d9	-0.01929562
14	0x3c3bdcb1	0.011466191
15	0xbcdae170	-0.026718825
16	0xbbac63f7	-0.00526094
17	0xbdd43f78	-0.10363668
18	0x3e296cf2	0.16545466
19	0x3c9e8fa7	0.019355608
20	0xbc71e492	-0.014763968
21	0x3af582e1	0.0018731022
22	0xba8da319	-0.0010806053
23	0xbe0779a3	-0.13229994
24	0xbd18125e	-0.03712689
25	0xbd4414c4	-0.047871366
26	0xbb68195e	-0.003541551
27	0xbc8bee90	-0.017081529
28	0xbc7abfd6	-0.015304526
29	0x3bc2ec58	0.0059485845
30	0xbd6246a6	-0.055243157
31	0xbd1c0465	-0.03809013
32	0xbc2227da	-0.009897197
33	0xbb98c3e8	-0.0046620257
34	0xbd972a72	-0.07381143
35	0xbe9bdf5a	-0.3044384
36	0xbd078e9a	-0.03309498
37	0x3e1d5dc8	0.15367806
38	0xbd917bf7	-0.071037225
39	0x3dde2b85	0.108481444
40	0x3e43143c	0.19050688
41	0x3dc79b77	0.097464494
42	0xbd3902ae	-0.04516857
43	0xbd15ab6a	-0.036540426
44	0x3df53edb	0.11974879
45	0x3c2edb61	0.010672421
46	0xbb2a2a7f	-0.002596527
47	0x3b184e1f	0.0023239923
48	0x3cc1492f	0.023594467
49	0xbdef6851	-0.11689819
50	0x3b135892	0.0022483212
51	0xbd3aac00	-0.04557419
52	0x3d0f315a	0.034959175
53	0xbb8a03e0	-0.0042118877
54	0x3c3a95d2	0.011388259
55	0x3e566a01	0.20938875
56	0x3b329307	0.002724828
57	0x3d1063df	0.035251494
58	0x3d01d39e	0.031695955
59	0xbd94325f	-0.0723617
60	0xbb10793c	-0.0022044918
61	0xbbc69ef6	-0.00606143
62	0xbade6192	-0.0016966334
63	0x3b2b9a52	0.0026184511
64	0xbc36aaed	-0.01114915
65	0x3ca751b5	0.020424703
66	0x3d2deb45	0.0424607
67	0x3d0ad10a	0.03389076
68	0xbbbfb937	-0.0058509368
69	0x3d12933c	0.035784945
70	0x3b80dbf0	0.0039324686
71	0xbc2d39e5	-0.010572885
72	0xbd2838a7	-0.041069653
73	0x3bdbcc4f	0.006707705
74	0x399a4ef7	0.00029432002
75	0xbc9dbc89	-0.01925494
76	0xbb2c7e14	-0.0026320266
77	0x3c96eefd	0.018424505
78	0x3cbcea98	0.023061082
79	0x3b8feb2d	0.004392049
80	0x3c02d12c	0.007984441
81	0x3c2559f2	0.010092245
82	0xbbecb853	-0.0072241216
83	0x3e4e990b	0.20175569
84	0x3bed32fb	0.0072387434
85	0xbaf2e2c4	-0.0018530716
86	0xbc421239	-0.011845165
87	0xbd82f836	-0.06394999
88	0x3c251ba9	0.0100773955
89	0xbddfe39e	-0.109320864
90	0x3a90b2de	0.0011039635
91	0x3ccfd996	0.025372308
92	0x3c946419	0.018114137
93	0xba6ef94e	-0.0009116129
94	0xbdc950f3	-0.09829893
95	0x3bff3302	0.007788063
96	0x3bd07bbb	0.006362406
97	0xbb3e3493	-0.0029023036
98	0x3c56cd92	0.013110535
99	0xbe8bd439	-0.2731035
100	0xbc790bde	-0.015200583
101	0x3a316630	0.0006767241
102	0xbd84b53b	-0.064798795
103	0x3e2e61bd	0.17029472
104	0x3c3ab24b	0.011395047
105	0xbd1eaed4	-0.038740948
106	0xbd2161af	-0.0393998
107	0x3b187279	0.002326159
108	0x3cf5dddb	0.030013015
109	0xbce5c640	-0.028048635
110	0xbb526423	-0.0032103143
111	0x3a539c6e	0.0008072321
112	0xbc740b0e	-0.014895214
113	0x3d55243b	0.052036505
114	0x3ba4eae2	0.005032883
115	0xba2d452a	-0.00066097325
116	0x3d412173	0.04715104
117	0x3b2ad7ad	0.0026068494
118	0x3c186d64	0.0093034245
119	0xbd12e34d	-0.035861302
120	0xbbb41308	-0.0054954328
121	0xbc7b1069	-0.015323737
122	0xbb581ec1	-0.0032977315
123	0xbd8e7e40	-0.06957674
124	0xbb4072c0	-0.0029365271
125	0x3bc9e403	0.0061612143
126	0xbc53fed3	-0.012939173
127	0xb9152d48	-0.00014226616
128	0xbbb2adb8	-0.005452838
129	0x3c8e4a56	0.01736943
130	0x3e8f4b5a	0.27987176
131	0x3d2d6b85	0.042338867
132	0x3b09ee68	0.0021046642
133	0x3e2fe0a0	0.17175531
134	0x3d0552c8	0.03254965
135	0x3a7072f8	0.0009172405
136	0xbe020abf	-0.12699412
137	0x3de55f19	0.11199779
138	0x3ab826c9	0.0014049645
139	0xbdb6184b	-0.08891352
140	0x3e277334	0.1635254
141	0x3da7cc4b	0.08193263
142	0x3df00b2d	0.117208816
143	0x3da5d266	0.08096771
144	0x3b43ec2a	0.0029895403
145	0xbbf56907	-0.007489327
146	0xbe0686f5	-0.1313742
147	0xbd5cf5e6	-0.053945445
148	0xbb818a54	-0.0039532576
149	0x3ba4d888	0.0050306953
150	0xb9cb3da9	-0.00038765118
151	0xbd8b1e2a	-0.06792863
152	0xbc944f19	-0.018104123
153	0xbdd9703b	-0.106171094
154	0x3cd51480	0.026010752
155	0x3daacad9	0.08339471
156	0x3e0c09ed	0.13675661
157	0xbd1437d4	-0.036186054
158	0xbd98a152	-0.074526444
159	0x3c463492	0.012097495
160	0xba6280c5	-0.0008640404
161	0x3a29cdfa	0.0006477531
162	0xbd95c2be	-0.07312535
163	0xbe8c2214	-0.2736975
164	0xbd36e287	-0.044649627
165	0xbd68463b	-0.056707602
166	0xbd162690	-0.03665787
167	0xbdbae81a	-0.09126301
168	0xbe4f5ae5	-0.20249517
169	0x3d26263f	0.040563818
170	0xbe12ae6e	-0.14324352
171	0x3a8ea44f	0.0010882708
172	0x3ebc5706	0.36785144
173	0xbe2d3d38	-0.16917884
174	0xbc4cac18	-0.012492202
175	0x3b11fee0	0.0022277161
176	0xbd154fb7	-0.036452975
177	0x3e9dc761	0.30816177
178	0xbb8fddf5	-0.004390473
179	0xbd67a823	-0.056556832
180	0x3e0e4331	0.13892819
181	0x3b418270	0.002952721
182	0x3bd7f22a	0.0065901475
183	0xbda3d586	-0.07999711
184	0xbc958839	-0.018253433
185	0xbdaaccf3	-0.08339872
186	0x3c868fcb	0.016425988
187	0xbe27a2ca	-0.16370693
188	0xbc3d8aee	-0.011568768
189	0xbb6dd0b0	-0.0036287718
190	0xbc9ef9df	-0.019406257
191	0xbc9d048b	-0.019167205
192	0x3db6c852	0.08924927
193	0x3dae0097	0.08496206
194	0xbca137f1	-0.019679995
195	0xbdd2ccfb	-0.10293003
196	0xbd2d06a0	-0.042242646
197	0x3d0086cb	0.03137855
198	0x3d43eeeb	0.04783527
199	0xbc81c9c4	-0.01584328
200	0x3d2300c9	0.03979567
201	0x3bb621b9	0.0055582193
202	0x3b4f16f3	0.0031599372
203	0xbca87264	-0.020562358
204	0x3dc74291	0.097294934
205	0x3ca60035	0.02026377
206	0x3bc8579f	0.006113961
207	0xbd2e5ca1	-0.042568807
208	0xbc547fb9	-0.012969905
209	0xbd86bc34	-0.06578866
210	0x3d2c024f	0.04199439
211	0x3dfcbcd9	0.12340707
212	0xbb3a1f13	-0.002839987
213	0x3c14264d	0.009042335
214	0xbb9b3170	-0.004736118
215	0xbe03cb9c	-0.1287064
216	0xbd00b770	-0.03142494
217	0xbb57fc98	-0.0032956954
218	0xbbd0b76a	-0.006369521
219	0x3d65a789	0.056067977
220	0x3d5a7d94	0.053342417
221	0xbc861cdd	-0.016371185
222	0x3eabdfd5	0.33569208
223	0xbd0b54b6	-0.034016334
224	0x3cc14960	0.023594558
225	0xbbf03ad0	-0.0073312297
226	0xbd763c4e	-0.060116105
227	0x3ce69dc5	0.028151402
228	0xbce83e9f	-0.028350173
229	0x3cea1c31	0.028577896
230	0x3f05b43d	0.52228147
231	0x3d8ffdb2	0.070308104
232	0x3dac4891	0.084122784
233	0x3d32c217	0.04364213
234	0xbd27d5dd	-0.04097544
235	0xbd386d26	-0.045025967
236	0x3da31dd1	0.079646714
237	0xbd7e7f4c	-0.06213312
238	0xbc2e6b6f	-0.010645731
239	0x3a981670	0.0011603367
240	0x3df4476d	0.11927686
241	0x3d566e6d	0.052351404
242	0xba8adb77	-0.001059397
243	0xbc4521ea	-0.0120320115
244	0x3ce3b909	0.027798193
245	0xbb3528bd	-0.002764269
246	0xbc0abb90	-0.00846757
247	0x3da052e5	0.07828311
248	0xbb8bb8bd	-0.004263966
249	0xbd7a55d3	-0.061117005
250	0x3ce5bdda	0.02804463
251	0xbdb8e1aa	-0.09027417
252	0x3b576457	0.0032866204
253	0x3a4c9fe4	0.0007805808
254	0x3aea1cd8	0.0017861379
255	0x3ac3b95f	0.0014932564

weight f4 [64]
0	0x3f00e506	0.5034946
1	0x3ec5a77b	0.3860434
2	0x3f2c91a2	0.6740972
3	0x3f009f14	0.50242734
4	0x3e063c05	0.13108833
5	0x3e3bd0cb	0.18341367
6	0x3e54f144	0.2079516
7	0x3ea20016	0.3164069
8	0x3e3f6bee	0.18693516
9	0x3ed5c134	0.41748965
10	0x3e9aa11a	0.30201036
11	0x3d253d8d	0.040341903
12	0x3ec40ebb	0.38292488
13	0x3ee8eb82	0.45492178
14	0x3e7342e2	0.23755983
15	0x3ec0d65e	0.3766355
16	0x3dea8a68	0.1145218
17	0x3ed348e0	0.41266537
18	0x3ed700d3	0.41992816
19	0x3e183702	0.14864734
20	0x3e3fdc62	0.18736413
21	0x3e6e41c0	0.23267269
22	0x3e5421f1	0.20716073
23	0x3e955508	0.29166436
24	0x3e3a5924	0.18198067
25	0x3df5ccc8	0.120019495
26	0x3e6d34eb	0.23164718
27	0x3ec5d6a8	0.38640332
28	0x3ecce1ac	0.40015924
29	0x3e9e0f7a	0.30871183
30	0x3ebd1e68	0.3693726
31	0x3ef97674	0.48723185
32	0x3ea63f23	0.32470044
33	0x3e5b8ff7	0.21441637
34	0x3ed44433	0.41458282
35	0x3ebbd4f3	0.36685905
36	0x3ea0fbb9	0.3144205
37	0x3e215326	0.15754375
38	0x3eeb8cdb	0.46005902
39	0x3e08acf0	0.1334722
40	0x3e1f810a	0.15576568
41	0x3e13db38	0.14439094
42	0x3e805ca1	0.2507067
43	0x3e3b67f6	0.18301377
44	0x3f045a0b	0.51699895
45	0x3ea390e2	0.31946474
46	0x3f08b3fb	0.5339963
47	0x3eae766a	0.34074718
48	0x3eb303d4	0.34963858
49	0x3ec7540a	0.38931304
50	0x3ec2f1d9	0.3807514
51	0x3e90dd71	0.28293946
52	0x3e82d531	0.25553277
53	0x3e60bc00	0.21946716
54	0x3e480b17	0.1953548
55	0x3eefa139	0.4680269
56	0x3efb16c2	0.490408
57	0x3ed065d5	0.40702692
58	0x3ece2502	0.4026261
59	0x3debbdcf	0.115108125
60	0x3ec3a5b3	0.38212356
61	0x3ea21607	0.3165743
62	0x3f39aa2a	0.72525275
63	0x3e612254	0.21985751

bias f4 [64]
0	0xbe2527d1	-0.1612847
1	0xbdd8a579	-0.105784364
2	0xbe97785e	-0.2958402
3	0xbcd17286	-0.025567304
4	0x3a0f2043	0.00054598245
5	0x3d0b02f9	0.03393838
6	0x3dcec3c1	0.10095931
7	0xbcbbb850	-0.022915035
8	0x3ccd2ebd	0.0250467
9	0xbe75e1e5	-0.24011953
10	0xbda9b465	-0.08286361
11	0xba994391	-0.001169311
12	0x3c198f76	0.009372583
13	0xbea7fcb5	-0.32809988
14	0x3d309091	0.04310662
15	0xbd23fa0c	-0.040033385
16	0x3c90c0c7	0.017670048
17	0xbe2392ad	-0.15973921
18	0xbec1e3d5	-0.37869135
19	0xbc7e30d1	-0.015514568
20	0x3ccabbd3	0.024747765
21	0xbe131624	-0.14363915
22	0x3b0f6a97	0.00218836
23	0xbe151c9d	-0.14561696
24	0x3d38c44b	0.045109075
25	0xbd50dcc4	-0.05099179
26	0xbe3137a7	-0.17306386
27	0xbe878ecf	-0.26476142
28	0xbe816c16	-0.25277776
29	0xbcee9a0d	-0.029126192
30	0x3cbd3ff2	0.02310178
31	0xbd709c1f	-0.05874264
32	0xbc49441c	-0.012284305
33	0xbc6ddd4d	-0.014518094
34	0xbe0af4db	-0.13569967
35	0x3cc06f7d	0.023490662
36	0x3d0400d0	0.032227337
37	0xbd9d526b	-0.076817356
38	0xbd786911	-0.060647074
39	0xbcf5ff79	-0.030029045
40	0xbd182954	-0.03714879
41	0x3d1890bd	0.03724741
42	0xbe2b3c0d	-0.16722126
43	0xbb8ce31e	-0.0042995354
44	0xbdc76ae0	-0.09737182
45	0xbd104533	-0.035222244
46	0xbe435c7f	-0.19078253
47	0xbe062464	-0.1309982
48	0xbd79c13b	-0.060975295
49	0xbe1c720c	-0.1527788
50	0xbcfa1744	-0.030528672
51	0xbcd0f5b1	-0.02550778
52	0xbe288129	-0.1645552
53	0xbdf508d6	-0.11964576
54	0x3d50a660	0.050939918
55	0xbe1741b4	-0.14771158
56	0xbdeb446c	-0.1148766
57	0xbcea60ec	-0.02861067
58	0xbe301075	-0.17193778
59	0x3bcdee9d	0.0062845484
60	0x3be13ba5	0.0068735653
61	0x3caf56d8	0.021403715
62	0xbe875bc6	-0.26437205
63	0xbcdb8b22	-0.026799742

running_mean f4 [64]
0	0x3d2a9acd	0.041651536
1	0x3b56e33b	0.0032789249
2	0x3d64afc6	0.055831693
3	0x3d3ddc9e	0.046352975
4	0x3c4cfee1	0.01251194
5	0xbbbd0333	-0.0057682036
6	0xbc41e8ab	-0.0118352575
7	0xbbe623f8	-0.007023331
8	0xbc964882	-0.018345121
9	0x3d801c56	0.06255405
10	0xbab84710	-0.0014059264
11	0xba9e2f26	-0.0012068495
12	0x3d8d450b	0.068979345
13	0x3d67e556	0.056615196
14	0xbc443b1c	-0.011976983
15	0x3d085f1c	0.03329383
16	0xbccf2c52	-0.025289688
17	0x3ceb6ea1	0.028739275
18	0x3bc95823	0.00614454
19	0x3c5c637a	0.013451451
20	0xbcc57900	-0.024105549
21	0x3cd98c58	0.026556179
22	0x3bb50352	0.0055240775
23	0x3cbb7778	0.022884116
24	0xbc64791b	-0.013944889
25	0x3c9c1843	0.019054538
26	0xb9c9b6c4	-0.00038473879
27	0x3cd3411c	0.025787883
28	0x3d247070	0.04014629
29	0x3cc762fb	0.02433919
30	0xbc1fa7a4	-0.0097445585
31	0x3db9b371	0.09067429
32	0x3a3be281	0.00071672356
33	0xbb161448	-0.0022900272
34	0x3ca2c26a	0.019868094
35	0xbd2be0da	-0.041962482
36	0xbcbeb195	-0.023278037
37	0x3c8dd9e8	0.01731582
38	0x3d1f3c84	0.03887607
39	0x3ad06551	0.0015899335
40	0xba910590	-0.001106428
41	0xbc6c0eb8	-0.014407806
42	0x3c092581	0.008370758
43	0x3c332ea6	0.010936415
44	0x3d64f6f3	0.05589957
45	0x3d127553	0.03575642
46	0x3d603d83	0.054746162
47	0xbd3fd00b	-0.046829265
48	0xba0101dd	-0.0004921237
49	0x3cc9f44b	0.02465262
50	0xbc7cd87c	-0.015432473
51	0xbd142e83	-0.03617717
52	0xbcaa02a7	-0.020753218
53	0xbc2beabe	-0.010492979
54	0xbd102191	-0.03518826
55	0x3cff9902	0.03120089
56	0xbcc2cc68	-0.02377911
57	0xbd6537ed	-0.055961538
58	0xbc800694	-0.015628137
59	0xba387e9d	-0.000703791
60	0x3d5072be	0.050890677
61	0xbc432f9d	-0.011913207
62	0x3d26d99a	0.040734865
63	0x3ba23528	0.0049501844

running_var f4 [64]
0	0x3cc248ec	0.023716412
1	0x3c5efd01	0.0136101255
2	0x3cb2aca0	0.02181083
3	0x3d04223f	0.032259222
4	0x39c48ee5	0.00037490498
5	0x3a4eac4b	0.000788395
6	0x3c099729	0.008397856
7	0x3b8cc7d0	0.0042962804
8	0x3a134f52	0.00056194246
9	0x3c284498	0.01027026
10	0x3b2e8959	0.0026632159
11	0x36725064	3.6107604e-06
12	0x3c7a1ee6	0.015266156
13	0x3c1e1293	0.009647983
14	0x3bed6a7b	0.0072453595
15	0x3c41c5be	0.011826931
16	0x39eb5dce	0.00044892583
17	0x3bacf79c	0.005278541
18	0x3ca05c14	0.019575156
19	0x3a551836	0.0008128913
20	0x3ade3269	0.0016952279
21	0x3b03c5b3	0.0020106852
22	0x3aa4ec0c	0.0012582554
23	0x3b9e21c2	0.0048258016
24	0x3ae73141	0.001763858
25	0x3999cf0d	0.000293367
26	0x3aca3958	0.0015428467
27	0x3c54ef1a	0.012996459
28	0x3bef1b13	0.0072969287
29	0x3be53153	0.0069944053
30	0x3c5c5568	0.013448097
31	0x3ca6707c	0.020317309
32	0x3c9f9aa0	0.01948291
33	0x3c4ea6cc	0.01261301
34	0x3cbb9e41	0.02290261
35	0x3c31cf85	0.010852699
36	0x3c94f04d	0.01818099
37	0x3a903e48	0.0011004889
38	0x3c7c0aa2	0.015383394
39	0x3a0b5128	0.00053145224
40	0x3ad393ae	0.0016142034
41	0x3a455033	0.0007526904
42	0x3b19f03d	0.002348914
43	0x3a58f772	0.00082766183
44	0x3cbae8b6	0.022816043
45	0x3c0b012c	0.008484166
46	0x3c0989eb	0.008394699
47	0x3cbf2e0d	0.023337388
48	0x3be489c7	0.006974432
49	0x3bf64fc1	0.0075168316
50	0x3c5f084b	0.013612817
51	0x3ba1403c	0.0049209874
52	0x3ba0952a	0.0049005942
53	0x3b75f684	0.0037530968
54	0x3b60655e	0.0034240107
55	0x3bce12e5	0.0062888735
56	0x3d2b7d70	0.041867673
57	0x3c52faa9	0.012877145
58	0x3c57ba35	0.013166954
59	0x3a1507a0	0.0005685035
60	0x3c7eb9fa	0.01554727
61	0x3bad9962	0.0052978257
62	0x3d515aa3	0.05111183
63	0x3bc7d7cb	0.0060987226

weight f4 [64, 1, 1]
0	0x3d5cdd16	0.05392178
1	0xbd059a00	-0.03261757
2	0xbd015209	-0.031572375
3	0x3c6d34b5	0.014477898
4	0xbc8d8008	-0.017272964
5	0xbd1d8119	-0.038453195
6	0x3d29b7db	0.041435104
7	0xbd182ca5	-0.03715195
8	0x3c9954c1	0.018717172
9	0x349b439a	2.8920186e-07
10	0x3d2a042e	0.041507892
11	0x3c8bd09f	0.017067252
12	0xbc3ea2e7	-0.011635519
13	0x3cf12efe	0.029441353
14	0x3d4b63fa	0.049655892
15	0xbd179c85	-0.037014503
16	0xbd27ccc7	-0.040966775
17	0xbd0c25ca	-0.034215726
18	0xbdaceaa7	-0.08443194
19	0x3d1fa825	0.038978714
20	0xbd10700a	-0.0352631
21	0xbce682fc	-0.02813863
22	0xbd126dd9	-0.03574929
23	0x3cfdcbb6	0.030980926
24	0xbd2315b2	-0.039815612
25	0xbcb376bb	-0.021907201
26	0x3cc18b9a	0.023626138
27	0xbceaf104	-0.028679378
28	0xbd085b1d	-0.033290017
29	0xbcda05d8	-0.026614115
30	0x3d7a26d6	0.061072193
31	0x3d741d13	0.05959804
32	0xbd362ad5	-0.04447444
33	0x3cf88ffc	0.030342095
34	0x3ce97fda	0.028503347
35	0x3d2ac4e3	0.041691672
36	0x3cf16a16	0.029469531
37	0xbcde5970	-0.027142256
38	0xbd0d5d69	-0.03451291
39	0xbc99ed21	-0.01878983
40	0xbccc0e8b	-0.024909278
41	0x3c8ca2bc	0.017167442
42	0xbd1fe862	-0.039039977
43	0xbd069bed	-0.032863546
44	0x3d429c0d	0.047512103
45	0x3d064044	0.032776132
46	0x3d26eeaf	0.04075497
47	0xbccd6af0	-0.025075406
48	0xbd33f06f	-0.043930467
49	0xbceb16c8	-0.028697386
50	0xbd5446ef	-0.05182546
51	0xbcac9c28	-0.021070555
52	0x3cf96363	0.0304429
53	0xbd0bd9ac	-0.034143135
54	0xbd1f4bb9	-0.038890574
55	0x3d237126	0.03990283
56	0x3ce1c47f	0.027559517
57	0x3d4b22af	0.049593624
58	0x3cf655c6	0.030070197
59	0xbd06b6ef	-0.032889303
60	0x3d4b6238	0.049654216
61	0xbc82c525	-0.015963146
62	0x3d1d0eba	0.038344122
63	0xbcc60125	-0.024170468
