ldpi/training/output/ResCNN/traced_model.pth (torch, 775420 bytes, 63 tensors)

weight f4 [1, 1, 7]
0	0x3d988d2a	0.074488
1	0x4007311a	2.112372
2	0x3e0906a3	0.13381438
3	0x3d89cb62	0.06728245
4	0x3b9047c7	0.004403088
5	0xbd51be8e	-0.051207118
6	0xbdfb433a	-0.12268682

weight f4 [64, 1, 1]
0	0xbd1d7b61	-0.03844774
1	0x3c1430be	0.009044824
2	0xbc4c9d4e	-0.012488676
3	0x3caebe60	0.021331012
4	0xbd1ae9b8	-0.037820548
5	0x3d0878d6	0.033318363
6	0x3c7fa9b1	0.015604422
7	0x3d11b46b	0.03557245
8	0x3d0ce0dc	0.03439413
9	0xbc09d8b0	-0.008413479
10	0xbcad694b	-0.021168372
11	0xb903b490	-0.00012560398
12	0x3c8f38c0	0.017483115
13	0xbc55ee8f	-0.013057365
14	0xbd0aa62b	-0.033849876
15	0x3ce160c9	0.027511971
16	0x3c990341	0.01867831
17	0x3cdfd396	0.027322572
18	0x3d0abafa	0.03386972
19	0x3c5ded65	0.013545369
20	0x3cfccf6f	0.03086063
21	0x3c379a33	0.011206198
22	0xbcfadab2	-0.03062186
23	0xbd149792	-0.03627736
24	0xbb1a1d87	-0.0023516135
25	0x3caba235	0.02095137
26	0xbc1f15d7	-0.009709797
27	0xbc75010f	-0.014953866
28	0x3c8036ea	0.015651185
29	0x3d15ae13	0.036542963
30	0x3cfbd4b6	0.030741077
31	0x3c6eb13e	0.014568625
32	0x3ca05d9c	0.019575886
33	0xbcea3612	-0.028590236
34	0x3c8d1f82	0.017226938
35	0x397f88c9	0.00024369652
36	0xbc2e89f3	-0.010653007
37	0xbcd6d478	-0.02622436
38	0xbd13c4fe	-0.03607654
39	0x3c9d82f7	0.019227488
40	0xbd8e5794	-0.06950298
41	0x3c89fc0d	0.01684382
42	0x3ca8f65f	0.020625291
43	0x3d81505e	0.06314157
44	0xbcd79176	-0.026314478
45	0xbcdd8d9a	-0.02704506
46	0xbcf9044a	-0.030397553
47	0x3b8286f6	0.0039833738
48	0x3c85f090	0.01635006
49	0x3d08b5b4	0.03337641
50	0xbb4714bb	-0.0030377347
51	0x3d16a84d	0.036781598
52	0x3cf21c8f	0.029554633
53	0x3e834d75	0.25645033
54	0xbc640e46	-0.013919419
55	0x3c955e5b	0.018233469
56	0xbd21ac73	-0.0394711
57	0xbcbdaf32	-0.023154829
58	0x3d0c23f4	0.034213975
59	0xba07e76a	-0.00051843247
60	0xbd577198	-0.052598566
61	0x3c880769	0.016605096
62	0x3c6be458	0.014397703
63	0x3d16e348	0.036837846

weight f4 [64]
0	0x3e2da362	0.16956857
1	0x3d6c636c	0.057712004
2	0x3c4f52a6	0.012653982
3	0x3ea18624	0.31547654
4	0x3ebc2b61	0.36751845
5	0x3d4570e5	0.048203368
6	0x3e1c52e1	0.15265991
7	0x3e7f7462	0.2494674
8	0x3e2242d5	0.15845807
9	0x3d98afc9	0.07455403
10	0x3e4516f5	0.19247039
11	0x3e911d33	0.2834259
12	0x3ee1756c	0.44034898
13	0x3e9e4d30	0.30918264
14	0x3e8f1628	0.2794659
15	0x3d737367	0.059436228
16	0x3e5389a5	0.20657976
17	0x3e03a6f5	0.12856658
18	0x3db70e0b	0.08938225
19	0x3dd3683b	0.10322615
20	0x3e88a74f	0.26690146
21	0x3d9044b2	0.070443526
22	0x3db8f214	0.09030548
23	0x3d93eb34	0.07222596
24	0x3ec43082	0.3831826
25	0x3e189ab2	0.14902762
26	0x3d6726ff	0.056433674
27	0x3e671ee0	0.22570372
28	0x3d9f9449	0.07791955
29	0x3ee44a88	0.44588113
30	0x3e036d0a	0.12834564
31	0x3db6d340	0.089270115
32	0x3e4daa9a	0.2008461
33	0x3cfbd516	0.030741256
34	0x3ee2ae98	0.4427383
35	0x3eb6cceb	0.35703215
36	0x3d32fcbd	0.04369806
37	0x3db3c6cc	0.08778152
38	0x3e2bcf76	0.16778359
39	0x3e154ebe	0.14580819
40	0x3f620c72	0.8830024
41	0xbcc290ea	-0.023750741
42	0x3e4e86e4	0.20168644
43	0x3ecc78a0	0.3993578
44	0x3e609160	0.21930456
45	0x3ed79648	0.42106843
46	0x3d8dc92c	0.06923136
47	0x3d4753f1	0.048664037
48	0x3e740691	0.2383063
49	0x3eab1036	0.33410805
50	0x3e97bea8	0.29637647
51	0x3eb72a4b	0.35774454
52	0x3d8f41a2	0.0699494
53	0x3ee685b8	0.45023894
54	0x3e067569	0.13130726
55	0x3ef9368f	0.48674437
56	0x3f11dbf7	0.56976265
57	0x3dd0aca9	0.10189182
58	0x3d1100ba	0.035401084
59	0x3e9a9a44	0.3019582
60	0x3f1a5a55	0.60294086
61	0x3e8809c5	0.26569954
62	0x3e461cb0	0.19346881
63	0x3e534777	0.2063273

bias f4 [64]
0	0xbe67a1a3	-0.22620253
1	0xbc25d5a8	-0.01012174
2	0x3f33c0af	0.70215887
3	0xbdc75870	-0.09733665
4	0x3e742449	0.23841967
5	0xbc495399	-0.012287998
6	0x3d61641c	0.055027112
7	0xbd667054	-0.05625947
8	0x3e219f20	0.15783358
9	0x3c1c5d38	0.009543709
10	0x3d3f3b03	0.046687137
11	0xbdb367ac	-0.08760008
12	0xbe57e5af	-0.21083711
13	0xbeb8aedd	-0.3607091
14	0xbddcf0a1	-0.10788084
15	0x3d978fb3	0.07400455
16	0xbd8c09fa	-0.068378404
17	0xbd0e0b7e	-0.03467893
18	0x3db885af	0.09009873
19	0xbd011c88	-0.03152135
20	0xbdff84c9	-0.12476499
21	0x3d628fff	0.055313107
22	0xbde99853	-0.11406007
23	0xbdcfb057	-0.10141056
24	0xbed4565a	-0.4147213
25	0x3e3bd882	0.1834431
26	0xbd12e7b9	-0.03586552
27	0xbd971b58	-0.07378262
28	0x3ea14605	0.31498733
29	0x3ee4560f	0.44596907
30	0xbd3204fa	-0.043461777
31	0xbcef1118	-0.029182956
32	0x3e7a8a58	0.24466836
33	0xbd22d2bf	-0.039751764
34	0x3e60d59e	0.21956488
35	0xbdae0ef2	-0.08498944
36	0xbc2cfdc7	-0.010558552
37	0xbcc09c0f	-0.023511915
38	0xbe53f2a8	-0.20698035
39	0xbd81af70	-0.0633229
40	0xbe86771f	-0.26262757
41	0x3e7297d4	0.2369073
42	0x3e1870ca	0.14886776
43	0x3f14543d	0.5794104
44	0x3d48dad8	0.04903683
45	0xbe35f08e	-0.17767546
46	0xbdbc728f	-0.09201538
47	0xbca153d4	-0.019693293
48	0xbdc035f8	-0.09385294
49	0x3d33496e	0.0437712
50	0xbec3d958	-0.38251758
51	0x3dff8fa2	0.12478568
52	0xbc8b4ca4	-0.017004319
53	0x3f23072f	0.63682836
54	0x3ce08392	0.027406488
55	0x3e47129d	0.19440694
56	0xbe179902	-0.14804462
57	0xbdf418ca	-0.11918791
58	0xbcb7c94a	-0.02243485
59	0xbe0596af	-0.13045762
60	0x3c1c0d7e	0.009524701
61	0xbdda1f4b	-0.106505
62	0xbd93fa9f	-0.072255366
63	0x3e4e39df	0.20139264

running_mean f4 [64]
0	0xbcbda470	-0.023149699
1	0x3bb2740d	0.0054459632
2	0xbbf6666d	-0.0075195343
3	0x3c526dde	0.012843577
4	0xbcba8c7b	-0.022772064
5	0x3ca45784	0.020061262
6	0x3c19efcc	0.009395551
7	0x3caf75c6	0.021418463
8	0x3ca9a5e6	0.02070899
9	0xbba5ff38	-0.005065825
10	0xbc50d323	-0.012745651
11	0xb89e9a09	-7.5627184e-05
12	0x3c2c784c	0.010526728
13	0xbc00cf64	-0.007861946
14	0xbca6f6aa	-0.02038129
15	0x3c87b3b5	0.016565183
16	0x3c3842ab	0.011246364
17	0x3c86c48e	0.016451146
18	0x3ca70fb9	0.02039324
19	0x3c059fd0	0.008155778
20	0x3c98381a	0.018581439
21	0x3bdd18d2	0.0067473436
22	0xbc970a9b	-0.018437674
23	0xbcb2efe0	-0.021842897
24	0xbab99696	-0.0014159258
25	0x3c4eaf1d	0.012614992
26	0xbbbf92ba	-0.0058463486
27	0xbc1384dd	-0.009003845
28	0x3c1a65e5	0.009423708
29	0x3cb43f42	0.02200282
30	0x3c97a123	0.018509453
31	0x3c0fb7f9	0.00877189
32	0x3c411d6f	0.011786803
33	0xbc8d0540	-0.017214417
34	0x3c29f156	0.01037248
35	0x3919dbfc	0.00014673168
36	0xbbd22ebc	-0.0064142626
37	0xbc8159d3	-0.015789902
38	0xbcb1f24b	-0.02172198
39	0x3c3dad94	0.011577029
40	0xbd2b6923	-0.041848313
41	0x3c2629ce	0.010141803
42	0x3c4b77a1	0.0124186585
43	0x3d1bb8d3	0.03801806
44	0xbc81cb9f	-0.015844164
45	0xbc856622	-0.016284052
46	0xbc95ef5e	-0.018302616
47	0x3b1d2ed9	0.0023984222
48	0x3c214ada	0.009844506
49	0x3ca4a0cf	0.02009621
50	0xbaefbc91	-0.001829045
51	0x3cb56c95	0.022146503
52	0x3c91c701	0.017795088
53	0x3e1e1de0	0.15441084
54	0xbc095072	-0.008380996
55	0x3c33df41	0.010978521
56	0xbcc2b0a7	-0.023765875
57	0xbc646bc9	-0.013941714
58	0x3ca8c269	0.020600514
59	0xb9a3a865	-0.00031215246
60	0xbd01b86f	-0.03167003
61	0x3c23ceed	0.009998065
62	0x3c0e0852	0.008668976
63	0x3cb5b39b	0.02218037

running_var f4 [64]
0	0x3a24d2cd	0.0006287515
1	0x3811f2a2	3.4796663e-05
2	0x388b1f95	6.633919e-05
3	0x394aefc0	0.00019353535
4	0x3a1f7d65	0.0006084054
5	0x39f78e80	0.00047217682
6	0x38d93390	0.000103569706
7	0x3a0d17c2	0.00053822633
8	0x3a03e67e	0.00050315994
9	0x37fc916e	3.0108462e-05
10	0x3947da8b	0.00019059532
11	0x31e690bb	6.710335e-09
12	0x39085327	0.00013000947
13	0x3898150a	7.2518436e-05
14	0x39ff849a	0.00048736186
15	0x39a8caa3	0.00032194433
16	0x391b99dc	0.00014839269
17	0x39a679be	0.00031752692
18	0x39ffd152	0.00048793346
19	0x38a3a994	7.804032e-05
20	0x39d461b1	0.00040508577
21	0x386008b0	5.3413853e-05
22	0x39d11b9e	0.00039884163
23	0x3a12bd74	0.0005597689
24	0x361dda05	2.3521727e-06
25	0x3943c6f7	0.0001867077
26	0x3828325c	4.0101222e-05
27	0x38c777ec	9.511397e-05
28	0x38da8154	0.00010419139
29	0x3a14e588	0.0005679955
30	0x39d2bd40	0.00040195324
31	0x38bd52ce	9.027646e-05
32	0x392aea3d	0.00016299724
33	0x39b64814	0.00034767448
34	0x39045be7	0.00012622737
35	0x32d8fbab	2.5260155e-08
36	0x384a760d	4.8270496e-05
37	0x39995c9c	0.00029251433
38	0x3a111eb2	0.0005535885
39	0x3924e2ad	0.00015724702
40	0x3b06a7cf	0.00205468
41	0x38fd1315	0.000120675344
42	0x393dbb0c	0.00018094125
43	0x3ade44bf	0.0016957744
44	0x399a6ae8	0.0002945282
45	0x39a31c6a	0.00031110953
46	0x39ce0e40	0.00039302
47	0x36e2757a	6.749001e-06
48	0x38ee746c	0.000113704096
49	0x39f86b84	0.00047382351
50	0x3683b34a	3.924976e-06
51	0x3a16d8fd	0.00057543797
52	0x39c2c94b	0.00037152538
53	0x3ce52849	0.027973311
54	0x38acd380	8.240994e-05
55	0x39144718	0.00014140864
56	0x3a2db6e2	0.0006626678
57	0x396f1f5c	0.00022804498
58	0x3a0285af	0.0004979027
59	0x33f58005	1.1431988e-07
60	0x3a9a3d44	0.0011767526
61	0x38f5f3ac	0.00011727898
62	0x38b8e83b	8.81706e-05
63	0x3a174f30	0.0005771993

weight f4 [64, 1, 5]
0	0x3dbb6c7a	0.0915155
1	0x3d8edb50	0.06975424
2	0x3d723d30	0.059140384
3	0x3dcc94a5	0.09989289
4	0x3da37152	0.079805985
5	0x3c7e1662	0.015508266
6	0x3d0157bc	0.03157781
7	0x3d12dcf2	0.03585524
8	0x3bdae4f8	0.0066801272
9	0xbc7d0561	-0.015443177
10	0x3ed759d9	0.42060736
11	0x3d527e3f	0.05138993
12	0xbe39f084	-0.18158156
13	0x3d33ebd5	0.04392608
14	0x3ebd61d3	0.36988696
15	0xbdb6ed88	-0.08932024
16	0xbdecbd58	-0.11559552
17	0xbc793750	-0.015210941
18	0xbdfd217f	-0.123599045
19	0xbdf16f2b	-0.11788782
20	0xbee0c390	-0.43899202
21	0xbe32cd95	-0.17461236
22	0xbbe436f2	-0.006964558
23	0xbd278817	-0.04090127
24	0x3d9a6e2a	0.075405434
25	0xbd11a6ff	-0.03555965
26	0xbc3efd86	-0.011657124
27	0x3c35ac18	0.011088394
28	0xbc0ea1ff	-0.008705615
29	0xbc8433f4	-0.016138054
30	0x3d885aa4	0.06657913
31	0x3d912929	0.07087929
32	0x3c90167c	0.017588846
33	0x3ce1b758	0.027553245
34	0x3d24bbc4	0.04021813
35	0xbd151d18	-0.0364047
36	0xbd08996a	-0.033349432
37	0xbe1e3533	-0.15449981
38	0xbde8dfa2	-0.113707796
39	0xbd9d2760	-0.07673526
40	0xbc800af5	-0.015630225
41	0x3d10079d	0.03516351
42	0x3d42c17a	0.047547795
43	0x3d24fc3f	0.040279623
44	0x3cd67149	0.026177065
45	0x3d00bc24	0.031429425
46	0x3d2a2787	0.041541602
47	0xbc6cc07f	-0.0144501915
48	0x3cad6447	0.02116598
49	0x3bd5e8b6	0.0065279854
50	0xbd82f3b9	-0.06394143
51	0xbcd94078	-0.026519999
52	0xbdb219fd	-0.08696363
53	0xbcd51925	-0.026012966
54	0xbcbd1ede	-0.023086008
55	0xbd890c0d	-0.06691752
56	0xbdc62e0f	-0.09676754
57	0xbd713e91	-0.05889756
58	0xbd520592	-0.051274844
59	0xbda2338e	-0.079199895
60	0xbc8bca38	-0.017064199
61	0x3c091880	0.008367658
62	0xbd418ff3	-0.04725642
63	0xbd7c25a8	-0.06155935
64	0xbdd5e8b1	-0.10444773
65	0x3ca10fe9	0.019660907
66	0x3cf9e2b0	0.0305036
67	0x3d0e3cdf	0.03472602
68	0x3d483f0d	0.048888255
69	0x3dbf6a96	0.093465015
70	0xbd658e1f	-0.05604374
71	0xbe0c335d	-0.13691469
72	0xbcbeb5c8	-0.02328004
73	0xbd69c7f9	-0.057075474
74	0xbdbb7819	-0.09153766
75	0x3c88ba09	0.016690271
76	0x3d166193	0.036714148
77	0xbce037c5	-0.027370343
78	0x3bf0f1c4	0.0073530395
79	0x3c2c6b82	0.010523679
80	0x3d3faee1	0.046797637
81	0x3d888e32	0.066677466
82	0x3ca52b04	0.020162113
83	0x3d64e026	0.055877827
84	0x3db955b4	0.0904955
85	0xbd08a8f8	-0.033364266
86	0xbd042038	-0.03225729
87	0x3ccff5ce	0.025385763
88	0xbd1f26a8	-0.038855225
89	0xbd80b367	-0.06284218
90	0xbc268b7e	-0.0101650935
91	0xbb7f58e6	-0.00389629
92	0x3c6732ae	0.014111204
93	0x3d0523c8	0.032504827
94	0x3b108d27	0.002205679
95	0x3d41dfbf	0.04733252
96	0x3d889bab	0.06670316
97	0xbd9b8d20	-0.07595277
98	0x3ccc9313	0.024972474
99	0xbba390dc	-0.004991634
100	0x3d71b94d	0.059014607
101	0x3d94446f	0.07239615
102	0x3d639615	0.05556305
103	0x3e0879c0	0.13327694
104	0x3de01c57	0.109429054
105	0x3c65bdc8	0.014022298
106	0x3cf8f806	0.030391704
107	0xbd336f4b	-0.04380731
108	0xbc9118f1	-0.017712088
109	0xbb2d76a1	-0.0026468413
110	0xbc9b76e3	-0.018977588
111	0xbd164304	-0.036685005
112	0xbc755a77	-0.014975182
113	0xbd4b2630	-0.049596965
114	0xbc98eb28	-0.018666819
115	0xbd4dd7b1	-0.050254527
116	0xbd0cda3e	-0.03438782
117	0xbd3dfcb9	-0.046383593
118	0xbd144cdf	-0.036206122
119	0xbd4229da	-0.047403194
120	0x3d8d565a	0.06901236
121	0x3d0a2188	0.033723384
122	0x3d071a12	0.032983847
123	0x3d34d97d	0.044152725
124	0xbc672b1c	-0.014109399
125	0x3e0461d0	0.12927938
126	0x3d4d80ce	0.050171666
127	0xbcb9b04d	-0.022667075
128	0xbd1083ce	-0.03528195
129	0xbd38bb83	-0.0451007
130	0x3d88d29f	0.06680798
131	0x3cc5a54a	0.024126668
132	0xbc65d231	-0.014027164
133	0xbcfe6f22	-0.031058852
134	0xbcf0d219	-0.029397057
135	0xbd62f749	-0.05541161
136	0xbda3a85e	-0.07991098
137	0xbdb2d09f	-0.087311976
138	0xbd88433a	-0.066534474
139	0xbd9c812e	-0.076418266
140	0xbaae0288	-0.0013275901
141	0xbd46b745	-0.048514623
142	0xbd5ea038	-0.054352015
143	0x3d0f7f2e	0.035033397
144	0x3e0eac59	0.13932933
145	0xbee465ed	-0.44609013
146	0x3dce680e	0.100784406
147	0xbeb9dccf	-0.36301276
148	0xbdf3bba3	-0.11901023
149	0xbdc66dfd	-0.09688947
150	0x3cc88798	0.024478719
151	0x3d17e08f	0.03707939
152	0x3dbeecab	0.093224846
153	0x3d2320f3	0.039826345
154	0x3d000f25	0.031264443
155	0xbd037b69	-0.032100115
156	0xbc7ef960	-0.015562385
157	0xbd37d245	-0.044878263
158	0xbd721129	-0.059098396
159	0xbccfaa61	-0.025349798
160	0xbdb78f98	-0.08962935
161	0x3b804038	0.0039139055
162	0xbcf21e6a	-0.029555518
163	0x3d3c76fd	0.046011914
164	0x3cf1ae4f	0.029502062
165	0x3c7e9f0c	0.015540849
166	0x3a90feae	0.0011062229
167	0x3c38e9c1	0.0112862
168	0x385e44b8	5.2992924e-05
169	0x3cbb7bb2	0.022886131
170	0x3e53efe2	0.20696977
171	0x3e120432	0.14259413
172	0x3e284fd0	0.16436696
173	0x3de52dcf	0.11190378
174	0x3d8b32cf	0.067968
175	0xbde00787	-0.10938936
176	0xbdd19a8e	-0.10234557
177	0xbe0f3086	-0.13983354
178	0xbdd12507	-0.102121405
179	0xbdfc812b	-0.12329324
180	0xbc40e449	-0.011773177
181	0xbb910aee	-0.0044263517
182	0xbc43e39b	-0.011956121
183	0x3b0ed094	0.0021791803
184	0xbc4d9521	-0.012547762
185	0xbd1363e7	-0.035983946
186	0xbd22f0fa	-0.039780594
187	0xbc50bcea	-0.012740353
188	0xbbf5e80c	-0.007504469
189	0xbd0de010	-0.03463751
190	0x3e21a946	0.15787229
191	0x3e035a19	0.12827338
192	0x3ca3103b	0.0199052
193	0x3d36bd05	0.044613857
194	0x3de0d257	0.10977619
195	0x3dea7f17	0.11450022
196	0x3e472e29	0.19451202
197	0xbdbae538	-0.09125751
198	0x3d19b004	0.037521377
199	0xbbf33e50	-0.0074231997
200	0x3f62e749	0.88634163
201	0xbef416b3	-0.47673568
202	0x3e6a8bcc	0.22904891
203	0xbd586f14	-0.052840307
204	0xbe5d194a	-0.21591678
205	0xbe2ed7f0	-0.17074561
206	0xbd5d8ed6	-0.054091297
207	0x3e0b1f5f	0.13586186
208	0x3d51b7a9	0.051200543
209	0x3a94acd4	0.0011343011
210	0xbde63093	-0.112397335
211	0xbd3eca72	-0.046579786
212	0xbd184af3	-0.037180852
213	0xbd28304c	-0.041061684
214	0xbd29351e	-0.041310422
215	0xbd9f9f41	-0.07794047
216	0xbe58b9ac	-0.21164578
217	0x3f80c67f	1.0060576
218	0xbe8cf74c	-0.27532423
219	0xbe6286be	-0.22121713
220	0xbe2d1f0d	-0.16906376
221	0xbdd66fc3	-0.104705356
222	0xbd3f0dae	-0.046643905
223	0xbd0e860a	-0.0347958
224	0xbc3b53f3	-0.011433589
225	0xbd97a1d6	-0.07403915
226	0xbdbff989	-0.09373767
227	0xbdef527e	-0.11685656
228	0xbdcbece5	-0.099572934
229	0xbdf76c4e	-0.12081204
230	0x3d8d19a8	0.06889659
231	0x3d5646fa	0.052313782
232	0x3bf12590	0.007359214
233	0x3ce8fd0e	0.028440978
234	0x3d41dbc1	0.047328714
235	0xbc7b54d7	-0.015340052
236	0xbac96715	-0.0015365804
237	0x3c3af550	0.011411026
238	0xbb8bf5eb	-0.004271259
239	0xbcdb281c	-0.026752524
240	0xbd5b14df	-0.0534867
241	0xbd8d02a8	-0.06885272
242	0xbda97454	-0.08274141
243	0xbda788a9	-0.08180363
244	0xbda940b5	-0.08264295
245	0x3eacd9cd	0.3375992
246	0xbe9c1e9c	-0.30492103
247	0x3e30c95c	0.17264313
248	0xbce02f09	-0.027366178
249	0xbde26227	-0.11053877
250	0x3e42ffb7	0.1904286
251	0x3e843758	0.25823474
252	0x3e00dc85	0.12584122
253	0x3e0092f1	0.12556054
254	0x3e18eacb	0.14933316
255	0xbccbe3ce	-0.0248889

weight f4 [64, 64, 1]
0	0xbd720361	-0.059085254
1	0xbc09f78d	-0.008420837
2	0x3bc92c72	0.0061393315
3	0x3d7c9f2b	0.061675232
4	0x3dc61921	0.09672762
5	0x3bc0ba39	0.0058815745
6	0x3d264711	0.040595118
7	0x3c367617	0.011136553
8	0xbdac1081	-0.08401585
9	0x3a622866	0.00086272357
10	0xbb2e2711	-0.0026573578
11	0x3c6f06c6	0.014589017
12	0x3838b7fa	4.404036e-05
13	0x3c0feadc	0.008784022
14	0x3b6237a0	0.0034518018
15	0xbd9ad43d	-0.075600125
16	0x3ca6b5da	0.020350385
17	0x3cbcc091	0.023041042
18	0xbda79458	-0.08182591
19	0xbbdd0ec1	-0.0067461436
20	0xbd46a936	-0.048501216
21	0xbc062cb4	-0.008189369
22	0x3d04a5f0	0.032384813
23	0x3da6b2cd	0.08139572
24	0x3bee0cf7	0.007264729
25	0x3d986ed9	0.074430175
26	0xbbf93379	-0.007605013
27	0x3d8ed7c3	0.06974747
28	0xbce9417e	-0.028473612
29	0x3cb629f3	0.0222368
30	0xbccc7a43	-0.024960643
31	0x3cca34b2	0.02468333
32	0xbbe7ace9	-0.007070173
33	0x3a40d5b5	0.00073560636
34	0x3c312814	0.010812778
35	0x3d730dec	0.05933945
36	0xbb3b1810	-0.0028548278
37	0xbc6f9acf	-0.014624312
38	0xbe1111f3	-0.14167003
39	0xbc8ead83	-0.017416721
40	0x3ddb36c5	0.10703806
41	0x3dc3915a	0.09549208
42	0xbda26809	-0.079299994
43	0x3a2fbf57	0.0006704232
44	0x3c9798e9	0.01850553
45	0x3dce0da3	0.10061195
46	0xbd89420c	-0.067020506
47	0xbcb33931	-0.021877857
48	0x3d6ae9a0	0.05735171
49	0xbd778440	-0.060428858
50	0xbdbad808	-0.09123236
51	0x3ca844f2	0.020540688
52	0x3c02b9ac	0.007978838
53	0x3b160079	0.0022888465
54	0x3d0b5e3a	0.03402541
55	0x3dad8cc9	0.08474118
56	0xbcb5d627	-0.022196842
57	0xbde8a90e	-0.113603696
58	0x3ad6765c	0.0016362178
59	0xbd4e8779	-0.050422166
60	0xbd7b38be	-0.06133341
61	0xbd924402	-0.07141878
62	0xbcdbffa2	-0.026855294
63	0xbc85a4e2	-0.016313974
64	0xbc51d653	-0.0128074465
65	0xb9b7f0c1	-0.00035083856
66	0xbd6ec17c	-0.05828999
67	0x3ab20360	0.0013581328
68	0x3d49b93e	0.049248926
69	0xbbddfc8f	-0.006774492
70	0x3d2b60e5	0.041840453
71	0xbd0ec174	-0.03485246
72	0xbd2afb90	-0.041743815
73	0x3a94d008	0.0011353502
74	0xbcc45733	-0.023967361
75	0x3c015643	0.007894102
76	0xbce1ea6d	-0.027577603
77	0x3cdb4399	0.026765632
78	0x3c2ecb45	0.01066858
79	0xbc956d46	-0.018240582
80	0x3bdf6740	0.0068177283
81	0xbc398259	-0.011322581
82	0xbd26e6d3	-0.040747475
83	0xba9ededa	-0.0012120858
84	0x3bbe1f18	0.0058020465
85	0xbccedea7	-0.025252653
86	0xbc83273d	-0.016009921
87	0x3d424881	0.047432426
88	0xbc06c5aa	-0.008225838
89	0x3bb34484	0.005470814
90	0xbc9004d3	-0.017580425
91	0x3d2217c1	0.039573435
92	0xbc201b6b	-0.009772162
93	0x3bed0aef	0.0072339694
94	0xbc55e668	-0.013055421
95	0x3b8027af	0.0039109807
96	0x3cecbeca	0.028899569
97	0xbd105127	-0.035233643
98	0xbcff4c86	-0.031164419
99	0x3cd6a211	0.026200326
100	0x3baea4e8	0.005329717
101	0x3b5474fe	0.0032418366
102	0xbd6d23b0	-0.057895362
103	0x39f4ef4c	0.00046717597
104	0x3d5dbc87	0.05413487
105	0x3d5a6e15	0.05332764
106	0xbd3e5708	-0.04646972
107	0x3a878da5	0.0010341896
108	0x3ce1d63c	0.027567975
109	0x3d29e095	0.041473944
110	0xbcc8b259	-0.024499105
111	0xbc95b8dd	-0.018276626
112	0x3c21e2c3	0.009880724
113	0xbcd62ff3	-0.02614591
114	0xbcc6f7db	-0.024288109
115	0xbc387a49	-0.011259624
116	0x38ef5ce2	0.00011413709
117	0x3d1e3def	0.038633283
118	0x3c47a3e9	0.012185075
119	0x3c7c7017	0.015407584
120	0x3c9f9f62	0.01948518
121	0xbd34ac48	-0.044109613
122	0xb8d8d937	-0.00010340142
123	0xbb992033	-0.004673028
124	0xbc629b6e	-0.013831003
125	0x3c0cf77b	0.008603926
126	0xbb00deb2	-0.0019663987
127	0x3c3ce3cf	0.011528923
128	0x3c468af4	0.01211809
129	0x3ae64f8c	0.0017571314
130	0xbb05c898	-0.0020413753
131	0xbd37b761	-0.044852618
132	0xbd0152c5	-0.031573076
133	0xbb49347d	-0.0030701451
134	0xbb8315cf	-0.0040004025
135	0x3c68017d	0.014160511
136	0x3d33be0f	0.043882426
137	0x3b8e9368	0.0043510683
138	0xbb87fd67	-0.004150081
139	0x3c7c9128	0.015415467
140	0x3d7a2fb7	0.06108066
141	0xbccd64a5	-0.025072405
142	0x3c62a500	0.013833284
143	0x3c64ee04	0.013972763
144	0x3c9393a7	0.018014742
145	0xbc65167c	-0.0139824115
146	0x3c7215cc	0.014775705
147	0x3b4fc923	0.003170558
148	0x3d219a60	0.039453864
149	0x39d15ac7	0.0003993122
150	0x39ad4f09	0.00033056017
151	0xba971491	-0.0011526515
152	0x3d2c0c6f	0.042004045
153	0xbcab24de	-0.020891603
154	0xbb08088a	-0.0020757043
155	0xbccf3cc6	-0.025297534
156	0x3c05ff13	0.00817849
157	0x3d5f54da	0.05452428
158	0x3c8fac92	0.017538343
159	0xbc44ff81	-0.0120238075
160	0x3caf6b4b	0.021413466
161	0x3b5f0f71	0.0034036303
162	0xbcdfda6f	-0.027325837
163	0xbd2c6c8d	-0.04209571
164	0xbaa77017	-0.0012774494
165	0x3bd51e38	0.0065038465
166	0x3d14fbdc	0.036373004
167	0x3bea0647	0.0071418616
168	0x3c36abbc	0.011149343
169	0xbc9e689c	-0.019336991
170	0x3cc3ed50	0.02391687
171	0xbd1ef1e8	-0.03880492
172	0xbc93dfca	-0.018051047
173	0xbd9a73b4	-0.075416
174	0x399c3d8e	0.000298005
175	0x3bdf473b	0.0068139113
176	0xbcd9c3a6	-0.02658255
177	0x3c9f3321	0.01943356
178	0x3bdbe233	0.0067103147
179	0x3c995845	0.018718848
180	0xbbbc8bcb	-0.0057539693
181	0x3cc33e2c	0.023833357
182	0xbc180630	-0.009278819
183	0x3ca95cb7	0.020674093
184	0xbce3e5f4	-0.027819611
185	0x3c82a00b	0.015945455
186	0xbb449c72	-0.0030000475
187	0x3d0fd065	0.03511085
188	0xbcff9c2e	-0.031202402
189	0x3d1f1b71	0.03884453
190	0x3c83ec65	0.016103933
191	0xbc4945bb	-0.012284691
192	0x3c2c5923	0.010519299
193	0xbc34643e	-0.011010228
194	0x3d5ada6d	0.053430963
195	0xbc8c14a7	-0.017099692
196	0x3d46265d	0.04837643
197	0xbbe1660a	-0.006878619
198	0x3ccbe7e9	0.024890857
199	0xbc874eb8	-0.016517028
200	0xbccb72a2	-0.024834935
201	0xbbf4f00d	-0.0074749053
202	0xbc2c2175	-0.010506024
203	0x3caebfff	0.021331785
204	0xbb3c252d	-0.0028708682
205	0x3bd00416	0.0063481433
206	0x3b660409	0.003509762
207	0xbbdfee5b	-0.006833834
208	0x3c4cd811	0.012502686
209	0xbc80e139	-0.015732395
210	0xbcbb50c5	-0.022865662
211	0x3c810c40	0.015752912
212	0xba6cee02	-0.00090381515
213	0xbb775f07	-0.003774585
214	0xbc6ef428	-0.014584579
215	0x3c87bac9	0.016568558
216	0x3c92d9cf	0.017926125
217	0x3c5fa926	0.013651168
218	0xbd437112	-0.047715254
219	0x3cd748d6	0.026279848
220	0xbbae2491	-0.0053144176
221	0x3b9fbcf2	0.004874819
222	0xbc07d846	-0.00829131
223	0x3be84f23	0.007089512
224	0x3c975f2f	0.018478004
225	0x3af18333	0.0018425941
226	0xbc84794c	-0.01617112
227	0x3c9fdb90	0.019513875
228	0x3a687f1b	0.0008869038
229	0x3c3b8771	0.011445866
230	0xbc98625e	-0.018601593
231	0x3cddfa48	0.027096882
232	0xbcb1159a	-0.021616746
233	0x3cf684b9	0.030092584
234	0xbce4ce53	-0.027930414
235	0xbc4e47d5	-0.012590368
236	0x3cd1395e	0.02554005
237	0x3d00e573	0.03146882
238	0xbb3f25a9	-0.0029166734
239	0xbc89cc62	-0.01682109
240	0x3c73ba09	0.014875897
241	0xbd14bb91	-0.03631169
242	0xbc77757d	-0.015103695
243	0x3ba61a7d	0.0050690756
244	0xbc3c0c7d	-0.011477587
245	0xbd1da828	-0.038490444
246	0x3a6034b0	0.0008552773
247	0x3c5d86d2	0.013520913
248	0xbcc1f132	-0.023674581
249	0xbcc5eae0	-0.024159849
250	0x3b6e3410	0.003634695
251	0xbb13be03	-0.0022543676
252	0x3cfaa48c	0.03059604
253	0x3b9dacdd	0.0048118667
254	0xbcb0ab4a	-0.021566052
255	0x3c5f8f8d	0.013645065

weight f4 [64]
0	0x3e83f328	0.2577145
1	0x3e452c1b	0.19255106
2	0x3e34f7e2	0.17672685
3	0x3dc6ea64	0.09712675
4	0x3e32e837	0.17471395
5	0x3ebec7d3	0.3726183
6	0x3dcd760c	0.10032281
7	0x3dea2899	0.11433525
8	0x3d062f41	0.03275991
9	0x3dccad70	0.09994018
10	0x3f10ab75	0.5651162
11	0x3e94b5f4	0.2904507
12	0x3ee87c8b	0.4540752
13	0x3d0ca0f9	0.034333203
14	0x3daa2e15	0.08309571
15	0x3e9f1eeb	0.31078276
16	0x3d592812	0.05301673
17	0x3ef8e64a	0.48613197
18	0x3dbcd494	0.092202336
19	0x3f2e2ed8	0.6804023
20	0x3d9899c0	0.074512005
21	0x3ecf057d	0.40433875
22	0x3dc2e3bd	0.09516094
23	0x3d2e8d5a	0.042615272
24	0x3f337a7e	0.70108783
25	0x3f0d46e7	0.55186313
26	0x3e27614b	0.16345708
27	0x3e466cb3	0.19377403
28	0x3dbab68c	0.09116849
29	0x3d2553d6	0.040363155
30	0x3e695988	0.2278806
31	0x3f16bc56	0.5888113
32	0x3d1d8ea5	0.038466115
33	0x3d14654a	0.03622941
34	0x3d3e4d11	0.046460215
35	0x3d8f52ae	0.06998192
36	0x3e15dd16	0.14635119
37	0x3d9c1c69	0.07622606
38	0x3f63430e	0.8877419
39	0x3cf1b68a	0.029505987
40	0x3d9f1ba1	0.07768942
41	0x3e2f375c	0.17110962
42	0x3dc04063	0.09387281
43	0x3e475d88	0.19469273
44	0x3e602f6a	0.21893087
45	0x3d1e4a2c	0.038644955
46	0x3e6cb6c6	0.23116598
47	0x3d8f510a	0.06997879
48	0x3f454ed5	0.77073413
49	0x3da947e0	0.08265662
50	0x3e4ccf52	0.20000961
51	0x3e97a42d	0.29617444
52	0x3e4d4862	0.20047143
53	0x3efb0555	0.49027506
54	0x3e86500a	0.2623294
55	0x3f18b724	0.5965445
56	0x3d03d942	0.032189615
57	0x3daa3b6e	0.083121166
58	0x3e02e3ee	0.12782261
59	0x3ea417a7	0.32049295
60	0x3e0e364d	0.13887902
61	0x3e663b69	0.224836
62	0x3f2171c2	0.63064206
63	0x3de3335a	0.11093779

bias f4 [64]
0	0xbeb39a5c	-0.35078704
1	0xbddbb978	-0.10728735
2	0xbbddb60f	-0.006766088
3	0xbdb30492	-0.08741106
4	0xbd6f4604	-0.05841638
5	0xbe1e501f	-0.15460251
6	0xbd61f6de	-0.05516707
7	0x3ae28b74	0.0017283992
8	0xbc1ea0ca	-0.00968189
9	0xbe2ee6ef	-0.17080282
10	0x3be77a46	0.0070641367
11	0xbe929096	-0.28625935
12	0xbe6060fa	-0.21911994
13	0xbbdfb317	-0.006826769
14	0xbd56eb95	-0.052470762
15	0xbe2b1929	-0.16708817
16	0x3b5b87cb	0.0033497687
17	0xbdae07c4	-0.08497575
18	0x3ac32a2a	0.0014889885
19	0x3e07fd6b	0.13280265
20	0x3c4d6db0	0.012538359
21	0x3e3080db	0.17236654
22	0xbe87397f	-0.26411054
23	0xb89c979f	-7.466901e-05
24	0xbdf30a1d	-0.11867163
25	0xbd0fcee3	-0.035109412
26	0xbd08d49a	-0.033405878
27	0xbe403a66	-0.18772277
28	0x3bc7c7aa	0.0060968
29	0x3bde0862	0.0067759017
30	0x3d425471	0.04744381
31	0x3d971eac	0.07378897
32	0xbc850b6f	-0.016240804
33	0xbab4e2ff	-0.001380056
34	0xbd415003	-0.047195446
35	0x39fde953	0.0004842976
36	0xbe902617	-0.2815406
37	0xbd616133	-0.055024337
38	0xbf22de09	-0.6362005
39	0xbaed1fe8	-0.0018091174
40	0xbc169b38	-0.0091922805
41	0xbe5a1cd2	-0.21300057
42	0x3a0a70d5	0.00052810955
43	0xbe02b251	-0.12763335
44	0xbded1dc5	-0.11577944
45	0xba37e5ca	-0.0007015137
46	0xbd9bcff7	-0.076080255
47	0x3c10b377	0.00883185
48	0xbe922adc	-0.28548324
49	0x3c9c19da	0.019055296
50	0xbe814a7e	-0.25252146
51	0xbe8af73e	-0.27141756
52	0xbec41e8a	-0.3830455
53	0xbddb795d	-0.107165076
54	0xbd4b2819	-0.049598787
55	0x3cdaed03	0.026724344
56	0xbd0b066d	-0.033941675
57	0xbca65476	-0.020303946
58	0x3cd50a1c	0.026005797
59	0xbe20e258	-0.15711343
60	0xbd9d3268	-0.0767563
61	0xbe187da7	-0.14891683
62	0x3d4128bf	0.047158
63	0x3b94c6e0	0.0045403093

running_mean f4 [64]
0	0xbd3c6151	-0.045991246
1	0xbd513dd2	-0.051084347
2	0xbcf16a8b	-0.029469749
3	0x3c3e4309	0.011612662
4	0xbdcbe960	-0.09956622
5	0x3e1e2886	0.15445146
6	0xbd0d4a9e	-0.03449499
7	0x3ce3666b	0.027758798
8	0x390afbd6	0.00013254522
9	0xbc882699	-0.016619967
10	0xbe41b296	-0.18915781
11	0xbd9db04b	-0.07699641
12	0x3e2e0839	0.16995324
13	0x3b475986	0.003041835
14	0x3c1f5271	0.009724245
15	0xbde987ec	-0.11402878
16	0x3c3fa4c3	0.011696997
17	0x3e11502d	0.14190741
18	0xbca825b9	-0.0205258
19	0xbc13b860	-0.009016126
20	0xbcc47ffc	-0.023986809
21	0xbc539e17	-0.0129161095
22	0xbd1089f0	-0.035287797
23	0x3bf28883	0.0074015274
24	0x3d8339a9	0.06407482
25	0x3e41f3f5	0.18940718
26	0x3d11bd96	0.035581194
27	0x3d15ed18	0.036603063
28	0xbd0d7f76	-0.034545384
29	0x3bd1dc93	0.0064044683
30	0x3d64d620	0.055868268
31	0xbdce40b4	-0.10070935
32	0x390fe49a	0.00013722703
33	0xb8cd978d	-9.80339e-05
34	0xbb1d9582	-0.0024045412
35	0x3cb8279b	0.022479823
36	0x3b9bd849	0.004756008
37	0x3c4f7ac4	0.012663547
38	0xbe5eb7fa	-0.21749869
39	0xbbc8936f	-0.006121091
40	0x3bb5e072	0.0055504376
41	0xbd8974c8	-0.067117274
42	0x3c93efdc	0.01805871
43	0x3ad9d034	0.0016617835
44	0xbda36ab8	-0.07979339
45	0x39ccbf72	0.0003905255
46	0xbdcbb5da	-0.09946795
47	0xbbf1011b	-0.007354868
48	0xbe4e867b	-0.20168488
49	0x3c4511a8	0.012028135
50	0xbd926311	-0.07147802
51	0xbdaefdc9	-0.085444994
52	0x3c835b50	0.016034752
53	0x3e00861e	0.12551162
54	0x3be6bb9b	0.0070414073
55	0x3cf915dc	0.030405931
56	0xbaabe5c9	-0.0013114746
57	0xbcef6f4d	-0.029227877
58	0x3cbe2fe9	0.023216205
59	0xbdcf926e	-0.10135351
60	0x3cbfcaa2	0.023412053
61	0x3d509b35	0.050929267
62	0xbd569f0e	-0.05239778
63	0xbd4cd9e8	-0.0500125

running_var f4 [64]
0	0x3a7c3e06	0.00096222793
1	0x3a1d93bd	0.00060110894
2	0x3ab985ed	0.0014154293
3	0x3a9002f1	0.0010987205
4	0x3b8e3f45	0.0043410384
5	0x3c551fed	0.0130081
6	0x39b328ec	0.0003417203
7	0x3a7e82b0	0.0009708805
8	0x36125125	2.1802928e-06
9	0x393ed9d8	0.00018200965
10	0x3d033744	0.032035127
11	0x3b890d82	0.0041825185
12	0x3c6a3ac6	0.014296239
13	0x38a99e91	8.088083e-05
14	0x380d1739	3.3638647e-05
15	0x3c970634	0.018435575
16	0x38b1e3d7	8.482456e-05
17	0x3dc5b720	0.09654069
18	0x3aa035f9	0.0012223116
19	0x3e6e5b5a	0.23277035
20	0x38b795a9	8.7539964e-05
21	0x3ba450c9	0.005014513
22	0x3a729764	0.00092541263
23	0x3804ded6	3.1678785e-05
24	0x3d9f784e	0.07786618
25	0x3db1197d	0.0864744
26	0x3ad506a8	0.0016252594
27	0x3c3f27a7	0.011667169
28	0x3945b47c	0.0001885462
29	0x3783934c	1.5685007e-05
30	0x3b99be92	0.004691907
31	0x3e141ee9	0.14464916
32	0x37605e1e	1.3373354e-05
33	0x36e45442	6.8047384e-06
34	0x39300f40	0.00016790349
35	0x39a6c32c	0.00031807402
36	0x3b8ac3c7	0.0042347643
37	0x391d816a	0.00015020897
38	0x3d82a342	0.06378795
39	0x36cbea05	6.077115e-06
40	0x38646679	5.445487e-05
41	0x3b813df1	0.0039441516
42	0x3b02b084	0.0019941637
43	0x39cbb9ea	0.00038857694
44	0x3aa5bd75	0.0012644964
45	0x376958f6	1.3908595e-05
46	0x3c0d28fb	0.008615728
47	0x389de7d8	7.529528e-05
48	0x3e0433c0	0.12910366
49	0x38d1d213	0.00010005026
50	0x3ba31bb0	0.004977666
51	0x3ba8b1f2	0.005148166
52	0x3b695344	0.0035602609
53	0x3c9c22ac	0.019059502
54	0x3ca1011e	0.019653853
55	0x3d45e7a9	0.04831663
56	0x375cec9e	1.3168114e-05
57	0x3923764f	0.00015588965
58	0x39e71045	0.00044071875
59	0x3d1f8293	0.038942885
60	0x39b15329	0.0003382203
61	0x3b1e978f	0.0024199223
62	0x3d8189ae	0.063250884
63	0x39e07013	0.0004280811

weight f4 [64, 1, 3]
0	0x3d83e746	0.06440596
1	0x3dbc1364	0.09183386
2	0x3db2fa5d	0.08739159
3	0xbd22345e	-0.039600722
4	0xbd795915	-0.06087597
5	0x3cbdafb8	0.023155078
6	0xbdb8c48d	-0.09021864
7	0xbdd0944a	-0.10184534
8	0xbda72511	-0.08161367
9	0x3d3d97be	0.04628729
10	0x3c900e9b	0.01758509
11	0x3d68b1b1	0.056810085
12	0x3d6283b9	0.0553014
13	0xbd920ff8	-0.07131952
14	0xbe029b07	-0.1275445
15	0x3e4ebb6c	0.20188683
16	0x3e2c48b0	0.16824603
17	0x3e58f616	0.21187624
18	0xbc88b871	-0.016689511
19	0xbd727ad8	-0.059199184
20	0xbd61d2c9	-0.05513266
21	0xbd6d964d	-0.058004666
22	0xbd18e426	-0.037326954
23	0xbda956a9	-0.08268482
24	0xbc128c33	-0.008944559
25	0x3c79a9df	0.015238254
26	0xbc8f558b	-0.017496845
27	0x3d47f59c	0.048818216
28	0x3d9a9ec6	0.07549815
29	0x3db124f3	0.08649626
30	0x3cc8659a	0.02446251
31	0xbd93b6ae	-0.07212578
32	0x3ed0319a	0.40662843
33	0xbd38a813	-0.045082163
34	0xbbf1cc08	-0.0073790587
35	0x3d6ff188	0.05857995
36	0x3e8d558b	0.27604327
37	0x3e1b3d3b	0.15160076
38	0x3e81d665	0.25358883
39	0x3c8fb509	0.017542379
40	0xbce5ddb1	-0.028059812
41	0x3c1bf5d3	0.009519058
42	0xbcde9a28	-0.027173117
43	0xbb9fa22e	-0.0048716282
44	0xbd06a07f	-0.032867905
45	0xbcc9ca36	-0.024632555
46	0xbdcaedda	-0.09908648
47	0xbe395a52	-0.1810086
48	0xbc126f55	-0.008937676
49	0xbcee21f2	-0.02906892
50	0xbcd99895	-0.026562015
51	0x3e66ca16	0.22538027
52	0xbf0242f7	-0.5088343
53	0xbe096f5c	-0.13421386
54	0xbc9ea791	-0.019367011
55	0x3d6febd4	0.058574513
56	0x3d7cfd8a	0.06176523
57	0x3e9ec1aa	0.3100713
58	0xbcbd01f5	-0.023072222
59	0xbf42a4c5	-0.7603267
60	0xbd7d7b9a	-0.061885454
61	0x3d2a38ec	0.04155819
62	0xbb668a9e	-0.0035177837
63	0xbdf56d41	-0.11983729
64	0xbddbd2fc	-0.107336015
65	0x3dd328d3	0.10310521
66	0xbd696627	-0.056982186
67	0xbd50e584	-0.051000133
68	0xbdca0a77	-0.09865277
69	0xbca89f22	-0.020583693
70	0xbcbbed22	-0.022940222
71	0xbc822e98	-0.015891358
72	0x3f0f8e3b	0.560764
73	0xbf027629	-0.5096155
74	0x3e658163	0.22412638
75	0xbe035660	-0.12825918
76	0xbe15d028	-0.14630187
77	0xbed7cb86	-0.42147464
78	0xbdad1ccd	-0.08452759
79	0xbdbc2497	-0.091866665
80	0xbdaef30b	-0.085424505
81	0xbdd41c44	-0.10356954
82	0x3e298310	0.16553903
83	0x3d87b042	0.066254154
84	0xbd6c7a30	-0.057733715
85	0x3d4faf58	0.05070433
86	0x3d3bbd1b	0.045834642
87	0xbd090de1	-0.0334605
88	0xbbfc135b	-0.007692737
89	0x3bf75b31	0.0075487127
90	0xbe10c2a7	-0.14136754
91	0xbe01f952	-0.12692764
92	0xbdb5c129	-0.08874733
93	0x3f1d4db3	0.61446685
94	0xbcf781d1	-0.030213268
95	0xbef889b9	-0.48542574
96	0xbbe904d8	-0.007111173
97	0xbc56b18f	-0.013103857
98	0x3cb3d00a	0.021949787
99	0x3b97a537	0.0046278494
100	0xba82d77b	-0.0009982431
101	0x3af87e10	0.0018958468
102	0x3ca79668	0.020457461
103	0x3c82a9d4	0.015950121
104	0x3ce3f283	0.0278256
105	0x3c1192e9	0.008885124
106	0x3c80eb9f	0.015737353
107	0x3d870227	0.065922074
108	0xbdaa046a	-0.08301623
109	0xbda89b91	-0.08232797
110	0xbddd449f	-0.10804104
111	0xbbcc0638	-0.0062263273
112	0xbd44a345	-0.04800727
113	0xbd3beec3	-0.045881998
114	0x3d770cce	0.060314946
115	0xbd2793e8	-0.04091254
116	0xbdbc7b72	-0.09203233
117	0x3b2c3525	0.0026276794
118	0x3ac4140a	0.0014959585
119	0xbc0cd31c	-0.008595254
120	0xbcc999a2	-0.02460939
121	0xbd398d01	-0.045300487
122	0xbd29f881	-0.041496757
123	0x3dd8f7fe	0.10594176
124	0x3dc8569c	0.097821444
125	0x3de916c6	0.11381297
126	0x3d19bfc7	0.03753641
127	0xbd8e4c2b	-0.06948122
128	0x3d64896b	0.055795114
129	0x3c79cfa7	0.015247262
130	0x3da35e25	0.07976941
131	0x3db6d20d	0.08926783
132	0xbdddfee9	-0.10839636
133	0xbdd5309b	-0.104096614
134	0xbdd7d3c1	-0.10538436
135	0xbba1ed8e	-0.004941649
136	0x3c82febe	0.015990611
137	0x3bc1d279	0.005914983
138	0xbe6f9ee2	-0.23400453
139	0xbcb41908	-0.021984592
140	0xbb7b1323	-0.0038310967
141	0xbba39e61	-0.0049932455
142	0x3d151b9d	0.036403287
143	0x3d66c8c1	0.056343798
144	0x3ece8d30	0.40342093
145	0xbd8d6d4b	-0.069056116
146	0x3d4d3923	0.050103318
147	0xbd203151	-0.03910953
148	0xbd66ad24	-0.056317464
149	0xbd24c46b	-0.04022638
150	0x3d2a294d	0.041543294
151	0x3d89a229	0.06720383
152	0x3da44be8	0.080222905
153	0xbdf63a78	-0.12022871
154	0xbdeb109e	-0.11477779
155	0xbe2c714c	-0.16840094
156	0xbd873fc2	-0.06603958
157	0xbd903096	-0.07040517
158	0xbdf5aa99	-0.119954295
159	0xbe6780fc	-0.22607797
160	0xbe51b3cc	-0.20478743
161	0xbea0584a	-0.3131736
162	0x3de4139b	0.11136552
163	0x3da3b5f8	0.07993692
164	0x3e1af7e5	0.15133627
165	0xbdbca312	-0.09210791
166	0xbe8e51ed	-0.2779688
167	0x3ed29637	0.4113023
168	0xbaa83b03	-0.001283497
169	0x3c694184	0.014236812
170	0x3cf609de	0.030034002
171	0x3d5c084a	0.053718843
172	0xbc23545a	-0.009968841
173	0xbd879a41	-0.066212185
174	0xbda3a4d7	-0.07990425
175	0xbdad9fbd	-0.08477733
176	0xbd25034e	-0.040286355
177	0x3e345494	0.17610389
178	0x3c98bb9e	0.01864415
179	0x3da49b9c	0.08037493
180	0xbd4bd97f	-0.049767967
181	0xbd8e84d4	-0.06958929
182	0xbdca76f9	-0.098859735
183	0xbe111361	-0.14167549
184	0xbe1b496d	-0.15164728
185	0xbdf57f0e	-0.119871244
186	0xbef0bfa5	-0.47021213
187	0x3eefdafe	0.46846765
188	0xbe5a0d97	-0.21294247
189	0xbdb33ec4	-0.08752206
190	0xbd457fd7	-0.04821762
191	0xbce97a62	-0.02850074

weight f4 [64, 64, 1]
0	0xbbacbff9	-0.0052719084
1	0x3b9ea047	0.004840884
2	0x3d1b486a	0.037910856
3	0x3cf2b485	0.029627094
4	0x3cf7fdcc	0.030272387
5	0xbd82e2d9	-0.06390924
6	0x3cafd780	0.021465063
7	0x3d30857e	0.043096058
8	0x3b6e8c3c	0.0036399504
9	0xbbc881a1	-0.0061189686
10	0x3c5bd5f3	0.013417709
11	0xbd30c56e	-0.043157034
12	0xbd893ff5	-0.06701652
13	0xba8d6838	-0.0010788506
14	0x3c8f2d88	0.017477766
15	0x3d8cf6dc	0.06883022
16	0x3c4e21ca	0.012581298
17	0x3d8b6cda	0.06807871
18	0xbca63551	-0.020289095
19	0x3e76ea6f	0.24112867
20	0x3b073891	0.0020633081
21	0x3cebb00a	0.028770465
22	0x3cf6e9ed	0.030140841
23	0x3c38759a	0.011258507
24	0x3dd397cc	0.10331687
25	0xbe264785	-0.1623822
26	0x3d8855f6	0.06657021
27	0xbba8ff76	-0.0051574064
28	0xbc01fe5e	-0.007934181
29	0x3ba5124a	0.0050375806
30	0x3d682747	0.056678083
31	0x3e09b2c9	0.13447107
32	0xbb93c689	-0.004509751
33	0xbb59f833	-0.003325951
34	0x3c41da2f	0.011831804
35	0xbc90fac8	-0.017697707
36	0x3c979326	0.018502783
37	0x3cc0be97	0.02352838
38	0x3ddf76d4	0.109113365
39	0xba28bee9	-0.0006437139
40	0x3ba838b2	0.0051337117
41	0xbb0ba286	-0.0021306588
42	0x3cdbc862	0.026828948
43	0x3cdae132	0.02671871
44	0xbc38f67e	-0.011289237
45	0xbab629e4	-0.0013897982
46	0xbcd140f7	-0.025543673
47	0xbc05992e	-0.008154197
48	0x3e18b945	0.14914425
49	0x3c5898a6	0.013219988
50	0xbd66b305	-0.05632307
51	0x3da0748f	0.07834732
52	0x3ca056cf	0.019572644
53	0x3df9c8c7	0.12196498
54	0xbd50013c	-0.050782427
55	0xbebe91e1	-0.37220672
56	0x3ad415c0	0.0016180798
57	0x3bdd6646	0.0067565767
58	0x3c8ef0be	0.01744878
59	0xbd97cb48	-0.0741182
60	0x3d5119ed	0.051050115
61	0x3cf7f309	0.030267255
62	0xbe0f51df	-0.13996075
63	0x3ca4782a	0.02007683
64	0x3c436d80	0.011927962
65	0x3b78e0f2	0.0037975875
66	0x3c346cc1	0.011012257
67	0xbb569589	-0.0032742938
68	0xbb08e405	-0.0020887863
69	0x3b82f9d0	0.003997065
70	0x3ba5ac08	0.005055908
71	0x3b8b00ce	0.0042420393
72	0x3b36e753	0.0027908876
73	0x3b805d97	0.003917407
74	0x3d2fdc8e	0.042934947
75	0xbbb42691	-0.0054977615
76	0x3bd7038a	0.006561701
77	0x3b89d72f	0.00420656
78	0xbb06baa4	-0.0020558024
79	0x3c16d704	0.009206537
80	0xbb8228e3	-0.0039721592
81	0xbc860ca9	-0.016363459
82	0x3b0c3799	0.0021395443
83	0xbc6057c8	-0.013692804
84	0xbc257b6c	-0.010100227
85	0x3acb761a	0.0015522868
86	0xbac61768	-0.0015113177
87	0xbb1ed6ea	-0.0024236985
88	0x3d1c2bfd	0.038127888
89	0x3d1eb73a	0.038748957
90	0x3c1f5902	0.009725811
91	0x3be18a6c	0.0068829563
92	0xbc0cc914	-0.008592863
93	0xbb436bcb	-0.0029818888
94	0x3beb0433	0.0071721314
95	0xbd465f71	-0.048430864
96	0xba34f9b8	-0.0006903666
97	0x38d00dea	9.9208046e-05
98	0xba84e6a9	-0.0010139543
99	0xbb91bc47	-0.0044474932
100	0xbc7ab306	-0.015301472
101	0x3bd2f508	0.0064379014
102	0x3d4a2b24	0.04935755
103	0xbb1ca98d	-0.002390477
104	0x3a7a0cd0	0.00095386524
105	0x3b4d7139	0.0031348004
106	0xb86bbaab	-5.6202214e-05
107	0x3b58da01	0.0033088925
108	0xbc4ceffb	-0.012508388
109	0xba3953e5	-0.0007069691
110	0xbb3a6023	-0.002843865
111	0xb9b6548e	-0.00034776743
112	0x3d7f838c	0.062381312
113	0x3bb7c513	0.00560821
114	0xbc9b523e	-0.018960115
115	0x3b650f5d	0.0034951784
116	0xbbc79634	-0.0060909037
117	0x3b893c21	0.004188076
118	0x3ba5677a	0.0050477358
119	0xbd403848	-0.046928674
120	0xb990b39f	-0.00027599648
121	0x3ab8f369	0.0014110628
122	0xbb41f0de	-0.002959303
123	0x3c912c2d	0.01772126
124	0x3c7b8037	0.015350393
125	0xbb95f095	-0.0045757988
126	0x3d091fc0	0.033477545
127	0xbabd946b	-0.0014463788
128	0xbbb3f45e	-0.0054917773
129	0xbb2c6ae5	-0.0026308831
130	0x3c97e4af	0.018541662
131	0xbb28f4d2	-0.002578069
132	0xbc2ebcb0	-0.010665104
133	0xbc5d4563	-0.013505313
134	0xbb7e1785	-0.0038771343
135	0x3c191c66	0.00934515
136	0x3a4c4eae	0.00077937066
137	0xbb614ca5	-0.003437796
138	0xbc43e2ff	-0.011955976
139	0x3b32b2c7	0.0027267204
140	0xbcbb96d1	-0.022899063
141	0x3b250237	0.0025178322
142	0x39c12978	0.00036842725
143	0x3c84bfd2	0.016204748
144	0x3ac76a77	0.0015214224
145	0x3e32140d	0.17390461
146	0xbbd481f5	-0.0064852186
147	0xbe90ffd7	-0.2832019
148	0x3a081704	0.0005191418
149	0xbaf759cf	-0.001887137
150	0xb9888c18	-0.0002604432
151	0xbb39825d	-0.0028306462
152	0xbb482b30	-0.003054332
153	0xbbd87c94	-0.0066066477
154	0x3b762a15	0.0037561704
155	0xbc838436	-0.016054254
156	0x3bb274bd	0.005446045
157	0xbb13ae2b	-0.0022534232
158	0x3cf333f1	0.029687854
159	0x3d5dcd98	0.054151148
160	0x3b55376e	0.003253426
161	0xbb485b8b	-0.0030572142
162	0x3b02a8ab	0.001993696
163	0xbb8d97bb	-0.004321066
164	0x3c3bae30	0.011455104
165	0x3badeb4b	0.00530759
166	0x3c04199f	0.008062749
167	0x3ac5951a	0.0015074343
168	0x3bf92f7f	0.007604539
169	0xbaa5b9b2	-0.0012643842
170	0x3c805a21	0.015667977
171	0xbbdcddce	-0.0067403084
172	0x3c5c415f	0.01344332
173	0xbb6cf820	-0.0036158636
174	0x3d7d19b9	0.06179211
175	0xbbcff18a	-0.0063459324
176	0x3c7fb717	0.015607617
177	0x3bb754fa	0.005594847
178	0xbb8d7529	-0.004316945
179	0x3c6f2492	0.014596121
180	0x3d396e8e	0.04527145
181	0x3d4701e5	0.04858579
182	0xbc9ce96f	-0.019154279
183	0x3c91b900	0.01778841
184	0x3b6ae042	0.0035839234
185	0x3ab4f6aa	0.0013806422
186	0x3b448609	0.0029987118
187	0x3bb936e5	0.005652296
188	0x3c5dadd8	0.013530217
189	0x3bfc862e	0.007706425
190	0xbd8c5deb	-0.06853851
191	0x3c114421	0.008866341
192	0xbd6330f1	-0.055466596
193	0x3c361b08	0.011114843
194	0x3da8eb02	0.08247949
195	0xb915f880	-0.00014302321
196	0x3c984c92	0.0185912
197	0xbe061963	-0.13095622
198	0x3ba4d0de	0.0050297817
199	0x3cf2ab74	0.02962277
200	0xb9b977d4	-0.0003537523
201	0xbd5fa1aa	-0.054597534
202	0xbe0efae5	-0.13962896
203	0xbbc03f4a	-0.0058669196
204	0xbde609d8	-0.11232346
205	0xb98ed773	-0.00027244873
206	0x3c0277ce	0.007963134
207	0x3d17dba6	0.037074707
208	0x3bc8385b	0.0061102337
209	0xbcf1ccf8	-0.029516682
210	0xbcbf16ec	-0.02332636
211	0xbdd0a911	-0.10188497
212	0x39e7958c	0.00044171175
213	0xbcd68b92	-0.0261896
214	0x3cbcba1c	0.023037963
215	0x3c1dce6e	0.009631736
216	0x3bb5dafb	0.005549786
217	0xbe794cd0	-0.24345708
218	0x3d75482d	0.059883285
219	0xbaf66767	-0.0018799127
220	0x3b8c3ae2	0.0042794803
221	0x3ac61bce	0.0015114488
222	0x3dc624d3	0.096749924
223	0xbc3d4d87	-0.0115541285
224	0xbaa270ec	-0.0012393272
225	0x3b1200fc	0.0022278419
226	0x3c2ccb83	0.010546568
227	0xbc93b43d	-0.01803028
228	0x3dccb34f	0.09995138
229	0x3bffbc3b	0.0078044212
230	0xbd71b3a6	-0.059009217
231	0x3a8dce05	0.0010818845
232	0x3c95825d	0.018250639
233	0xbd874538	-0.06604999
234	0xbc387944	-0.011259381
235	0x3d27775b	0.04088531
236	0x3dd0e4c6	0.10199885
237	0xbaad8e9c	-0.0013241353
238	0xbc05b44d	-0.008160663
239	0xbc5db690	-0.013532296
240	0xbdf71aee	-0.12065683
241	0x3ccd295f	0.025044141
242	0x3b3d1616	0.0028852276
243	0x3d247723	0.04015268
244	0x3dd0d303	0.10196497
245	0x3ddb1d73	0.10698976
246	0xbd7e36e9	-0.062064085
247	0x3d68efa0	0.05686915
248	0xbacdb496	-0.0015694078
249	0xbabdbed6	-0.0014476429
250	0x3d207d85	0.039182205
251	0xbd61aaa3	-0.055094372
252	0x3c997bf5	0.018735865
253	0x3dbc09e0	0.09181571
254	0x3d661d29	0.056180153
255	0x3cc225a4	0.02369959

weight f4 [64]
0	0x3efd7062	0.49499804
1	0x3e00942a	0.1255652
2	0x3e780a3d	0.24222656
3	0x3ea32e3c	0.31871212
4	0x3dc6a6ab	0.09699758
5	0x3ea1e83c	0.31622493
6	0x3ee5a928	0.44855618
7	0x3e51700c	0.20452899
8	0x3e72c573	0.23708133
9	0x3e8e34e9	0.27774742
10	0x3e907c14	0.28219664
11	0x3ef094a4	0.46988404
12	0x3e9d631a	0.3073967
13	0x3e8be7da	0.27325326
14	0x3e8d57e0	0.27606106
15	0x3e0ba016	0.13635287
16	0x3d9a1e3c	0.07525298
17	0x3ee8ffd1	0.45507672
18	0x3d8f771b	0.070051394
19	0x3ee56f2e	0.44811386
20	0x3e34383b	0.17599575
21	0x3e99f6bb	0.30071053
22	0x3e895b62	0.26827532
23	0x3ec9c65e	0.39409155
24	0x3e9e175a	0.3087719
25	0x3ed51a4e	0.4162163
26	0x3e84310f	0.2581868
27	0x3e94b9c0	0.29047966
28	0x3e38337a	0.17988387
29	0x3e880c79	0.26572016
30	0x3ebb2e66	0.36558837
31	0x3e8aa379	0.27077845
32	0x3da2c71a	0.07948132
33	0x3eead1c5	0.45863166
34	0x3e18f7b8	0.14938247
35	0x3e042201	0.12903596
36	0x3e86cffc	0.26330554
37	0x3e655bd9	0.22398318
38	0x3dd6089d	0.104508616
39	0x3e71508a	0.2356588
40	0x3e322099	0.17395248
41	0x3ecadfd3	0.3962389
42	0x3ed9edba	0.42564183
43	0x3f01b43f	0.5066566
44	0x3e02189c	0.127047
45	0x3ea35177	0.3189809
46	0x3ef27718	0.47356486
47	0x3f12150a	0.57063353
48	0x3ee75164	0.45179284
49	0x3ee7fb6b	0.45309004
50	0x3ee33481	0.44375995
51	0x3e002ca1	0.12517025
52	0x3d8e5e50	0.069515824
53	0x3f2c5701	0.6732026
54	0x3e880102	0.2656327
55	0x3ebff4fe	0.37491602
56	0x3ec8aaab	0.3919271
57	0x3ededdd2	0.4352861
58	0x3ed24403	0.41067514
59	0x3ebf6920	0.37384892
60	0x3edf5efc	0.43627155
61	0x3e8ef773	0.27923164
62	0x3e2d28f6	0.16910157
63	0x3f1bead7	0.6090521

bias f4 [64]
0	0x3d2cfaf1	0.042231504
1	0x3c3196bb	0.01083916
2	0xbd515b7d	-0.05111264
3	0xbe05800c	-0.13037127
4	0xb9c5e88b	-0.00037748026
5	0xbd956b46	-0.072958514
6	0x3ceab0c9	0.02864875
7	0x3a77e465	0.00094563357
8	0xbde9a861	-0.11409069
9	0xbdbbaa2a	-0.091633156
10	0x3e0142e3	0.12623172
11	0xbe18d097	-0.1492332
12	0xbde7df0d	-0.113218404
13	0x3d1a6d1c	0.03770171
14	0xbdb1e6c5	-0.08686594
15	0xbdd33147	-0.10312133
16	0x374e892d	1.2310496e-05
17	0xbde15869	-0.11003191
18	0xba1467fd	-0.00056612474
19	0xbe065822	-0.13119557
20	0xbcf88fbf	-0.030341981
21	0xbdc80339	-0.0976624
22	0xbcc8d8ed	-0.0245175
23	0xbdfbfd3c	-0.1230416
24	0x3c372442	0.011178078
25	0xbe336637	-0.1751946
26	0xbd6a432d	-0.05719297
27	0xbdf37047	-0.118866496
28	0xbe58488f	-0.21121429
29	0xbba51723	-0.0050381585
30	0x3c9af76f	0.018916814
31	0xbd01e7e9	-0.031715307
32	0x3c07c3cd	0.008286429
33	0xbe818d73	-0.2530323
34	0xbdbde983	-0.092730545
35	0xbc7bf6ab	-0.015378634
36	0xbe8d394d	-0.2758278
37	0xbe1a49db	-0.15067236
38	0xbc5be8bd	-0.013422188
39	0xbd1ee54e	-0.0387929
40	0xbdb7f969	-0.08983118
41	0xbe02521d	-0.12726636
42	0x3db30f5c	0.08743164
43	0xbe859331	-0.2608886
44	0xbd2c2cf4	-0.04203506
45	0xbd8ec1c4	-0.069705516
46	0x3da33c7c	0.07970521
47	0xbeb075a2	-0.34464747
48	0xbe82dfdc	-0.25561416
49	0xbde838e4	-0.11338976
50	0xbe5f3ae3	-0.21799807
51	0x3d38b2a5	0.045092244
52	0xba92d812	-0.001120331
53	0xbe425a4b	-0.18979757
54	0x3c657cd9	0.014006817
55	0x3c8aa6ef	0.016925303
56	0xbcf92723	-0.03041417
57	0xbe1c4827	-0.15261899
58	0xbe1c7ad6	-0.15281233
59	0xbe399175	-0.18121894
60	0x3bdc37f7	0.0067205387
61	0xbd860407	-0.06543737
62	0x3cd09f65	0.02546663
63	0xbe785af2	-0.24253443

running_mean f4 [64]
0	0xbcce0227	-0.02514751
1	0x3b7f92d4	0.0038997428
2	0x3cdfd7f7	0.02732466
3	0xbc1ea015	-0.009681721
4	0x3c10d34b	0.008839439
5	0xbb9d91b8	-0.004808631
6	0xbd4398ce	-0.047753148
7	0xbcbb3186	-0.022850763
8	0xbbb7d525	-0.0056101256
9	0x3ca52a6b	0.020161828
10	0xbca6318d	-0.0202873
11	0xbd09735e	-0.03355729
12	0xbbd6c9c8	-0.006554816
13	0xbba9c3da	-0.005180818
14	0xba1e4073	-0.00060368254
15	0x3c527069	0.0128441835
16	0xbb0f068b	-0.0021823968
17	0xbc24efd6	-0.010066947
18	0xbb59f30b	-0.0033256437
19	0xbd41ca43	-0.047312032
20	0x3c0cea4d	0.008600784
21	0x3da67dcf	0.08129465
22	0xbd1475d4	-0.036245182
23	0x3aea2871	0.0017864836
24	0xbcb0906a	-0.021553237
25	0xbd1cdc85	-0.03829624
26	0x3b21350f	0.0024598276
27	0x3d0e40c4	0.034729734
28	0xba65c43b	-0.00087648974
29	0xbce43d2e	-0.027861204
30	0xbd151d62	-0.036404975
31	0x3b88ee17	0.004178773
32	0xba9ca1c4	-0.0011950065
33	0x3c66e38d	0.014092338
34	0xbbb5bc1d	-0.0055461065
35	0xbbb5bd29	-0.0055462313
36	0x3dab8bea	0.08376296
37	0x3c263f67	0.010146952
38	0xbb9ebd85	-0.00484437
39	0x3b81a1fc	0.0039560776
40	0xbaec3628	-0.0018021511
41	0xbc2b3f0e	-0.010452045
42	0xbba51d04	-0.0050388593
43	0xbd1729f5	-0.036905248
44	0xbcb5306c	-0.022117816
45	0x38af770a	8.366823e-05
46	0xbc51ed30	-0.012812898
47	0x3e001481	0.12507822
48	0x3d026ed1	0.031843964
49	0x3d39f0fc	0.045395836
50	0xbbb0c306	-0.0053943424
51	0xbb68a495	-0.003549849
52	0xbb5fe3bd	-0.0034162842
53	0x3d688939	0.05677149
54	0xbbd6996d	-0.0065490515
55	0xbd3f17aa	-0.046653427
56	0xbca93b1d	-0.02065807
57	0xbd78dbd4	-0.06075652
58	0x3c4d55bb	0.012532647
59	0x3c9aa437	0.018877132
60	0xbd3c102f	-0.04591387
61	0xbb682831	-0.0035424347
62	0xbc3093cb	-0.010777424
63	0xbd2fb299	-0.042894933

running_var f4 [64]
0	0x3c9da0c1	0.019241692
1	0x39d90808	0.0004139545
2	0x3bfff3e2	0.0078110555
3	0x3c1716f8	0.009221785
4	0x393ce057	0.0001801265
5	0x3bdc20d7	0.006717782
6	0x3cb822f3	0.022477603
7	0x3b7c7632	0.0038522598
8	0x3c38fe1b	0.011291052
9	0x3cd4ee2d	0.025992477
10	0x3b89ff90	0.0042113736
11	0x3b6c5761	0.0036062824
12	0x3b4475e0	0.0029977486
13	0x3c3a0789	0.011354336
14	0x3b86dd78	0.0041157566
15	0x39b349ca	0.00034196518
16	0x396b4d19	0.00022440068
17	0x3c0b8c88	0.008517392
18	0x385b14f6	5.223319e-05
19	0x3c42994d	0.01187737
20	0x3a8ea6eb	0.0010883486
21	0x3d02e745	0.031958837
22	0x3d1d85ee	0.038457803
23	0x3c98110e	0.01856282
24	0x3bbdf4f6	0.005797024
25	0x3c0e65c1	0.008691252
26	0x3b4ea684	0.0031532357
27	0x3c8561d6	0.016282003
28	0x3b84f4be	0.004057496
29	0x3d3d0cb0	0.046154678
30	0x3d34d2de	0.04414641
31	0x3c2273b8	0.009915285
32	0x39385535	0.0001757935
33	0x3ce782b2	0.028260563
34	0x3a14ba8c	0.00056735496
35	0x3ac5c474	0.0015088455
36	0x3cf968cc	0.030445479
37	0x3ca724f6	0.020403367
38	0x38a2ef3c	7.769323e-05
39	0x3a98b65e	0.0011651029
40	0x3ab46dd5	0.0013765643
41	0x3cfc3e4f	0.03079143
42	0x3d1a1b0d	0.037623454
43	0x3cfc3063	0.030784791
44	0x3b010652	0.0019687605
45	0x3c0387f1	0.008028016
46	0x3ceda554	0.029009499
47	0x3d92c310	0.071661115
48	0x3cb98e36	0.02265082
49	0x3b802814	0.0039110277
50	0x3bf9c8dd	0.0076228217
51	0x3a3688ed	0.00069631526
52	0x394531b0	0.00018805894
53	0x3d3db850	0.046318352
54	0x3bf25750	0.0073956624
55	0x3c05d49d	0.008168367
56	0x3c6034b2	0.013684439
57	0x3d2ff31b	0.042956453
58	0x3c402ca0	0.011729389
59	0x3c4dc393	0.012558836
60	0x3c350898	0.011049412
61	0x3c05aa61	0.008158297
62	0x3c854ee9	0.016272979
63	0x3c484f90	0.012226

weight f4 [64, 1, 1]
0	0xbd347138	-0.044053286
1	0x3cb599a9	0.022167997
2	0xbd12e561	-0.035863284
3	0x3d536245	0.05160739
4	0x3c7b7525	0.015347754
5	0xbcee7c85	-0.02911211
6	0x3aa44c73	0.0012534991
7	0x3cb3e333	0.021958923
8	0xbd0b8335	-0.034060676
9	0xbcfec6ae	-0.031100597
10	0xbd09c4a7	-0.033634808
11	0x3d121f4d	0.035674382
12	0x3cda03a8	0.026613072
13	0xbc902a01	-0.017598154
14	0x3d153ef2	0.036436982
15	0xbcf1fc6a	-0.029539306
16	0x3c2863a5	0.010277663
17	0x3ce5f61a	0.028071452
18	0xbbb6e2d0	-0.0055812374
19	0x3d13d827	0.03609481
20	0xbca83664	-0.020533748
21	0x3d2fdc2b	0.042934578
22	0xbd6698d1	-0.05629808
23	0xbd0d9f9f	-0.034576055
24	0xbd1ead17	-0.03873929
25	0x3d18b22c	0.037279293
26	0xb88c1587	-6.67973e-05
27	0x3d183a39	0.0371649
28	0xbba4a2ef	-0.005024306
29	0xbccbaf63	-0.024863904
30	0x3d966fc6	0.07345538
31	0xbd591391	-0.052997176
32	0xbcbf925e	-0.023385223
33	0xbd44e0df	-0.048066016
34	0xbcb5d45e	-0.022195991
35	0x3c29c36d	0.010361535
36	0xbd55f1b1	-0.052232448
37	0x3c652afb	0.013987298
38	0x3bd2a54e	0.0064283973
39	0xbd03391f	-0.032036897
40	0xbce73667	-0.028224183
41	0xbd9b57ee	-0.07585131
42	0xbdd094ab	-0.10184606
43	0x3d9a13a7	0.0752328
44	0xbc29cf33	-0.010364342
45	0x3ce39b4b	0.02778401
46	0xb02eb03c	-6.3551275e-10
47	0x3d1f4136	0.03888055
48	0xbd5f0d60	-0.054456115
49	0xbcde3135	-0.027123073
50	0x3d038660	0.03211057
51	0xbd07443d	-0.03302406
52	0xbc02aa00	-0.0079751015
53	0xbd5ccf50	-0.053908646
54	0x3c9c8e53	0.019110834
55	0x3d192468	0.037388235
56	0xbd037907	-0.032097843
57	0xbc922944	-0.017841943
58	0xbd89e60d	-0.06733332
59	0x3ce95a01	0.0284853
60	0xbd39a2e5	-0.045321364
61	0x3a2d89cb	0.0006619959
62	0xbc6a9c24	-0.014319453
63	0xbcdacc82	-0.026708845
